saves_concept/finger/domain_6/max_acc.pth (torch_old, 606194 bytes, 28 tensors)

encoder.encoder.0.0.weight f4 [64, 2, 3, 3]
0	0x3e193314	0.14960891
1	0xbc78e0c1	-0.015190304
2	0xbcc1c3ac	-0.023652874
3	0x3d583b3d	0.05279087
4	0x3e390751	0.18069197
5	0x3b6bd92e	0.0035987603
6	0xbd64b3ee	-0.055835657
7	0xbe113702	-0.1418114
8	0xbe5c4b06	-0.21512994
9	0x3dadf42a	0.08493836
10	0xbdcca6ce	-0.09992753
11	0xbc45c0bb	-0.012069876
12	0x3d8dfc3f	0.06932878
13	0xbe0d832d	-0.13819571
14	0x3dd0e853	0.10200562
15	0xbd359c56	-0.044338547
16	0x3cbb21e1	0.022843303
17	0xbd387952	-0.045037575
18	0xbd303789	-0.043021712
19	0xbd579a0f	-0.052637156
20	0x3e7a9826	0.24472103
21	0x3af4c06e	0.0018673071
22	0xbdb3c7ec	-0.087783664
23	0x3c199d74	0.009375919
24	0x3d2a4903	0.041573536
25	0x3e7ee217	0.24890934
26	0x3d65fdf8	0.056150407
27	0xbc4c4638	-0.012467913
28	0x3e47d2f8	0.19514072
29	0xbdf8a3e2	-0.12140633
30	0xbd260e66	-0.040541075
31	0x3cbfba2b	0.023404201
32	0xbe1a7909	-0.15085234
33	0x3d801f33	0.06255951
34	0xbddd0ae8	-0.10793096
35	0x3e38c213	0.18042783
36	0x3e4d9762	0.20077279
37	0xbdf47643	-0.11936619
38	0x3e1ae7d3	0.15127496
39	0xbe1f4e2b	-0.15557162
40	0xbe0b3df0	-0.13597846
41	0xbe04226c	-0.12903756
42	0x3cb30ed2	0.021857653
43	0x3d410e64	0.047132865
44	0x3c20b18e	0.009807957
45	0x3d435620	0.047689557
46	0x3c56ea64	0.0131174065
47	0xbe3f9c72	-0.18712023
48	0xbc8e755c	-0.017389946
49	0x3e3d19bf	0.18466853
50	0xbe365a55	-0.17807896
51	0xbe2c0928	-0.16800368
52	0x3d3c4ea0	0.04597342
53	0x3d664a08	0.056222945
54	0xbe61c9ee	-0.22049686
55	0x3e12735a	0.14301816
56	0xbdce00b3	-0.10058727
57	0x3da9cbf9	0.08290858
58	0x3db30933	0.08741989
59	0xbe41fafe	-0.18943402
60	0xbe20e684	-0.15712935
61	0x3e300f85	0.1719342
62	0x3e309439	0.17244042
63	0x3daa45ff	0.08314132
64	0xbe2fb787	-0.17159854
65	0xbd89be87	-0.06725793
66	0x3d384c46	0.044994615
67	0x3daff68e	0.085919484
68	0x3c5a46a1	0.013322503
69	0xbdb86cb0	-0.090051055
70	0xbe12515a	-0.14288846
71	0x3e5d936b	0.21638267
72	0xbe478d98	-0.19487607
73	0xbe3d932d	-0.18513174
74	0xbe46e6d7	-0.19423996
75	0xbd36a848	-0.04459408
76	0x3e03e73f	0.12881182
77	0x3d8e82af	0.0695852
78	0xbdb45f3d	-0.08807228
79	0x3de96abb	0.1139731
80	0xbe1f43d2	-0.15553215
81	0xbdea1f6a	-0.11431773
82	0x3ca1e135	0.019760707
83	0x3dd408e1	0.10353256
84	0x3e43b2ef	0.19111226
85	0xbd0fcfb2	-0.035110183
86	0x3d851e0a	0.0649987
87	0xbdc65be3	-0.09685495
88	0x3e2a8fdb	0.16656439
89	0xbe02d29d	-0.12775655
90	0xbc9344d3	-0.017977154
91	0x3e57f74e	0.21090433
92	0xbe42fbad	-0.19041319
93	0x3dd38ed3	0.10329976
94	0x3dcd6a08	0.100299895
95	0x3dad9c24	0.08477047
96	0xbe4a9e54	-0.1978696
97	0x3e3cdfde	0.18444774
98	0xbdb6d267	-0.0892685
99	0xbd65954a	-0.056050576
100	0xbafa7e9d	-0.001911122
101	0x3e0c8180	0.13721275
102	0xbe21b814	-0.15792876
103	0x3dfb5e8d	0.122738935
104	0xbcffb0ad	-0.031212175
105	0xbe1f3ec3	-0.15551285
106	0xbc1fe350	-0.009758785
107	0x3ce0b71e	0.027431067
108	0x3e13bcef	0.14427541
109	0x3e009e28	0.12560332
110	0x3e18f733	0.14938049
111	0x3e0496ec	0.12948197
112	0xbe4064ef	-0.18788503
113	0xbdbc4918	-0.09193629
114	0xbe2caf1d	-0.16863675
115	0x3d956d31	0.07296217
116	0x3de89a6f	0.11357581
117	0x3e43d2c0	0.19123363
118	0x3cf88bae	0.030340042
119	0xbdfd62f9	-0.12372393
120	0x3e1d1efb	0.1534385
121	0xbcdd0a46	-0.026982438
122	0x3e4e193f	0.20126818
123	0x3e17e854	0.1483472
124	0x3e28b9f8	0.16477191
125	0xbd26e4ce	-0.04074555
126	0x3e3e26a1	0.18569423
127	0xbc4dc00b	-0.012557994
128	0x3d0f5a43	0.03499819
129	0x3e2db78d	0.1696455
130	0x3e5381ac	0.20654935
131	0x3e524974	0.20535833
132	0x3d0da8f8	0.03458497
133	0xbcc55987	-0.024090542
134	0x3d197453	0.03746445
135	0xbd86b4fe	-0.0657749
136	0x3dcc74b9	0.099832006
137	0x3dcba05a	0.09942694
138	0xbd88c6ad	-0.066785194
139	0x3e14caed	0.14530535
140	0xbdf1dfcb	-0.11810263
141	0x3e4e0767	0.20120011
142	0x3e32baea	0.17454115
143	0xbd55d6ad	-0.052206684
144	0xbe0634f0	-0.13106132
145	0x3d8eedd5	0.069789566
146	0x3e7d5f11	0.24743296
147	0x3d8139f1	0.063098796
148	0x3ce2e0dc	0.027695112
149	0xbd6539f9	-0.05596349
150	0xbe51bae4	-0.2048145
151	0x3dbbdf56	0.09173457
152	0xbdf2822f	-0.11841237
153	0x3d2c2811	0.042030398
154	0xbdf4f96c	-0.11961636
155	0xbc9c0712	-0.01904634
156	0x3e096ef4	0.13421232
157	0xbdb1c0ce	-0.08679353
158	0xbcc5e6e3	-0.024157947
159	0x3d136588	0.0359855
160	0xbdfe292c	-0.12410197
161	0x3e2a6282	0.1663914
162	0xbd655a21	-0.055994157
163	0xbe278738	-0.16360176
164	0xbe416884	-0.18887526
165	0x3cb9e4dc	0.022692136
166	0xbc2ec6d0	-0.010667518
167	0x3e21f086	0.15814409
168	0xbe1be5dd	-0.15224405
169	0xbe379873	-0.17929249
170	0xbe4c8f77	-0.19976602
171	0x3d7036d9	0.058646057
172	0x3e32bca7	0.17454778
173	0x3dddea94	0.10835758
174	0x3e2de388	0.16981328
175	0x3d544591	0.051824156
176	0xbe36bec6	-0.17846212
177	0xbdb8ff76	-0.090331
178	0xbdb44241	-0.088016994
179	0x3de8cb79	0.11366934
180	0xbe5a82b8	-0.21338928
181	0xbe6031d8	-0.21894014
182	0xbe0a3329	-0.13496079
183	0x3e38ade9	0.18035091
184	0x3dadf522	0.08494021
185	0xbe44061a	-0.19142953
186	0x3e554ed8	0.20830858
187	0x3e4b993a	0.1988267
188	0xbd13b398	-0.036059946
189	0xbd337f1c	-0.043822393
190	0x3aead228	0.0017915415
191	0xbe0dd0c2	-0.13849166
192	0xbe2d9892	-0.16952732
193	0xbdb06908	-0.08613783
194	0xbe406d45	-0.18791683
195	0xbd579b8f	-0.052638587
196	0xbd43b136	-0.047776423
197	0xbd4842cb	-0.048891824
198	0xbcc911a5	-0.024544546
199	0xbd3f2a23	-0.046671044
200	0xbdc4f8ae	-0.096177444
201	0xbe001d9a	-0.12511292
202	0xbdd4a662	-0.103832975
203	0xbdf94887	-0.121720366
204	0xbdee10b5	-0.1162428
205	0xbe37329a	-0.17890397
206	0xbe42b8ee	-0.19015858
207	0x3e3141de	0.17310283
208	0xbe34a73d	-0.17641921
209	0x3d33f116	0.04393109
210	0xbbed39c2	-0.0072395513
211	0xbcfd28fb	-0.03090333
212	0xbd75906f	-0.059952196
213	0xbe2cd76e	-0.16879055
214	0xbdffd5f5	-0.12491981
215	0xbe4bdaa4	-0.19907624
216	0x3dce5ff1	0.10076893
217	0x3e37ac00	0.17936707
218	0x3dae9a53	0.08525529
219	0x3e15b187	0.14618503
220	0xbda6f3e5	-0.08151988
221	0xbd9ddb86	-0.077078864
222	0x3deca41d	0.115547396
223	0xbe135d66	-0.14391097
224	0x3c89174c	0.016734742
225	0x3da1bf76	0.078978464
226	0xbe44611a	-0.19177666
227	0x3ab29bf9	0.0013626806
228	0xbdc8acf7	-0.097986154
229	0xbdfadc66	-0.12249069
230	0xba091f43	-0.00052307936
231	0x3d8fb34b	0.07016619
232	0xbe0850df	-0.133121
233	0xbe115a9f	-0.14194725
234	0x3ddaafc7	0.10678058
235	0xbd33e2a3	-0.04391731
236	0xbe0daea4	-0.13836151
237	0xbe3ad76b	-0.18246238
238	0xbe258ab3	-0.16166191
239	0x3c900f5a	0.017585445
240	0xbc9f5a06	-0.019452106
241	0x3d819083	0.063263915
242	0xbdaa8453	-0.0832602
243	0xbd87932e	-0.06619869
244	0xbe42cf8f	-0.1902449
245	0x3dd775be	0.105205044
246	0x3e1be842	0.15225318
247	0xb8abea55	-8.197563e-05
248	0x3e03b426	0.1286169
249	0xbe3eb60d	-0.18624134
250	0x3dea6ba5	0.11446313
251	0xbe09f842	-0.13473609
252	0x3d1f644f	0.03891402
253	0x3e00eb3d	0.12589736
254	0xbdf3fa45	-0.119129695
255	0xbdb2c119	-0.08728237

encoder.encoder.0.0.bias f4 [64]
0	0xbc4299e9	-0.011877515
1	0xbd9993ea	-0.074989155
2	0xbc96cad9	-0.018407272
3	0xbe363745	-0.17794521
4	0x3e2fea9c	0.1717934
5	0xbd7c5b50	-0.06161052
6	0xbd67b349	-0.056567464
7	0xbd9411f7	-0.07229989
8	0xbdc4897f	-0.09596538
9	0x3e02815d	0.1274466
10	0x3e4ba9db	0.19889013
11	0xbe1b6db7	-0.15178572
12	0x3d9aff1c	0.075681895
13	0x3e12fcc1	0.1435423
14	0x3d91c4dd	0.07117627
15	0x3d9df55c	0.07712814
16	0x3b3b7cc5	0.0028608304
17	0xbc842f75	-0.01613591
18	0x3dcc7409	0.099830694
19	0xbde43947	-0.11143737
20	0x3dd6d3fb	0.10489651
21	0xbdcd06d3	-0.10011067
22	0xbe203a3d	-0.15647216
23	0x3d1c4728	0.038153797
24	0x3dc4ecf1	0.096155055
25	0x3dc6bf5a	0.09704466
26	0x3e443dc5	0.19164188
27	0xbe038266	-0.12842712
28	0xbdbc63d7	-0.091987304
29	0x3e2b6e65	0.16741331
30	0x3d2fea3f	0.042948004
31	0x3dd28f26	0.1028121
32	0x3d8437a7	0.06455927
33	0x3ae2407a	0.0017261647
34	0xbdbf65d8	-0.09345597
35	0xbe3155c9	-0.1731788
36	0xbda6ce92	-0.08144869
37	0xbe3de74b	-0.18545263
38	0x3dfe4237	0.12414973
39	0x3e1715fd	0.14754482
40	0x3d4a6767	0.04941502
41	0x3df7c0c3	0.12097313
42	0x3db48924	0.0881522
43	0xbe3e432d	-0.18580313
44	0x3dbf9d58	0.09356183
45	0xbe15cc69	-0.14628758
46	0xbe3ac33f	-0.18238543
47	0xbdcd9fae	-0.10040222
48	0x3e4f3511	0.20235087
49	0x3e294ff5	0.16534407
50	0xbd63be54	-0.055601433
51	0x3e084a07	0.13309489
52	0x3e319f3d	0.17345901
53	0xbe200aa0	-0.15629053
54	0xbd9bd114	-0.07608238
55	0x3e36cdd8	0.1785196
56	0xbd776370	-0.060397565
57	0xbe29c9f0	-0.1658094
58	0xbc22e77c	-0.0099428855
59	0x3deefac1	0.11668921
60	0x3c8452f4	0.016152836
61	0xbe49ac0d	-0.19694538
62	0xbe485926	-0.19565257
63	0x3d4550a8	0.048172623

encoder.encoder.0.1.weight f4 [64]
0	0x3f32462b	0.6963832
1	0x3f642586	0.89119756
2	0x3c88ff31	0.016723247
3	0x3f123b2e	0.5712155
4	0x3e00b5b6	0.12569317
5	0x3e08ea48	0.13370621
6	0x3f08eaf5	0.53483516
7	0x3e9d8ae7	0.30770037
8	0x3f3bb216	0.7331861
9	0x3f2d324c	0.6765487
10	0x3f46dded	0.7768238
11	0x3e30f1e8	0.1727978
12	0x3d0cae0c	0.03434567
13	0x3d1d6428	0.038425595
14	0x3e8b2066	0.27173156
15	0x3f679a44	0.90469766
16	0x3ed6c4da	0.4194706
17	0x3f36e1c7	0.7143826
18	0x3f3fe98d	0.74965745
19	0x3f5f8751	0.8731585
20	0x3e9a1a12	0.30098015
21	0x3d074f66	0.033034705
22	0x3e81022e	0.25196975
23	0x3f5c158f	0.85970396
24	0x3f28ae50	0.6589098
25	0x3d420cea	0.047375597
26	0x3ec349e8	0.38142323
27	0x3f20a7e3	0.62756175
28	0x3f5b3323	0.85624903
29	0x3f68e845	0.90979415
30	0x3f08bb50	0.53410816
31	0x3d58d8ef	0.05294126
32	0x3f021e92	0.50827897
33	0x3e37e9e2	0.17960313
34	0x3ed59c78	0.4172094
35	0x3effe408	0.49978662
36	0x3f4eaff7	0.8073725
37	0x3dd325b6	0.10309927
38	0x3f451546	0.76985586
39	0x3f34f766	0.7069
40	0x3f2ae862	0.6676084
41	0x3f1e95ad	0.6194714
42	0x3f596470	0.8491888
43	0x3ea5aa0b	0.32356295
44	0x3f08e0df	0.53468126
45	0x3f114229	0.5674158
46	0x3d9497e2	0.07255532
47	0x3dba1efe	0.090879425
48	0x3d02156a	0.031758703
49	0x3ef65fb4	0.4811989
50	0x3f39f394	0.72637296
51	0x3f54ba05	0.83096343
52	0x3f0c5f25	0.5483268
53	0x3f5aaa3e	0.8541602
54	0x3f67f37d	0.9060591
55	0x3ed2073e	0.4102115
56	0x3f209c28	0.62738276
57	0x3f4285a0	0.75985146
58	0x3f47b0d7	0.7800421
59	0x3f258073	0.6464912
60	0x3e016eaf	0.12639879
61	0x3dd94995	0.10609738
62	0x3eae5cc0	0.34055138
63	0x3e8a8bce	0.27059788

encoder.encoder.0.1.bias f4 [64]
0	0x3c9168ea	0.017750222
1	0xb9101df4	-0.00013744069
2	0xbb2f0aa5	-0.0026709225
3	0x3b42776a	0.0029673227
4	0xbbf8b511	-0.007589944
5	0x3b9ae912	0.004727491
6	0xb9f0ec1f	-0.0004595229
7	0xbc052eb9	-0.008128815
8	0x3c30955d	0.0107777985
9	0xbc8e3ad8	-0.017362043
10	0xbb29010f	-0.0025787984
11	0x3a841ca9	0.0010079342
12	0xbb756fdf	-0.0037450714
13	0xba95aa85	-0.0011418617
14	0x3b8e30dd	0.004339321
15	0x3d013f48	0.03155449
16	0x3a1be7c5	0.0005947317
17	0xbc16bb68	-0.009199955
18	0x39b49ff5	0.00034451453
19	0xbb973f9e	-0.004615738
20	0xbc02c40c	-0.0079813115
21	0x3affe425	0.0019522948
22	0x3c021371	0.0079392055
23	0x3b3639ad	0.0027805374
24	0xbc3ce8aa	-0.011530081
25	0x3bab5b57	0.0052293944
26	0x3d19847d	0.037479866
27	0xbc42cb7e	-0.011889337
28	0xbc001a2d	-0.007818741
29	0x3d3d99dc	0.04628931
30	0xbba8bd89	-0.0051495475
31	0xbc48bc25	-0.012251888
32	0xbbe1d8e5	-0.006892311
33	0x3b5d61af	0.0033780148
34	0xbb4fb7ea	-0.0031695315
35	0xbabf27a7	-0.0014583961
36	0x3915910e	0.00014263784
37	0x3c1a9b02	0.009436371
38	0x39507f1e	0.0001988378
39	0xbb20bae7	-0.0024525465
40	0xbc8b39f5	-0.01699541
41	0x3c78f5ed	0.015195352
42	0x3baf9730	0.005358599
43	0xba23f255	-0.0006254067
44	0x3bb3a2bb	0.0054820455
45	0xbba83e85	-0.005134406
46	0x39e0246b	0.00042751743
47	0xbb8a85b1	-0.004227363
48	0xbc5cd170	-0.013477668
49	0x3c96b1fe	0.01839542
50	0xbab30db3	-0.0013660699
51	0x3b0256b4	0.0019888105
52	0xbc21f8e4	-0.009886
53	0xbc49d26b	-0.012318234
54	0xbc629438	-0.013829283
55	0xbb8b78b9	-0.0042563346
56	0xbbe1d708	-0.006892089
57	0xbc5e9e61	-0.013587565
58	0xbbf78948	-0.007554207
59	0xbbe5406b	-0.0069962046
60	0xbbbc25f6	-0.00574183
61	0xbbb63990	-0.005561061
62	0xbba8530e	-0.005136854
63	0xb901feb1	-0.00012397279

encoder.encoder.0.1.running_mean f4 [64]
0	0xbd9592b8	-0.07303375
1	0x3e0a642a	0.13514772
2	0xbe333c00	-0.17503357
3	0xbe489d42	-0.19591239
4	0x3bc9311a	0.0061398866
5	0xbd192392	-0.037387438
6	0x3ee10650	0.4395013
7	0x3f0935b5	0.53597575
8	0xbdc80a84	-0.09767631
9	0xbd84560a	-0.06461723
10	0xbe8514c7	-0.25992414
11	0xbf67f890	-0.9061365
12	0xbd3a381f	-0.045463677
13	0xbdd1314c	-0.10214481
14	0x3df5543c	0.11978957
15	0x3da11be2	0.07866646
16	0x3e1603cf	0.1464989
17	0x3e214bd0	0.15751576
18	0xbcb826b8	-0.0224794
19	0x3e943cac	0.2895254
20	0xbe05acb9	-0.1305417
21	0x3e367519	0.17818107
22	0xbd44cc6f	-0.048046526
23	0xbb692230	-0.0035573356
24	0xbe09fbfd	-0.13475032
25	0xbe191a3e	-0.14951417
26	0x3e392694	0.18081123
27	0x3eaa8499	0.3330429
28	0x3ea0771f	0.31340882
29	0x3e21bf5c	0.15795654
30	0xbbb70fa6	-0.0055865822
31	0xbdc836d3	-0.09776082
32	0xbe914538	-0.28373122
33	0xbebccc8a	-0.368748
34	0x3d1f88dd	0.038948882
35	0x3ed87a88	0.42280984
36	0x3db77208	0.089572966
37	0x3d6c7000	0.057724
38	0x3d184611	0.037176196
39	0x3b77a578	0.0037787836
40	0xbf08d6b7	-0.5345263
41	0x3e5656de	0.20931575
42	0x3e43763b	0.1908807
43	0xbe640179	-0.22266187
44	0x3d685083	0.056717407
45	0xbdb5f86e	-0.08885275
46	0x3dfb5e51	0.12273849
47	0xbe69c696	-0.22829661
48	0xbed39d69	-0.41331032
49	0x3e3c914f	0.18414806
50	0xbe1462cc	-0.14490813
51	0x3c8f40ab	0.01748689
52	0x3d6037a1	0.05474055
53	0x3e0e97f1	0.13925149
54	0x3e87da0d	0.26533547
55	0x3ea1222d	0.31471387
56	0x3df2ba3b	0.11851927
57	0xbf05525b	-0.5207879
58	0xbe11c7e3	-0.14236407
59	0xbe7b840d	-0.24562092
60	0xbd9cf47e	-0.07663821
61	0x3c8275ee	0.015925374
62	0xbed1ca3e	-0.4097461
63	0xbe5b8963	-0.21439128

encoder.encoder.0.1.running_var f4 [64]
0	0x3a84925e	0.0010114422
1	0x3b8070ea	0.0039197104
2	0x3ac20a7a	0.0014804148
3	0x3a281df6	0.0006413156
4	0x3bc98f5d	0.0061511234
5	0x3af1ba65	0.0018442391
6	0x3c57e881	0.013177992
7	0x3ca4e29b	0.020127585
8	0x3a207f0b	0.00061224465
9	0x3c40fe86	0.011779433
10	0x3c701660	0.014653772
11	0x3cfc54a2	0.030802075
12	0x3be4884c	0.0069742557
13	0x3b933d2a	0.0044933753
14	0x3b33ea76	0.0027452982
15	0x3aa56e05	0.0012621289
16	0x3b9f6c8a	0.004865234
17	0x3b3fe9aa	0.0029283562
18	0x3b2c2764	0.0026268596
19	0x3c177d6f	0.009246214
20	0x3b811a1f	0.0039398815
21	0x3b916370	0.0044369027
22	0x3b10deaa	0.0022105374
23	0x3b5a7cdb	0.003333858
24	0x3c1c7c93	0.009551185
25	0x3b67ed5a	0.0035389275
26	0x3a2ddba7	0.0006632157
27	0x3c5e8a7a	0.01358282
28	0x3c2b19c0	0.010443151
29	0x3ae46354	0.0017424622
30	0x3b3f86af	0.0029224565
31	0x3b59818f	0.0033188795
32	0x3c47a30f	0.012184872
33	0x3bff34a8	0.0077882595
34	0x3b7c1468	0.0038464312
35	0x3c956649	0.01823725
36	0x3bee2c84	0.0072684903
37	0x3bea881d	0.0071573392
38	0x3a5df483	0.0008466916
39	0x3bad4e76	0.0052888943
40	0x3cc81988	0.024426237
41	0x3ad517b6	0.0016257677
42	0x3aa88ac5	0.0012858739
43	0x3b181632	0.0023206589
44	0x3b08aacf	0.0020853763
45	0x3b1b0f2a	0.0023660162
46	0x3bf9e651	0.007626333
47	0x3aafdd01	0.0013417305
48	0x3cab3932	0.020901296
49	0x3ac3ae05	0.0014929181
50	0x3aca935f	0.0015455297
51	0x3b89362a	0.004187365
52	0x3be646e8	0.0070274957
53	0x3c3c7438	0.011502318
54	0x3c93cd4b	0.018042227
55	0x3b63ae3c	0.0034741303
56	0x3b82c0d1	0.0039902707
57	0x3be41c6f	0.0069613974
58	0x3ae9d4a2	0.0017839859
59	0x3c1746e4	0.00923321
60	0x3ab9803b	0.0014152596
61	0x3b7d1d33	0.003862214
62	0x3b31eecc	0.002715039
63	0x3b821b0e	0.0039705103

encoder.encoder.1.0.weight f4 [64, 64, 3, 3]
0	0x3cd7dd51	0.02635065
1	0xbbfcf4f1	-0.007719629
2	0xba61e2c2	-0.00086168584
3	0xbcad0a70	-0.021123141
4	0xbd509554	-0.05092366
5	0x3cb41e9c	0.021987252
6	0xbd091595	-0.033467848
7	0xbd4c281e	-0.049842946
8	0xbc1e9fc8	-0.0096816495
9	0xbcd86446	-0.026415002
10	0xbcb5239a	-0.022111703
11	0x3cca9e05	0.024733553
12	0x3c86a5f0	0.016436547
13	0x3c56eb81	0.013117672
14	0x3b09935a	0.002099237
15	0xbca89ee0	-0.02058357
16	0xbc937e25	-0.018004486
17	0x3b8e3f2e	0.0043410277
18	0x3c886df6	0.016653996
19	0x3ae52949	0.0017483617
20	0xbcbb9c20	-0.022901595
21	0x3bbba153	0.0057260185
22	0x3caa5698	0.020793244
23	0xbcb8d39a	-0.022561837
24	0x3c9783a5	0.01849539
25	0x3cb749d8	0.022374079
26	0x3d0bedaa	0.0341622
27	0x3d133b8d	0.035945464
28	0xbcd69ff3	-0.026199317
29	0x3c0cd409	0.008595475
30	0x37496e72	1.2006249e-05
31	0xbd217ca7	-0.03942552
32	0xbd31dff2	-0.04342646
33	0xbc930d5d	-0.017950708
34	0x3c6e0012	0.014526384
35	0xbc505b46	-0.012717074
36	0x3c267f68	0.010162212
37	0xbc39ef00	-0.011348486
38	0xbb71b0cb	-0.0036879058
39	0x3a8d167f	0.0010764151
40	0x3c831661	0.016001882
41	0x3d050691	0.032476965
42	0x3cc3def5	0.023910025
43	0xbcaee408	-0.021348968
44	0x3cf3c80a	0.029758472
45	0x3cdf8787	0.027286304
46	0x3bc70c02	0.0060744295
47	0x3d00439b	0.031314474
48	0xbce4c076	-0.027923804
49	0x3cf64e70	0.030066699
50	0x3c89b290	0.016808778
51	0xbc8c3b47	-0.01711811
52	0x3cc9223a	0.024552453
53	0xbd174812	-0.036933966
54	0xbd01ac95	-0.031658728
55	0x3cfd0b05	0.030889044
56	0x3cab18fd	0.020885939
57	0x3cbf56db	0.023356846
58	0xbcd8eac8	-0.02647914
59	0xbc83704d	-0.01604476
60	0xbd121112	-0.03566081
61	0xbc8577c5	-0.016292462
62	0x3cf37835	0.029720405
63	0x3ce6111c	0.02808433
64	0x3ce3caf1	0.027806731
65	0x3a1c4424	0.00059610815
66	0xbc49d6b8	-0.012319259
67	0x3c8805fc	0.016604416
68	0x3c95da6c	0.018292628
69	0x3ac0a277	0.0014696856
70	0x3c07767e	0.008267997
71	0x3c61fc3d	0.013793048
72	0xbbbc780e	-0.0057516163
73	0x3d2c6622	0.04208959
74	0x3beb575f	0.0071820463
75	0x3c153992	0.009107964
76	0x3d36ad29	0.044598732
77	0x3d7d92be	0.061907522
78	0xbce295eb	-0.027659377
79	0x3c5c12b6	0.013432195
80	0x3d15d4fe	0.03658008
81	0x394d1f8f	0.0001956208
82	0xbc380eaa	-0.011233965
83	0xbd191ba4	-0.037379876
84	0x3bb3f4be	0.005491822
85	0xbca99d51	-0.020704897
86	0xbc9d4cd0	-0.019201666
87	0xbca01a37	-0.01954375
88	0xbcc9fad3	-0.024655735
89	0x3c84a890	0.016193658
90	0x3d3ee93d	0.046609152
91	0xbc39c6f8	-0.011338942
92	0x3d39eeaa	0.045393623
93	0x3c5277df	0.012845962
94	0xbcca177a	-0.024669398
95	0x3aa3a0b8	0.0012483811
96	0x3c572ae3	0.013132784
97	0x3d031f32	0.032012172
98	0xbc168102	-0.009186031
99	0x3c8fa2a7	0.017533613
100	0xbc1e5634	-0.009664107
101	0x3c812ff5	0.015769938
102	0xbc65aa8b	-0.014017711
103	0xbd079896	-0.0331045
104	0x3bde51e1	0.006784663
105	0xbca7a52c	-0.020464502
106	0xbc98a44c	-0.01863303
107	0xbcc182ec	-0.023621999
108	0x3cc8e811	0.02452472
109	0xbbc56612	-0.0060241306
110	0x3cf3bf70	0.02975437
111	0x3c9cae8f	0.019126205
112	0xbce047bb	-0.027377954
113	0x3cd8fb36	0.026486974
114	0x3c8574c9	0.016291039
115	0xbc0da5c5	-0.00864548
116	0xbc49ad28	-0.01230935
117	0x3c9d9e99	0.019240664
118	0xbd10b9cf	-0.03533345
119	0x3cb650a9	0.022255259
120	0x3c2674f7	0.0101597225
121	0x3be2ba10	0.006919153
122	0xbc7b32ae	-0.015331907
123	0x3c13d85d	0.009023753
124	0x3d15bcf3	0.03655715
125	0xbd09145a	-0.033466674
126	0x3c86c525	0.016451428
127	0xbc651379	-0.013981693
128	0xbad1887f	-0.0015986114
129	0x3d0afa63	0.033930194
130	0x3ba6f3e7	0.0050949934
131	0x3b5774de	0.0032876055
132	0x3a913eb3	0.0011081308
133	0x3cd784e9	0.026308494
134	0x3c6a4891	0.014299528
135	0x3c45af2f	0.012065693
136	0xbcf9e4f0	-0.030504674
137	0x3aa9ae74	0.0012945668
138	0xbcd447f6	-0.02591322
139	0xbd025470	-0.031818807
140	0xbd048be9	-0.03235999
141	0xbd31a4df	-0.043370124
142	0xbd0b4187	-0.03399804
143	0xbd1610c1	-0.03663707
144	0xbccb700e	-0.024833705
145	0xbd1967dd	-0.037452567
146	0xbc0a7260	-0.008450121
147	0xbd2169e5	-0.03940763
148	0xbcdf7527	-0.027277542
149	0x3c99405c	0.018707447
150	0xbcdc0c17	-0.026861234
151	0x3c8517fd	0.01624679
152	0x3c9fadf8	0.019492134
153	0xbc17a135	-0.009254743
154	0x3d0af539	0.03392527
155	0xbcc9b5b9	-0.024622785
156	0x3b052400	0.0020315647
157	0x3d06c6a3	0.03290428
158	0xbbc4a536	-0.00600114
159	0x3c8f7d56	0.01751582
160	0x3b211066	0.0024576425
161	0x3c4bcd3c	0.012439068
162	0x3c776c25	0.015101467
163	0x3c3d8b14	0.011568803
164	0xbc0b4095	-0.008499284
165	0xbd23953e	-0.03993725
166	0x3c682ed4	0.014171321
167	0xbd2cdd6d	-0.042203356
168	0xbc5a131a	-0.013310218
169	0x3cdcc4c4	0.026949294
170	0xbb91a4ee	-0.00444471
171	0x3c5afee0	0.013366431
172	0x3c3a97d2	0.011388736
173	0x3c46dd6b	0.012137751
174	0x3cdbfb9a	0.026853371
175	0x3c083cc6	0.008315271
176	0x3d24f93c	0.04027675
177	0x3ce4f55f	0.027949033
178	0xbcd99d00	-0.026564121
179	0x3c9b2858	0.018940136
180	0xbc6f2962	-0.014597269
181	0xbb8dac10	-0.00432349
182	0x3c29dfc9	0.010368296
183	0x3994965d	0.0002834079
184	0x3d048739	0.03235552
185	0x3c857b28	0.016294077
186	0xbc8c2c57	-0.017110987
187	0x3cad631d	0.021165425
188	0x3cd3cee5	0.025855491
189	0xbc7db9af	-0.015486165
190	0x3cef1536	0.029184919
191	0x39160906	0.00014308476
192	0x3d107da4	0.03527607
193	0x3c80d74c	0.015727662
194	0x3cee0e14	0.029059447
195	0x3c88c613	0.016696012
196	0x3c4a909c	0.012363579
197	0x3cb1562a	0.021647532
198	0x3c87cd08	0.016577259
199	0x3ced74cb	0.028986355
200	0xbc5ef5b5	-0.013608386
201	0x3bf26acb	0.0073979846
202	0x3c915834	0.017742254
203	0xbd097f9b	-0.03356896
204	0x3d1b7853	0.037956547
205	0xbad5eaf0	-0.0016320627
206	0x3d189c25	0.037258286
207	0xbcc28a35	-0.023747543
208	0x3be3d442	0.0069527933
209	0x3c89e977	0.016834958
210	0x3bd16aef	0.0063909213
211	0xbd21c63d	-0.039495695
212	0x3d1858dc	0.037194118
213	0xbc976140	-0.01847899
214	0x3c87053f	0.016481994
215	0xbcc2dc6d	-0.023786748
216	0x3c96531c	0.018350177
217	0xbcd7b2c6	-0.026330363
218	0x3b797cfe	0.0038068886
219	0xbcf4eba5	-0.02989752
220	0x3cd7fff3	0.026367163
221	0xbca517a4	-0.020152874
222	0x3d0437e0	0.03227985
223	0x3b8f79ee	0.004378549
224	0x3d012c77	0.031536546
225	0xbd0fac37	-0.035076346
226	0x3c94b670	0.0181534
227	0xbcb2c69b	-0.021823218
228	0x3cc8834a	0.024476666
229	0xbc86aef7	-0.016440852
230	0x3c1b045b	0.009461488
231	0x3cf83029	0.030296402
232	0x3d14afa9	0.036300335
233	0xbcf774ac	-0.030207
234	0x3c99ad7f	0.018759487
235	0xbcaa0a23	-0.020756787
236	0xbb8ef8e2	-0.0043631652
237	0x3c93fefa	0.018065918
238	0xbd1cce42	-0.03828264
239	0xbce90639	-0.02844535
240	0xbca8fad1	-0.020627411
241	0x3c129f8f	0.008949175
242	0xbbb02ee7	-0.005376685
243	0xbc23d0ff	-0.009998559
244	0x3c58a21d	0.013222245
245	0xbc4ebd08	-0.012618311
246	0xbd10fd31	-0.035397712
247	0xbc8bb5fd	-0.017054552
248	0x3c064f47	0.008197612
249	0xbcf6592a	-0.030071814
250	0xbc8fe1cb	-0.017563721
251	0x3c997013	0.018730199
252	0x3b43a65b	0.0029853794
253	0xba82d1b5	-0.000998071
254	0x3bdebe1d	0.0067975656
255	0x3c290d1a	0.010318065

encoder.encoder.1.0.bias f4 [64]
0	0xbd04f26c	-0.032457754
1	0xbd102078	-0.035187215
2	0xb95cfd24	-0.00021075137
3	0x3c62f3d3	0.013852078
4	0xbcea8e08	-0.028632179
5	0xbc9792a3	-0.018502539
6	0x3bff684d	0.007794416
7	0xbbf45b74	-0.007457191
8	0xbcfec030	-0.031097502
9	0x3c22de13	0.009940642
10	0xbc9efbc2	-0.019407157
11	0x3c3d9469	0.011571028
12	0x3c0684ee	0.008210404
13	0x3d11c8a5	0.03559174
14	0xbc96daa0	-0.018414795
15	0x3c38964d	0.011266303
16	0x3bb65917	0.0055648196
17	0xbb4b5f3b	-0.0031032104
18	0xbc1284cb	-0.008942793
19	0xbd146a56	-0.036234222
20	0xbc014e1c	-0.007892158
21	0xbc2bd34e	-0.010487391
22	0xbce76474	-0.028246142
23	0x3cfa6ee3	0.030570453
24	0xbca2d73e	-0.019878026
25	0x3c3a7684	0.011380795
26	0xbc906d53	-0.017630255
27	0x3c1ccbfc	0.009570118
28	0x3d09e0ce	0.033661656
29	0x395e1640	0.00021179859
30	0x3cb697d1	0.022289189
31	0x3d0e7af7	0.034785237
32	0xbac96a07	-0.0015366682
33	0xba9e2b85	-0.0012067413
34	0xbd06ee5a	-0.032942154
35	0x3cc81d0d	0.024427915
36	0xbd142a4a	-0.036173142
37	0xbd098567	-0.033574488
38	0x3bc95706	0.006144407
39	0x3c9451e0	0.018105447
40	0xbcdd2979	-0.026997315
41	0xbc5fd53b	-0.013661678
42	0xbc9b3094	-0.018944062
43	0x3b5bec63	0.0033557646
44	0xbb808c71	-0.003922992
45	0xba454dfd	-0.0007526575
46	0xbca1e2db	-0.019761493
47	0x3c9b68cb	0.018970868
48	0xbcb61930	-0.022228807
49	0xbc0c5723	-0.008565697
50	0x3cee045d	0.029054815
51	0x3cb46b0f	0.022023706
52	0xbc5f9f80	-0.013648868
53	0xbc9f57e9	-0.019451099
54	0x3b8d310c	0.0043088254
55	0xbd17c807	-0.037055995
56	0xbbebab64	-0.007192062
57	0xbce1cc4d	-0.027563239
58	0x3d0baaa3	0.03409828
59	0x3ca45c9a	0.020063687
60	0xbd13fabd	-0.036127795
61	0xbc99c1fa	-0.018769253
62	0x3ba67775	0.0050801584
63	0x3cb1fb87	0.021726383

encoder.encoder.1.1.weight f4 [64]
0	0x3f4f3f8f	0.8095636
1	0x3f356513	0.7085735
2	0x3eb9055d	0.36136904
3	0x3f54cf45	0.8312877
4	0x3f0ea91f	0.5572681
5	0x3ed243ea	0.4106744
6	0x3f10a523	0.5650198
7	0x3f39a281	0.72513586
8	0x3f0ec6a1	0.55771834
9	0x3e8d627e	0.27614206
10	0x3e5babc3	0.2145224
11	0x3dcc3116	0.099703
12	0x3f54191f	0.8285083
13	0x3ea68025	0.32519642
14	0x3f45f2e5	0.7732375
15	0x3ec3c08d	0.38232842
16	0x3c304e68	0.010760881
17	0x3d6eb309	0.05827621
18	0x3f05907c	0.5217359
19	0x3dfef37c	0.12448785
20	0x3ecf5909	0.40497616
21	0x3e9278bb	0.28607735
22	0x3e9f8d5e	0.31162542
23	0x3e76b1cb	0.2409126
24	0x3f276846	0.65393484
25	0x3eaf6773	0.34258613
26	0x3cd14d01	0.025549414
27	0x3d56d1f9	0.05244634
28	0x3f19d989	0.6009756
29	0x3f08139d	0.5315493
30	0x3e0a3b06	0.13499078
31	0x3e3cb5c0	0.18428707
32	0x3f504da3	0.81368464
33	0x3c96f981	0.01842952
34	0x3f0d13e6	0.5510849
35	0x3f424c18	0.7589736
36	0x3f534984	0.8253405
37	0x3f4e8043	0.8066446
38	0x3f524cca	0.8214842
39	0x3f39f658	0.72641516
40	0x3efdc944	0.49567616
41	0x3f0cc7b7	0.5499224
42	0x3e620f39	0.2207612
43	0x3f232f7b	0.63744324
44	0x3f16a92a	0.58851874
45	0x3f2114cc	0.6292236
46	0x3ea27f44	0.3173772
47	0x3d3c23bf	0.045932528
48	0x3e8382ab	0.2568563
49	0x3f456847	0.7711224
50	0x3f33d0f9	0.7024074
51	0x3f15a015	0.5844739
52	0x3f346efa	0.70481837
53	0x3f5a0a83	0.8517229
54	0x3ef47b18	0.47750163
55	0x3f41cdd7	0.7570471
56	0x3f481745	0.78160506
57	0x3ed2f65d	0.41203585
58	0x3db25a03	0.087085746
59	0x3f5d053c	0.8633611
60	0x3da30373	0.07959642
61	0x3ec745a3	0.38920316
62	0x3f2102ed	0.6289509
63	0x3e120620	0.14260149

encoder.encoder.1.1.bias f4 [64]
0	0x3afb4559	0.0019170447
1	0xbd1e7fcb	-0.03869609
2	0xbb712ff3	-0.0036802262
3	0x3c86284f	0.016376643
4	0xb8997ae8	-7.3185016e-05
5	0xbd176603	-0.03696252
6	0xbc93a78e	-0.018024232
7	0xbd2048a3	-0.03913177
8	0x3c86d35c	0.016458206
9	0x3b3b1297	0.0028545016
10	0xbacb8edd	-0.0015530247
11	0xbbf2549f	-0.0073953415
12	0xbd49eabf	-0.049296137
13	0xbbc436d1	-0.00598798
14	0x3a9525ce	0.0011379065
15	0xb967f09e	-0.00022119514
16	0xbaf9bb1e	-0.0019052958
17	0x3c28769c	0.010282185
18	0xbbeb640b	-0.007183557
19	0xbbca8423	-0.0061803027
20	0x3b109ccc	0.0022066114
21	0xbc4f5fd1	-0.012657122
22	0xbc027926	-0.007963454
23	0xba1cb95a	-0.0005978547
24	0x3c37be6c	0.011214834
25	0xbb8eea4e	-0.0043614274
26	0xbb379bf8	-0.0028016549
27	0xbba80bb5	-0.0051283487
28	0xbd00d5dc	-0.031453952
29	0xbc2961f2	-0.010338293
30	0xbaaed58e	-0.0013338791
31	0x3ab8d924	0.0014102799
32	0xbc8f0215	-0.017457047
33	0xbc07ddee	-0.008292658
34	0xba9909cc	-0.0011675893
35	0xbc494c87	-0.012286312
36	0xbc5c76a0	-0.013456017
37	0xbc98beb1	-0.018645616
38	0xbc73c9b6	-0.014879635
39	0xbb487d5c	-0.0030592298
40	0xbd3a3147	-0.04545715
41	0xbbb6e8e7	-0.0055819633
42	0xb779e3bc	-1.489458e-05
43	0xbcf0bd83	-0.029387241
44	0xbc34b33d	-0.011029062
45	0xbbd55a90	-0.00651104
46	0xbc1e3f13	-0.009658593
47	0xbaef307d	-0.0018248704
48	0xbb15e227	-0.0022870393
49	0xbc643731	-0.013929174
50	0xbcb1c92f	-0.021702377
51	0xbc1c1391	-0.009526149
52	0xbb4d609b	-0.00313381
53	0x3b631cdb	0.003465465
54	0x3c407fc5	0.011749213
55	0xbc3541c7	-0.011063046
56	0x3baa23f3	0.0051922738
57	0xbbff6cad	-0.0077949376
58	0x3aa0c5ab	0.0012265941
59	0xbc685ff4	-0.014183033
60	0xbb83cb48	-0.0040220357
61	0xbc62c388	-0.013840564
62	0xbc2580c9	-0.010101506
63	0xbb58f971	-0.0033107663

encoder.encoder.1.1.running_mean f4 [64]
0	0xbe62e1d7	-0.22156464
1	0x3e7d53e3	0.24739031
2	0xbe7c26dc	-0.24624199
3	0xbed4c855	-0.4155909
4	0xbf097e95	-0.53708774
5	0x3ea4e704	0.322075
6	0xbebc4975	-0.36774793
7	0x3f2972c3	0.6619074
8	0xbe206cf6	-0.15666565
9	0xbca174ca	-0.01970901
10	0xbe79f1f6	-0.24408707
11	0xbe68e0f7	-0.22742067
12	0x3e08249f	0.1329522
13	0x3d03948e	0.032124095
14	0xbe80a7c4	-0.25127995
15	0x3e6eec63	0.23332362
16	0x3dbda148	0.092592776
17	0x3de8bbf2	0.11363973
18	0xbf04e97a	-0.51918757
19	0xbeae17fc	-0.34002674
20	0xbeb887d8	-0.3604114
21	0x3da76884	0.08174232
22	0x3ed55ef9	0.4167402
23	0x3dfedf05	0.12444881
24	0xbf78673c	-0.97032523
25	0xbe399d8e	-0.18126509
26	0xbd8af370	-0.06784713
27	0xbe44baee	-0.19211933
28	0x3e88f66c	0.26750505
29	0x3ea56eb0	0.3231101
30	0xbdd8ee2b	-0.10592302
31	0xbe89d849	-0.26922825
32	0xbe48453a	-0.19557658
33	0xbe070bda	-0.13188115
34	0xbeb0d72c	-0.34539163
35	0xbef907a3	-0.4863864
36	0xbde9c8ae	-0.1141523
37	0xbe7633b1	-0.24043156
38	0x3c65a63f	0.014016687
39	0x3cbd631d	0.02311855
40	0xbf3cfd13	-0.7382366
41	0xbe3b462a	-0.18288484
42	0xbd035a73	-0.03206868
43	0x3ec548d0	0.38532114
44	0x3e9e827d	0.3095893
45	0xbe1f574d	-0.15560646
46	0x3e7054eb	0.23469894
47	0xbe299bf4	-0.16563398
48	0xbcde19aa	-0.027111847
49	0xbe6b1902	-0.22958758
50	0xbefe1e8d	-0.49632683
51	0x3e01ee65	0.12688597
52	0xbf099f04	-0.53758264
53	0xbe8e5c4b	-0.2780479
54	0xbe4e21cd	-0.20130081
55	0xbf0e2c94	-0.5553677
56	0xbf111dca	-0.5668608
57	0xbd817c9e	-0.06322597
58	0x3e0697dd	0.13143869
59	0xbd1d4520	-0.038396
60	0xbed35fc4	-0.41284
61	0x3e990491	0.29886296
62	0xbdc1ba31	-0.09459341
63	0x3ec1c602	0.3784638

encoder.encoder.1.1.running_var f4 [64]
0	0x3e21e9aa	0.15811792
1	0x3ebd757b	0.37003693
2	0x3da420b0	0.08014047
3	0x3e5830b2	0.21112326
4	0x3e29b7ff	0.16574095
5	0x3eb69e85	0.35667816
6	0x3e9a0ed4	0.30089438
7	0x3edef3f5	0.435455
8	0x3d7f19a6	0.06228032
9	0x3d2cff0c	0.04223542
10	0x3d6a4852	0.057197876
11	0x3d461463	0.048359286
12	0x3f139d7c	0.5766218
13	0x3dc090b3	0.09402599
14	0x3e0a47bd	0.13503928
15	0x3dc6da53	0.09709611
16	0x3d38114f	0.04493838
17	0x3d459dcd	0.048246194
18	0x3e44b44c	0.19209403
19	0x3da6399c	0.08116457
20	0x3dbf6ae2	0.09346558
21	0x3e0f602d	0.14001532
22	0x3dc31ad1	0.09526599
23	0x3d624c35	0.055248458
24	0x3e34fff8	0.1767577
25	0x3db0f421	0.08640314
26	0x3cd2ef2e	0.025748815
27	0x3d057eec	0.032591745
28	0x3e829a93	0.25508556
29	0x3dfc7de2	0.12328698
30	0x3d1034c6	0.03520658
31	0x3db9928a	0.09061153
32	0x3e98fc1b	0.2987984
33	0x3cd4d95e	0.025982555
34	0x3ea1488e	0.31500667
35	0x3ee01f19	0.43773726
36	0x3e255324	0.16144997
37	0x3e55c9d1	0.20877768
38	0x3e904a12	0.2818151
39	0x3e63bd04	0.22240072
40	0x3e9c190d	0.30487862
41	0x3db1c5a7	0.08680277
42	0x3d1ef8aa	0.038811363
43	0x3e83fafa	0.25777417
44	0x3e3be7f2	0.18350199
45	0x3e279c01	0.16368105
46	0x3dbbe708	0.09174925
47	0x3d29340a	0.041309394
48	0x3da91eca	0.08257826
49	0x3e3509a0	0.17679453
50	0x3e3c453e	0.18385789
51	0x3db9c7d4	0.09071317
52	0x3e37309f	0.17889641
53	0x3e3ae745	0.18252285
54	0x3d45ffea	0.04833976
55	0x3e36fd83	0.17870145
56	0x3e178356	0.14796194
57	0x3d6ff460	0.058582664
58	0x3cd398bd	0.025829667
59	0x3ea27dbd	0.31736556
60	0x3dc42a41	0.09578372
61	0x3e434e1c	0.19072765
62	0x3e345469	0.17610325
63	0x3d364a47	0.04450443

encoder.encoder.2.0.weight f4 [64, 64, 3, 3]
0	0xbc65dda1	-0.014029891
1	0x3d00163f	0.031271216
2	0xbc138102	-0.009002926
3	0xbbb6c2ea	-0.005577435
4	0x3cd4ffa7	0.02600081
5	0xbbba0157	-0.0056764293
6	0xbc2fa77b	-0.010721083
7	0x3cbb339b	0.022851756
8	0xbbe658a9	-0.007029612
9	0x3c83d3ea	0.01609226
10	0xbc4b1028	-0.012393989
11	0xbb809b6d	-0.003924778
12	0x3cde5b1b	0.027143052
13	0xbb2cb885	-0.00263551
14	0x3aa2670b	0.0012390328
15	0x3cd2e05a	0.025741745
16	0xbc24814b	-0.0100405915
17	0x3c8cb947	0.01717819
18	0xbb6506df	-0.0034946722
19	0x3cdf6256	0.02726857
20	0x3cabde27	0.020979954
21	0xbcd91b5d	-0.026502306
22	0xbd04a66b	-0.03238527
23	0xbce81967	-0.028332425
24	0xbca1ecf0	-0.0197663
25	0xbc07d2b6	-0.0082899835
26	0xbd2153c1	-0.039386515
27	0x3ccecef8	0.025245175
28	0xbc718175	-0.014740338
29	0x3b7731e4	0.0037718946
30	0x3c9e71ae	0.019341316
31	0x3abe21a1	0.0014505872
32	0x3d00e5c9	0.03146914
33	0xbbe6ed14	-0.007047305
34	0x3ca1d9a5	0.019757101
35	0x3d014a10	0.031564772
36	0xbcf61097	-0.030037208
37	0x3b99860e	0.00468517
38	0xbc469c10	-0.012122169
39	0xbacc32b6	-0.0015579078
40	0xbceda0e8	-0.02900739
41	0x3cf5e76a	0.030017573
42	0xbcc9e4d9	-0.024645256
43	0x3ce4c9a3	0.02792818
44	0xbcee54ea	-0.029093225
45	0xbb9265f7	-0.0044677216
46	0x399466c0	0.00028305314
47	0xbc1e82a1	-0.009674699
48	0x3d191feb	0.037383955
49	0xbc7c8742	-0.015413107
50	0x3c682394	0.014168639
51	0xbcac3741	-0.02102244
52	0xbc423436	-0.011853268
53	0xbbdd1b9a	-0.006747675
54	0x3cb04742	0.021518353
55	0xbd156235	-0.03647061
56	0xbcd2ce41	-0.025733115
57	0x3cba6988	0.0227554
58	0x3c3ed8ef	0.011648401
59	0x3c7b1f0e	0.015327228
60	0xbbac12ca	-0.0052512633
61	0x3d09f23a	0.03367827
62	0xbc70c3d7	-0.014695129
63	0x3d1ff170	0.039048612
64	0xbc198d7f	-0.009372114
65	0x3d17c5a7	0.03705373
66	0xbc074907	-0.008257157
67	0x3ce0be90	0.027434617
68	0x3a9d49d9	0.0012000158
69	0x3cbe06f7	0.02319668
70	0x3cfcf7f5	0.030879954
71	0x3c9d5286	0.01920439
72	0xbbbcb9e3	-0.005759464
73	0xbc098cfd	-0.008395431
74	0xbc8ab5c7	-0.016932381
75	0x3cd09dc0	0.025465846
76	0xbca12015	-0.019668618
77	0xbd065902	-0.03279973
78	0xbcb47e7d	-0.02203297
79	0xbcebf1ae	-0.028801765
80	0x3cff89a0	0.031193554
81	0xbd18810e	-0.03723245
82	0xbbf62887	-0.0075121555
83	0xbce03c5e	-0.027372535
84	0xbcf03664	-0.02932281
85	0xbd004455	-0.031315167
86	0x3cc83492	0.02443913
87	0x3c855014	0.016273536
88	0x3c898a1e	0.016789492
89	0x3c1a874d	0.009431672
90	0xbcdc21a4	-0.02687151
91	0xbcefb6f2	-0.02926204
92	0xbb9327ba	-0.0044908198
93	0xbc158a86	-0.009127265
94	0x3ae5c515	0.0017530048
95	0xbb86c9b7	-0.0041134018
96	0x3d009af8	0.03139779
97	0x397bb89b	0.00024005996
98	0xbc13da65	-0.009024237
99	0x3c1edf85	0.009696846
100	0x3beb3c53	0.007178822
101	0x3c89f73a	0.01684152
102	0x3be73309	0.0070556444
103	0xbce08d0c	-0.027411006
104	0xbcfb5b8a	-0.030683298
105	0xbb6896db	-0.0035490307
106	0x3b7d6453	0.0038664534
107	0xbcfc5e77	-0.030806763
108	0x3c038858	0.008028112
109	0xbce5a2a2	-0.02803165
110	0xbc1b06b5	-0.009462048
111	0xbc9207b5	-0.01782594
112	0xbcbccaba	-0.023045886
113	0xbcc741d1	-0.024323376
114	0xba2bd856	-0.0006555369
115	0x3c96c087	0.018402351
116	0xbc4e3857	-0.012586675
117	0x3cc3ef39	0.023917781
118	0xbc0a5701	-0.008443595
119	0x3abc88c4	0.0014384021
120	0x3c27aa37	0.0102334535
121	0x3d10a74b	0.035315793
122	0xb9e47b58	-0.00043579447
123	0x3bf2c9b4	0.007409299
124	0x3b799e66	0.0038088798
125	0x3c9b9f19	0.018996762
126	0xbd0e74f6	-0.03477951
127	0x3cfae176	0.030625086
128	0xbd01abbb	-0.031657916
129	0xbd0577b0	-0.032584846
130	0x3c52c9be	0.012865482
131	0x3c98c3e7	0.018648101
132	0x3cfe01f6	0.031006794
133	0x3d28d4ce	0.04121857
134	0xbcb6fdd6	-0.022337835
135	0x3d06fbd1	0.032954995
136	0xbd1225e7	-0.035680678
137	0xbac46f91	-0.0014986863
138	0xbb17f020	-0.0023183897
139	0xbc83ad42	-0.016073827
140	0x3ce9c56f	0.028536526
141	0x3d0229ca	0.031778134
142	0x3bd1b137	0.0063992995
143	0x3ccdd589	0.025126236
144	0x3bcd5a5a	0.0062668743
145	0xbc1fae89	-0.009746202
146	0x3cdf422f	0.027253238
147	0x3cf59997	0.029980464
148	0x3cd228c4	0.025654204
149	0x3b09c203	0.002102018
150	0x3d15c35e	0.03656327
151	0xbce53c9f	-0.027983008
152	0xbcef4fde	-0.029212888
153	0xbc1684f4	-0.009186972
154	0xbc2ccf58	-0.0105474815
155	0x3bd00e50	0.0063493624
156	0xbca9b62c	-0.02071675
157	0x3c9853da	0.018594671
158	0x3d040007	0.03222659
159	0x3a016cf2	0.00049371936
160	0x3c42042d	0.011841816
161	0x3cfb891e	0.030705031
162	0xbd00bd66	-0.031430624
163	0xbcb9990d	-0.022655988
164	0xbcb1aa5c	-0.021687679
165	0x3c89a53f	0.016802428
166	0xbbdec327	-0.0067981663
167	0x3ca1aacf	0.019734768
168	0x39ccbf31	0.0003905236
169	0xbc895902	-0.016766075
170	0x3ba203dd	0.004944308
171	0xbd07f683	-0.033194076
172	0x3ccd074c	0.025027893
173	0x3cb008f5	0.021488646
174	0xbce6325f	-0.02810019
175	0x3cec794e	0.028866436
176	0xbd1078c6	-0.03527143
177	0xbba813e7	-0.0051293257
178	0xbc6109e6	-0.01373527
179	0xbcf23f33	-0.029571151
180	0x3c227f25	0.009918009
181	0x3a96fddd	0.0011519749
182	0xbb5267d6	-0.0032105348
183	0xbc7ae87c	-0.015314218
184	0x3d0c720e	0.03428846
185	0x3b54dbb5	0.0032479588
186	0x3b2597b3	0.0025267422
187	0xbcb552c5	-0.022134194
188	0xbaa48196	-0.0012550827
189	0x3c38dbf1	0.011282907
190	0xbbbbd70b	-0.005732422
191	0xbc131104	-0.008976225
192	0x3d00fa71	0.03148884
193	0x3c9dd6b9	0.019267427
194	0x3cc4eae9	0.024037795
195	0xbaf79cda	-0.001889135
196	0x3ce06f71	0.02739689
197	0xbcf5bde7	-0.029997779
198	0x3c00ae06	0.00785399
199	0xbcf738c6	-0.030178439
200	0x3d03f4a1	0.03221572
201	0x3c51e250	0.012810305
202	0x3cdd2fe0	0.027000368
203	0x3cdc8c44	0.026922353
204	0x3cd2f3bd	0.02575099
205	0xbcfce2d0	-0.030869871
206	0xbcd6a837	-0.026203258
207	0x3d1950b7	0.03743049
208	0xbcb9cd03	-0.022680765
209	0xbca54103	-0.020172602
210	0xbcfc68d4	-0.030811705
211	0xbcdf9611	-0.027293237
212	0x3c097a77	0.008391014
213	0x3b42bd50	0.002971489
214	0x3b64343e	0.0034821178
215	0xbc9ae73a	-0.018909086
216	0xbd246f30	-0.0401451
217	0x3c7bd7ad	0.015371245
218	0x3b9e7f9e	0.0048369905
219	0x3cf5e966	0.03001852
220	0xbd01b672	-0.031668134
221	0x3cb74c37	0.02237521
222	0xbc6b257b	-0.014352198
223	0xbc6e2c61	-0.014536948
224	0xbbe1496d	-0.006875208
225	0xbc457b90	-0.012053385
226	0xbce8975c	-0.028392486
227	0xbcba7e4e	-0.022765305
228	0x3d087708	0.033316642
229	0xbd09cac1	-0.033640627
230	0x3b8d1f2b	0.004306694
231	0xbd028185	-0.0318618
232	0xbc4cd10b	-0.012501012
233	0xbce42994	-0.027851857
234	0x3b5a87fb	0.003334521
235	0x3d171e63	0.036894213
236	0x3c201817	0.0097713685
237	0xbcdd8ea0	-0.027045548
238	0x3c80bac4	0.015714057
239	0x3cd426d0	0.025897413
240	0x3c32c418	0.01091101
241	0xbce3f45b	-0.027826479
242	0xbc90e882	-0.017688993
243	0x3ca39fca	0.019973654
244	0xbbe0d805	-0.006861689
245	0x3cad9fb3	0.021194315
246	0xb9901416	-0.00027480786
247	0xbc1c2eab	-0.009532611
248	0xbcb416e6	-0.021983575
249	0xbd0417ef	-0.032249387
250	0xb9a550dd	-0.000315315
251	0xbcffb8e3	-0.03121609
252	0xbcf80422	-0.030275408
253	0x3c0f561c	0.008748557
254	0x3c596cdd	0.013270584
255	0x3ce430f2	0.02785537

encoder.encoder.2.0.bias f4 [64]
0	0xbcab53ac	-0.020913921
1	0x3d11e713	0.03562076
2	0x3d04eeed	0.03245442
3	0x3cc93c89	0.024564998
4	0x3badb4cc	0.0053010937
5	0xbc146e62	-0.00905952
6	0xbcc03935	-0.023464778
7	0xbc025f3a	-0.007957274
8	0xbc139823	-0.00900844
9	0xbcb15344	-0.02164615
10	0x3c585b55	0.013205369
11	0xbcbb2716	-0.022845786
12	0xbcf98ada	-0.030461717
13	0x3c876d15	0.016531507
14	0xb9aeb4f3	-0.00033322684
15	0x3ba373ba	0.004988161
16	0xbcfedd66	-0.03111143
17	0xbc293b89	-0.010329136
18	0x3c210322	0.009827407
19	0x3b92904c	0.004472768
20	0xbc49f45d	-0.012326327
21	0xbc1cd8ec	-0.009573203
22	0x3c9717f5	0.01844404
23	0xbbf40925	-0.007447379
24	0xbcffd2ce	-0.03122845
25	0xbd08a233	-0.03335781
26	0xbbcb29c6	-0.006200048
27	0x3cea59bf	0.028607247
28	0x3bbd4cda	0.0057769837
29	0xba069614	-0.0005134058
30	0xbcec0bb6	-0.028814178
31	0x3ae115f9	0.0017172686
32	0xbc5749ab	-0.013140122
33	0xbd0aa739	-0.033850882
34	0x3b248112	0.0025101346
35	0x3cc42d38	0.023947343
36	0xbc9453b1	-0.018106313
37	0xbbaa01d9	-0.0051882085
38	0x3ca6f372	0.020379756
39	0x3cb526db	0.022113254
40	0xbc23a3d5	-0.009987791
41	0xbcca557b	-0.024698963
42	0x3c85eb97	0.01634769
43	0xbca1160d	-0.019663835
44	0x3cf3c366	0.02975626
45	0xbcadf513	-0.021235025
46	0xbb75bc0f	-0.0037496125
47	0x3d0c4ccf	0.034252938
48	0x3ba83f6a	0.0051345127
49	0x3c498b31	0.012301252
50	0xbbab9ed5	-0.00523744
51	0x3c9e3b23	0.019315308
52	0xbbf100f4	-0.00735485
53	0xbcbfe13b	-0.023422828
54	0xbd053d3e	-0.03252911
55	0xbc87209b	-0.01649504
56	0xbcfa9476	-0.03058837
57	0xbcac4df3	-0.021033263
58	0xbc7aaa56	-0.0152994
59	0xbcc0a296	-0.023515027
60	0xba995d0c	-0.0011700704
61	0x3c86a836	0.016437631
62	0xbce42fc6	-0.027854811
63	0xbcb2750e	-0.021784332

encoder.encoder.2.1.weight f4 [64]
0	0x3e732a4f	0.23746608
1	0x3e9fa8b5	0.311834
2	0x3cdee884	0.027210481
3	0x3f08cff5	0.5344232
4	0x3f1207f1	0.5704337
5	0x3d123ad0	0.03570062
6	0x3da275cc	0.07932624
7	0x3f09a697	0.5376982
8	0x3e709ac1	0.23496534
9	0x3e99fa98	0.30074
10	0x3f0cae2c	0.54953265
11	0x3f0094d4	0.50227094
12	0x3da739a4	0.08165291
13	0x3f2f583d	0.68494016
14	0x3e1e38f0	0.15451407
15	0x3d61f420	0.055164456
16	0x3ed1f912	0.41010338
17	0x3eeaf1e2	0.45887667
18	0x3f1de15f	0.61672014
19	0x3f569b96	0.83831155
20	0x3ede5909	0.43427303
21	0x3cd2b23b	0.025719753
22	0x3f4024e6	0.750563
23	0x3f4df96d	0.8045872
24	0x3eaadbc4	0.33370793
25	0x3eb25ca1	0.34836295
26	0x3e514068	0.20434725
27	0x39984c4f	0.00029048554
28	0x3f17f0b1	0.5935164
29	0x3f5289b7	0.82241386
30	0x3e9d2bac	0.30697381
31	0x3f58de54	0.84714246
32	0x3c8bf6ee	0.017085519
33	0x3e47264f	0.19448207
34	0x3f53cfb4	0.82738805
35	0x3f192f92	0.5983821
36	0x3e0d2626	0.13784084
37	0x3f0b51d1	0.54421717
38	0x3edd4e0b	0.43223605
39	0x3f49827f	0.78714746
40	0x3de14f11	0.11001409
41	0x3f37c389	0.7178274
42	0x3eddfd76	0.43357438
43	0x3e224156	0.15845236
44	0x3ee611c4	0.4493543
45	0x3e99089f	0.2988939
46	0x3e7a1c85	0.24424942
47	0x3cec4c07	0.028844846
48	0x3ee36a3b	0.44416985
49	0x3e719c8b	0.23594873
50	0x3d1a0feb	0.037612837
51	0x3f594e5b	0.84885186
52	0x3f551655	0.832372
53	0x3de69dbe	0.11260556
54	0x3ed34ee0	0.41271114
55	0x3dfbb917	0.122911625
56	0x3e817788	0.25286508
57	0x3e5ea82f	0.21743844
58	0x3e08f3bc	0.13374227
59	0x3f4cbf0c	0.79979014
60	0x3e9324ce	0.28739017
61	0x3f2f7b36	0.6854738
62	0x3d969cb2	0.07354106
63	0x3ecf9e3d	0.40550414

encoder.encoder.2.1.bias f4 [64]
0	0xbc1e7bc5	-0.009673064
1	0xbb91b8cb	-0.004447078
2	0x3b95994d	0.004565394
3	0xbc8c496c	-0.017124854
4	0xbd13b64d	-0.036062527
5	0xbb0538ed	-0.002032812
6	0xbbafbef9	-0.005363342
7	0xbbb0d3fa	-0.0053963633
8	0xbb3eb112	-0.0029097241
9	0xbb1d30dc	-0.0023985421
10	0xbc4a404a	-0.012344429
11	0xbaaf3180	-0.0013366193
12	0xbbca3b31	-0.006171607
13	0xbd1c2ad1	-0.03812677
14	0xba8a981b	-0.0010573895
15	0xbae2fb2c	-0.0017317287
16	0xbb501ad5	-0.0031754274
17	0xbc881d7c	-0.016615622
18	0x3764b5f9	1.3632228e-05
19	0xbd1a760c	-0.037710235
20	0xbcb34fab	-0.021888575
21	0x3b8bd274	0.0042670313
22	0xbcc3c6b7	-0.023898466
23	0xbc96ee05	-0.018424043
24	0xbc95678d	-0.018237853
25	0xbb465d0c	-0.0030267863
26	0xbb229288	-0.0024806578
27	0xbaefb959	-0.0018289491
28	0x3909dda1	0.00013147901
29	0xbd33981c	-0.043846235
30	0xba6a2013	-0.0008931171
31	0xbce434b5	-0.027857164
32	0x3adb515a	0.0016732619
33	0x3bbb2207	0.0057108435
34	0xbcc8ef33	-0.024528122
35	0xbcc368d3	-0.023853695
36	0xbba6d7fd	-0.005091666
37	0xbd1aeeeb	-0.037825506
38	0x3b3776eb	0.0027994465
39	0xbc1d32d1	-0.009594635
40	0xbbc17938	-0.005904343
41	0xbbf349de	-0.007424577
42	0xbcf7f3ea	-0.030267674
43	0xbc80f07f	-0.015739677
44	0xbbb64dee	-0.005563489
45	0xbc6d1c20	-0.014472038
46	0xbbaae8cb	-0.0052157394
47	0xba82ca73	-0.0009978547
48	0xbc038cfa	-0.008029217
49	0xbbcee293	-0.006313631
50	0x397613e8	0.00023467804
51	0xbbfa0905	-0.0076304697
52	0xbc1b8424	-0.009491954
53	0xbb3269bc	-0.0027223667
54	0x398fe99c	0.00027449138
55	0xba486342	-0.0007644185
56	0xbbd7bd4b	-0.006583845
57	0xbb277eaa	-0.0025557675
58	0xbbe1f975	-0.0068961927
59	0xbd243432	-0.04008884
60	0xbc3ea57a	-0.011636132
61	0xbc30ff7e	-0.010803102
62	0x3aeeb388	0.0018211463
63	0xbd0c2297	-0.034212675

encoder.encoder.2.1.running_mean f4 [64]
0	0xbe6bff99	-0.23046722
1	0xbb1440aa	-0.002262155
2	0xbe7efa25	-0.2490011
3	0x3e685391	0.22688128
4	0x3da07bac	0.078360885
5	0x3e4a0920	0.19730043
6	0x3d36476e	0.044501714
7	0xbf12d7fe	-0.5736083
8	0xbdc40b9f	-0.09572529
9	0x3dd916ce	0.10600053
10	0x3ec2c306	0.38039416
11	0xbd842220	-0.06451821
12	0x3c252628	0.010079898
13	0xbea99dbb	-0.3312815
14	0xbe4fb121	-0.20282413
15	0x3cffb368	0.031213477
16	0xbe9a2c07	-0.30111715
17	0x3e63d0b8	0.22247589
18	0xbecdbeb1	-0.40184548
19	0xbdb36ded	-0.08761201
20	0x3ef65323	0.48110303
21	0x3f1ba0ca	0.6079222
22	0x3f180d3e	0.59395206
23	0xbf035716	-0.5130476
24	0x3dbc1e18	0.091854274
25	0xbec6a9bf	-0.3880138
26	0xbe408068	-0.18798983
27	0x3de8fa53	0.113758706
28	0xbf6e78a8	-0.93152857
29	0x3ead389b	0.3383225
30	0xbe466468	-0.1937424
31	0x3ee3bfdc	0.44482315
32	0xbea9e09c	-0.33179176
33	0xbdeedea8	-0.11663562
34	0xbf713320	-0.94218636
35	0xbe85a73d	-0.26104155
36	0x3e7237a5	0.23654039
37	0x3e8dc8b9	0.27692202
38	0xbf10e5a7	-0.5660042
39	0xbe39825c	-0.18116134
40	0xbd3f2b81	-0.046672348
41	0xbe81a559	-0.25321463
42	0xbcc1140b	-0.023569128
43	0x3e64c014	0.22338897
44	0x3da80f51	0.082060464
45	0x3eb57d0a	0.3544696
46	0x3da0b5b7	0.07847159
47	0x3dc82436	0.09772532
48	0x3e9b31c7	0.30311415
49	0x3e14d822	0.14535573
50	0xbcc5abd3	-0.024129784
51	0xbe93b02a	-0.2884534
52	0xbf2addc0	-0.66744614
53	0xbe033596	-0.1281341
54	0x3db96df9	0.09054179
55	0xbdb8d6cb	-0.090253435
56	0x3d3c2587	0.045934226
57	0xbde813c4	-0.11331895
58	0x3e77cdac	0.24199551
59	0x3eb8ec75	0.36117902
60	0xbe97239e	-0.2951936
61	0xbefd7dcc	-0.49510038
62	0xbe1ba57b	-0.15199845
63	0x3f2021e3	0.6255171

encoder.encoder.2.1.running_var f4 [64]
0	0x3d55f988	0.052239925
1	0x3d931bf6	0.071830675
2	0x3d03129f	0.03200018
3	0x3db0b7ee	0.08628832
4	0x3e5f9735	0.21835025
5	0x3d02b69b	0.031912427
6	0x3cf6cd79	0.030127274
7	0x3dc8de8f	0.09808075
8	0x3cb0b45f	0.021570383
9	0x3d261ed6	0.04055675
10	0x3e1389a7	0.14407979
11	0x3da2d37b	0.07950493
12	0x3cbdea47	0.023183001
13	0x3e182152	0.1485646
14	0x3ccd7477	0.025079949
15	0x3d060416	0.03271874
16	0x3d6e853e	0.05823254
17	0x3d4e557f	0.050374504
18	0x3d1eb242	0.03874422
19	0x3e13f3ff	0.14448546
20	0x3d9dcaf2	0.07704724
21	0x3d5d0d34	0.05396767
22	0x3e26b55b	0.16280119
23	0x3eb01e17	0.34397957
24	0x3d50ac27	0.050945427
25	0x3d4599fe	0.04824256
26	0x3d2b0055	0.041748364
27	0x3ca6ed12	0.020376716
28	0x3e196969	0.14981617
29	0x3e453cfa	0.19261542
30	0x3d1a8f17	0.037734117
31	0x3dc939da	0.098254874
32	0x3cd538eb	0.026028117
33	0x3d1c9eae	0.038237266
34	0x3e5e7118	0.2172283
35	0x3dfbc3d2	0.12293209
36	0x3cdb421d	0.026764924
37	0x3de7e13f	0.11322259
38	0x3dffc8cc	0.12489471
39	0x3dede418	0.11615771
40	0x3d07ec1a	0.03318415
41	0x3e092cf2	0.13396052
42	0x3dc3e02e	0.09564243
43	0x3d3d98b3	0.046288203
44	0x3d29dca0	0.04147017
45	0x3d89782b	0.06712373
46	0x3d2e4286	0.04254391
47	0x3cc40657	0.023928804
48	0x3d1c0aa0	0.03809607
49	0x3d2fa82b	0.042884987
50	0x3cad2167	0.021134092
51	0x3cf08f51	0.029365214
52	0x3e2e1803	0.17001347
53	0x3d32da21	0.043665055
54	0x3d65f85a	0.05614505
55	0x3d00677c	0.03134869
56	0x3d2c726a	0.0421013
57	0x3d14b752	0.03630764
58	0x3d500ab8	0.050791472
59	0x3e2154f9	0.15755071
60	0x3d37255b	0.04471336
61	0x3df03bf0	0.11730182
62	0x3d052a06	0.03251078
63	0x3dd8c093	0.105836056
