saves_category/finger/domain_4/max_acc.pth (torch_old, 606191 bytes, 28 tensors)

encoder.encoder.0.0.weight f4 [64, 2, 3, 3]
-0.31638652 0.010426407 0.031291045 -0.23596597 0.022404196 0.26310968 -0.04477211 -0.048001602
0.24252957 0.05934953 0.20350373 0.15748566 -0.064147666 -0.008443089 0.097390264 -0.24423793
-0.08895198 -0.1678532 0.053470016 -0.046364684 0.03160256 -0.03648321 0.036142465 -0.035385385
0.0711568 0.06830629 0.025271486 -0.044269696 -0.020697199 -0.04683715 -0.019482775 -0.034555685
0.083264954 0.090009205 0.09093703 0.06886398 -0.03930768 -0.1559116 0.11680053 -0.15161477
0.042171907 0.024743918 -0.1516107 0.034406617 0.24872915 0.13536212 -0.07384022 -0.317852
0.21813576 -0.087297626 -0.23517145 0.28833318 0.058435354 -0.039653778 0.0523271 -0.044893958
0.03209857 -1.5164856e-05 0.090795346 0.052840024 -0.07635029 0.06340451 0.11701937 -0.06268529
0.07227294 -0.007872409 -0.0043046717 0.0003926185 0.092287995 -0.13096334 0.056953143 0.11802851
0.1094773 -0.032305945 0.044500776 0.10001142 0.122966506 0.009991819 0.12128102 -0.0337957
0.04199632 -0.023230966 -0.012548745 0.074279495 -0.12773456 -0.093386374 -0.072317086 -0.04441712
-0.0041292356 -0.10267733 -0.12334959 0.06377247 0.1262706 -0.15977755 -0.035923555 0.09673035
-0.12292964 -0.07206645 0.15952313 -0.094685726 0.051349413 -0.04387246 0.037010904 0.065422684
0.028584553 -0.06303761 0.047603454 0.0018945418 0.06848461 -0.014925821 0.024025444 -0.007270769
0.02607573 -0.02149162 -0.03755215 -0.091185495 0.044841103 -0.1273252 -0.1577227 -0.04961522
0.078219794 0.09820814 0.026653714 0.12159372 0.01243168 -0.06311827 -0.1719518 -0.23274216
-0.23326693 0.06217198 0.002768855 0.050642 0.18556418 0.20440462 0.09371647 0.07795668
-0.04846318 0.027189387 0.0567088 -0.06964622 -0.08205006 0.11226743 0.010169326 -0.0852224
0.062348682 -0.059963733 -0.03059835 -0.016029624 0.05257654 -0.11587416 0.008106349 0.0717039
0.039381016 -0.13272011 -0.13781947 -0.22594303 0.020728923 0.005416794 -0.02585856 0.18355122
0.18281992 0.07949716 0.0728959 0.010073 -0.06440312 -0.034299046 0.09382321 0.018892387
-0.085678734 -0.008225201 -0.02737833 0.036898214 -0.029980475 -0.071822345 0.08149806 0.072456636
-0.0129624335 -0.05555085 0.045503948 -0.008595496 -0.06783377 0.0449228 -0.012851672 0.10958488
-0.09452366 0.010791323 0.11232627 0.003833478 -0.060101636 -0.13113812 -0.14337982 0.06296148
-0.045753513 -0.10262322 0.06475041 0.14710133 -0.026054699 0.14675936 0.0809652 -0.010278371
0.031596456 0.051679354 -0.05222301 -0.044142604 0.07145774 0.07628225 0.06837375 0.019774122
-0.018288292 -0.006268356 -0.03527616 -0.08651804 -0.027177352 -0.037483055 0.051411387 -0.08879514
-0.0055110063 -0.12987764 -0.08636132 0.1494675 0.079319045 -0.13963029 0.0148722865 0.114834815
-0.07390524 0.07108043 -0.03495429 0.038079344 -0.0063267546 -0.07188266 0.08490099 -0.014752779
0.022469798 -0.087889925 0.01998708 -0.08053834 0.08404955 0.038244687 0.020869078 -0.025589474
0.045362704 -0.06008794 0.08498005 -0.0030521192 -0.05141504 -0.054084998 0.06369751 0.0060529364
-0.009861955 -0.031488728 0.03702351 0.022154752 -0.045713045 -0.020411061 0.060891423 0.057257906
00000000: 6afd a1be 85d3 2a3c 0a2b 003d 10a1 71be
00000010: 0189 b73c 50b6 863e f662 37bd 549d 44bd
00000020: ac59 783e 7e18 733d 4863 503e ec43 213e
00000030: da5f 83bd e254 0abc 8c74 c73d 8219 7abe
00000040: 752c b6bd b6e1 2bbe 6003 5b3d e5e8 3dbd
00000050: b071 013d 6b6f 15bd 1f0a 143d 44f0 10bd
00000060: a8ba 913d 2be4 8b3d 2606 cf3c 2454 35bd
00000070: 2c8d a9bc 50d8 3fbd 579a 9fbc 438a 0dbd
00000080: d186 aa3d bf56 b83d 323d ba3d 8f08 8d3d
00000090: 1701 21bd 4aa7 1fbe 1e35 ef3d e740 1bbe
000000a0: 73bc 2c3d c2b3 ca3c d63f 1bbe f4ed 0c3d
000000b0: dbb2 7e3e 5e9c 0a3e 8b39 97bd 7fbd a2be
000000c0: fb5e 5f3e 19c9 b2bd c9d0 70be 68a0 933e
000000d0: e959 6f3d 006c 22bd f154 563d bae2 37bd
000000e0: ca79 033d 906c 7eb7 e9f2 b93d c86e 583d
000000f0: 8a5d 9cbd 39da 813d daa7 ef3d 2561 80bd
00000100: d603 943d 47fb 00bc 340e 8dbb 5dd8 cd39
00000110: 7d01 bd3d 411b 06be b347 693d eeb8 f13d
00000120: a235 e03d 3d53 04bd 7246 363d cad2 cc3d
00000130: ddd5 fb3d bab4 233c 2f62 f83d 5c6d 0abd
00000140: 5504 2c3d de4e bebc 4099 4dbc d91f 983d
00000150: d9cc 02be 5b41 bfbd fb1a 94bd baee 35bd
00000160: 8a4e 87bb 7e48 d2bd b69e fcbd 249b 823d
00000170: 154d 013e ba9c 23be 9424 13bd 901a c63d
00000180: 89c2 fbbd 9397 93bd 085a 233e 97ea c1bd
00000190: c353 523d 9cb3 33bd bf98 173d 54fc 853d
000001a0: 272a ea3c dd19 81bd d7fb 423d 4652 f83a
000001b0: a941 8c3d 6e8b 74bc 02d1 c43c a23f eebb
000001c0: c59c d53c 320f b0bc 49d0 19bd 76bf babd
000001d0: 4eab 373d 8a61 02be 0f82 21be 5439 4bbd
000001e0: b331 a03d 5921 c93d e458 da3c 2106 f93d
000001f0: 3fae 4b3c 2744 81bd 2214 30be f653 6ebe
00000200: 87dd 6ebe 0ca8 7e3d ae75 353b fc6d 4f3d
00000210: 8904 3e3e 724f 513e 6cee bf3d c0a7 9f3d
00000220: 5481 46bd 47bc de3c 7d47 683d ada2 8ebd
00000230: dd09 a8bd 77ec e53d 3f9d 263c 1589 aebd
00000240: 5561 7f3d 889c 75bd 64a9 fabc 8f50 83bc
00000250: 7f5a 573d 6e4f edbd 7ed0 043c 7fd9 923d
00000260: fd4d 213d c8e7 07be 8c20 0dbe 9c5d 67be
00000270: b4cf a93c 5d7f b13b 55d5 d3bc daf4 3b3e
00000280: 2535 3b3e 68cf a23d 724a 953d 3909 253c
00000290: c8e5 83bd 287d 0cbd 6226 c03d 35c4 9a3c
000002a0: 5578 afbd fec2 06bc 8548 e0bc 9522 173d
000002b0: 9d99 f5bc 9817 93bd 74e8 a63d 2564 943d
000002c0: 6360 54bc 4a89 63bd 5962 3a3d 20d4 0cbc
000002d0: 6eec 8abd f800 383d d28f 52bc 0a6e e03d
000002e0: 9f95 c1bd 17ce 303c 510b e63d 173b 7b3b
000002f0: 222d 76bd 1249 06be 29d2 12be f3f1 803d
00000300: 0968 3bbd 1f2c d2bd dd9b 843d bba1 163e
00000310: aa70 d5bc 1648 163e 15d1 a53d 9d66 28bc
00000320: 496b 013d bbad 533d cce7 55bd e0ce 34bd
00000330: 7058 923d de39 9c3d 8907 8c3d 57fd a13c
00000340: 54d1 95bc c866 cdbb bc7d 10bd 5f30 b1bd
00000350: 0aa3 debc d587 19bd bf94 523d 3ada b5bd
00000360: ac95 b4bb a5fe 04be 34de b0bd 020e 193e
00000370: 0672 a23d 3efb 0ebe e4aa 733c 842e eb3d
00000380: a15b 97bd 9e92 913d 3b2c 0fbd 16f9 1b3d
00000390: aa50 cfbb 3737 93bd 92e0 ad3d a4b5 71bc
000003a0: 9512 b83c a2ff b3bd f2bb a33c 49f1 a4bd
000003b0: 2c22 ac3d 76a6 1c3d a1f5 aa3c 04a1 d1bc
000003c0: 3ece 393d c61e 76bd 050a ae3d 1006 48bb
000003d0: 9498 52bd 3b88 5dbd d773 823d b657 c63b
000003e0: 0a94 21bc 53fa 00bd f7a5 173d e27d b53c
000003f0: 9a3d 3bbd 1935 a7bc 4969 793d 4487 6a3d

encoder.encoder.0.0.bias f4 [64]
0.06405796 0.07066843 0.06333611 -0.00089629693 -0.0062595415 0.039098337 0.016915755 -0.08600883
0.06680292 0.0114831505 -0.060032204 0.037933487 0.07697622 0.03777611 -0.06764582 -0.075524524
-0.054601766 0.026547031 -0.048856013 0.0659021 -0.06456374 0.019355977 0.0032637406 0.015431089
-0.08269213 0.028226875 0.051202234 0.016627625 0.043867104 0.039023556 -0.066723 -0.065927245
-0.026298994 0.044630058 -0.051756043 -0.009691168 -0.063369215 0.07830005 0.030997485 -0.08537121
0.0678615 -0.027054979 -0.038060777 0.030585121 -0.0100631425 0.07807058 0.073001325 0.046345938
0.051291756 -0.023061935 0.0025703649 -0.018912528 -0.051612776 -0.055305626 0.016673602 0.051123425
-0.027903488 -0.07089263 -0.027641581 0.033826333 -0.03845025 -0.066237785 0.053374816 -0.027211184
00000000: d230 833d 9cba 903d 5db6 813d 78f5 6aba
00000010: d71c cdbb 9425 203d e992 8a3c 6625 b0bd
00000020: f8cf 883d d323 3c3c 54e4 75bd 2560 1b3d
00000030: b5a5 9d3d 1fbb 1a3d e489 8abd 9aac 9abd
00000040: 1aa6 5fbd 2979 d93c 3e1d 48bd aef7 863d
00000050: fe39 84bd 6d90 9e3c 7be4 553b aed2 7c3c
00000060: 7e5a a9bd 0c3c e73c 6fb9 513d a836 883c
00000070: fead 333d 2ad7 1f3d 11a6 88bd dd04 87bd
00000080: fd70 d7bc 02ce 363d 25fe 53bd b4c7 1ebc
00000090: b8c7 81bd c75b a03d 70ee fd3c 1ad7 aebd
000000a0: f8fa 8a3d 67a2 ddbc 9ee5 1bbd a68d fa3c
000000b0: e1df 24bc 78e3 9f3d b881 953d 3dd5 3d3d
000000c0: 4e17 523d 62ec bcbc 9173 283b 72ee 9abc
000000d0: eb67 53bd 2788 62bd 1497 883c cc66 513d
000000e0: db95 e4bc 2830 91bd 9970 e2bc 7b8d 0a3d
000000f0: 027e 1dbd ada7 87bd 8d9f 5a3d fde9 debc

encoder.encoder.0.1.weight f4 [64]
0.38839778 0.010099593 0.3807358 0.2303449 0.23676638 0.23009333 0.14208896 0.31995693
0.27010736 0.051406756 0.19512422 0.046759866 0.16516702 0.015252986 0.15084729 0.20788155
0.2051532 0.39211503 0.18676214 0.08728756 0.33057606 0.14875367 0.17999682 0.1833544
0.0073751784 0.31337857 0.20887853 0.17392601 0.38304782 0.18001351 0.05759214 0.15166464
0.21271674 0.26742646 0.10813698 0.20066248 0.24602796 0.43818536 0.058912665 0.47180048
0.16720444 0.50466526 0.14009976 0.209325 0.12737359 0.24202546 0.31797728 0.23177962
0.22681841 0.1066384 0.18534568 0.31376523 0.17043768 0.13606504 0.14656581 0.052698914
0.09398137 0.029999325 0.33957985 0.31869006 0.23926197 0.19887038 0.20421769 0.23438972
00000000: 13dc c63e c378 253c ceef c23e 89df 6b3e
00000010: e372 723e 969d 6b3e c57f 113e 65d1 a33e
00000020: 834b 8a3e e48f 523d a5ce 473e 4687 3f3d
00000030: 8b21 293e a9e7 793c b677 1a3e e7de 543e
00000040: ae13 523e 4dc3 c83e 933e 3f3e d2c3 b23d
00000050: 4441 a93e e252 183e 1651 383e 41c1 3b3e
00000060: 7bab f13b 2873 a03e 41e4 553e a919 323e
00000070: d81e c43e 7655 383e bce5 6b3d fa4d 1b3e
00000080: 6bd2 593e 1fec 883e ec76 dd3d 777a 4d3e
00000090: c1ee 7b3e d559 e03e 684e 713d d58f f13e
000000a0: a437 2b3e be31 013f 5076 0f3e 4b59 563e
000000b0: 396e 023e 86d5 773e ebcd a23e a357 6d3e
000000c0: 1643 683e 3c65 da3d 42cb 3d3e d6a5 a03e
000000d0: 3787 2e3e a254 0b3e 5915 163e d1da 573d
000000e0: 4e79 c03d 25c1 f53c 69dd ad3e 582b a33e
000000f0: 1701 753e ada4 4b3e 711e 513e dc03 703e

encoder.encoder.0.1.bias f4 [64]
0.1280175 0.021123638 0.12884219 -0.11955504 -0.08217643 0.0026907271 0.014689835 0.036432702
0.037526578 0.015055623 -0.030169815 -0.008875745 -0.05309555 0.017433476 -0.072341785 0.014019542
-0.06258933 0.09551959 0.0089862 -0.021168498 0.15266365 -0.03049005 -0.07286902 -0.035414103
-0.014265471 0.016535597 -0.07485857 -0.05231903 -0.03844102 -0.07508512 -0.023703294 0.06221537
-0.093295075 0.03856989 -0.07473851 -0.042176828 -0.08218524 -0.026368154 -0.028449873 -0.08670577
-0.09172638 0.03020471 0.0155691635 -0.0447913 0.009422244 -0.09601134 -0.1970519 -0.02778219
-0.083676845 -0.057733115 -0.105631046 0.033673298 -0.07377763 -0.09731131 -0.06470862 -0.03098463
-0.017428484 -0.025065172 0.10747941 0.012964752 -0.054567207 -0.11805693 0.061321683 0.06640802
00000000: 0517 033e 7b0b ad3c 35ef 033e 46d9 f4bd
00000010: 1e4c a8bd e956 303b a2ad 703c 753a 153d
00000020: 78b5 193d dcab 763c b026 f7bc 936b 11bc
00000030: b87a 59bd a6d0 8e3c ee27 94bd 39b2 653c
00000040: d62e 80bd c69f c33d db3a 133c 8f69 adbc
00000050: dc53 1c3e 45c6 f9bc 5a3c 95bd 610e 11bd
00000060: b9b9 69bc a975 873c 734f 99bd 7b4c 56bd
00000070: 5574 1dbd 3ac6 99bd 692d c2bc 8bd5 7e3d
00000080: 7d11 bfbd 76fb 1d3d 8110 99bd 9cc1 2cbd
00000090: bc50 a8bd 0702 d8bc b50f e9bc cb92 b1bd
000000a0: 0adb bbbd de6f f73c ce15 7f3c 1577 37bd
000000b0: c15f 1a3c 98a1 c4bd f9c7 49be 7a97 e3bc
000000c0: c45e abbd 8f79 6cbd 1755 d8bd 03ed 093d
000000d0: ba18 97bd 274b c7bd f485 84bd 7bd3 fdbc
000000e0: 2ec6 8ebc 7a55 cdbc 2a1e dc3d 1c6a 543c
000000f0: dd81 5fbd d5c7 f1bd 722c 7b3d ee00 883d

encoder.encoder.0.1.running_mean f4 [64]
0.004406583 0.23338173 0.024046179 0.20083052 0.015160165 0.022961771 -0.01734984 -0.10451396
0.04835238 0.030187776 -0.054498583 0.04817473 0.043562528 0.08593954 -0.04109241 -0.13345252
0.07246243 0.01017897 -0.04233458 0.13277175 -0.09108069 0.06352804 -0.15162311 -0.030615387
-0.10743005 0.023427892 0.00883047 0.029549388 -0.0055995686 0.16505101 -0.2507943 -0.06398002
0.021203253 0.02745315 -0.32423046 -0.020605328 -0.052781492 0.033479854 0.046272665 -0.11889375
-0.15634052 -0.061761096 -0.022230804 0.029790048 -0.03878937 -0.0132857235 -0.37912893 0.04996527
0.37337962 -0.18028028 -0.31025028 -0.04868783 0.187199 -0.31013927 -0.13834906 0.19351102
-0.016115988 -0.32624358 -0.04035767 -0.032041904 -0.055409923 -0.40182775 0.04113329 -0.036560684
00000000: 1965 903b 9ffb 6e3e 7efc c43c 84a6 4d3e
00000010: 5762 783c 531a bc3c 4021 8ebc 6a0b d6bd
00000020: 250d 463d 5b4c f73c e839 5fbd de52 453d
00000030: 9f6e 323d 1201 b03d 8450 28bd c7a7 08be
00000040: 2f67 943d b2c5 263c 0667 2dbd 51f5 073e
00000050: 8388 babd fd1a 823d 1743 1bbe 1fcd fabc
00000060: 4904 dcbd daeb bf3c adad 103c 8f11 f23c
00000070: 967c b7bb 2203 293e 1c68 80be f507 83bd
00000080: 72b2 ad3c 6ee5 e03c 8901 a6be 81cc a8bc
00000090: 6831 58bd 2c22 093d 6888 3d3d 917e f3bd
000000a0: bb17 20be 34f9 7cbd 601d b6bc 420a f43c
000000b0: 9ae1 1ebd 5dac 59bc 301d c2be 62a8 4c3d
000000c0: 9d2b bf3e 659b 38be 20d9 9ebe e46c 47bd
000000d0: 18b1 3f3e 93ca 9ebe 60ab 0dbe c127 463e
000000e0: ad05 84bc 6609 a7be 164e 25bd 5f3e 03bd
000000f0: 84f5 62bd 5ebc cdbe 617b 283d a8c0 15bd

encoder.encoder.0.1.running_var f4 [64]
0.004418066 0.0016551814 0.004122481 0.0027656779 0.005791035 0.0013261585 0.00053214486 0.002344796
0.002138683 0.00024789534 0.0008684716 0.0018659398 0.00067412155 0.00036111093 0.00051019096 0.0014610072
0.0018381111 0.004085193 0.0008712252 0.0019173133 0.0030671977 0.0008536193 0.003797542 0.003820214
0.0003025753 0.0019199763 0.0019238688 0.00079109 0.0034913016 0.003323531 0.0019360906 0.0006862311
0.0007829661 0.0019750518 0.0038784982 0.0008550918 0.0014032678 0.0054628784 0.00016782433 0.0049921344
0.0037807408 0.00526943 0.00057096157 0.001015155 0.00057126227 0.006330602 0.01525077 0.0011298102
0.0061418316 0.0021728901 0.0065388577 0.0023000455 0.0032730838 0.00340743 0.0042964374 0.0012804343
0.00024929206 0.003450489 0.0034855918 0.0039120233 0.0008217596 0.005882153 0.001130365 0.0014744861
00000000: 6cc5 903b acf2 d83a e115 873b 6040 353b
00000010: b9c2 bd3b 7fd2 ad3a a37f 0b3a 26ab 193b
00000020: 2629 0c3b f3f7 8139 24aa 633a 8d92 f43a
00000030: 88b7 303a 7d53 bd39 56be 053a 447f bf3a
00000040: c6ec f03a 15dd 853b ef62 643a 5c4e fb3a
00000050: 0a03 493b 6cc5 5f3a 2fe0 783b 8e5c 7a3b
00000060: f8a2 9e39 b7a7 fb3a 532a fc3a 2761 4f3a
00000070: 52ce 643b 99cf 593b 6cc4 fd3a 31e4 333a
00000080: f73f 4d3a df6f 013b 672e 7e3b 3d28 603a
00000090: dbed b73a f201 b33b 00fa 2f39 0f95 a33b
000000a0: 4ec6 773b 2fab ac3b 95ac 153a f30e 853a
000000b0: c3c0 153a f070 cf3b 5ede 793c 2416 943a
000000c0: 6b41 c93b 0c67 0e3b ea43 d63b 5cbc 163b
000000d0: 3c81 563b 304f 5f3b 21c9 8c3b 3fd4 a73a
000000e0: 6ab3 8239 9921 623b 876e 643b 6e30 803b
000000f0: 5a6b 573a 13bf c03b c128 943a 8b43 c13a

encoder.encoder.1.0.weight f4 [64, 64, 3, 3]
0.012888525 0.024359426 0.033199213 -0.0015954073 0.0130097605 0.034386497 -0.030029336 -0.017304553
0.0073428596 -0.0045465534 0.0031052558 0.012738403 -0.0063237813 0.011511857 0.0060332986 0.013447918
0.0010063095 0.0022921667 -0.016325787 -0.03295055 -0.022659369 0.001781706 -0.027951237 -0.007819234
0.031325206 0.0023775706 -0.01736743 -0.029217307 -0.0054111774 0.011266877 -0.027393715 -0.004773442
0.022690216 -0.015156116 0.0076193875 0.025740577 -0.01626356 -0.03406409 -0.04100045 -0.036656637
-0.030306986 -0.029936602 -0.036485903 -0.048893813 -0.04704271 0.0013580614 0.009644283 0.023149893
0.003579683 0.030098245 0.014401932 -0.01477111 0.014584194 0.011864456 0.0064379927 0.0035846923
-0.036095247 0.009297222 -0.009934333 -0.02532029 0.01406562 -0.012267393 -0.036416825 -0.050787
-0.03739099 -0.027653482 -0.0030974108 -0.022634799 -0.029669987 0.030497923 -0.007947747 -0.021470785
-0.03593189 -0.018122608 -0.041330386 -0.010136248 -0.021663249 -0.019854233 0.05763061 0.007021226
0.014087635 -0.018705104 -0.0010975132 -0.01009771 -0.008988038 -0.017916959 -0.017747456 -0.010588373
-0.012267007 0.0051470967 0.00044098074 -0.017791547 -0.017324379 0.0018128314 0.0028683494 -0.007925086
0.046401978 0.016746873 -0.010440162 0.0038645903 -0.014782626 -0.008052734 -0.0098907985 -0.019454863
0.00012304471 -0.013737232 -0.017023964 -0.019074326 -0.013007588 -0.018181717 -0.018583871 -0.021598483
-0.020025289 -0.038298566 -0.013026178 -0.014976558 -0.0127971945 -0.01182333 0.00801352 -0.015238593
0.002943223 0.007782551 0.011616939 0.0042829197 -0.014134012 0.016258499 -0.012717172 -0.016160363
-0.024950182 -0.0025396717 -0.03121949 -0.008915622 0.009496135 -0.005250151 0.01697296 0.029267307
0.002961858 -0.0009994551 -0.015969777 0.004465556 0.009523769 -0.010042618 -0.00824968 -0.010032731
-0.017407166 -0.034727816 -0.034682058 -0.024804585 -0.012721352 -0.0052080513 -0.02117436 -0.022300677
-0.019860417 -0.017891742 -0.010500601 -0.00080008816 0.041901883 0.015540168 0.012420351 0.061997067
0.031325772 0.031232681 0.013292759 -0.0057102772 -0.033784844 -0.022518355 -0.012738182 -0.039310932
-0.022416878 -0.0016267331 -0.020555168 -0.027409386 -0.028406722 -0.015259966 -0.023546148 -0.010273408
-0.010307591 -0.0032734184 -0.024108335 -0.029201636 -0.0510713 -0.01785497 -0.020870801 0.032215748
-0.0040183403 -0.014932205 0.094365835 0.049270213 0.009746896 -0.005578459 -0.0021169947 0.013385256
-0.009668784 0.0006793469 0.01204731 0.0009398345 -0.021957874 0.003691382 -0.014522632 -0.015395357
-0.02911968 -0.00803165 -0.032325454 -0.021231178 -0.009868696 -0.018515175 -0.0526763 -0.00471102
-0.031045046 -0.04178311 0.000778712 -0.028858855 -0.032558624 -0.03525728 -0.040171053 -0.028961122
0.013430054 0.006871047 -0.0071765357 -0.015027379 -0.004316355 -0.004585486 0.0036224746 0.014468337
-0.0010628658 -0.04427922 -0.027963297 -0.030001353 0.012089758 -0.015550137 -0.02182224 0.04592599
0.011471396 -0.0029695972 0.017606707 -0.0065246257 -0.005678956 0.01606743 0.0075152726 -0.00089525344
0.012607859 0.0030695803 -0.024771202 -0.0049212635 -0.008882377 -0.030118953 -0.0072343117 -0.016436296
0.008150796 -0.008616851 -0.007734905 -0.01001202 0.0058489963 -0.02950829 -0.011411131 -0.042723976
00000000: 642a 533c 6b8d c73c e6fb 073d fc1c d1ba
00000010: e426 553c dbd8 0c3d 1500 f6bc 47c2 8dbc
00000020: 5f9c f03b 41fb 94bb 8c81 4b3b bcb4 503c
00000030: b937 cfbb 3a9c 3c3c fab2 c53b a854 5c3c
00000040: 25e6 833a 2d38 163b a8bd 85bc 28f7 06bd
00000050: 24a0 b9bc 2288 e93a fef9 e4bc 3f1c 00bc
00000060: dc4e 003d 04d1 1b3b 2446 8ebc 2259 efbc
00000070: 3f50 b1bb b598 383c c968 e0bc 896a 9cbb
00000080: d5e0 b93c 5c51 78bc 0eac f93b e7dd d23c
00000090: 283b 85bc ca86 0bbd 16f0 27bd 4525 16bd
000000a0: 5b46 f8bc 9b3d f5bc 3e72 15bd e144 48bd
000000b0: dbaf 40bd fb00 b23a 0e03 1e3c d8a4 bd3c
000000c0: 1d99 6a3b 9890 f63c 15f6 6b3c 8702 72bc
000000d0: 8bf2 6e3c 2363 423c ccf5 d23b 28ed 6a3b
000000e0: 9cd8 13bd 6053 183c 9dc3 22bc 7f6c cfbc
000000f0: 7c73 663c 2dfd 48bc cf29 15bd 0806 50bd
00000100: 4b27 19bd 8e89 e2bc eefd 4abb 9d6c b9bc
00000110: 790e f3bc c8d6 f93c 4437 02bc 80e3 afbc
00000120: 512d 13bd dd75 94bc 0d4a 29bd 8112 26bc
00000130: 2077 b1bc 58a5 a2bc 130e 6c3d 5012 e63b
00000140: d3cf 663c 723b 99bc 6fda 8fba de70 25bc
00000150: 9042 13bc 96c6 92bc 1d63 91bc db7a 2dbc
00000160: 8efb 48bc faa8 a83b 6f33 e739 94bf 91bc
00000170: dbeb 8dbc 879c ed3a ebfa 3b3b 38d8 01bc
00000180: 0010 3e3d bd30 893c 370d 2bbc 1145 7d3b
00000190: d432 72bc 9def 03bc 040d 22bc ce5f 9fbc
000001a0: 9005 0139 2112 61bc d775 8bbc c341 9cbc
000001b0: c71d 55bc d3f1 94bc 343d 98bc 4def b0bc
000001c0: 130c a4bc f5de 1cbd c06b 55bc 3d60 75bc
000001d0: 53ab 51bc a4b6 41bc 244b 033c 4bab 79bc
000001e0: 17e3 403b c504 ff3b f954 3e3c bc57 8c3b
000001f0: 5892 67bc 8b30 853c af5b 50bc bd62 84bc
00000200: 5364 ccbc 9f70 26bb 04c0 ffbc d412 12bc
00000210: ad95 1b3c 7509 acbb e10a 8b3c fec1 ef3c
00000220: bb1b 423b 2600 83ba 0dd3 82bc cc53 923b
00000230: 9509 1c3c cb89 24bc aa29 07bc 5360 24bc
00000240: 7999 8ebc c13e 0ebd c60e 0ebd fc32 cbbc
00000250: 386d 50bc 4da8 aabb da75 adbc e9af b6bc
00000260: 50b2 a2bc b491 92bc b60a 2cbc 02bd 51ba
00000270: 4fa1 2b3d 309c 7e3c ba7e 4b3c a3f0 7d3d
00000280: 744f 003d aedb ff3c dfc9 593c 471d bbbb
00000290: fa61 0abd 6a78 b8bc cfb3 50bc 8004 21bd
000002a0: 9aa3 b7bc 1b38 d5ba 5063 a8bc a689 e0bc
000002b0: 37b5 e8bc f004 7abc dae3 c0bc cc51 28bc
000002c0: 2ce1 28bc d986 56bb d87e c5bc 4538 efbc
000002d0: 2430 51bd 9644 92bc 3ef9 aabc a9f4 033d
000002e0: 48ac 83bb 35a6 74bc e042 c13d 90cf 493d
000002f0: 72b1 1f3c 81cb b6bb 47bd 0abb d54d 5b3c
00000300: d269 1ebc 3316 323a 1562 453c 3a5f 763a
00000310: 00e1 b3bc 1deb 713b 55f0 6dbc cf3c 7cbc
00000320: 658c eebc 2f97 03bc b267 04bd 02ed adbc
00000330: 50b0 21bc 23ad 97bc 1bc3 57bd e65e 9abb
00000340: 2e52 febc c424 2bbd 7a22 4c3a 6869 ecbc
00000350: 315c 05bd f069 10bd 678a 24bd e03f edbc
00000360: bb09 5c3c 8526 e13b 2529 ebbb 6535 76bc
00000370: 3670 8dbb d841 96bb 0a67 6d3b 9b0c 6d3c
00000380: dc4f 8bba 215e 35bd 4913 e5bc 66c5 f5bc
00000390: 1f14 463c 00c6 7ebc 8ec4 b2bc e41c 3c3d
000003a0: 86f2 3b3c 939d 42bb f13b 903c 87cc d5bb
000003b0: 8916 babb d89f 833c ad42 f63b 71af 6aba
000003c0: 3291 4e3c 032b 493b faec cabc 8d42 a1bb
000003d0: 6487 11bc 06bc f6bc ce0d edbb 69a5 86bc
000003e0: eb8a 053c b12d 0dbc 1675 fdbb 7509 24bc
000003f0: f0a8 bf3b 5fbb f1bc c1f5 3abc 56ff 2ebd

encoder.encoder.1.0.bias f4 [64]
-0.0008269902 -0.0052175373 -0.0016383971 -0.012638553 -0.0034134663 0.008968654 -0.0102806855 0.009413589
0.0070176986 0.009065586 0.0034340043 -0.005659683 -0.008494162 -0.011468344 0.012163999 0.0051368196
-0.008501899 0.0040835086 -0.010665363 -0.014132618 0.015235943 0.013712626 0.003996757 -0.002862208
0.011344075 -0.0009407505 -0.013353751 0.012419426 0.0007644749 -0.0072475797 -0.0070483363 -0.0053122463
0.011773069 0.015785716 -0.008729473 0.00094406516 0.003168038 -0.0037341225 -0.008442623 0.009368814
0.009970374 -0.015836988 0.015847838 -0.014978434 0.00795113 -0.00048013058 0.013815252 -0.0112151615
-0.00037505088 0.00049974077 -0.013260937 -0.015051693 -0.0012487355 0.010478796 -0.016252717 0.012280228
0.005726476 0.006901208 -0.013924633 0.011844347 -0.0015963061 -0.0025998072 -0.008507576 -0.0045140097
00000000: 5fca 58ba e0f7 aabb 7cbf d6ba ef11 4fbc
00000010: 76b4 5fbb 43f1 123c 5270 28bc 743b 1a3c
00000020: b9f4 e53b d387 143c 080d 613b dd74 b9bb
00000030: 192b 0bbc b9e5 3bbc 824b 473c c452 a83b
00000040: 8d4b 0bbc f4ce 853b c6bd 2ebc 7f8c 67bc
00000050: 2da0 793c ecaa 603c 3af7 823b e293 3bbb
00000060: 80dc 393c b39c 76ba b1c9 5abc d97a 4b3c
00000070: 0b67 483a 1b7d edbb bbf5 e6bb 5a12 aebb
00000080: d5e3 403c 0c51 813c 1006 0fbc 247b 773a
00000090: dc9e 4f3b 2eb8 74bb ed52 0abc a77f 193c
000000a0: c85a 233c 92bc 81bc 53d3 813c 1b68 75bc
000000b0: 7545 023c 09ba fbb9 5e59 623c ccbf 37bc
000000c0: 7aa2 c4b9 0901 033a 6744 59bc 609b 76bc
000000d0: 9cac a3ba 42af 2b3c 6b24 85bc 0233 493c
000000e0: 2aa5 bb3b 8723 e23b 2524 64bc cb0e 423c
000000f0: 253b d1ba 8761 2abb 5c63 0bbc 42ea 93bb

encoder.encoder.1.1.weight f4 [64]
0.31153637 0.11549498 0.21147166 0.13158295 0.109011 0.1984594 0.22969067 0.27851033
0.36828944 0.15068974 0.3237615 0.16044313 0.00069115806 0.051335003 0.27906007 0.2605892
0.20660676 0.17987014 0.062129647 0.19855852 0.24994285 0.28243157 0.25807047 0.12806936
0.20272736 0.113472775 0.32168767 0.3318036 0.04015215 0.19822937 0.3102081 0.06971361
0.19707258 0.105415225 0.31841695 0.13408007 0.3342773 0.11214802 0.10802139 0.30064052
0.2569817 0.23137577 0.21404311 0.3081003 0.2451966 0.3173674 0.1112379 0.08548716
0.3507182 0.0005467077 0.16438422 0.2821944 0.23069945 0.024712697 0.28638208 0.18754634
0.23775564 0.15550996 0.34028614 0.3294464 0.3118595 0.045069724 0.38377538 0.2700564
00000000: b281 9f3e a288 ec3d 078c 583e aebd 063e
00000010: 2941 df3d f138 4b3e 0834 6b3e e898 8e3e
00000020: 6f90 bc3e 694e 1a3e 11c4 a53e 344b 243e
00000030: d52e 353a a744 523d f6e0 8e3e f36b 853e
00000040: b990 533e e12f 383e a87b 7e3d ed52 4b3e
00000050: 05f1 7f3e df9a 903e d021 843e 9d24 033e
00000060: c397 4f3e 6a64 e83d 3fb4 a43e 29e2 a93e
00000070: 9576 243d a4fc 4a3e 99d3 9e3e 02c6 8e3d
00000080: 65cd 493e f0e3 d73d 8c07 a33e 494c 093e
00000090: 6526 ab3e dcad e53d 523a dd3d 8eed 993e
000000a0: 1b93 833e c5ed 6c3e 1e2e 5b3e 53bf 9d3e
000000b0: d114 7b3e fb7d a23e b2d0 e33d e413 af3d
000000c0: 5691 b33e ef50 0f3a 5654 283e c97b 903e
000000d0: 7a3c 6c3e 4872 ca3c aca0 923e 260c 403e
000000e0: 3776 733e 013e 1f3e fc39 ae3e 33ad a83e
000000f0: 0cac 9f3e 089b 383d 357e c43e d544 8a3e

encoder.encoder.1.1.bias f4 [64]
-0.13599302 -0.143799 -0.08877068 -0.02027208 -0.027151175 -0.020922396 -0.1548456 -0.14153093
-0.11496098 -0.053741213 -0.08912421 -0.08043945 -0.0073678857 -0.004601571 -0.16914323 -0.14426719
-0.0658327 -0.07310727 -0.055995222 -0.07092077 -0.097018264 -0.08013421 -0.08859687 -0.0049517914
-0.0964642 -0.046073154 -0.13158478 -0.12528567 0.027913937 -0.07267809 -0.15261899 -0.027604776
-0.05324443 -0.05572473 -0.08182854 -0.0034692711 -0.11852846 -0.06321361 -0.05377384 -0.087564096
-0.116727635 -0.10577598 -0.12491546 -0.09934488 -0.1280101 -0.12044132 -0.065507606 -0.04634458
-0.14105666 -0.00675305 -0.047098078 -0.15276963 -0.098302074 -0.021365263 -0.13907579 -0.12834172
-0.12052866 -0.07268258 -0.12140442 -0.109840244 -0.08940747 -0.00046478884 -0.13534608 -0.05930605
00000000: c141 0bbe 0c40 13be 67cd b5bd a211 a6bc
00000010: 246c debc 7265 abbc d88f 1ebe 7ced 10be
00000020: aa70 ebbd bf1f 5cbd c186 b6bd 70bd a4bd
00000030: 4e6e f1bb c6c8 96bb e233 2dbe c7ba 13be
00000040: 4bd3 86bd 44b9 95bd 3f5b 65bd e93e 91bd
00000050: 83b1 c6bd 681d a4bd 4772 b5bd a342 a2bb
00000060: 068f c5bd 34b7 3cbd 29be 06be e34a 00be
00000070: c5ab e43c 40d8 94bd 2748 1cbe 6923 e2bc
00000080: d516 5abd 9d3f 64bd b995 a7bd b65c 63bb
00000090: 0dbf f2bd 2376 81bd f541 5cbd ce54 b3bd
000000a0: e60e efbd 14a1 d8bd add3 ffbd 5475 cbbd
000000b0: 1415 03be f0a9 f6bd da28 86bd d0d3 3dbd
000000c0: 2871 10be b048 ddbb eae9 40bd a46f 1cbe
000000d0: 9952 c9bd 3406 afbc e269 0ebe 036c 03be
000000e0: bbd7 f6bd 9bda 94bd e1a2 f8bd ecf3 e0bd
000000f0: 431b b7bd e7ae f3b9 2a98 0abe e7ea 72bd

encoder.encoder.1.1.running_mean f4 [64]
-0.4080103 0.032287367 -0.21427698 -0.04475509 -0.044942394 -0.20650476 -0.009922284 -0.28778347
-0.52692187 -0.1270248 -0.54963845 -0.10067382 0.010393087 -0.04300029 -0.27502733 -0.5187461
-0.28131932 -0.34097895 0.017767148 -0.06582801 -0.2543183 -0.4155226 -0.39215335 -0.09560811
-0.18684964 -0.16388704 -0.4500852 -0.32365724 -0.040555917 -0.20468554 -0.46369636 -0.07182869
-0.28492007 0.022795029 -0.4220587 -0.119842075 -0.54340935 -0.08175722 -0.14680065 -0.42710713
-0.2549602 -0.31217948 -0.22005175 -0.19737814 -0.1940498 -0.36554003 -0.06956381 -0.026318923
-0.59955466 -0.031685997 -0.06134638 -0.17759712 -0.22910774 -0.012215261 -0.377673 0.10858723
-0.25212204 -0.122424796 -0.36007398 -0.56257373 -0.34565556 -0.027901493 -0.53990674 -0.4027468
00000000: bae6 d0be c23f 043d 6d6b 5bbe 1d51 37bd
00000010: 8415 38bd fc75 53be 1391 22bc 5b58 93be
00000020: 5ae4 06bf ca12 02be 1bb5 0cbf 132e cebd
00000030: c447 2a3c 1221 30bd 62d0 8cbe 8bcc 04bf
00000040: 1609 90be cb94 aebe 698c 913c d6d0 86bd
00000050: 0236 82be 61bf d4be 53c8 c8be 2fce c3bd
00000060: 8355 3fbe 01d2 27be 9171 e6be 67b6 a5be
00000070: f61d 26bd 1699 51be 9c69 edbe ec1a 93bd
00000080: 0be1 91be a4bc ba3c 1418 d8be c36f f5bd
00000090: e01c 0bbf 5470 a7bd e952 16be c9ad dabe
000000a0: 258a 82be fdd5 9fbe 3f55 61be 7f1d 4abe
000000b0: feb4 46be 1028 bbbe 7977 8ebd c89a d7bc
000000c0: 6a7c 19bf 2dc9 01bd 5746 7bbd 05dc 35be
000000d0: 389b 6abe 8522 48bc 5b5e c1be fb62 de3d
000000e0: 2416 81be dab9 fabd 9e5b b8be d504 10bf
000000f0: c4f9 b0be ac91 e4bc 5437 0abf d434 cebe

encoder.encoder.1.1.running_var f4 [64]
0.2222399 0.014098816 0.13906296 0.014968428 0.020868348 0.08043887 0.12526816 0.13251404
0.2222271 0.031246528 0.35894498 0.049789723 0.0012488429 0.0029831491 0.18064037 0.09277385
0.06307031 0.054435994 0.0042049666 0.11923649 0.056546018 0.19846492 0.15071014 0.019489257
0.059390947 0.015929379 0.24347419 0.2328685 0.0033462725 0.049644742 0.19826579 0.007833851
0.09666576 0.04247361 0.13487104 0.013989452 0.26820803 0.012129397 0.022992881 0.20587134
0.066859156 0.10596437 0.12681416 0.19550619 0.10520482 0.115049705 0.013544092 0.008267923
0.27437845 0.0018891176 0.02012064 0.09919237 0.05914565 0.0025627303 0.2517864 0.05584246
0.14175552 0.075785585 0.19703975 0.17630148 0.12708884 0.006549768 0.36681896 0.15395716
00000000: db92 633e b8fe 663c 8566 0e3e 233e 753c
00000010: 19f4 aa3c 22bd a43d 4c46 003e c3b1 073e
00000020: 808f 633e b8f8 ff3c a3c7 b73e 4ff0 4b3d
00000030: 37b0 a33a f080 433b caf9 383e 3700 be3d
00000040: 022b 813d 47f8 5e3d d1c9 893b 4332 f43d
00000050: cc9c 673d 633a 4b3e c253 1a3e efa7 9f3c
00000060: ec43 733d 547e 823c 4c51 793e 1475 6e3e
00000070: 234d 5b3b 4958 4b3d 3006 4b3e 8d59 003c
00000080: b3f8 c53d cff8 2d3d a21b 0a3e 0434 653c
00000090: 9052 893e 61ba 463c 915b bc3c f0cf 523e
000000a0: 74ed 883d d903 d93d 92db 013e c632 483e
000000b0: a075 d73d 2e9f eb3d 0ae8 5d3c 2f76 073c
000000c0: 557b 8c3e 459c f73a 0ad4 a43c 5f25 cb3d
000000d0: b642 723d 7bf3 273b 26ea 803e 10bb 643d
000000e0: 5c28 113e 7935 9b3d cac4 493e 6088 343e
000000f0: 9423 023e 709f d63b b2cf bb3e f2a6 1d3e

encoder.encoder.2.0.weight f4 [64, 64, 3, 3]
-0.051988248 0.0237582 -0.012136939 -0.014642374 -0.013444117 -0.054437637 0.04727695 -0.07266452
0.024969604 0.0020327794 -0.013781046 0.016686434 -0.0036744655 7.877365e-05 0.025501693 0.006858416
0.00906308 0.0040416773 -0.013973614 -0.023725841 -0.013498619 -0.008129857 0.0111166015 0.046478126
0.026146477 -0.0065626316 0.00597263 -0.003357771 -0.0044543725 0.0148140825 0.015797887 -0.0020789197
0.021235714 0.022549445 0.010507651 -0.0003292604 -0.008470877 0.020067168 0.021581503 0.0024624735
0.01375614 0.0065275272 0.002596294 -0.010824027 0.009386405 -0.004440744 0.02583564 0.018266477
-0.028048532 0.016911494 0.026167141 0.017687213 -0.0022059996 -0.0007402244 0.01174004 0.034435347
-0.027795827 -0.019495552 -0.10980623 -0.08032108 -0.020187324 -0.01021856 0.05137533 -0.052717414
0.037998565 -0.020900197 0.008336909 -0.010144167 -0.042924646 0.026289998 -0.075676985 0.028565267
-0.016838683 0.025672274 0.01873801 0.005631443 0.036948103 -0.006289627 -0.002133976 0.00567201
-0.04047851 0.008500482 0.019096315 0.021203203 -0.0023774188 0.03785044 0.024384888 0.0014602916
0.0019970827 -0.008201416 0.02538508 0.04715212 0.015385049 0.021245277 -0.028535746 -0.013692732
0.03189373 0.009445432 0.06382888 -0.004627087 0.01171796 0.012116829 -0.0026717724 0.010360938
0.0016513641 -0.004840154 -0.0070824334 0.0058605666 -0.0029511722 -0.014277569 -0.012923893 0.013924345
0.008487857 0.0006577968 0.004784466 0.006004112 -0.003625199 0.0036862667 -0.017227536 -0.01254998
0.022106944 -0.0034303565 -0.008930799 0.020484345 -2.6689107e-05 0.0007922279 -0.000761755 -0.041903913
-0.088530295 0.026755098 -0.03669645 -0.030392708 0.004359447 -0.05069687 0.020373048 -0.020313479
-0.025775898 0.0059187794 -0.018430753 -0.025334986 -0.03894379 -0.028671462 -0.03395372 -0.0060318206
0.0042480477 0.022944612 -0.0073396475 0.012448579 0.036351442 0.01267285 -0.023031157 -0.012081745
-0.002616696 -0.026039358 0.015384154 0.023728523 -0.012664301 0.022389133 -0.0022892167 -0.001093749
-0.008451815 -0.0017665273 -0.018223098 -0.015527339 -0.023396088 -0.017251126 -0.009089576 -0.01309018
-0.022317447 -0.0024545025 0.001930501 -0.009841249 -0.0038016431 -0.015083298 -0.0017289667 -0.015847996
-0.0044232733 -0.0056586075 0.014409026 -0.017705873 -0.051250875 0.02280283 -0.0016779619 -0.031401385
-0.011913653 -0.0033053001 -0.00961643 -0.029797846 -0.049165994 -0.020662235 0.0045000003 0.022605818
0.035458904 0.01891651 0.023151398 -0.023946801 -7.9166704e-05 0.03471783 0.030067293 -0.03777502
-0.008098181 -0.00034430486 0.008349886 0.013303209 0.0053640623 0.030229224 -0.024433808 -0.031210277
0.024990657 0.0059605297 -0.0134836985 0.011499178 0.0046776882 0.014410727 -0.009768293 -0.021505587
-0.019644996 0.015511425 0.018468944 -0.008581979 -0.012759097 -0.014698107 -0.022671027 -0.0058776746
-0.015623658 0.020346344 0.006846058 -0.008925047 0.02043269 0.012218597 0.008808987 0.032280773
0.022346664 0.011231979 -0.009388927 0.008318655 0.04506142 -0.021028308 -0.03664209 -0.027380755
-0.031861335 -0.02885412 -0.03755152 0.004273455 -0.018212805 -0.0157021 0.013887405 -0.0017883856
0.040681455 -0.016220074 -0.03236031 -0.04393339 0.0136001855 0.014991118 0.020329164 -0.012658666
00000000: a1f1 54bd 8fa0 c23c 03da 46bc 91e6 6fbc
00000010: b744 5cbc 00fa 5ebd 7aa5 413d 23d1 94bd
00000020: 0e8d cc3c 6138 053b e5c9 61bc fdb1 883c
00000030: 4dcf 70bb 4833 a538 ede8 d03c 90bc e03b
00000040: 507d 143c 0c70 843b 96f1 64bc b25c c2bc
00000050: 5029 5dbc 1733 05bc 6822 363c d95f 3e3d
00000060: 2331 d63c 580b d7bb 0db6 c33b 0d0e 5cbb
00000070: fcf5 91bb c4b6 723c 926a 813c 7c3e 08bb
00000080: 85f6 ad3c 9db9 b83c 4828 2c3c 95a0 acb9
00000090: 6fc9 0abc e763 a43c b1cb b03c 7361 213b
000000a0: 6f61 613c dee4 d53b 9626 2a3b 4257 31bc
000000b0: 70c9 193c a983 91bb 44a5 d33c 94a3 953c
000000c0: 09c6 e5bc f989 8a3c 795c d63c c6e4 903c
000000d0: 8892 10bb 9e0b 42ba 4c59 403c 140c 0d3d
000000e0: 13b4 e3bc 23b5 9fbc 17e2 e0bd 617f a4bd
000000f0: e35f a5bc bf6b 27bc f06e 523d 37ee 57bd
00000100: 62a4 1b3d e436 abbc 8897 083c b833 26bc
00000110: c1d1 2fbd 1f5e d73c 89fc 9abd b501 ea3c
00000120: 47f1 89bc a94e d23c 7580 993c f887 b83b
00000130: e556 173d 3719 cebb 2dda 0bbb 45dc b93b
00000140: cbcc 25bd 9b45 0b3c e06f 9c3c 57b2 ad3c
00000150: 78ce 1bbb 1009 1b3d d1c2 c73c 4167 bf3a
00000160: 7de1 023b 3b5f 06bc 5ff4 cf3c 9522 413d
00000170: 9311 7c3c 930a ae3c ccc3 e9bc 7b57 60bc
00000180: 00a3 023d 03c1 1a3c b7b8 823d d29e 97bb
00000190: b0fc 3f3c aa85 463c e718 2fbb ecc0 293c
000001a0: 9672 d83a 289a 9ebb c213 e8bb ff09 c03b
000001b0: 7468 41bb 77ec 69bc bcbe 53bc f022 643c
000001c0: a710 0b3c ff6f 2c3a 02c7 9c3b 24be c43b
000001d0: bf94 6dbb 4b95 713b c320 8dbc 6e9e 4dbc
000001e0: 9f19 b53c d5cf 60bb 7c52 12bc c9ce a73c
000001f0: 6ce2 dfb7 84ad 4f3a 83b0 47ba 70a3 2bbd
00000200: 5f4f b5bd 822d db3c 044f 16bd 21fa f8bc
00000210: b1d9 8e3b 85a7 4fbd 61e5 a63c 7468 a6bc
00000220: fa27 d3bc 52f2 c13b 17fc 96bc 518b cfbc
00000230: 8683 1fbd 6ae0 eabc 0e13 0bbd 94a6 c5bb
00000240: 3533 8b3b 57f6 bb3c 6d81 f0bb 20f5 4b3c
00000250: 40e5 143d c9a1 4f3c d6ab bcbc 83f2 45bc
00000260: e07c 2bbb 7e50 d5bc d20d 7c3c 5262 c23c
00000270: ee7d 4fbc 6a69 b73c af06 16bb 205c 8fba
00000280: 7b79 0abc d28a e7ba 9b48 95bc 6166 7ebc
00000290: 27a9 bfbc 3c52 8dbc 72ec 14bc 3278 56bc
000002a0: 14d3 b6bc b8db 20bb dd08 fd3a 313d 21bc
000002b0: fd24 79bb f01f 77bc 7f9e e2ba a8d3 81bc
000002c0: 1bf1 90bb d76b b9bb d613 6c3c e80b 91bc
000002d0: 70ec 51bd 00cd ba3c 0fef dbba bd9e 00bd
000002e0: 7c31 43bc bc9d 58bb 3b8e 1dbc 9d1a f4bc
000002f0: 4862 49bd d943 a9bc bd74 933b d62f b93c
00000300: 5b3d 113d ccf6 9a3c 00a8 bd3c 152c c4bc
00000310: 4d06 a6b8 4934 0e3d af4f f63c fbb9 1abd
00000320: 3cae 04bc d183 b4b9 f6cd 083c b4f5 593c
00000330: 04c5 af3b 47a3 f73c 6929 c8bc b2ac ffbc
00000340: 35b9 cc3c 8c50 c33b bbea 5cbc 0c67 3c3c
00000350: 4b47 993b f81a 6c3c 310b 20bc 7c2c b0bc
00000360: 8bee a0bc a223 7e3c 2f4c 973c 6e9b 0cbc
00000370: 880b 51bc 54d0 70bc 97b8 b9bc 8299 c0bb
00000380: 5ffa 7fbc 60ad a63c e654 e03b 5c3a 12bc
00000390: 7562 a73c 8330 483c 9253 103c d838 043d
000003a0: 5a10 b73c 5606 383c 04d4 19bc f84a 083c
000003b0: 5392 383d 8f43 acbc 0416 16bd 9b4d e0bc
000003c0: 0881 02bd 7a5f ecbc 9fcf 19bd 5708 8c3b
000003d0: 0533 95bc b1a1 80bc 0088 633c 4368 eaba
000003e0: 99a1 263d f6df 84bc 3f8c 04bd 80f3 33bd
000003f0: 50d3 5e3c 4e9d 753c 5989 a63c 4b66 4fbc

encoder.encoder.2.0.bias f4 [64]
0.008577951 -0.007507404 -0.008128295 -0.010879239 0.00725029 0.015602084 0.0033322817 0.010882713
-0.009147724 -0.0069046235 -0.009429842 -0.009744493 -0.00023752685 0.0060804402 0.014736779 -0.014360673
-0.0046908325 -0.0030802647 -0.0013660464 -0.012557107 0.0018448073 0.014992224 0.0028307776 -0.010078
-0.00044414436 -0.012376972 -0.014809087 -0.0023380725 0.0034851625 0.005548164 0.015187986 0.008924849
-0.00021687442 0.0086852675 0.001318571 -0.009543666 0.012772866 0.003854464 0.010801505 0.01254988
0.0015624192 -0.0112579055 -0.012641345 0.002044311 0.007842352 -0.011396201 -0.009930284 -0.009978602
-0.008920318 0.0031540068 -0.010956396 -0.0090732705 -0.015327835 -0.0035571912 -0.011731419 -0.0025667853
0.0014483193 -0.009103539 -0.008341321 0.01202778 0.00493086 0.0028519747 0.004603365 -0.00035776355
00000000: 898a 0c3c ab00 f6bb 8a2c 05bc d63e 32bc
00000010: d793 ed3b e29f 7f3c 6962 5a3b 684d 323c
00000020: 56e0 15bc 2e40 e2bb a07f 1abc 5ea7 1fbc
00000030: a110 79b9 6e3e c73b 8872 713c 0749 6bbc
00000040: 8eb5 99bb 44de 49bb e90c b3ba 53bc 4dbc
00000050: 76cd f13a f2a1 753c 9184 393b 321e 25bc
00000060: 0cdc e8b9 c8c8 4abc d0a1 72bc 593a 19bb
00000070: 5367 643b 5fcd b53b 08d7 783c 8839 123c
00000080: c968 63b9 a74c 0e3c e7d3 ac3a 095d 1cbc
00000090: 4845 513c 2d9b 7c3b ccf8 303c 039e 4d3c
000000a0: 17ca cc3a 1473 38bc a51d 4fbc d9f9 053b
000000b0: 357d 003c 22b7 3abc a1b2 22bc 4a7d 23bc
000000c0: 8726 12bc 74b3 4e3b 7582 33bc 0ea8 14bc
000000d0: 9a21 7bbc c41f 69bb 2335 40bc 8337 28bb
000000e0: 88d5 bd3a 0327 15bc 09aa 08bc 2a10 453c
000000f0: 0d93 a13b 32e8 3a3b d3d7 963b 3692 bbb9

encoder.encoder.2.1.weight f4 [64]
0.20436648 0.2369526 0.24519704 0.31176844 0.15459618 0.0834689 0.10717214 0.31773892
0.2353468 0.29264367 0.23647894 0.25386235 0.20679815 0.2974416 0.22843847 0.27317923
0.19703478 0.33996832 0.23567697 0.20038986 0.25110915 0.19513397 0.34629247 0.11201744
0.24890986 0.25965405 0.26694155 0.26520652 0.28785607 0.2861663 0.31073904 0.30205885
0.27179167 0.25051075 0.20495856 0.09057199 0.20346273 0.27875075 0.18873921 0.1539478
0.13469113 0.03561464 0.3396476 0.07239334 0.2060063 0.1628565 0.1404724 0.20891847
0.16237777 0.18535903 0.30688366 0.28842926 0.29618573 0.17945373 0.0939171 0.26445785
0.28109232 0.080798306 0.09893571 0.2380868 0.24243379 0.1173953 0.2137169 0.37210116
00000000: 7245 513e b4a3 723e ef14 7b3e 1da0 9f3e
00000010: 764e 1e3e bef1 aa3d 117d db3d adae a23e
00000020: c0fe 703e 64d5 953e 8927 723e 3ffa 813e
00000030: e5c2 533e 444a 983e c6eb 693e 26de 8b3e
00000040: 7cc3 493e 5410 ae3e 4e55 713e 0033 4d3e
00000050: 6191 803e 33d1 473e 3f4d b13e 6669 e53d
00000060: 3ae2 7e3e 60f1 843e 90ac 883e 26c9 873e
00000070: df61 933e 6484 923e 3019 9f3e 75a7 9a3e
00000080: 4728 8b3e f242 803e a8e0 513e cf7d b93d
00000090: 8958 503e 6bb8 8e3e da44 413e 7ea4 1d3e
000000a0: 79ec 093e a8e0 113d 4ae6 ad3e f642 943d
000000b0: 51f3 523e dbc3 263e ffd7 0f3e b9ee 553e
000000c0: 5c46 263e c2ce 3d3e db1f 9d3e 00ad 933e
000000d0: a8a5 973e b8c2 373e 9c57 c03d 0567 873e
000000e0: 55eb 8f3e 9579 a53d ce9e ca3d 07cd 733e
000000f0: 9040 783e f26c f03d 9ad8 5a3e 0b84 be3e

encoder.encoder.2.1.bias f4 [64]
-0.11940392 -0.10365744 -0.120361574 -0.10915952 -0.054725237 0.000846432 -0.030850133 -0.19355857
-0.1266191 -0.11908164 -0.060745157 -0.047385633 -0.02074426 -0.20367692 -0.096006684 -0.20174968
-0.073005326 -0.11111014 -0.09113461 -0.07265457 -0.09957278 -0.058946554 -0.0951594 -0.019891392
-0.068120554 -0.117704324 -0.03722874 -0.080109775 -0.045754246 -0.07676971 -0.114934124 -0.052321166
-0.14190531 -0.13631186 -0.057635617 0.009248278 -0.06886096 -0.009184893 -0.061760485 -0.100902684
0.011116141 -0.017226849 -0.06639102 -0.024211429 -0.020721156 -0.09716137 -0.057846915 -0.113837935
-0.10529892 -0.001795434 -0.07113857 -0.246956 -0.17332955 -0.08386039 -0.025801407 -0.09093958
-0.031667545 0.022054745 -0.04754915 -0.03686473 -0.037916392 0.008676166 0.022592478 -0.18805476
00000000: 0b8a f4bd 5a4a d4bd 2180 f6bd 078f dfbd
00000010: 9227 60bd 17e3 5d3a 6bb9 fcbc 3834 46be
00000020: 70a8 01be 13e1 f3bd eacf 78bd 7017 42bd
00000030: deef a9bc af90 50be 279f c4bd 7897 4ebe
00000040: d183 95bd b78d e3bd c8a4 babd ebcb 94bd
00000050: d0ec cbbd f171 71bd eee2 c2bd 46f3 a2bc
00000060: ca82 8bbd f70e f1bd 2a7d 18bd 9810 a4bd
00000070: ce68 3bbd 7039 9dbd 9562 ebbd b84e 56bd
00000080: a04f 11be 5695 0bbe 5313 6cbd 1786 173c
00000090: fa06 8dbd 3c7c 16bc 90f8 7cbd 11a6 cebd
000000a0: 7a20 363c 521f 8dbc 04f8 87bd 0c57 c6bc
000000b0: 6abf a9bc 8afc c6bd e3f0 6cbd dd23 e9bd
000000c0: f6a6 d7bd c554 ebba 19b1 91bd 09e2 7cbe
000000d0: 4d7d 31be ffbe abbd 795d d3bc 883e babd
000000e0: d4b5 01bd 27ac b43c e6c2 42bd 79ff 16bd
000000f0: 384e 1bbd 7a26 0e3c dc13 b93c 6d91 40be

encoder.encoder.2.1.running_mean f4 [64]
-0.13375346 -0.094273634 -0.12778148 -0.08891839 -0.028066786 -0.021405876 -0.025551524 0.083057396
-0.119679265 -0.2294677 -0.070805624 -0.1103157 -0.114209555 -0.15975267 -0.07641991 -0.19782229
-0.14046493 -0.082662985 -0.07852094 -0.0645826 -0.1621895 -0.04051035 -0.13793744 -0.06542501
-0.10370416 -0.20194761 -0.12694244 -0.100377396 -0.09060975 -0.15306637 -0.029014718 -0.10510241
-0.1834063 -0.17322287 -0.14306512 -0.029099477 -0.14778803 -0.13424607 -0.10295976 -0.07044012
-0.019157147 -0.0010140807 -0.11413782 -0.018130315 -0.06251624 -0.17898814 -0.048414193 -0.16372523
-0.053270992 -0.06486919 -0.043443378 -0.20427969 -0.064290114 -0.08600184 -0.042525772 -0.16006808
-0.13631536 -0.030611161 -0.02714634 -0.06495788 -0.08363364 -0.031950224 -0.05165418 -0.18617482
00000000: abf6 08be 8912 c1bd 26d9 02be d81a b6bd
00000010: 51ec e5bc 605b afbc 6e51 d1bc ff19 aa3d
00000020: 671a f5bd 95f9 6abe 8a02 91bd 33ed e1bd
00000030: b3e6 e9bd 3496 23be 0b82 9cbd ed91 4abe
00000040: 0ad6 0fbe 364b a9bd 96cf a0bd e243 84bd
00000050: 0115 26be 2eee 25bd 793f 0dbe 8cfd 85bd
00000060: d962 d4bd 5bcb 4ebe 33fd 01be aa92 cdbd
00000070: 9b91 b9bd 6ebd 1cbe 46b0 edbc ef3f d7bd
00000080: dcce 3bbe 5661 31be aa7f 12be 0762 eebc
00000090: bf55 17be cd77 09be 91dc d2bd e942 90bd
000000a0: 73ef 9cbc e7ea 84ba 17c1 e9bd 0786 94bc
000000b0: 8408 80bd ab48 37be f64d 46bd 96a7 27be
000000c0: af32 5abd 23da 84bd aff1 31bd b22e 51be
000000d0: 89aa 83bd bc21 b0bd 812f 2ebd e3e8 23be
000000e0: 4196 0bbe 42c4 fabc 0062 debc a308 85bd
000000f0: 1d48 abbd 3dde 02bd 5593 53bd 9da4 3ebe

encoder.encoder.2.1.running_var f4 [64]
0.01279677 0.00924656 0.010148669 0.0131690595 0.004524565 0.0013985421 0.0027382534 0.02465736
0.0102689 0.034090374 0.032626033 0.011395686 0.009805988 0.023358509 0.014465657 0.018591886
0.011652802 0.019486053 0.01125881 0.020509627 0.01802721 0.005745229 0.021860044 0.002750655
0.011075013 0.010961315 0.012682977 0.011300268 0.011695246 0.024762474 0.022426024 0.020298904
0.01447306 0.01635357 0.012854064 0.0014258821 0.010491985 0.014773968 0.0041257017 0.006216617
0.0018573981 0.0008009253 0.015336449 0.0010717217 0.006913271 0.006952967 0.0029452757 0.016532645
0.0073030437 0.007595243 0.015577013 0.025885137 0.012385057 0.004987635 0.0018167676 0.011583061
0.025919868 0.0011498336 0.0018563766 0.009340707 0.009545926 0.0023274594 0.00889638 0.022587955
00000000: 8ba9 513c e27e 173c 9a46 263c 0ac3 573c
00000010: cd42 943b 494f b73a 4574 333b 3bfe c93c
00000020: e33e 283c 59a2 0b3d e0a2 053d f9b4 3a3c
00000030: 4ba9 203c 585a bf3c 5d01 6d3c 034e 983c
00000040: 65eb 3e3c 37a1 9f3c df76 383c ce03 a83c
00000050: cdad 933c 7942 bc3b d613 b33c 5544 343b
00000060: f973 353c 1697 333c 43cc 4f3c c224 393c
00000070: 6b9d 3f3c acda ca3c c8b6 b73c e349 a63c
00000080: 6a20 6d3c ecf7 853c da99 523c aae4 ba3a
00000090: 93e6 2b3c 830e 723c e530 873b c3b4 cb3b
000000a0: f073 f33a 30f5 513a bb45 7b3c 0379 8c3a
000000b0: b888 e23b b7d5 e33b 8705 413b 786f 873c
000000c0: 5f4e ef3b 84e1 f83b ba36 7f3c 110d d43c
000000d0: b2ea 4a3c 516f a33b 9b20 ee3a e1c6 3d3c
000000e0: e755 d43c 03b6 963a aa51 f33a c409 193c
000000f0: 8466 1c3c 4a88 183b 1fc2 113c 600a b93c

encoder.encoder.3.0.weight f4 [64, 64, 3, 3]
0.0033724841 1.9517343e-05 0.027266853 0.009107319 0.018190278 0.012975313 0.0041209273 0.04230226
-0.016057206 -0.0039660996 0.023599127 0.024376618 -0.017780468 -0.024090854 -0.021605466 -0.011538478
-0.02550809 0.00015190395 0.009425153 0.025728486 0.0081129875 -0.02262945 0.003141901 -0.010820485
0.00651105 -0.0026857741 -0.009365476 -0.0077475524 -0.011045133 0.01975605 0.007463924 0.019789563
0.01652049 4.418875e-05 -0.0051599657 0.0039099823 0.0066841417 -0.00031251193 0.02384886 0.009858267
-0.014957406 -0.0039309203 -0.005511004 -0.0039389976 -0.014095481 -0.010158706 0.009169112 0.002360881
-0.010946111 -0.014823503 0.0017662399 -0.012230189 -0.0028153807 0.0035132642 -0.011570998 -0.00015158912
0.008791274 -0.011211768 0.0016625172 0.004116064 -0.012817639 -0.0016491081 0.009313042 -0.019838281
0.007496429 -0.0024784934 -0.03566546 -0.024206202 -0.002704012 0.008382688 0.004885219 -0.0059519825
0.026433729 0.0048598275 -0.0060384152 -0.024789548 -0.0029669208 0.001817828 -0.0041052625 -0.027453205
-0.022420418 0.0024925647 -0.016461559 -0.01247425 -0.008385837 -0.00045571284 0.0101502165 -0.002980224
-0.016255237 -0.020120807 -0.0016694465 0.040379584 0.020806551 -0.039485246 -0.02689545 -0.046673477
0.025844982 -0.02225859 0.006362408 0.014190552 0.03687141 0.0047028484 -0.022011023 -0.0020761779
0.010600046 -0.012644143 -0.008998339 -0.015549931 -0.001250506 0.0115584275 0.023055965 -0.0006729948
0.015562217 0.011762453 -0.01784427 -0.009436502 -0.006666541 0.012595373 -0.0008976198 0.028469823
-0.011525536 -0.025864858 -0.020420074 -0.002346894 -0.003024176 -0.023387674 0.0302134 0.059719283
0.05621866 -0.02234614 -0.0045383023 -0.020602489 0.013543924 -0.016981866 -0.004947928 -0.0074751773
-0.016979083 0.004829693 -0.005590056 -0.006716444 -0.031981416 -0.01725638 -0.025534844 -0.024907919
-0.0139704095 -0.03552771 -0.007059056 0.022563796 0.022258228 0.02181838 0.047672294 0.03864133
0.017215863 -0.008795526 0.04085954 0.046236683 -0.026831442 -0.020759284 -0.014895123 -0.003996825
-0.0068887393 -0.02700843 0.013283608 0.023733545 0.009312808 -0.023012107 -0.0028527684 -0.007271947
-0.008257249 -0.013185193 -0.019301413 0.039504725 0.0015138851 -0.010096564 0.07326715 0.04159779
0.038895268 0.0024592876 0.035963837 0.035145197 -0.0042731552 -0.021825813 0.0029528302 -0.036970105
-0.010698466 -0.026110075 -0.025825547 -0.0224951 -0.026527833 -0.019482106 -0.031291097 -0.0019083641
-0.007623459 0.0031324322 0.0180797 0.0048041446 -0.010211847 -0.0073407665 0.00903549 -0.0039420943
0.0025390787 0.0050874325 -0.0038380749 0.01153659 -0.0013948411 -0.011770993 0.023743019 -0.0074039125
-0.015976602 0.008781492 -0.016547106 0.009855424 -0.0012521871 -0.02192411 -0.006781991 0.004537277
0.0030856046 0.014190957 0.010293732 -0.0015049152 0.024669483 0.001664314 -0.008847526 -0.020643048
-0.013890717 -0.0060655647 0.014803423 0.013580689 -0.0028379145 -0.024066549 -0.01071602 0.010955056
-0.01704886 -0.008755455 -0.00278368 0.029162277 0.002214503 -0.017807163 0.015036977 -0.00893913
0.007909969 0.027775407 0.0070479773 0.010971235 -0.006891606 0.00014552398 -0.012752367 -0.03538553
-0.033133414 -0.046077445 -0.014443055 -0.01622431 -0.03799015 -0.021217793 -0.0141833415 -0.011490646
00000000: e504 5d3b 2db9 a337 bc5e df3c dd36 153c
00000010: c703 953c 6896 543c d808 873b 2245 2d3d
00000020: 678a 83bc 0ef6 81bb f552 c13c 79b1 c73c
00000030: 58a8 91bc 2f5a c5bc f2fd b0bc e20b 3dbc
00000040: 58f6 d0bc 6848 1f39 f56b 1a3c 8cc4 d23c
00000050: 56ec 043c 6561 b9bc 5ae8 4d3b 6748 31bc
00000060: a55a d53b d003 30bb a771 19bc 2edf fdbb
00000070: a5f6 34bc 71d7 a13c ef93 f43b b91d a23c
00000080: fb55 873c 4f57 3938 ee14 a9bb 4f1f 803b
00000090: a506 db3b a4d8 a3b9 af5e c33c 9284 213c
000000a0: e80f 75bc f3ce 80bb a795 b4bb b512 81bb
000000b0: bbf0 66bc b470 26bc 0b3a 163c 03b9 1a3b
000000c0: 5157 33bc 47de 72bc 2d81 e73a 2161 48bc
000000d0: 4082 38bb cb3e 663b 4894 3dbc e5f3 1eb9
000000e0: 4709 103c 90b1 37bc d2e8 d93a 0ce0 863b
000000f0: 1301 52bc e326 d8ba bb95 183c e483 a2bc
00000100: 9ba4 f53b 386e 22bb f215 12bd 164c c6bc
00000110: cb35 31bb 8b57 093c 3014 a03b d908 c3bb
00000120: 8c8b d83c 303f 9f3b e6dd c5bb 7313 cbbc
00000130: ac70 42bb 3044 ee3a 7085 86bb 8be5 e0bc
00000140: 06ab b7bc 4c5a 233b 64da 86bc cc60 4cbc
00000150: c064 09bc beec eeb9 184d 263c dd4f 43bb
00000160: b429 85bc 64d4 a4bc 54d1 daba 1065 253d
00000170: 8072 aa3c 48bb 21bd d953 dcbc b02c 3fbd
00000180: dbb8 d33c a657 b6bc bf7b d03b 7d7f 683c
00000190: 7a06 173d 5a1a 9a3b 7650 b4bc 7c10 08bb
000001a0: d1ab 2d3c 6129 4fbc c56d 13bc 23c5 7ebc
000001b0: 05e8 a3ba 8f5f 3d3c dddf bc3c eb6b 30ba
000001c0: abf8 7e3c 4eb7 403c 262e 92bc 8f9b 1abc
000001d0: 0073 dabb d35c 4e3c 3f4e 6bba 8c39 e93c
000001e0: 9ad5 3cbc 8ae2 d3bc 0048 a7bc 59ce 19bb
000001f0: 4131 46bb 8297 bfbc 1882 f73c 359c 743d
00000200: 8a45 663d 410f b7bc 0ab6 94bb 8dc6 a8bc
00000210: 56e7 5d3c 8e1d 8bbc 3a22 a2bb 55f2 f4bb
00000220: b817 8bbc 6742 9e3b ca2c b7bb 9e15 dcbb
00000230: f2fe 02bd 405d 8dbc 732e d1bc b10b ccbc
00000240: 25e4 64bc 8185 11bd a74f e7bb b6d7 b83c
00000250: e356 b63c 76bc b23c 0644 433d 5f46 1e3d
00000260: 4808 8d3c 1c1b 10bc 555c 273d ad62 3d3d
00000270: 9dcd dbbc 600f aabc ad0a 74bc ccf7 82bb
00000280: efba e1bb c840 ddbc 7da3 593c da6c c23c
00000290: bf94 183c e383 bcbc 83f5 3abb 8349 eebb
000002a0: 6a49 07bc b506 58bc ff1d 9ebc b5cf 213d
000002b0: 8e6d c63a 0f6c 25bc 160d 963d 7262 2a3d
000002c0: a550 1f3d 002c 213b d14e 133d 69f4 0f3d
000002d0: d305 8cbb 0ccc b2bc 4584 413b f76d 17bd
000002e0: 9e48 2fbc cce4 d5bc 1990 d3bc a547 b8bc
000002f0: e650 d9bc f098 9fbc 182b 00bd 1322 faba
00000300: 36ce f9bb 7e49 4d3b e11b 943c 166c 9d3b
00000310: 974f 27bc d08a f0bb 9809 143c af2c 81bb
00000320: ac66 263b 7ab4 a63b 3688 7bbb f703 3d3c
00000330: 1ad3 b6ba 1fdb 40bc b880 c23c 859c f2bb
00000340: 5de1 82bc 3fe0 0f3c cc8d 87bc a578 213c
00000350: 6d20 a4ba 319a b3bc 773b debb 70ad 943b
00000360: db37 4a3b 3081 683c 0ba7 283c 9340 c5ba
00000370: a817 ca3c 1c25 da3a 37f5 10bc 9c1b a9bc
00000380: e495 63bc a5c1 c6bb 0e8a 723c 8a81 5e3c
00000390: 4efc 39bb 3627 c5bc 3f92 2fbc d67c 333c
000003a0: 0daa 8bbc 0a73 0fbc 676e 36bb bae5 ee3c
000003b0: 3221 113b 54e0 91bc a75d 763c 6e75 12bc
000003c0: d198 013c 4089 e33c b8f2 e63b b2c0 333c
000003d0: fbd2 e1bb cc97 1839 4eef 50bc 6bf0 10bd
000003e0: e7b6 07bd b4bb 3cbd 90a2 6cbc d8e8 84bc
000003f0: 8f9b 1bbd f0d0 adbc 3f61 68bc 4343 3cbc
