saves_concept/pacs/cartoon/max_acc.pth (torch_old, 526838 bytes, 28 tensors)

encoder.encoder.0.0.weight f4 [64, 3, 3, 3]
0	0xbc62187c	-0.013799783
1	0xbd723030	-0.059127986
2	0x3db8fd0c	0.0903264
3	0xbdd0af30	-0.10189664
4	0xbdb6129d	-0.08890269
5	0xbdd8bedc	-0.105832785
6	0xbc6feaa5	-0.014643346
7	0xbdb3b165	-0.0877407
8	0x3de6d7b2	0.11271609
9	0x3b645e65	0.0034846303
10	0xbe15d01c	-0.14630169
11	0xbc8fed26	-0.017569136
12	0x3cb8f923	0.022579735
13	0xbcb0ff0c	-0.02160599
14	0xbcce09c4	-0.025151141
15	0x3c82157e	0.015879389
16	0xbd7de2ba	-0.0619838
17	0xbdd4bbfc	-0.10387418
18	0x3d89ded7	0.067319565
19	0x3dce6787	0.1007834
20	0x3cf07d9c	0.02935677
21	0x3dcdc0cc	0.10046539
22	0xbcfca5c7	-0.030840768
23	0x3e096129	0.1341597
24	0x3cd6667b	0.026171913
25	0x3d98484a	0.07435663
26	0x3d93e74b	0.0722185
27	0x3dea071e	0.11427139
28	0xbc1f469f	-0.009721427
29	0x3d85f4df	0.06540846
30	0x3c1ee053	0.009697038
31	0xbdfad5d7	-0.12247818
32	0x3dfb4b80	0.1227026
33	0x3cab82dc	0.020936422
34	0xbd620f24	-0.05519022
35	0x3d36b932	0.04461021
36	0xbd2774eb	-0.040882986
37	0x3df17718	0.117902935
38	0x3da87d83	0.082270645
39	0x38cff8ac	9.916848e-05
40	0xbd23ee05	-0.040021915
41	0x3d8efb18	0.06981486
42	0x3c90f3f7	0.017694457
43	0xbe03e4cf	-0.12880252
44	0x3ce7e9dc	0.028309755
45	0x3c9fb34b	0.019494673
46	0x3dcce5c3	0.10004761
47	0x3de0757d	0.10959909
48	0x3dd2559e	0.102702364
49	0xbda7fb6f	-0.08202254
50	0x3d2f448b	0.042789977
51	0x3d221130	0.039567173
52	0xbac7e310	-0.0015250165
53	0x3d9c448a	0.0763026
54	0x3e2cd7e5	0.16879232
55	0x3e3376b1	0.17525746
56	0x3df02e39	0.11727566
57	0x3e038ec1	0.12847425
58	0xbc3c28b8	-0.0114843175
59	0x3e403f6b	0.18774192
60	0x3d9edc40	0.07756853
61	0x3d89a320	0.06720567
62	0x3ddf5fea	0.10906966
63	0xbdd9c80f	-0.10633861
64	0x3d816ebe	0.063199505
65	0xbe08161b	-0.13289683
66	0xbd4d3621	-0.05010045
67	0x3c86dc20	0.016462386
68	0xbdb648e9	-0.08900625
69	0xbd94be20	-0.07262826
70	0x3d650ca7	0.05592027
71	0xbe0e2568	-0.13881457
72	0x3d300243	0.042970907
73	0xbdadc26b	-0.08484348
74	0x3d4c5132	0.04988212
75	0xbd22ecab	-0.039776485
76	0x3d9043c9	0.07044179
77	0xbd885002	-0.06655885
78	0xbdca9b3e	-0.09892891
79	0x3ce96966	0.02849264
80	0xbdb73263	-0.089451574
81	0xbe654bf4	-0.22392255
82	0x3dcb8b38	0.09938663
83	0xbcd464df	-0.025927005
84	0x3c024129	0.007950106
85	0x3e226382	0.15858272
86	0xbcd791c4	-0.026314624
87	0xbd2db6c2	-0.04241062
88	0x3bac4427	0.005257148
89	0x3b66cbe2	0.0035216738
90	0xbe47245f	-0.19447468
91	0x3df607f3	0.12013235
92	0xbde05e4e	-0.10955487
93	0xbb823b1e	-0.0039743325
94	0x3ddcdbd6	0.10784118
95	0xbe0fb07e	-0.1403217
96	0xbdf122d4	-0.11774221
97	0x3e27c0e5	0.16382177
98	0x3dd78b3f	0.10524606
99	0xbdb7a1f9	-0.08966441
100	0x3db2d069	0.08731157
101	0xbd853ab3	-0.065053366
102	0x3d33d86d	0.04390757
103	0xbcc1de19	-0.023665475
104	0xbd1a3edf	-0.037657615
105	0x3c1a6884	0.0094243325
106	0x3d8bfafb	0.0683498
107	0x3c933b3c	0.017972581
108	0xbd0b7a54	-0.034052208
109	0xbdcf3d15	-0.10119072
110	0x3e058e52	0.13042572
111	0x3df39acb	0.11894759
112	0xbb207d21	-0.0024488645
113	0xbdd661fe	-0.10467909
114	0xbdd32df6	-0.10311501
115	0xbc1bc6ee	-0.009507878
116	0x3e02d318	0.12775838
117	0x3b69ceb4	0.0035676183
118	0xbd22f85f	-0.039787646
119	0xbc7a1f71	-0.015266285
120	0xbd79040e	-0.060794882
121	0xbdbc4d81	-0.0919447
122	0x3d94e2c3	0.07269814
123	0xbd355761	-0.044272784
124	0x3d9b5b54	0.07585779
125	0x3e0859ff	0.13315581
126	0xbdb50ce1	-0.08840347
127	0x3dc1be65	0.09460143
128	0xbce8c6eb	-0.028415164
129	0x3d31577f	0.043296333
130	0x3d861f0c	0.065488905
131	0x3d94b8cd	0.072618105
132	0xbcfab836	-0.030605417
133	0x3dea8a9f	0.11452221
134	0xbdacace0	-0.08431411
135	0x3e0ad3c2	0.13557342
136	0xbcff0c9b	-0.03113394
137	0x3e32b301	0.17451097
138	0x3d05f337	0.03270265
139	0xbbd60172	-0.006530934
140	0xbd829bfb	-0.06377407
141	0x3da28de1	0.079372175
142	0x3dc72971	0.09724701
143	0x3dc558dd	0.0963609
144	0x3d4c4f60	0.049880385
145	0x3d20cc59	0.03925738
146	0x3b5348a6	0.0032239347
147	0xbd10748e	-0.035267405
148	0xbd85ffa6	-0.06542902
149	0xbde1cfae	-0.1102594
150	0xbc94585d	-0.018108541
151	0xbe05380d	-0.13009663
152	0xbd8ab4ba	-0.06772752
153	0x3e0815ca	0.13289562
154	0xbcc40e84	-0.023932703
155	0x3d599fa5	0.053130765
156	0xbd30bfe9	-0.04315177
157	0x3cb39085	0.021919498
158	0xbc16387f	-0.009168743
159	0x3dcc6990	0.09981072
160	0xbd89af9e	-0.067229494
161	0x3d66f5e5	0.056386847
162	0x3d90ad7a	0.07064338
163	0x3cc66704	0.024219044
164	0x3e180c60	0.1484847
165	0x3dce47a9	0.10072262
166	0x3e143d63	0.14476542
167	0x3e06bdc6	0.1315833
168	0x3d862b9c	0.065512866
169	0x3d011064	0.031509772
170	0x3c232a83	0.009958866
171	0xba854f9a	-0.0010170818
172	0xbe505de3	-0.20348315
173	0xbd8cf2a9	-0.06882221
174	0xbde65adc	-0.11247799
175	0xbe48fa1d	-0.1962666
176	0xbdd055cc	-0.101726145
177	0xbdaa5acf	-0.083181016
178	0xbe6eb0cb	-0.23309629
179	0xbdfb5bae	-0.12273346
180	0xbdae8178	-0.08520788
181	0xbd5dada5	-0.05412068
182	0x3e0cb094	0.13739234
183	0x3dc7f4cc	0.09763488
184	0x3d927626	0.07151441
185	0xbc02cb0a	-0.007982979
186	0xbd890aab	-0.06691488
187	0x3d11690a	0.035500564
188	0x3e389538	0.18025672
189	0xbdad376e	-0.08457838
190	0x3dbe19c2	0.09282257
191	0xbc8e2e10	-0.017355949
192	0xbcaa02a9	-0.020753222
193	0xbd02e12e	-0.03195303
194	0xbde06aab	-0.10957845
195	0xbd21b99e	-0.03948366
196	0xbd7e8a9b	-0.062143903
197	0x3d98c213	0.07458892
198	0xbd927cbb	-0.07152697
199	0x3e25e1e8	0.16199458
200	0x3d5f2d0d	0.054486323
201	0x3dcf2aae	0.101155624
202	0xbc8e0296	-0.017335217
203	0x3ddfcaee	0.10927378
204	0x3e1dd67d	0.15413852
205	0xbdc761c1	-0.09735442
206	0xbcf048c0	-0.029331565
207	0x3ceda3c7	0.02900876
208	0x3d30f994	0.043206766
209	0xbd5e0117	-0.054200258
210	0xbc186d2f	-0.009303375
211	0x3dfb80bd	0.12280414
212	0xbddf0543	-0.108896755
213	0xbd9bcc86	-0.07607369
214	0xbe097223	-0.13422446
215	0xbc973509	-0.018457906
216	0xbdcc1751	-0.09965385
217	0x3df857f2	0.12126149
218	0xbd97ba2d	-0.07408557
219	0xbe84d7a0	-0.2594576
220	0xbe305f77	-0.17223917
221	0xbe0d25ad	-0.13783903
222	0x3dd94fc7	0.106109194
223	0x3d015e7f	0.03158426
224	0x3d8d9783	0.06913664
225	0x3cd20aae	0.025639858
226	0x3dde5c72	0.10857476
227	0xbd91f3e3	-0.07126596
228	0xbdf46168	-0.11932641
229	0x3db1b4cd	0.08677063
230	0xbcf0f3f8	-0.029413208
231	0x3e672f4d	0.22576638
232	0x3e5e5111	0.21710612
233	0x3dd07441	0.10178424
234	0xbdeba524	-0.115061074
235	0xbd96bacf	-0.0735985
236	0xbdd4fedf	-0.10400175
237	0xbe8a0433	-0.2695633
238	0xbd345804	-0.04402925
239	0xbe03366a	-0.12813726
240	0x3d9d2a7a	0.076741174
241	0x3de32e9f	0.11092877
242	0x3e87924f	0.26478812
243	0xbddaf2d9	-0.10690851
244	0xbdf25013	-0.11831679
245	0xbda61ecf	-0.08111345
246	0xbdf65d08	-0.12029463
247	0xbd0b97e3	-0.034080397
248	0xbca3583f	-0.01993954
249	0x3e207cf0	0.1567266
250	0x3e04dd4f	0.12975048
251	0xbce660d0	-0.028122336
252	0xbdd6158f	-0.10453331
253	0x3e032e82	0.1281071
254	0xbddafaf2	-0.10692395
255	0xbdbda66b	-0.09260257

encoder.encoder.0.0.bias f4 [64]
0	0xbd9fc6df	-0.078016035
1	0x3a173122	0.0005767514
2	0x3d651d49	0.05593613
3	0x3dfe2cb4	0.1241087
4	0xbd17c77c	-0.037055477
5	0xbdcebad4	-0.100942284
6	0xbda34053	-0.07971253
7	0x3dfb2820	0.122635126
8	0x3d931574	0.07181826
9	0x3dd1030c	0.10205659
10	0xbd3925fd	-0.045202244
11	0xbdf72cae	-0.12069069
12	0xbdf8b00b	-0.121429525
13	0x3dabe8b4	0.08393994
14	0xbd822a73	-0.06355753
15	0xbd815e5e	-0.06316827
16	0xbd9620c1	-0.07330466
17	0x3de40de3	0.11135461
18	0xbdea9a31	-0.11455191
19	0xbdf63359	-0.120215125
20	0x3dd9cab4	0.10634366
21	0x3d8fd405	0.070228614
22	0xbcf15145	-0.029457698
23	0x3df309fb	0.11867138
24	0xbc0fbf2f	-0.008773609
25	0xbe042b2a	-0.12907091
26	0xbd389af8	-0.045069665
27	0x3ca5cbaf	0.020238725
28	0xbd29765c	-0.041372642
29	0xbde9d0d9	-0.11416788
30	0x3daa372c	0.083113045
31	0x3cf42638	0.02980338
32	0xbddbd3dd	-0.10733769
33	0x3dc829e8	0.09773618
34	0x3cc73bbd	0.024320478
35	0x3ba40dd4	0.0050065313
36	0x3d1652b5	0.03669997
37	0xbe01801e	-0.12646529
38	0xbccfd2e4	-0.025369115
39	0xbdfafaa2	-0.12254836
40	0x3dc00132	0.09375228
41	0xbdf36436	-0.11884348
42	0xbdf2a79a	-0.11848374
43	0xbc71f718	-0.014768384
44	0xbd538f71	-0.05165047
45	0xbd8d381b	-0.06895467
46	0x3db7409b	0.089478694
47	0x3c8aee0b	0.01695921
48	0x3ab58075	0.0013847487
49	0xbddcc75e	-0.10780214
50	0x3d682514	0.056675985
51	0x3daa96a3	0.08329513
52	0xbc93335a	-0.017968822
53	0x3df638a9	0.12022526
54	0x3d8f12de	0.069860205
55	0x3df9409e	0.12170528
56	0x3c86684e	0.016407158
57	0x3c8e3766	0.0173604
58	0x3dbeccc0	0.09316397
59	0xbd4c8892	-0.04993493
60	0x3ca897fa	0.02058028
61	0xbd1ffa3d	-0.039057005
62	0xbd97c492	-0.0741054
63	0xbce2934b	-0.027658125

encoder.encoder.0.1.weight f4 [64]
0	0x3e1a0a2a	0.1504294
1	0x3e0a78c5	0.13522632
2	0x3f1a8e58	0.6037345
3	0x3ec1deee	0.37865394
4	0x3ee7dba6	0.45284766
5	0x3f2b8a72	0.67008126
6	0x3ec596bb	0.3859156
7	0x3e3ade2d	0.18248816
8	0x3f3ca986	0.7369617
9	0x3e38ae94	0.18035346
10	0x3f23004f	0.63672346
11	0x3da7cd42	0.08193447
12	0x3f166167	0.58742374
13	0x3ec753d0	0.3893113
14	0x3e2e4b97	0.17021023
15	0x3e6de5f9	0.23232259
16	0x3ef40b80	0.47665024
17	0x3dccb44d	0.09995327
18	0x3e5bca92	0.21463993
19	0x3e6df5b4	0.2323826
20	0x3eb9f469	0.36319283
21	0x3d42cabf	0.047556635
22	0x3e1bcafe	0.15214154
23	0x3e0ec43d	0.13942046
24	0x3ee21aec	0.44161165
25	0x3f249277	0.6428599
26	0x3d9fa814	0.0779573
27	0x3e85a39f	0.26101395
28	0x3f0c757f	0.54866785
29	0x3e64fb67	0.22361527
30	0x3e89162d	0.2677473
31	0x3e8dfc75	0.27731672
32	0x3ef5bbed	0.47994938
33	0x3e8696f6	0.2628705
34	0x3f283bb4	0.657161
35	0x3eac0671	0.33598664
36	0x3f1b7a26	0.6073326
37	0x3f123581	0.5711289
38	0x3f245f75	0.64208156
39	0x3f02f8d8	0.51160955
40	0x3ef70ff0	0.48254347
41	0x3db6e90d	0.0893117
42	0x3e97aafb	0.29622635
43	0x3f10f8b8	0.56629515
44	0x3f130f1c	0.5744493
45	0x3f0a082d	0.53918725
46	0x3ed058b1	0.40692666
47	0x3eaee028	0.34155393
48	0x3e4d13bc	0.2002706
49	0x3f34c00c	0.7060554
50	0x3e50b6b3	0.20382194
51	0x3ea95165	0.33069912
52	0x3e23db57	0.1600164
53	0x3ed789cc	0.42097318
54	0x3edfc2bc	0.43703258
55	0x3ea8a984	0.3294183
56	0x3f284097	0.65723556
57	0x3f101cd7	0.56294006
58	0x3f1b2b81	0.60613257
59	0x3f36d755	0.7142232
60	0x3ee0696d	0.43830433
61	0x3f2b380e	0.6688241
62	0x3f287358	0.65801
63	0x3f078b89	0.5294729

encoder.encoder.0.1.bias f4 [64]
0	0xbc496a19	-0.012293362
1	0x3bccf0c6	0.0062542884
2	0xbcc8ae1e	-0.024497088
3	0xbcabbf53	-0.020965254
4	0xbc3414d1	-0.010991291
5	0xbd3c1a7d	-0.0459237
6	0xbd691f61	-0.05691469
7	0x3c59090a	0.013246784
8	0xbbdb4ba3	-0.006692366
9	0xbc283587	-0.010266668
10	0xbd04a039	-0.032379363
11	0x3c30da4b	0.010794233
12	0x3d5b152b	0.053486984
13	0xbd9c29eb	-0.07625183
14	0x3d1579da	0.03649316
15	0xbcee1a9b	-0.02906542
16	0xbddb2a7f	-0.10701465
17	0xbcfbd22d	-0.030739868
18	0x3c2168bf	0.009851634
19	0x3c71620a	0.014732847
20	0xbd05a9b3	-0.03263254
21	0xb9b4e43a	-0.00034502317
22	0x3d08a7ed	0.03336327
23	0x3aa9a7ee	0.0012943724
24	0xbc267daf	-0.010161801
25	0x3c2004f8	0.00976681
26	0xbc757c10	-0.014983192
27	0x3c686af0	0.014185652
28	0x3d42b0d2	0.04753191
29	0xbd39aac7	-0.04532888
30	0x3c7bb0f7	0.015362016
31	0xba901a6f	-0.0010994206
32	0xbcfeefa7	-0.031120135
33	0x3b869448	0.004107032
34	0x3b8c492a	0.004281183
35	0xbd3cace4	-0.04606332
36	0x3d849b02	0.06474878
37	0x3cb5c8f0	0.022190541
38	0xbcd036e8	-0.025416806
39	0xbdbe467c	-0.092907876
40	0xbd062c87	-0.03275731
41	0xbd0ad3d4	-0.03389342
42	0xbcabc546	-0.02096809
43	0xbd9fe553	-0.07807412
44	0xbd0dd472	-0.03462643
45	0xbc91aea7	-0.017783476
46	0xba85cd40	-0.0010208264
47	0x3d2c556a	0.042073645
48	0xbd0c2a81	-0.034220222
49	0xbd75ff7b	-0.0600581
50	0x3c84a294	0.016190805
51	0xbc090bdf	-0.008364647
52	0xba0a9d2d	-0.0005287703
53	0xbd216f18	-0.039412588
54	0xbdd5448e	-0.104134664
55	0x3d20539d	0.03914224
56	0x3c57eedc	0.013179507
57	0x3d7ecd7e	0.06220769
58	0x3d171cc8	0.036892682
59	0x3c6d77f2	0.014493929
60	0xbd9489cd	-0.07252846
61	0x3d83ee11	0.06441892
62	0xbd0da394	-0.03457983
63	0x3d1ad255	0.037798245

encoder.encoder.0.1.running_mean f4 [64]
0	0xbc7f239d	-0.015572456
1	0x3f9156fe	1.1354673
2	0x3f041de6	0.5160812
3	0xbce9531f	-0.028482018
4	0x3ea24767	0.316951
5	0x3efd2fa3	0.49450406
6	0xbe7f0893	-0.24905615
7	0x3d7181df	0.058961745
8	0xbe23bf68	-0.15990984
9	0xbdc31552	-0.09525551
10	0x3f27c7ae	0.6553906
11	0x3ee44f53	0.4459177
12	0xbe8cb23a	-0.27479726
13	0xbf503496	-0.8133024
14	0xbe3c2d13	-0.1837657
15	0xbee4bc14	-0.44674742
16	0xbed0ebcf	-0.40804908
17	0xbf09ef73	-0.53880996
18	0x3de78b61	0.11305881
19	0xbe32ade5	-0.17449148
20	0xbe78166c	-0.24227303
21	0x3e87021b	0.26368794
22	0x3f6b1f57	0.91844696
23	0x3e829c12	0.25509697
24	0x3f1617bd	0.5862997
25	0xbebc1528	-0.3673489
26	0x3d0873d0	0.033313572
27	0xbbd3a030	-0.006458305
28	0xbe393a99	-0.1808876
29	0xbf0c0dea	-0.5470873
30	0xbd069fee	-0.032867365
31	0xbd5bbe4a	-0.05364827
32	0xbe4df3cb	-0.20112531
33	0x3febe64a	1.8429654
34	0x3f81dd4d	1.0145661
35	0xbe25e08b	-0.16198938
36	0x3ea12b3f	0.31478307
37	0xbe966dac	-0.29380548
38	0x3f0a50e6	0.5402969
39	0xbf6c670e	-0.9234475
40	0x3ef33360	0.47500134
41	0xbf6534cc	-0.89533687
42	0xbea665b9	-0.32499483
43	0xbcdccb59	-0.026952432
44	0xbebadac5	-0.36495033
45	0xbf2a145e	-0.6643733
46	0xbcbf00a4	-0.023315735
47	0xbda667be	-0.08125256
48	0xbe58314a	-0.21112552
49	0xbe5f3940	-0.21799183
50	0x3e7112cd	0.23542328
51	0x3cf20b31	0.029546352
52	0x3e954889	0.29156902
53	0x3f108645	0.5645488
54	0xbf99c3ff	-1.2012938
55	0x3cef2c0a	0.029195804
56	0x3f2f47ff	0.6846923
57	0xbdc24eb7	-0.0948767
58	0xbda5dff6	-0.08099358
59	0xbebdee96	-0.3709609
60	0xbf38b93d	-0.7215765
61	0xbd749dc3	-0.059720766
62	0x3f071fec	0.52783084
63	0x3ef2438d	0.47317162

encoder.encoder.0.1.running_var f4 [64]
0	0x3d7d5734	0.06185074
1	0x3f5a6362	0.85307896
2	0x3e96126f	0.2931094
3	0x3da1605a	0.07879706
4	0x3de341c4	0.11096528
5	0x3e84a1d8	0.25904727
6	0x3e013bed	0.12620516
7	0x3cceef65	0.025260637
8	0x3e718fe3	0.23590045
9	0x3dbd840d	0.09253702
10	0x3ea9386a	0.33050853
11	0x3e7d4f6a	0.24737325
12	0x3e27efc8	0.16400063
13	0x3f139094	0.57642484
14	0x3d0a0235	0.03369351
15	0x3e0fcb69	0.14042439
16	0x3de6b7e7	0.11265545
17	0x3ea92ae6	0.3304054
18	0x3d6afad3	0.05736811
19	0x3d2fb000	0.042892456
20	0x3e0c1f0b	0.13683717
21	0x3d570267	0.052492525
22	0x3f1d7829	0.61511475
23	0x3d090f13	0.03346164
24	0x3e83d928	0.25751615
25	0x3e98b4d7	0.2982547
26	0x3cbd7b16	0.023129981
27	0x3d4a5bc7	0.049403932
28	0x3e27c796	0.1638473
29	0x3e390644	0.18068796
30	0x3d3c34ad	0.045948673
31	0x3d741c6e	0.059597425
32	0x3e168989	0.14700903
33	0x3ffc3bba	1.9705727
34	0x3f262595	0.64901096
35	0x3de7df3c	0.113218755
36	0x3f3017e3	0.6878645
37	0x3e451885	0.19247635
38	0x3e8ba297	0.27272484
39	0x3f093031	0.5358916
40	0x3e476ad2	0.19474342
41	0x3edf204c	0.43579328
42	0x3dd0f58f	0.102030866
43	0x3e091ac9	0.13389124
44	0x3e66a39f	0.22523354
45	0x3ea443a4	0.32082856
46	0x3e1c9a1e	0.15293166
47	0x3da3865f	0.079846136
48	0x3da98696	0.08277623
49	0x3df8c1ef	0.12146365
50	0x3d849de5	0.064754285
51	0x3d74cf33	0.059767913
52	0x3dda7f84	0.10668853
53	0x3e24b4fe	0.16084668
54	0x3f8d0db8	1.1019812
55	0x3d996ddc	0.07491657
56	0x3eaf62d1	0.34255078
57	0x3e9cc493	0.30618724
58	0x3e59d2e9	0.21271862
59	0x3ebd882a	0.37017947
60	0x3ed98aa4	0.42488587
61	0x3e7b56a4	0.2454477
62	0x3e8f1a9b	0.27949986
63	0x3e9192d1	0.28432325

encoder.encoder.1.0.weight f4 [64, 64, 3, 3]
0	0x3c93e0f0	0.018051594
1	0x3cd70863	0.026249116
2	0xbc118fd3	-0.008884388
3	0x3bf41d5f	0.0074497904
4	0xbbb65ad4	-0.005565027
5	0xbbde7110	-0.0067883804
6	0xbcd1da33	-0.02561674
7	0x3cbd9837	0.02314387
8	0x3c821e3b	0.015883556
9	0xbbd6153e	-0.006533294
10	0xbbd3ffdd	-0.0064697103
11	0x3b3483d3	0.0027544394
12	0xbc271861	-0.0101986835
13	0xbc89bf86	-0.016814958
14	0x3cbd113f	0.023079513
15	0xbba07eca	-0.004897927
16	0x3c277aa8	0.010222115
17	0xbc97465a	-0.018466163
18	0x3a62213f	0.000862617
19	0x3cacd045	0.021095404
20	0x3bb0d23d	0.005396156
21	0xbab81edb	-0.0014047282
22	0x3cc014e4	0.023447461
23	0x3cba4e73	0.022742486
24	0x3c810afe	0.015752312
25	0x3cd59e92	0.026076589
26	0x3c56bf65	0.013107155
27	0x3b5e86b0	0.0033954792
28	0xbc792528	-0.015206613
29	0xbcbe9a2d	-0.023266876
30	0x3adf260e	0.0017024891
31	0xbc8a87fa	-0.016910542
32	0xbc0f76e5	-0.008756374
33	0xbc59e51e	-0.013299255
34	0x3c512dad	0.012767238
35	0x3d05f710	0.03270632
36	0x3c055f38	0.008140378
37	0xbc819c37	-0.01582156
38	0x3bc05917	0.0058699953
39	0xbb54efd2	-0.0032491577
40	0xbc85d74f	-0.016338019
41	0x3c5a5399	0.013325595
42	0xbcaf72b6	-0.021417003
43	0xbcd9a4a7	-0.02656777
44	0xbcd1dc8f	-0.025617866
45	0x3ca4269f	0.020037947
46	0x3c0ca1f9	0.008583539
47	0x3c986f90	0.018607885
48	0x3cf33b66	0.02969141
49	0x3cd542d7	0.026032848
50	0x3ce145df	0.027499137
51	0xbc4ae976	-0.012384763
52	0x3b21f2d8	0.0024711397
53	0x3ce667cc	0.028125666
54	0xbd0014fc	-0.031270012
55	0x3c7e4ebd	0.015521702
56	0x3d058a58	0.032602638
57	0x3c835871	0.016033383
58	0x3d278450	0.040897667
59	0x3c748630	0.014924571
60	0x3c843443	0.016138202
61	0x3d252e55	0.04032739
62	0x3b5ccc85	0.003369124
63	0x3cf95292	0.03043488
64	0x3cce8587	0.025210155
65	0x3a815b7d	0.0009869185
66	0xbc81941a	-0.01581769
67	0xbcf3279d	-0.029681975
68	0x3ca7cb58	0.020482704
69	0xbc069bd2	-0.008215861
70	0xbc83548b	-0.016031524
71	0xbbdad18b	-0.0066778115
72	0xbca56365	-0.020188997
73	0x3a03d830	0.0005029468
74	0xbb432a1c	-0.0029779738
75	0xbceb48e5	-0.028721282
76	0x3b411f3e	0.0029468085
77	0xbc838414	-0.01605419
78	0x3c743afc	0.014906641
79	0x3d14c203	0.036317836
80	0x3c2cf88b	0.010557304
81	0x3ba434de	0.005011185
82	0xbc94b901	-0.018154623
83	0xbad1cc93	-0.0016006402
84	0x3cb669be	0.022267219
85	0x3c1409d3	0.009035545
86	0xbc4c9486	-0.012486583
87	0x3ac5c155	0.0015087525
88	0xba287a2a	-0.0006426895
89	0xbc83fa50	-0.01611057
90	0x3c80635c	0.015672378
91	0x3bfa7e66	0.0076444624
92	0x3c961f23	0.018325394
93	0x3bd9777e	0.006636559
94	0xbc499b41	-0.012305082
95	0x3a8f49fc	0.0010932083
96	0x3ad599a6	0.0016296401
97	0x3c7057a0	0.014669329
98	0x3cc35338	0.023843393
99	0x3ccd2ca7	0.025045706
100	0x3c5ebad3	0.013594347
101	0xbce01642	-0.027354363
102	0xbc4af748	-0.012388058
103	0x3cd6c993	0.026219165
104	0xbab56437	-0.001383907
105	0xbccee61b	-0.025256207
106	0x3c3afa78	0.0114122555
107	0xbccd7d9c	-0.02508431
108	0xbb984a30	-0.0046475157
109	0xbc971b8d	-0.018445754
110	0x3c974e13	0.018469846
111	0x3ccec1e0	0.025238931
112	0x3bb3b012	0.0054836357
113	0x3ceba502	0.028765205
114	0xbd02bc03	-0.031917583
115	0x3a664e05	0.00087854295
116	0xbccbeb11	-0.024892362
117	0xbcace501	-0.021105291
118	0xbb09adc1	-0.0021008106
119	0x3b87ba08	0.0041420497
120	0xbac6bd7c	-0.0015162672
121	0x3caaed4a	0.020865101
122	0xbd02447a	-0.031803586
123	0xbc376d20	-0.011195451
124	0xbbb5bc07	-0.0055460962
125	0xbcb5749e	-0.022150334
126	0xbc42e29b	-0.011894847
127	0x3cd70827	0.026249005
128	0x3ce6a145	0.028153071
129	0xbc91a73d	-0.01777994
130	0x3b9aefd8	0.0047282986
131	0x3cfaf1a2	0.030632798
132	0xbbd74efc	-0.006570695
133	0x3c5b1154	0.013370831
134	0x3cedaa63	0.02901191
135	0xbcc066fb	-0.023486605
136	0xbcde4aa0	-0.027135193
137	0x3bdc8829	0.0067300987
138	0x3c712838	0.014719062
139	0xbca4ddee	-0.020125356
140	0x3a8c6fe3	0.0010714497
141	0x3cb2eb04	0.02184058
142	0xbc6f3963	-0.014601084
143	0x3b155079	0.002278356
144	0xbca9b983	-0.020718342
145	0xbcc52f13	-0.024070298
146	0xba9b9e93	-0.001187282
147	0xbd0dbc3f	-0.034603354
148	0x3c418496	0.011811396
149	0xbc6e0ec5	-0.0145298885
150	0xbbdf119a	-0.006807518
151	0xbca244f6	-0.019808274
152	0xbadc3593	-0.0016800634
153	0xbcd60728	-0.02612646
154	0x3ca2c340	0.019868493
155	0x3b38a6ac	0.0028175516
156	0xbc9720a8	-0.018448189
157	0xbc9db8d0	-0.019253165
158	0x3bd7f129	0.006590028
159	0x3c964852	0.018345032
160	0x3b13cf97	0.0022554153
161	0x3bd19418	0.006395828
162	0x3c44451a	0.011979366
163	0xbb8d8715	-0.0043190815
164	0xbb816aaa	-0.003949483
165	0x3ba150f1	0.004922979
166	0xbc882044	-0.016616948
167	0xbca5de87	-0.02024771
168	0xbc8a5134	-0.016884424
169	0x3cb30bd5	0.021856228
170	0xba2b741e	-0.0006540435
171	0x3c60739c	0.013699438
172	0xbc3d29e7	-0.011545635
173	0xbccac965	-0.024754236
174	0x3c42bc52	0.011885719
175	0xbcaf5772	-0.021404002
176	0x3b687df0	0.0035475455
177	0x3c017b17	0.007902882
178	0xbb87e387	-0.0041469964
179	0x3b5c857d	0.00336489
180	0x3bf6f97a	0.007537064
181	0x3c95ef51	0.018302592
182	0x3c134b6d	0.008990151
183	0x3cf15b47	0.02946247
184	0x3d1b52eb	0.037920874
185	0x3c90db3a	0.01768266
186	0xbc108a74	-0.008822072
187	0xbc7d5ccc	-0.015464019
188	0x3c2793c9	0.010228106
189	0x3b91a01b	0.004444135
190	0xbc39d556	-0.011342367
191	0x3cd255d1	0.025675686
192	0xbc8a89fe	-0.016911503
193	0x3c93f5b2	0.018061493
194	0xbc7cc85a	-0.015428627
195	0x3c3863a5	0.011254226
196	0xbc54ab28	-0.01298026
197	0x3c23d48e	0.009999407
198	0x3c91f899	0.017818736
199	0xbc6217da	-0.013799632
200	0xbc04b844	-0.008100573
201	0x3cba6571	0.02275345
202	0xbbf28cdb	-0.007402045
203	0xbca8484b	-0.020542284
204	0x3ce5dd70	0.028059691
205	0x3ce7edce	0.028311636
206	0x3cabba4d	0.020962859
207	0x3c94648f	0.018114356
208	0xbc081c05	-0.008307462
209	0xbc106cd0	-0.008815005
210	0x3cace533	0.021105384
211	0xb9cff8f8	-0.00039667613
212	0x3cb43dd4	0.022002138
213	0x3cbe2852	0.023212586
214	0x3b8eaae8	0.0043538697
215	0x3a8098aa	0.0009811122
216	0xbc33c563	-0.010972354
217	0x3c08d4d1	0.008351521
218	0x3c82ed63	0.015982335
219	0xb81f858b	-3.8032926e-05
220	0x3bfa2f9f	0.0076350714
221	0xbc4073bf	-0.011746346
222	0xbc6a21df	-0.014290302
223	0xbad173cd	-0.0015979946
224	0xbc7c51f8	-0.015400402
225	0x3bbca5a5	0.005757051
226	0x3c194a77	0.009356133
227	0xbd14ed9e	-0.036359422
228	0xbca0f4a1	-0.019647898
229	0xbbd9ac5b	-0.006642861
230	0xbce4c322	-0.027925078
231	0xbad011c1	-0.0015874432
232	0xbc8faef6	-0.017539483
233	0xbc8e99f5	-0.017407397
234	0xba1551c5	-0.00056960835
235	0xbb02d166	-0.0019961237
236	0x3ccce485	0.02501131
237	0xbce93908	-0.028469577
238	0x3b8f2c57	0.0043692994
239	0xbb94c282	-0.0045397887
240	0xbcd01bfe	-0.025403973
241	0x3cbeed66	0.02330656
242	0xbc7bb869	-0.015363791
243	0x3d024ff5	0.031814534
244	0xbc8d4ae2	-0.017247621
245	0xbc1c5407	-0.009541518
246	0x3cf4394a	0.029812474
247	0xbcc11309	-0.023568647
248	0xbbdafdf0	-0.0066831037
249	0xbc7ecf7e	-0.0155524
250	0x3acdf6fb	0.0015713865
251	0xbcff7820	-0.03118521
252	0x3c6b38cf	0.014356806
253	0xbc60a004	-0.013710026
254	0x3d03dd64	0.032193556
255	0xbc166988	-0.009180434

encoder.encoder.1.0.bias f4 [64]
0	0xbbef2c52	-0.0072989846
1	0xbcd1f7fc	-0.025630943
2	0x3c04b17e	0.008098958
3	0x3cc96e23	0.02458865
4	0xbbbd6ae7	-0.005780566
5	0xbce867ab	-0.028369745
6	0xbcdf4bbc	-0.027257793
7	0xbca7e5b1	-0.020495268
8	0x3c8bc527	0.017061783
9	0x3c285269	0.010273554
10	0xbb29a02c	-0.0025882823
11	0x3c2089c8	0.009798475
12	0xbcb70240	-0.02233994
13	0xbcaf65d6	-0.021410864
14	0x3b47ae14	0.003046875
15	0x3c402b0c	0.011729013
16	0x3c7522f7	0.01496195
17	0xbb9b3e3f	-0.004737645
18	0x3bb69b20	0.0055726916
19	0xbc20890e	-0.009798301
20	0x3ca1ceef	0.019751994
21	0xbccdd67f	-0.025126694
22	0x3c84abb3	0.016195154
23	0x3ba4feb4	0.005035246
24	0x3cb0ad75	0.021567086
25	0xbc13323e	-0.008984147
26	0xbbabe707	-0.0052460465
27	0x3c3d9d4d	0.011573148
28	0xba90497e	-0.001100823
29	0x3c47cb58	0.012194477
30	0xbcdace2c	-0.026709639
31	0x3cbef141	0.023308398
32	0xbcbb6698	-0.022876069
33	0x3cbca726	0.023028921
34	0x3b759d15	0.0037477661
35	0x3caf39f6	0.021389943
36	0x3c4cd41b	0.012501742
37	0x3c9c9789	0.019115226
38	0x3cb317d0	0.02186194
39	0x3c22bb51	0.009932355
40	0x3c87125b	0.016488245
41	0x3cbee86d	0.023304189
42	0xbc0ceaa9	-0.008600869
43	0xbbd2f339	-0.006437686
44	0x3c557012	0.013027208
45	0x3c1bb60c	0.009503853
46	0x3b8a87cb	0.0042276136
47	0x3cd5daa2	0.026105229
48	0x3a13d56c	0.00056394073
49	0xbcdfa8e4	-0.027302213
50	0x3b38e93f	0.0028215197
51	0xbc1d3db2	-0.009597229
52	0x3c710c9e	0.014712481
53	0xbcac2f3d	-0.021018619
54	0x3cdf0e15	0.027228395
55	0xbca8b30b	-0.020593187
56	0xbb1aef57	-0.0023641193
57	0x3c6e78aa	0.014555136
58	0xbc80ee0a	-0.015738506
59	0x3c81706d	0.01580068
60	0xbcb3dcb5	-0.021955827
61	0xbc783e31	-0.015151546
62	0xbc3f8f46	-0.011691874
63	0xbb7009fc	-0.0036627045

encoder.encoder.1.1.weight f4 [64]
0	0x3e1abaa9	0.15110268
1	0x3ef79701	0.48357394
2	0x3ec9630c	0.3933338
3	0x3f172702	0.59043896
4	0x3dfd9728	0.123823464
5	0x3dff9a3b	0.12480589
6	0x3edba0b4	0.42896044
7	0x3eb6f0ee	0.3573069
8	0x3e92adc2	0.28648192
9	0x3eb8d5c2	0.36100584
10	0x3d805a1c	0.06267187
11	0x3ed6c4d2	0.41947037
12	0x3ec6a473	0.3879734
13	0x3e0b44a1	0.13600399
14	0x3eb7f28a	0.3592723
15	0x3f07b08f	0.5300378
16	0x3ed9030f	0.42385146
17	0x3f0eae19	0.557344
18	0x3ed4277a	0.41436368
19	0x3ce38113	0.027771508
20	0x3f151dc6	0.58248556
21	0x3f45478c	0.77062297
22	0x3ef453a5	0.47720066
23	0x3ebdce1f	0.3707132
24	0x3e9e1613	0.30876216
25	0x3d62dac7	0.055384424
26	0x3e6f5be0	0.23374891
27	0x3e33a0ad	0.17541762
28	0x3eb3c76b	0.3511308
29	0x3e9a968a	0.30192977
30	0x3ec53892	0.38519722
31	0x3e500d0e	0.2031748
32	0x3e85d714	0.26140654
33	0x3ee14c84	0.4400369
34	0x3e32a10c	0.17444247
35	0x3d7eaafe	0.06217479
36	0x3ee73ded	0.45164433
37	0x3ea4d470	0.32193327
38	0x3e91efe1	0.28503326
39	0x3e781d05	0.2422982
40	0x3ed69987	0.41914007
41	0x3e96c2cd	0.29445496
42	0x3f10b232	0.56521904
43	0x3ef87d96	0.48533314
44	0x3f0d6e00	0.5524597
45	0x3d43d448	0.04780987
46	0x3eab5fc2	0.33471495
47	0x3ec7eca6	0.39047736
48	0x3e8b49b1	0.2720466
49	0x3e8241aa	0.25440723
50	0x3df99da5	0.121882714
51	0x3f11573e	0.56773746
52	0x3f0bf246	0.54666555
53	0x3f0ce9c4	0.550442
54	0x39b1fab1	0.0003394685
55	0x3ec1f7f9	0.378845
56	0x3e669385	0.22517212
57	0x3f00b24f	0.5027208
58	0x3e82ad3f	0.255228
59	0x3e210f59	0.15728511
60	0x3ead93bd	0.33901778
61	0x3e426419	0.18983497
62	0x3ee9dc5d	0.45675936
63	0x3ed1a77f	0.40948102

encoder.encoder.1.1.bias f4 [64]
0	0xbd2de6a5	-0.042456288
1	0xbd80e2ca	-0.062932566
2	0xbd6afc32	-0.05736942
3	0xbe1bea91	-0.15226199
4	0x39be9bdf	0.00036355757
5	0xbd0c23e9	-0.034213934
6	0xbe17c952	-0.14822891
7	0xbe08cb7d	-0.13358875
8	0xbac277de	-0.0014836749
9	0xbd74ce13	-0.05976684
10	0x3ceb7797	0.028743548
11	0xbddb88d3	-0.107194565
12	0xbd33b75a	-0.04387603
13	0xbd11f429	-0.03563324
14	0x3ce6176a	0.028087337
15	0xbe16e2fb	-0.14735024
16	0xbd326d8a	-0.043561496
17	0x3c08c6c5	0.008348172
18	0xbd51012b	-0.051026504
19	0xbbf4ed78	-0.0074745975
20	0xbd87d231	-0.06631888
21	0x3cff0861	0.031131925
22	0xbcdf8217	-0.027283711
23	0xbcb6a604	-0.02229596
24	0xbe255b16	-0.16148028
25	0x38b72080	8.7321736e-05
26	0xbd65a595	-0.056066114
27	0xbb217edd	-0.0024642267
28	0xbdc0e22c	-0.09418139
29	0x39d35621	0.00040309227
30	0xbdade048	-0.08490044
31	0xbd9c6245	-0.07635931
32	0x3ce86f6f	0.028373448
33	0xbdaa80b9	-0.08325333
34	0xbc1bb7ea	-0.009504298
35	0x3ca59e93	0.020217216
36	0xbe076699	-0.13222732
37	0xbd12cd4a	-0.03584031
38	0xbc87853f	-0.016543029
39	0xbc895581	-0.016764404
40	0xbc388d82	-0.011264207
41	0xbce99fc3	-0.028518563
42	0x3cff8102	0.031189445
43	0xbdb2ebf4	-0.08736411
44	0xbbf9b41f	-0.007620349
45	0xbc28bd78	-0.010299079
46	0xbd4845ba	-0.04889462
47	0xbd867f62	-0.06567265
48	0xbd28234c	-0.041049287
49	0xbdd7c309	-0.10535247
50	0xbcbd6abf	-0.02312219
51	0xbe3147db	-0.17312567
52	0xbdef328f	-0.11679565
53	0xbdb403e2	-0.08789803
54	0xbb3def5e	-0.0028981785
55	0xbe193632	-0.1496208
56	0xbd16deab	-0.036833446
57	0xbd9353a8	-0.071936905
58	0xbd3d5246	-0.04622104
59	0xba756583	-0.0009361135
60	0xbd09c252	-0.033632584
61	0xbd86b8ea	-0.06578238
62	0xbe251b79	-0.16123761
63	0xbdba34c5	-0.09092096

encoder.encoder.1.1.running_mean f4 [64]
0	0x3dfec937	0.124407224
1	0xbe98e73c	-0.29863918
2	0xbf03a34d	-0.5142105
3	0x3eabc802	0.3355103
4	0x3cd78804	0.026309974
5	0xbcc586e0	-0.024112165
6	0x3f29425f	0.661169
7	0x3e3e138a	0.18562141
8	0xbdd7f467	-0.10544663
9	0xbd08e214	-0.03341873
10	0xbe04edd6	-0.12981352
11	0x3ea0704e	0.31335682
12	0xbe865340	-0.2623539
13	0x3d5254fc	0.05135058
14	0xbf1e067f	-0.6172866
15	0xbf041538	-0.5159488
16	0xbf04e22e	-0.5190762
17	0xbeec7388	-0.46181893
18	0xbf14123c	-0.57840323
19	0xbdf60b63	-0.120138906
20	0xbf4cbfa7	-0.7997994
21	0xbecbff0f	-0.39843032
22	0xbe187ab5	-0.14890559
23	0xbeef80d6	-0.46777982
24	0x3f5f984e	0.87341774
25	0xbd5dd636	-0.054159366
26	0xbcd9bf45	-0.026580462
27	0xbe9a4537	-0.30130932
28	0x3dce0ab1	0.10060633
29	0xbf03079b	-0.5118348
30	0xbdc79a40	-0.09746218
31	0x3e99da24	0.3004924
32	0xbe237345	-0.1596194
33	0xbeae9b15	-0.34102693
34	0xbd9608d3	-0.07325902
35	0xbd803d16	-0.06261651
36	0xbe1e5e5d	-0.15465684
37	0xbe03ce2a	-0.12871614
38	0xbcea9a21	-0.028637948
39	0x3c964419	0.018343018
40	0xbedf9473	-0.43667945
41	0x3de48de9	0.1115988
42	0xbf23e474	-0.64020467
43	0xbea0f224	-0.3143474
44	0xbf066f54	-0.52513623
45	0x3d492610	0.049108565
46	0xbe9c94c1	-0.3058224
47	0xbed2fe34	-0.41209567
48	0xbe4598b0	-0.19296527
49	0x3ea8d4b4	0.3297478
50	0xbd8525d2	-0.06501354
51	0x3e5677df	0.20944165
52	0xbf4f42ba	-0.8096119
53	0x3da90f07	0.08254819
54	0xbb6900ab	-0.0035553377
55	0x3f0e0cf0	0.5548849
56	0xbe333d85	-0.17503937
57	0xbc0d5f10	-0.008628622
58	0xbd0b8a32	-0.03406734
59	0xbdaeb28d	-0.085301496
60	0xbe202dbb	-0.15642445
61	0x3d79d563	0.060994517
62	0x3f9ca092	1.2236502
63	0x3e3a833a	0.18214121

encoder.encoder.1.1.running_var f4 [64]
0	0x3dc8031e	0.097662196
1	0x3e5a497d	0.21317096
2	0x3e7f1310	0.24909616
3	0x3ebb4466	0.3657562
4	0x3d2d5a55	0.042322475
5	0x3cddd422	0.027078692
6	0x3f092ec6	0.53586996
7	0x3e9b574c	0.3034004
8	0x3e81b0a4	0.2533008
9	0x3e4ed2ad	0.20197554
10	0x3d334b79	0.04377315
11	0x3e2209da	0.1582407
12	0x3e0ea06d	0.13928385
13	0x3d54207b	0.05178879
14	0x3f151f4e	0.5825089
15	0x3f1ff513	0.6248333
16	0x3e6e3426	0.2326208
17	0x3e8d3e8a	0.27586776
18	0x3e9e85f1	0.30961564
19	0x3c74d499	0.014943265
20	0x3ec905f2	0.39262348
21	0x3eca62e0	0.3952856
22	0x3e38360e	0.1798937
23	0x3e78a5d9	0.24282016
24	0x3ead3c93	0.33835277
25	0x3c0fb582	0.008771302
26	0x3d468a4e	0.04847174
27	0x3d61dc3d	0.055141676
28	0x3e491a57	0.19638954
29	0x3e418d18	0.18901479
30	0x3e80b6e6	0.2513954
31	0x3d7be147	0.061494138
32	0x3d9d9861	0.076950796
33	0x3e312658	0.17299783
34	0x3cfea199	0.031082915
35	0x3c8c62b6	0.017136913
36	0x3ec28e87	0.37999365
37	0x3e356bd9	0.17716922
38	0x3e13c18c	0.14429301
39	0x3e091561	0.13387062
40	0x3e9d7585	0.30753723
41	0x3e5c69d2	0.21524742
42	0x3f0b9c5d	0.54535466
43	0x3f0c51cd	0.5481232
44	0x3f013a32	0.50479424
45	0x3cae9fcd	0.021316433
46	0x3e16d77e	0.14730641
47	0x3e4b1d8f	0.19835494
48	0x3dbd8246	0.09253363
49	0x3d94e4c5	0.07270197
50	0x3d183b8f	0.037166175
51	0x3e2dea07	0.16983806
52	0x3f38d779	0.72203785
53	0x3f0a2d1c	0.5397508
54	0x3c0f1141	0.008732141
55	0x3e61cfd9	0.22051944
56	0x3df37072	0.118866816
57	0x3f02c666	0.5108398
58	0x3de9c703	0.114149116
59	0x3d3502ac	0.044192
60	0x3da6b7ad	0.08140502
61	0x3cef992a	0.029247839
62	0x3ed1edc3	0.4100171
63	0x3eef69f8	0.46760535

encoder.encoder.2.0.weight f4 [64, 64, 3, 3]
0	0x3ba7883e	0.005112677
1	0x3c873183	0.016503101
2	0xbb5214ff	-0.0032055972
3	0xbbcefdfb	-0.006316898
4	0x3bdf7ba7	0.0068201604
5	0x3c9142a7	0.017731978
6	0x3cbe8915	0.023258725
7	0x3cffe627	0.031237675
8	0x3b5bec7e	0.0033557708
9	0xbc81b468	-0.015833095
10	0x3b5c4083	0.0033607788
11	0x3d162d69	0.0366644
12	0x3ab7b3ec	0.0014015413
13	0x3c5b9797	0.013402841
14	0x3d19430f	0.037417468
15	0x3cfb87ae	0.030704346
16	0x3bc34d5f	0.005960151
17	0xbd561864	-0.052269354
18	0x3cb19c63	0.021681016
19	0x3cab249f	0.020891486
20	0x3c618c08	0.013766296
21	0xbc24f3a2	-0.010067852
22	0xbc688c92	-0.014193671
23	0xbbdf4647	-0.0068137976
24	0xbc83fd55	-0.016112009
25	0xbb9292fb	-0.004473088
26	0x3bc41567	0.0059839967
27	0xbcb05562	-0.021525089
28	0x3c7eb437	0.015545896
29	0x3c8ac84e	0.016941216
30	0xba8bd325	-0.0010667784
31	0xbb2c1a3d	-0.0026260756
32	0xbc8e34ac	-0.0173591
33	0x3beb6949	0.007184182
34	0x3ce12b7a	0.027486552
35	0xb7eb28eb	-2.8033237e-05
36	0x3ce9eaf1	0.028554412
37	0x3cdf187c	0.027233355
38	0xbc2ed403	-0.010670665
39	0xbc862a97	-0.01637773
40	0xbc26d83f	-0.010183393
41	0x3bb16279	0.00541335
42	0x3bd39021	0.0064563905
43	0xbc92c957	-0.017918272
44	0xbcb63802	-0.022243503
45	0x3cdba2f2	0.026811097
46	0x3ce37a52	0.027768288
47	0x3b98f666	0.004668045
48	0x3c62ac95	0.013835092
49	0x3c3bc90f	0.01146151
50	0xbcf643c9	-0.03006162
51	0xbc978336	-0.018495183
52	0x3bc9c3a7	0.006157357
53	0xbcbfd685	-0.02341772
54	0x3d231a00	0.039819717
55	0xba5aa634	-0.0008340806
56	0xbc2c04b6	-0.01049917
57	0x3b962a2f	0.0045826654
58	0xbb0ed713	-0.0021795675
59	0x3ba33519	0.004980695
60	0xbc4f0baf	-0.012637063
61	0x3b8bf00f	0.0042705606
62	0x3c9011a9	0.017586546
63	0x3cdd7018	0.02703099
64	0x3c4e0ab8	0.012575798
65	0xbb334f46	-0.0027360483
66	0x3bf39679	0.007433709
67	0xbcb9e1b6	-0.022690635
68	0x3c83777f	0.016048191
69	0xbced4ed9	-0.028968262
70	0xbc2ce80d	-0.010553372
71	0xbbce7947	-0.0063010785
72	0x3cad00d4	0.021118559
73	0xbcfc71ee	-0.030816045
74	0xbc60b592	-0.013715165
75	0x3ca95ca1	0.020674052
76	0xbd088ff5	-0.033340413
77	0xbad4e5d5	-0.0016242812
78	0x3c4b269f	0.012399345
79	0xbba2db3a	-0.0049699815
80	0xbc478718	-0.012178205
81	0x3c50a54d	0.012734723
82	0x3b86df84	0.0041160006
83	0x3c8f585c	0.017498188
84	0xbb2a7e0b	-0.002601507
85	0x3d0f649a	0.03500805
86	0xb899e4f7	-7.3382565e-05
87	0x3c1fc0ed	0.009750587
88	0xbc072056	-0.008247456
89	0xbcc9fb63	-0.024656003
90	0x3caccb4e	0.021093037
91	0xbcc5c905	-0.024143705
92	0xbc34627b	-0.011009808
93	0xbb691110	-0.0035563149
94	0xb8ea35a8	-0.00011167984
95	0x3cc399eb	0.023877105
96	0x3c80ba22	0.015713755
97	0x3bd891f8	0.0066091977
98	0x3b8639b8	0.004096236
99	0xbb90f200	-0.00442338
100	0x3aa6062e	0.0012666637
101	0xbc9abb64	-0.018888183
102	0xba43bb81	-0.00074666
103	0xbcdb873c	-0.026797883
104	0xbb582c9c	-0.0032985574
105	0x3ca0bc9e	0.01962119
106	0xba7b93df	-0.00095969246
107	0xbc697006	-0.0142479
108	0x3b0be6e9	0.002134735
109	0x39ffcdf5	0.0004879084
110	0x3cc4f860	0.024044216
111	0xbcaf99b2	-0.021435592
112	0x3c46b6fb	0.012128587
113	0xbcd7a556	-0.026323956
114	0xbc05e667	-0.008172608
115	0xbcea48d8	-0.028599188
116	0x3c4415ec	0.011968117
117	0xbbf4ab97	-0.007466744
118	0xbc5ba49d	-0.013405946
119	0xbc5c9bae	-0.013464851
120	0xbbbe4549	-0.0058065993
121	0xbbffa6af	-0.0078018527
122	0xbcd25aa5	-0.025677988
123	0xbc983bbe	-0.018583175
124	0xbca3cde7	-0.019995643
125	0xbc9f7598	-0.019465253
126	0x3ca2d9cc	0.019879244
127	0x3c9042b7	0.017609937
128	0x3adf2f72	0.001702769
129	0x3c848353	0.016175902
130	0xbc71fd6d	-0.014769894
131	0x3b8c3603	0.0042788996
132	0x3bb6856b	0.005570104
133	0xbc6b6f2c	-0.014369767
134	0x3c7e6c6b	0.015528779
135	0x3c8d4caf	0.01724848
136	0xbc064603	-0.008195403
137	0xb8c0326e	-9.164667e-05
138	0x3a022590	0.00049647037
139	0xbc702236	-0.014656594
140	0x3cfb8a15	0.030705491
141	0xbc1ee709	-0.009698638
142	0xbb849b4a	-0.004046832
143	0x3ccf831a	0.025331069
144	0xbcb53c81	-0.022123577
145	0xbca781ab	-0.020447573
146	0x3ce208f7	0.027592165
147	0x3cd40952	0.02588335
148	0x3cf69668	0.030101016
149	0xbccafd48	-0.024778977
150	0xbba153ce	-0.0049233204
151	0x3b2ed2e0	0.0026675984
152	0x3ca413e9	0.020029025
153	0xbd117886	-0.03551533
154	0xbbf82c0b	-0.0075736097
155	0x3d13baf9	0.036066983
156	0x3ca8bbc3	0.020597344
157	0x3d30b4b2	0.043141074
158	0xbc5d59c3	-0.01351017
159	0x3c8b059c	0.016970448
160	0x3be258b6	0.006907548
161	0xbd79399a	-0.06084595
162	0x3cdc9252	0.02692524
163	0xbb91e905	-0.004452827
164	0xbceb4e1c	-0.028723769
165	0x3b4bc361	0.0031091797
166	0x3ae6b182	0.0017600509
167	0xba754fc6	-0.00093578955
168	0x3bb44e59	0.005502504
169	0x3b7d0363	0.0038606755
170	0x3c0d514a	0.008625338
171	0xbc4e641d	-0.012597111
172	0x3bbd6053	0.005779305
173	0x3b003c9e	0.001956738
174	0x3aba745f	0.0014225355
175	0xbca72673	-0.020404076
176	0x3c156af0	0.009119734
177	0xbca3fea3	-0.020018881
178	0x3cc6326e	0.024193969
179	0x3baa5496	0.0051980717
180	0x3ca30f2d	0.019904697
181	0x39e32dd1	0.0004333095
182	0xbc333c9b	-0.010939742
183	0xbca58e60	-0.020209491
184	0xbb79cd53	-0.0038116768
185	0xbc8acd80	-0.016943693
186	0xbbbc705a	-0.005750698
187	0x3c2a6bc7	0.010401673
188	0x3c919b93	0.017774379
189	0xbd54b2eb	-0.051928442
190	0xbd342c6f	-0.043987688
191	0x3cbafc0d	0.022825265
192	0xbbf59e53	-0.0074956804
193	0x3cacdab6	0.021100383
194	0x3d824115	0.0636007
195	0x3d200882	0.039070614
196	0x3d21e020	0.039520383
197	0xbc30ac02	-0.010783197
198	0xbc5b43e4	-0.013382886
199	0x3b7106c4	0.0036777714
200	0x3c54b834	0.012983371
201	0x3c2aa458	0.010415159
202	0x3bfa6a9f	0.0076421048
203	0x3d01f4b3	0.031727504
204	0x3c9ef77d	0.019405121
205	0x3cf6cc17	0.030126614
206	0x3b9c7944	0.004775198
207	0x3cab445a	0.020906616
208	0x3b82b462	0.0039887885
209	0x3c99397f	0.018704174
210	0xbc22c2c6	-0.009934133
211	0x3a4bf86a	0.0007780852
212	0x3cb9c923	0.022678917
213	0x3cba2caf	0.022726385
214	0x3abfbaa7	0.001462777
215	0x3cb0e37f	0.021592854
216	0x3ce34a8b	0.027745506
217	0xbbf9f491	-0.0076280315
218	0x3cce72b3	0.025201177
219	0x3d334f88	0.04377702
220	0x3c739911	0.014868037
221	0xbc8a1cd5	-0.016859451
222	0xbc80777f	-0.01568198
223	0xbc917a98	-0.017758653
224	0xbc94c0f9	-0.018158423
225	0x3cc5233a	0.024064649
226	0xbbb8ada7	-0.0056359353
227	0xbcd77c53	-0.0263044
228	0xbbf7fe2f	-0.007568143
229	0x39f0e0d9	0.00045943892
230	0xbb0789bc	-0.0020681461
231	0xbbb9dee9	-0.005672325
232	0x3c366f98	0.011135004
233	0x3cda4803	0.026645666
234	0xbba2304d	-0.0049496056
235	0x3c54eb25	0.012995516
236	0x3cf731bc	0.030175082
237	0xbc85d09b	-0.016334822
238	0x3cc1a727	0.023639275
239	0x3d25124b	0.04030065
240	0x3ca5f80b	0.020259878
241	0x3c8049fa	0.015660275
242	0xbc9853e0	-0.018594682
243	0x3bd85a1b	0.0066025383
244	0x3c0828f4	0.008310545
245	0xbc98f518	-0.018671557
246	0xbca68cab	-0.020330748
247	0x3c0b3a56	0.008497795
248	0x3bafa589	0.0053603095
249	0x3ccd21c9	0.025040524
250	0x3cbce675	0.02305911
251	0xbcd9825d	-0.02655142
252	0x3a9dc62e	0.0012037212
253	0xbc72d680	-0.014821649
254	0xbcaaaedd	-0.020835334
255	0xbca4ed32	-0.020132635

encoder.encoder.2.0.bias f4 [64]
0	0xbcbff2b5	-0.023431161
1	0xbc758355	-0.014984925
2	0x3c167ba6	0.0091847535
3	0xbc21aaeb	-0.00986741
4	0xbc5d7c69	-0.013518431
5	0x3c2e64d7	0.010644159
6	0xbccefb92	-0.025266442
7	0x3cbcfeac	0.023070656
8	0xbc563e99	-0.013076448
9	0xbce80463	-0.028322404
10	0xbbafb89e	-0.0053625843
11	0xbc59aa21	-0.013285191
12	0xbcc52ff8	-0.024070725
13	0xbaab7e48	-0.0013083899
14	0x3b1e04ef	0.0024111827
15	0xbcd062b8	-0.025437698
16	0x3c74e66a	0.014947513
17	0x3c21981f	0.009862929
18	0xbc5372d3	-0.012905794
19	0x3ca7050d	0.02038815
20	0x3c7d9d24	0.01547936
21	0x3cd08579	0.02545427
22	0xbc3639e4	-0.011122201
23	0xbc404e43	-0.011737409
24	0x3cb76659	0.02238767
25	0x3b9badc9	0.0047509414
26	0xbbd497ce	-0.006487823
27	0x3b87363b	0.004126338
28	0xbb16614d	-0.002294618
29	0xbc9d0a07	-0.01916982
30	0x3c3ba228	0.011452235
31	0xbafb5e8f	-0.0019177961
32	0x3c04d128	0.008106507
33	0xbc8e5260	-0.017373264
34	0xbc7b8577	-0.015351645
35	0x3ce88ca2	0.028387371
36	0x3bbe1363	0.005800651
37	0xbc399614	-0.011327285
38	0x3c56b3ba	0.013104374
39	0x3cb4c92c	0.022068582
40	0xbb93dbd4	-0.0045122895
41	0xbbed83c5	-0.007248374
42	0xbc1e226e	-0.009651763
43	0x3721c053	9.641127e-06
44	0x3ca1bab4	0.019742347
45	0x3b1feda8	0.0024403129
46	0xbcbd2108	-0.02308704
47	0x3c22220f	0.0098958155
48	0x3c8644ea	0.016390283
49	0x3ce238dc	0.027615003
50	0xbc82e374	-0.015977599
51	0xbc98dbfc	-0.018659584
52	0x3c24ed1e	0.010066299
53	0x3ce8bbb3	0.028409814
54	0xbb60a870	-0.0034280084
55	0xbc5f449b	-0.013627197
56	0x3c8de8a5	0.017322848
57	0x3ccd9d73	0.025099492
58	0xbcc175b5	-0.023615697
59	0x3c13e111	0.009025828
60	0xbab5ecd5	-0.0013879786
61	0xbbe536b9	-0.006995049
62	0xbbdd71a1	-0.0067579304
63	0x3cd340e2	0.025787774

encoder.encoder.2.1.weight f4 [64]
0	0x3e119abc	0.14219183
1	0x3ef7d015	0.48400941
2	0x3dfafd67	0.12255364
3	0x3e471854	0.19442874
4	0x3eec78ac	0.46185815
5	0x3eb6b2d4	0.3568331
6	0x3eb039c0	0.3441906
7	0x3e200860	0.15628195
8	0x3f1a786a	0.6033999
9	0x3e7f9744	0.24960047
10	0x3e20067e	0.15627477
11	0x3eb4124f	0.35170218
12	0x3d948488	0.07251841
13	0x3e4f88b4	0.20266992
14	0x3ef82c06	0.48471087
15	0x3ec2696b	0.37971053
16	0x3e9ca599	0.3059509
17	0x3e9651d3	0.29359302
18	0x3f309987	0.68984264
19	0x3f12f416	0.57403696
20	0x3e355323	0.17707495
21	0x3eb7b3d5	0.35879388
22	0x3f1847a5	0.5948432
23	0x3e89efc1	0.2694073
24	0x3eba692d	0.36408368
25	0x3ec540ae	0.3852591
26	0x3e21d694	0.15804511
27	0x3f3c12a4	0.73465943
28	0x3ebfea7b	0.37483582
29	0x3ed9168d	0.42400017
30	0x3eea7ea7	0.45799753
31	0x3e7424eb	0.23842208
32	0x3e4c200f	0.19934104
33	0x3e45bcbd	0.19310279
34	0x3ef2303b	0.47302422
35	0x3e77745e	0.24165484
36	0x3ac61075	0.0015111106
37	0x3f32b837	0.6981234
38	0x3dfaff9a	0.122557834
39	0x3ed0d90e	0.407906
40	0x3f001687	0.50034374
41	0x3e97722a	0.29579288
42	0x3eb931db	0.3617085
43	0x3f37e524	0.71834016
44	0x3ead4cb5	0.33847585
45	0x3ef30e0a	0.47471648
46	0x3f133172	0.5749732
47	0x3e4bb5e7	0.19893609
48	0x3e509648	0.20369828
49	0x3e45a861	0.19302513
50	0x3f0526db	0.52012414
51	0x3de8417f	0.113406174
52	0x3e4007dd	0.18753
53	0x3d74bb5d	0.059748996
54	0x3eb3ddcf	0.35130164
55	0x3f1cc1f3	0.61233443
56	0x3d98cfff	0.07461547
57	0x3f063b65	0.5243438
58	0x3e9581dc	0.29200637
59	0x3f0ec496	0.55768716
60	0x3df9ad6e	0.12191282
61	0x3eaa30ec	0.3324045
62	0x3f09e2ae	0.5386151
63	0x3f0f4aed	0.559737

encoder.encoder.2.1.bias f4 [64]
0	0xbc8569a7	-0.01628573
1	0xbdbf3281	-0.09335805
2	0xbc68c036	-0.014205983
3	0xbd90b68b	-0.07066067
4	0xbe489240	-0.1958704
5	0xbddff7ff	-0.109359734
6	0xbdbe31d6	-0.09286849
7	0xbd22a26f	-0.03970569
8	0xbd3b3bde	-0.04571139
9	0xbd4f00b0	-0.050537765
10	0xbd2a4109	-0.04156593
11	0xbdd06b01	-0.101766594
12	0xbc1624d9	-0.009164059
13	0xbc77436a	-0.015091756
14	0xbd8dac6f	-0.06917655
15	0xbcfd8e19	-0.030951547
16	0xba092773	-0.00052320136
17	0xbe0d4a50	-0.13797879
18	0xbd13231d	-0.03592216
19	0xbd7254f5	-0.059163053
20	0xbd3612eb	-0.044451635
21	0xbbed1a4c	-0.007235801
22	0xbdc2217b	-0.09479042
23	0xbd3f19d2	-0.046655484
24	0xbd487d61	-0.048947696
25	0xbc8eb5a1	-0.017420592
26	0xbcef5f61	-0.029220285
27	0x3b8139fe	0.003943681
28	0xbde70807	-0.11280828
29	0xbdc193e2	-0.094520345
30	0xbb384fe8	-0.00281238
31	0xbd97327c	-0.07382676
32	0xbd9f0e3d	-0.077663876
33	0xbd5546c9	-0.05206946
34	0xbe027070	-0.12738204
35	0xbd6bfbdc	-0.05761324
36	0xbbbebbe0	-0.0058207363
37	0xbe3089ec	-0.17240113
38	0xbaacb3e9	-0.0013176176
39	0xbde9b79f	-0.11411976
40	0xbe005f31	-0.12536313
41	0xbd8fd04f	-0.070221536
42	0xbb0a67c6	-0.0021118983
43	0xbe12b717	-0.14327656
44	0xbd278dc8	-0.040906698
45	0xbd902753	-0.070387505
46	0xbe2b3f6f	-0.16723417
47	0xbd09e837	-0.033668723
48	0xbdf00e73	-0.11721506
49	0xbd668535	-0.05627938
50	0xbe10e0df	-0.14148282
51	0xbbd76378	-0.006573137
52	0xb9e78f94	-0.00044166727
53	0xbb95d63b	-0.0045726574
54	0xbd478b73	-0.048716974
55	0xbe1f2e04	-0.15544897
56	0xbca045ae	-0.019564476
57	0xbe100bbb	-0.14066975
58	0xbd9f1c77	-0.07769101
59	0xbdcf6c08	-0.10128027
60	0xbc575113	-0.013141888
61	0xbdb9e443	-0.090767406
62	0x3c348112	0.011017101
63	0xbe07fe1a	-0.13280526

encoder.encoder.2.1.running_mean f4 [64]
0	0x3dcab3cc	0.09897575
1	0xbe17be7f	-0.14818762
2	0x3d8a4d47	0.06753021
3	0x3e70e8e9	0.23526348
4	0x3e125de1	0.14293624
5	0xbbdf4280	-0.0068133473
6	0x3d3ab0a3	0.04557861
7	0x3dd812ac	0.105504364
8	0xbf27acf5	-0.65498286
9	0xbc066bff	-0.008204459
10	0x3dcb3c79	0.099236436
11	0xbd6dd277	-0.058062043
12	0xbd3e85cf	-0.04651433
13	0x3d2ef69d	0.042715658
14	0xbe223914	-0.15842086
15	0xbcb3b738	-0.021937951
16	0xbdd329e4	-0.103107244
17	0x3e257d0e	0.16160986
18	0xbe84fa62	-0.25972277
19	0xbe6ea169	-0.2330376
20	0xbc96b307	-0.018395914
21	0xbe4456e3	-0.1917377
22	0xbe8a8f64	-0.27062523
23	0xbd0b9908	-0.03408149
24	0xbe7f4a24	-0.24930626
25	0xbdaecaec	-0.08534798
26	0x3d3e5779	0.04647014
27	0xbecf7ba6	-0.40524024
28	0x3e10509e	0.14093253
29	0x3bd1d5b0	0.0064036474
30	0xbe2f5cfc	-0.17125314
31	0x3cb2a9b3	0.021809435
32	0x3d54c966	0.05194988
33	0x3d043cf9	0.03228471
34	0x3eb5b5ee	0.35490364
35	0xbc16c435	-0.009202053
36	0x3d4af5dd	0.04955088
37	0xbe4d38ba	-0.2004117
38	0xbd284e4d	-0.0410903
39	0x3ef1fb06	0.47261828
40	0xbdda4b4f	-0.10658895
41	0x3d4993f8	0.04921338
42	0xbe27e593	-0.1639617
43	0xbe7ea0a5	-0.24865969
44	0x3d67084b	0.056404393
45	0xbe49ea1e	-0.19718215
46	0xbe1bef53	-0.15228014
47	0x3ceb65d1	0.028735073
48	0xbd127015	-0.03575142
49	0xbc97baef	-0.018521754
50	0xbe0db65c	-0.13839096
51	0xbdf469f0	-0.119342685
52	0x3d0e4918	0.034737676
53	0xbd280ef0	-0.04102987
54	0xbcd5e7e1	-0.026111545
55	0xbdb7d0ce	-0.08975373
56	0xbd9a8dc7	-0.07546573
57	0xbe2f3059	-0.17108287
58	0x3d2e9e85	0.042631645
59	0xbec4f7fe	-0.38470453
60	0xbc0163be	-0.007897316
61	0x3deb7e2d	0.114986755
62	0xbe4faeb8	-0.20281494
63	0xbcaa2274	-0.020768382

encoder.encoder.2.1.running_var f4 [64]
0	0x3cb69491	0.022287639
1	0x3d5b7572	0.0535788
2	0x3ca373b3	0.01995263
3	0x3ccaa4b6	0.024736743
4	0x3dfae751	0.12251151
5	0x3da52d92	0.080653325
6	0x3cc804a9	0.024416285
7	0x3c32f16e	0.010921819
8	0x3ee97e7b	0.4560431
9	0x3c37d9b0	0.011221334
10	0x3cd3be05	0.025847444
11	0x3ceab84f	0.028652338
12	0x3bd6fa37	0.0065605897
13	0x3c8d9a99	0.017285632
14	0x3dd7c9a7	0.10536509
15	0x3de76de6	0.11300258
16	0x3d1f98bc	0.03896402
17	0x3d280a26	0.041025303
18	0x3e463118	0.19354665
19	0x3e161bdc	0.14659065
20	0x3c1ad0a9	0.0094491625
21	0x3d4ba2b8	0.049715728
22	0x3e2ff34f	0.17182659
23	0x3c5a51b2	0.013325142
24	0x3d89ddbb	0.06731745
25	0x3cc61d22	0.024183813
26	0x3be1c434	0.0068898443
27	0x3e508101	0.20361711
28	0x3d662675	0.05618902
29	0x3da6b281	0.08139516
30	0x3d3e32e7	0.046435263
31	0x3cb2d0f2	0.021828149
32	0x3c9080f4	0.017639615
33	0x3ca9f46c	0.020746432
34	0x3e879a33	0.26484832
35	0x3c2cadfa	0.010539526
36	0x3bd546c5	0.0065086805
37	0x3e92d7d1	0.2868028
38	0x3c0a03dc	0.008423772
39	0x3da8f305	0.08249477
40	0x3d69d163	0.057084452
41	0x3cb78ffb	0.022407522
42	0x3d004fd3	0.031326126
43	0x3e30d80a	0.17269912
44	0x3d8ce0a5	0.06878785
45	0x3de26141	0.11053706
46	0x3d624457	0.055240955
47	0x3ca4457f	0.02005267
48	0x3d124bba	0.03571675
49	0x3d164189	0.036683593
50	0x3e1ac2e9	0.15113415
51	0x3d0bdf7d	0.034148682
52	0x3cb50d93	0.0221012
53	0x3c292484	0.010323647
54	0x3cd3cc88	0.025854364
55	0x3dca36d0	0.09873736
56	0x3bebe835	0.007199312
57	0x3dd313d4	0.10306516
58	0x3debabe1	0.11507393
59	0x3e1d2090	0.15344453
60	0x3bc166e5	0.0059021586
61	0x3da477ce	0.080306634
62	0x3d795528	0.060872227
63	0x3e0843f6	0.13307175
