saves_category/finger/domain_5/max_acc.pth (torch_old, 606191 bytes, 28 tensors)

encoder.encoder.0.0.weight f4 [64, 2, 3, 3]
000000 63 ea 84 3d 15 ff 93 bd 2c 5d 00 be 58 65 ab bd
       0.06490018 -0.072263874 -0.12535542 -0.08368939
000010 38 06 1f bd ca dc 86 bc f6 08 c2 3d 9a 46 18 bb
       -0.03882429 -0.016462702 0.094743654 -0.0023235441
000020 4e a2 3d 3e e0 44 3e 3d 26 8b 85 3d 2e 14 2c 3e
       0.18518946 0.046452403 0.06520681 0.16804573
000030 79 53 88 bd c9 5f 8d 3d e0 05 6f 3d 4d 41 6e be
       -0.06656546 0.06903035 0.058355212 -0.23267098
000040 f4 ce 1e be fc bd dd bb 1c 3c 1a 3d 41 e1 80 bb
       -0.15508634 -0.0067670327 0.03765498 -0.0039331024
000050 76 02 47 3d 00 c0 83 bd 5b 52 ce 3b 65 ce 98 bc
       0.04858633 -0.064331055 0.0062964386 -0.018653104
000060 d1 5d 9c bd 34 91 88 bd f0 ca e0 bd 78 fc c6 bc
       -0.076350816 -0.0666832 -0.10976207 -0.024290308
000070 0d 9c 9b 3d 2a f2 97 3d 1b 6d b6 3b 4a c2 1a bd
       0.07598124 0.07419236 0.0055672056 -0.037782945
000080 1a 1f c0 3d 0c 22 3c 3d 0e 0e be 3c 97 b4 b8 3d
       0.09380932 0.045930907 0.023200061 0.0901882
000090 7c 55 0a bd f2 cc de 3c b3 24 71 3c 37 be 9b 3d
       -0.03377293 0.027197335 0.014718222 0.0760464
0000a0 d6 06 89 3d 4a 67 06 3d 25 7e 21 3c 1e 0e 00 bd
       0.06690757 0.032813348 0.009856735 -0.031263463
0000b0 6c 35 56 3d a1 81 89 3d e6 1a 08 3c 14 e4 b4 3d
       0.05229704 0.06714178 0.008307194 0.08832565
0000c0 e0 aa c0 3d a9 99 be 3b 81 e3 6c 3d b3 2b 4e 3d
       0.09407592 0.0058166576 0.057834152 0.050334644
0000d0 8b 49 46 bd 9e 59 9e bc 10 f5 7f bd 40 da 3b bd
       -0.04840998 -0.019329842 -0.06248957 -0.045862436
0000e0 0c 20 ce bd c4 22 08 be b4 2a c4 bd e5 ed 09 be
       -0.10064706 -0.13294512 -0.095784575 -0.13469656
0000f0 5d 45 c6 3c 1c 19 0c be 2c b7 d6 bd ca 4e 15 bd
       0.024202997 -0.13681453 -0.10484156 -0.036452092
000100 17 14 91 bb ad 5c 57 bb c9 66 28 bb ff b2 fe 3c
       -0.0044274437 -0.0032861636 -0.002569603 0.031091211
000110 dd b2 08 3c 90 55 31 bd 9e f6 d9 3c c4 b7 77 3b
       0.008343426 -0.04329449 0.026606854 0.0037798742
000120 b5 f0 6e bd 12 50 df bd a0 3e e5 bd 95 96 ae 3d
       -0.058335025 -0.10903944 -0.111935854 0.08524815
000130 47 2a 76 bd 76 d7 9a bb cb 67 49 3e a3 41 f1 bc
       -0.060098913 -0.004725392 0.196685 -0.029450243
000140 d6 30 95 bb 02 af 9a 3c 07 32 c5 3c 5e b4 be bc
       -0.004552941 0.018882278 0.024071706 -0.023279365
000150 c8 56 35 3d 14 fa 9a 3d 39 52 52 3c 30 9e ad bd
       0.044272214 0.0756723 0.012836986 -0.084774375
000160 00 96 93 bc a1 79 da bc 33 64 4a bd 4f 97 60 3c
       -0.018015862 -0.026669325 -0.049411964 0.01370795
000170 a0 63 c3 3c 63 25 28 bd fb 3a a7 3d 35 4f 3f bd
       0.023851216 -0.04105128 0.081655465 -0.046706397
000180 8c e6 e1 3b 4f 9c 8f 3d c8 6c b8 bc 32 7b 71 be
       0.0068939384 0.070122354 -0.022512808 -0.23582152
000190 66 fc 31 be f4 37 e0 3d 53 bd b7 bd 87 c7 56 bd
       -0.17381439 0.10948172 -0.089716576 -0.052436378
0001a0 8b 69 0a 3e 41 5d 6f bd fe 67 8c bc f0 2c 86 3e
       0.13516824 -0.058438543 -0.017139431 0.2620616
0001b0 b0 b9 fc bb cf 36 c3 bd 15 6e e2 bd 2f f1 94 bd
       -0.0077125654 -0.09531938 -0.11056153 -0.072725646
0001c0 d7 f3 82 bd af 49 96 bd 16 20 02 bd 99 45 d2 bd
       -0.06394165 -0.07338273 -0.03176888 -0.10267181
0001d0 fc bd c8 bd 40 84 9b bd 5b a4 ef bb fe 94 3a 3d
       -0.09801862 -0.07593584 -0.007313294 0.045552246
0001e0 07 33 0b bd 99 e3 9f bd 6f ef 8d bd dd 2d 4d bd
       -0.03398421 -0.07807083 -0.06930434 -0.050092567
0001f0 87 bc 46 bd 45 14 98 bd 3a ba 5c 3e df 1b 66 3d
       -0.048519637 -0.07425741 0.21555415 0.056178924
000200 ad 2e b3 bc fa 5a bb 3d bf bf 57 3c 16 75 23 be
       -0.021872843 0.09148212 0.013168274 -0.15962633
000210 d8 6d fd 3d 30 85 1a be 90 a4 6e be b1 56 d7 bb
       0.12374467 -0.1508987 -0.23304963 -0.0065716137
000220 0f 8d 7c bd b8 c8 ef 3d b9 95 0c bd a4 0c ac 3c
       -0.06165796 0.11708206 -0.034322474 0.021002121
000230 83 e9 db 3c 16 49 6b 3d 39 47 8a bd 97 9a 38 bd
       0.026844746 0.057442747 -0.06751866 -0.045069303
000240 f1 2b 91 3a 17 87 fa ba 3a 60 1b 3d 3e 9b d1 3c
       0.0011075718 -0.0019113746 0.037933566 0.02558672
000250 d5 a7 c1 3c 44 72 44 3d ef 33 84 bd e9 e7 a4 3d
       0.023639599 0.047960535 -0.06455218 0.08052046
000260 b2 08 10 3d ab ca 4c bd 3b 85 6a 3b 5a cd 8e bd
       0.035164542 -0.049997967 0.0035784978 -0.069727615
000270 94 23 6b 3b e0 59 01 3d 27 de ea bd 02 7f 3b bc
       0.003587936 0.031579852 -0.114681534 -0.011443855
000280 68 de 6d 3c fc 06 42 bd 41 f4 08 be c9 8e b9 bd
       0.014518358 -0.047369942 -0.13374425 -0.09060437
000290 fd d3 33 be 81 c6 12 bd 0f b1 5f bd e1 58 84 bd
       -0.17561336 -0.03583384 -0.054612216 -0.06462265
0002a0 e9 9a 72 3d 67 62 c0 bd 00 32 00 3d 05 82 3c 3d
       0.059229765 -0.09393769 0.031297684 0.046022434
0002b0 3b b5 81 ba 64 30 4b 3c 79 f5 99 3c 8a b7 05 bd
       -0.000989593 0.012401674 0.018793808 -0.03264574
0002c0 36 e2 3d bc fd 76 df 3d 8c 2d 73 3c 94 0a 3c 3d
       -0.011589577 0.10911367 0.014842402 0.045908526
0002d0 72 3d 0e 3d c3 71 d0 3d 43 93 e2 3c 76 0d 44 bd
       0.034726568 0.10177948 0.02765811 -0.0478644
0002e0 1a 5c 87 bd 2c ac 4f 3d cb 60 56 bd ba 8b 19 bd
       -0.06609364 0.050701305 -0.052338403 -0.03748677
0002f0 a9 fe 3d bc 88 bf 86 3d f6 03 aa bd ad 23 a4 bc
       -0.01159636 0.065795004 -0.08301537 -0.020036543
000300 40 03 d0 3c 4d 57 ac 3b 42 d0 a1 bd 9f 02 fe 3d
       0.025392175 0.0052594305 -0.0790105 0.12402844
000310 b6 6c 4b bd c3 80 9d 3a 1f 38 20 3e f4 ed 68 3e
       -0.04966422 0.0012016523 0.15646408 0.22747022
000320 53 58 9a 3d c1 69 fb bc 1d ad f3 3c 8c cf cc bd
       0.07536378 -0.030690076 0.029745633 -0.10000524
000330 55 d3 3e be f8 50 9f bd ba 3c 0d be 78 36 0b 3d
       -0.18635304 -0.077791154 -0.13792697 0.033987492
000340 c0 b9 0b be ca a6 93 bd 0e 67 e4 bd cb b1 7e 3d
       -0.13645077 -0.07209547 -0.111524686 0.062181275
000350 7b 4e f0 3d 7b 06 09 be 46 b4 46 3d 32 d9 30 3e
       0.11733719 -0.13381378 0.048511766 0.17270353
000360 a3 4c a3 3c 7f ad 72 3c d7 55 89 bd 46 c4 82 3d
       0.019934004 0.0148118725 -0.06705826 0.063850924
000370 10 d3 6b 3d 60 21 94 bd 62 c1 e5 3d 23 c6 a9 bd
       0.05757433 -0.07232928 0.112185255 -0.08289745
000380 3d 13 e8 bd 66 53 cb bd a9 b7 c2 3d a3 7e 3a bd
       -0.113317944 -0.09928016 0.09507687 -0.045530926
000390 50 36 8a bd b8 a1 c4 3d 3f 84 a1 bd 26 7e e0 3d
       -0.067486405 0.09601158 -0.07886552 0.10961561
0003a0 c5 7d 12 bb c5 8a 67 bd d0 3a ec 3d 4a 43 76 bd
       -0.0022352797 -0.056528825 0.11534655 -0.060122766
0003b0 85 34 ea bd 14 ff 05 3e 00 48 25 bd b6 1d d6 bd
       -0.114357986 0.13085586 -0.040351868 -0.10454886
0003c0 5c 13 ab 3d bb 16 bb 3d 22 b5 c9 bd 15 47 17 3e
       0.08353302 0.09135195 -0.098490015 0.1477321
0003d0 e5 64 ba bc 83 6c 74 be 85 23 19 3e 26 0e 67 bd
       -0.022753188 -0.23869519 0.14954956 -0.056409977
0003e0 d8 dd 90 be 77 78 81 3e 77 54 3c 3d ee 79 10 be
       -0.28294253 0.2528722 0.04597899 -0.14109012
0003f0 c6 72 fb 3d de c9 9b 3d ee 57 af bb 42 eb 6d 3d
       0.12277751 0.076068625 -0.005351058 0.058085687

encoder.encoder.0.0.bias f4 [64]
000000 1b c6 6f bd 91 97 12 3b ac 61 a1 bc 00 4e 30 3d
       -0.058538537 0.0022368173 -0.019699894 0.043043137
000010 4d bf 69 bd d6 3e 17 3d 05 eb 36 bd ba 21 a9 3d
       -0.057067204 0.03692516 -0.044657726 0.08258386
000020 4f 8a 6d 3d 9e b5 41 3d f4 c7 e7 bc f5 0f bc 39
       0.05799323 0.047292344 -0.028293587 0.00035870043
000030 44 20 2b bd 96 bc a7 bd 5b f5 94 bd 5b 68 ff 3c
       -0.041778818 -0.08190267 -0.0727336 0.03117769
000040 ff 56 85 3b bd 87 87 3c 59 47 0b bd f3 c5 15 3d
       0.0040692086 0.016544217 -0.03400359 0.036565732
000050 31 56 4f 3d 9c ad 71 bb 29 fb 89 bd d5 58 61 3c
       0.050619308 -0.003687716 -0.06737358 0.013754089
000060 a9 7b 42 3d 7a 53 24 bd a7 8f ea 3c eb c3 4c 3c
       0.047481213 -0.040118672 0.028632952 0.012497882
000070 d6 06 29 bb 1f a9 ba bd 5f 24 1d 3d fd 76 20 3d
       -0.0025791428 -0.091142885 0.038364764 0.039175976
000080 08 80 97 3c 26 e5 bc bd c4 6b 8f bc 94 81 49 bd
       0.018493667 -0.09223394 -0.017507441 -0.04919584
000090 fc 6c 92 3d cc 48 58 bd 16 a6 e2 bc 06 55 28 bd
       0.07149693 -0.0528038 -0.027667087 -0.04109671
0000a0 5d 0e 35 3d 2e 8f 21 bd 2e d6 7c 3d ab 3a b9 bc
       0.04420315 -0.039443187 0.061727695 -0.022610983
0000b0 ef 2f 70 3d 86 36 96 bd 17 f9 b3 3d 69 45 08 bd
       0.058639463 -0.07334618 0.087877445 -0.03326932
0000c0 51 0a d1 3c 68 c5 3c 3d 3b 29 3b 3b 5c 33 45 bd
       0.025517615 0.0460867 0.002855851 -0.048144683
0000d0 c0 93 9c 3d d9 01 4d bd a2 7b a0 bd e6 4c c6 bc
       0.076453686 -0.05005059 -0.07836081 -0.02420659
0000e0 aa 12 14 bd ce 74 ae bd a7 ed 1b bd eb 1b 9c 3d
       -0.036150612 -0.085183725 -0.03806844 0.076225124
0000f0 15 40 b1 3d 63 70 8e 3d 77 d7 87 3c ce 2b 23 3d
       0.08654801 0.0695503 0.016582234 0.039836697

encoder.encoder.0.1.weight f4 [64]
000000 8f cd 72 3e c4 b8 36 3e cb 6a bc 3d 7e 43 56 3e
       0.23711227 0.1784392 0.09200057 0.20924184
000010 cc 77 31 3e c8 36 a7 3e e9 34 83 3e f9 32 a0 3e
       0.17330855 0.32658982 0.25626305 0.3128889
000020 8d 5a ad 3d e7 ef 6a 3e d5 25 ea 3d b9 ac a0 3e
       0.08464537 0.22943078 0.11432997 0.31381777
000030 e4 ad 04 3e cf 33 cc 3e 2c d2 8b 3e fd 1a 96 3e
       0.12956959 0.39883277 0.27308786 0.29317465
000040 97 98 b3 3e 60 67 b3 3e fe 89 b4 3d 91 19 60 3e
       0.35077354 0.35039806 0.088153824 0.21884753
000050 bb 12 24 3e b0 63 5b 3e f4 6f c6 3e 8a e1 32 3e
       0.1602277 0.21424747 0.38757288 0.17468849
000060 ce e6 e2 3e b9 74 75 3e 79 ed bb 3d 41 39 0e 3e
       0.44316715 0.23970307 0.09176154 0.13889028
000070 28 44 dd 3c 65 f7 c0 3d f9 79 71 3e 8b c6 ea 3d
       0.027010038 0.09422187 0.23581685 0.1146365
000080 3a 2b 5f 3e 71 33 f4 3d 85 72 57 3e ca 3b 28 3e
       0.21793833 0.11923874 0.2103978 0.16429058
000090 e2 b4 96 3e 6c 00 5e 3e 93 f7 17 3e 22 c8 ba 3d
       0.29434878 0.21679848 0.14840536 0.091202036
0000a0 ae b0 98 3e d2 35 45 3e 40 72 88 3e 15 10 2c 3e
       0.29822296 0.19258812 0.26649666 0.1680301
0000b0 16 4e 2c 3e 31 2b 07 3a d9 44 be 3c c0 22 36 3e
       0.16826662 0.00051562773 0.023226188 0.17786694
0000c0 ea 99 89 3e b1 0d 2a 3e f1 61 2d 3e 52 7e 9c 3d
       0.2687524 0.16606785 0.16931893 0.07641281
0000d0 04 b2 49 3e 84 e6 98 3e 9d 17 bb 3e bd 95 1b 3e
       0.19696814 0.2986337 0.36541453 0.1519384
0000e0 cc 36 4d 3e 58 19 0b 3d 61 82 9e 3d ef 8f f3 3e
       0.20040435 0.033959717 0.077397116 0.4757075
0000f0 f5 61 e1 3e 94 72 8f 38 0b 30 ec 3d 46 c8 24 3e
       0.44020048 6.840113e-05 0.11532601 0.16092023

encoder.encoder.0.1.bias f4 [64]
000000 a0 8f a8 3d 3a 43 18 bd 6f 3a f3 3c 03 11 87 bd
       0.08230519 -0.037173487 0.02969095 -0.065950416
000010 ce de 63 bc c1 71 96 bc b9 87 cb bd af 19 aa bc
       -0.013908101 -0.018364789 -0.099379964 -0.0207642
000020 ae 50 9e 3c 88 98 61 bd bc bb da 3c 1d 45 f8 3c
       0.01932558 -0.055077106 0.026700847 0.030306393
000030 b9 e5 7d 3c 24 46 3f 3d 05 9f ac bc 65 38 6f 3d
       0.015496665 0.04669775 -0.02107192 0.05840339
000040 a0 18 2b bd 4b ad 73 3d f5 f7 d0 3c bc fc 1b bd
       -0.04177153 0.059491437 0.02550886 -0.038082823
000050 be 3b 8c bd da 23 38 3d c8 96 ba bd e8 f8 be bd
       -0.068473324 0.044956066 -0.091107905 -0.09324819
000060 7b 8b cb bd 7a 76 69 bc 59 08 15 bc 1b 18 e5 bc
       -0.09938713 -0.014249438 -0.0090962285 -0.027965596
000070 33 3d e5 bb 59 0b fe bc 15 fb 24 3d 24 48 09 bd
       -0.006995821 -0.03101127 0.040278513 -0.033516064
000080 b9 d1 91 bd 01 1e 1a bd d0 a6 07 bd 73 6c c5 bb
       -0.071200795 -0.03762627 -0.03311807 -0.006024891
000090 e3 7a ab 3d ec 2b 14 3d 16 64 4e 3a 48 45 41 bc
       0.08373048 0.0361747 0.00078731903 -0.011796303
0000a0 cf cf 82 bc f1 7f f2 bd 72 71 a0 3c 24 53 b6 3c
       -0.015968231 -0.11840809 0.019585345 0.022256441
0000b0 87 f0 e0 b9 f0 d3 3d bb 63 f0 8d b9 1c 27 9f bc
       -0.00042903816 -0.0028965436 -0.00027072718 -0.019427828
0000c0 f7 91 7f bd 6a 29 2f 3d f3 3e 37 bd 66 70 b9 bc
       -0.062395062 0.042764105 -0.044737767 -0.022636604
0000d0 d1 03 7b bd a9 19 ce 3b 5f a1 1e 3d c0 43 b2 b8
       -0.061282936 0.00628968 0.038728114 -8.500321e-05
0000e0 bd ab 47 3d d3 9f ab 3b 89 c2 9b bc e0 9a 95 3d
       0.048747767 0.0052375584 -0.01901366 0.07304931
0000f0 9e 15 e4 bb 2d c5 6e ba a0 af 03 3c 26 1d 74 bd
       -0.006960585 -0.0009108361 0.008037478 -0.05959811

encoder.encoder.0.1.running_mean f4 [64]
000000 e3 69 a5 bd 16 47 82 3d 6a d8 64 3e 6e 4a 9f be
       -0.08076837 0.06361215 0.2234818 -0.31111473
000010 8c b8 b1 bd 66 98 c0 bb 56 f8 05 bf c5 53 70 3d
       -0.08677778 -0.0058775423 -0.52332056 0.05867364
000020 79 92 b4 3c 7f 3a c7 bd 5b ea 08 bd 59 32 dc bc
       0.0220425 -0.09727954 -0.033426624 -0.026879476
000030 78 b1 c1 bd c5 ca 1b be 72 fc db bd 39 fe 65 3b
       -0.094576776 -0.15214069 -0.107415095 0.0035094155
000040 dd fb f9 bb 0f 15 df bb 48 9a 2e be 82 05 11 be
       -0.0076289014 -0.0068079303 -0.17051041 -0.14162257
000050 22 86 37 be 17 77 f0 bc 4d 45 ee bd 51 54 73 be
       -0.17922261 -0.029353661 -0.11634312 -0.23762633
000060 90 4b 8c bc 17 4b 79 bd 71 ff 4c 3c 47 87 7b bd
       -0.017125875 -0.060862627 0.012512074 -0.061408307
000070 eb a3 f7 3c bc 4d 15 be 52 52 89 3c 5b d8 8b 3c
       0.03022953 -0.14580435 0.016762886 0.01707094
000080 ac 8a ca 3e 85 55 a0 3d a5 b9 78 3e f9 bf 83 bd
       0.39558923 0.078288116 0.24289568 -0.064331
000090 e5 20 25 3d d1 50 dd bd cf ed 48 bd 65 1d 30 bd
       0.040314574 -0.1080643 -0.049054917 -0.042996783
0000a0 7f f9 7b 3c 54 63 92 be d2 46 5b 3d 67 6c 2e bd
       0.015379309 -0.28591406 0.053534336 -0.04258385
0000b0 49 90 73 3d 52 14 4f 3d 78 3c 6d bd a6 0f 57 be
       0.059463773 0.05055649 -0.057918996 -0.21002063
0000c0 81 35 c2 3d 48 9d b2 3b 52 c8 bd 3d e5 53 f3 bd
       0.09482861 0.0054508783 0.09266724 -0.11881236
0000d0 76 b1 8d 3e ed d3 9b bd a1 9f cd bd 5d e1 ac bd
       0.27674454 -0.07608781 -0.100402124 -0.08441422
0000e0 7a 91 8a bd 81 4f 10 be 52 7e a0 bd c5 ed 91 3c
       -0.06766029 -0.14092828 -0.07836594 0.017813573
0000f0 18 d9 4f 3d d5 17 8f 3d 29 b6 78 3c d9 12 51 3d
       0.050744146 0.069869675 0.015180149 0.051043365

encoder.encoder.0.1.running_var f4 [64]
000000 7c 0b d5 3a f3 5b 42 3b 22 01 4a 3b eb 06 2d 3c
       0.0016254033 0.0029656857 0.003082343 0.010560731
000010 0a 98 4f 3a 9b 25 2f 3b 43 af 43 3c 80 dc e9 3a
       0.0007919079 0.0026725295 0.011943641 0.0017842203
000020 0c 2e c1 3a 4b bc b3 3b bc 78 cf 39 aa 0c df 3a
       0.0014738454 0.0054850928 0.0003957207 0.0017017324
000030 09 e6 42 3a 45 2f c2 3b e1 60 e6 3a df 92 1b 3b
       0.00074347906 0.005926045 0.001757648 0.0023738665
000040 78 19 25 3b 37 a8 36 3b ef 03 a4 3a fb 06 e5 3b
       0.0025192183 0.002787126 0.0012513379 0.0069893575
000050 43 c7 8a 3b 10 a5 a6 3a 74 bc 3a 3b ba df ae 3b
       0.0042351796 0.0012713987 0.0028493674 0.005336729
000060 39 d0 74 3b 5f a2 82 3a 5e f0 81 39 d4 fa 57 3a
       0.0037355556 0.0009966603 0.00024783885 0.00082389754
000070 32 b3 65 3a fb ca 02 3b be 21 ec 3a fd 40 c1 3a
       0.0008762359 0.0019957412 0.0018015427 0.00147441
000080 a4 fc f2 3b ea 75 14 3b 7c fb 80 3b 0a b8 51 3a
       0.007415371 0.002265329 0.0039362293 0.0008000141
000090 2d dd 11 3b f7 85 ca 3a 77 5a 42 3a 10 32 2f 3a
       0.0022257075 0.0015451302 0.0007413993 0.000668318
0000a0 60 ba ec 3a 3b 46 7e 3b 9a 49 b1 3a 12 59 72 3a
       0.0018060915 0.0038799185 0.0013525963 0.000924484
0000b0 0c 23 35 3a 0f 93 82 3a 7d 88 99 3a 27 59 a1 3b
       0.00069098244 0.000996204 0.001171365 0.004923958
0000c0 90 4f a8 3b ae dc 7e 3a 52 ba 0d 3b f3 40 01 3b
       0.0051364377 0.0009722215 0.0021625948 0.001972255
0000d0 3b d8 9f 3b 94 12 eb 3a b0 27 6f 3b bf 95 93 3a
       0.0048780716 0.0017934614 0.0036492161 0.0011259838
0000e0 e6 e4 b3 3a 37 28 41 3b 7f 5e e5 39 fc e7 94 3b
       0.0013724833 0.0029473433 0.0004374869 0.0045442563
0000f0 8a ce b0 3b e3 28 06 3a e0 a4 b0 39 06 57 39 3a
       0.005395715 0.0005117787 0.00033692177 0.00070701574

encoder.encoder.1.0.weight f4 [64, 64, 3, 3]
000000 c7 fb c2 3b 00 c8 26 3c 1e 0d 64 bb bf ab 1a bc
       0.0059504244 0.01017952 -0.0034797858 -0.0094403615
000010 de fa eb ba 00 bb 87 3b 8c f6 a6 bb 6f 6b fc b9
       -0.0018003841 0.004142165 -0.0050953086 -0.0004814523
000020 fc 5c a1 bb e9 5c 99 3c 0c f3 b5 3c 18 6a 1d 3c
       -0.0049244147 0.01872106 0.02221062 0.009607814
000030 a3 43 6e 3c ca ce 40 3c a5 79 2f 3c d0 52 9d 3c
       0.014542493 0.011768052 0.010710155 0.019204527
000040 9c 46 9a 3c 24 b6 c6 3b 8d 89 58 3c 25 96 97 3c
       0.018832497 0.0060641933 0.013216388 0.018504212
000050 bb e2 4a 3c 9a f0 47 3a 95 21 8e 3c 2e 68 55 3b
       0.012383158 0.00076271 0.017349998 0.0032563317
000060 ee 3e c6 3c d4 c1 a7 3a 99 b5 3a 3c a4 4b ae 3c
       0.02419993 0.0012798854 0.011395835 0.021276303
000070 36 bf 80 3b 47 1f 15 3c 3c 42 e9 bb ce bc 66 3c
       0.003929044 0.009101695 -0.0071184915 0.0140831005
000080 c5 fc 41 3c 91 bc 9a 3b 07 4d 82 bc c8 f5 be bc
       0.01184005 0.004722186 -0.01590587 -0.023310557
000090 59 06 8e bc e3 e9 aa 3b 6d c3 c5 3b c3 c9 ef 3b
       -0.017337011 0.0052158698 0.0060352595 0.007317753
0000a0 df d5 03 bc a9 71 84 bc 60 76 1b 3c 3b 89 8f bb
       -0.008046596 -0.016167479 0.009488672 -0.004380373
0000b0 0c 32 e2 3b 4f bd f0 bb ef a7 25 3c 40 17 c2 bb
       0.0069029387 -0.007346786 0.010110839 -0.005923182
0000c0 f6 6a 5d bc 70 21 9f bc 32 a4 6a bc 9c 98 94 bb
       -0.013514271 -0.019425124 -0.014321374 -0.004534794
0000d0 bc d4 23 bc 34 a1 ce bb db 24 cc bc 9a dd ee bb
       -0.00999945 -0.006305838 -0.024919918 -0.0072896006
0000e0 8f 13 11 bd 57 3d 32 bc 48 24 46 bc 97 4e 37 bc
       -0.035419043 -0.010878882 -0.012093611 -0.011188171
0000f0 e9 8d 19 bc a8 e4 b0 bc d6 db 09 bd 1c 94 85 bb
       -0.009372213 -0.021593407 -0.033656918 -0.004076494
000100 be fb 79 3c 32 88 d9 bc 0a 33 c4 3a 24 47 b7 3b
       0.015257774 -0.0265542 0.0014968824 0.0055931974
000110 50 40 8e bc 88 cb c7 3c 26 16 c7 3c 45 5c d0 3b
       -0.017364651 0.024389043 0.024302553 0.0063586556
000120 3b 9e b1 bc ac ee 8c 3b a7 78 9d 3b af 02 5b 3b
       -0.021681895 0.004300913 0.0048056426 0.0033418348
000130 16 a9 18 bb 71 f9 51 3b fb 7e a6 bc 81 10 5e bc
       -0.0023294142 0.0032039548 -0.02032422 -0.0135537395
000140 e5 0c 43 ba 1c 15 95 3b 58 ce a0 3c 91 48 e7 3a
       -0.0007440581 0.0045496356 0.019629642 0.0017645528
000150 7b de c2 3a a0 e2 6b 3c f6 9a 4a bb 48 ce 5e 3c
       0.001486733 0.014397293 -0.0030915118 0.013598986
000160 9d 8a 42 bc 93 db 04 bc f3 6d b6 b9 2b 1b a6 bb
       -0.011873868 -0.008108991 -0.00034795664 -0.0050691566
000170 c7 94 0b bc 79 30 e4 3a 3f fe 2d 3c f8 4b 3a 3c
       -0.008519358 0.0017409466 0.010619699 0.011370651
000180 73 77 9c 38 f2 70 63 3c c5 86 f0 3b eb 70 f0 bc
       7.460909e-05 0.013881909 0.0073402845 -0.029350718
000190 73 0e 84 3b 6f 59 d3 bc 82 0d 73 3b d8 2d b0 bb
       0.004030043 -0.025799481 0.0037086909 -0.0053765588
0001a0 a6 64 65 3c 99 2f 10 3c 16 44 91 3b 3c 5e bd bb
       0.014001047 0.008800411 0.0044331653 -0.005779056
0001b0 8b a5 0a 3c 7e 27 98 3b 7a d0 19 3c c9 63 1d bc
       0.00846232 0.0046433797 0.009388084 -0.00960631
0001c0 b4 b2 69 bb fd 5a 15 b9 bb 88 23 bc 54 14 88 bc
       -0.0035659494 -0.00014243643 -0.00998133 -0.016611256
0001d0 0d d0 12 bc 43 8b ce ba 27 08 80 3c d1 51 e3 3a
       -0.008960736 -0.0015758056 0.015628887 0.0017343109
0001e0 fa 98 cb 3c 9e 22 1b bc 36 97 f7 b8 aa c0 d4 3c
       0.024853218 -0.009468703 -0.00011806043 0.025970776
0001f0 ef 40 f6 3c d5 a8 f3 bc 09 7a 18 bc 68 fb 50 bc
       0.03006026 -0.029743591 -0.009306439 -0.012755252
000200 7d 33 9b bc c8 f1 ae ba 2d df 90 bb 30 64 ed ba
       -0.01894545 -0.0013347203 -0.004421136 -0.0018111523
000210 4e cc ea 3b 6e f8 8b bb cd 74 d5 bc d2 0c 3d bc
       0.0071654683 -0.0042715585 -0.026056672 -0.011538701
000220 cb 15 3d bb da 25 4c bb 4a ac 04 bc 74 4d 48 3b
       -0.00288521 -0.003115049 -0.008097718 0.0030563744
000230 2b 7f 61 bc 35 f9 b8 3c 8c 92 43 bb 8c 72 1e 3c
       -0.013763229 0.022579769 -0.0029841987 0.009670865
000240 b6 fd 8d bc d4 d5 7b bc 14 3a 88 bc 5b 52 95 3c
       -0.017332893 -0.015370805 -0.016629256 0.018227747
000250 26 5c 33 bb c1 cf 7f bb 72 a8 75 3c 9f 64 e1 37
       -0.0027368157 -0.0039033743 0.014993774 2.6868945e-05
000260 10 22 0b bd 97 9e e3 bc 29 34 b0 bc 4e 77 89 3a
       -0.03396803 -0.027785582 -0.021509247 0.0010487826
000270 9d 6d b2 bb c7 d6 71 3b e7 52 9c bc a5 43 ca bb
       -0.005445196 0.00369017 -0.0190825 -0.0061726146
000280 78 4e 50 bc 65 19 90 3b a7 bf 01 3c 31 60 78 bc
       -0.012714021 0.0043975585 0.007919229 -0.015159653
000290 45 35 bf bc 51 69 d0 3b c8 30 ad bc ed 7d 56 bc
       -0.02334083 0.006360211 -0.021141425 -0.0130915465
0002a0 f9 8a 20 bc 4b 69 cb bc 9e d8 e4 bc da 63 58 3c
       -0.009798759 -0.024830481 -0.027935322 0.0132074
0002b0 69 01 7e 3b f3 6c 69 3c e3 4e 17 ba 36 b5 03 3c
       0.0038758165 0.014247167 -0.0005771948 0.0080388095
0002c0 ff f2 3f 3c 05 5a 91 3c 15 61 f8 3b a7 c3 01 3c
       0.01171565 0.01774312 0.0075799325 0.007920182
0002d0 ed 4c 0a 3c ac ab 13 3b 11 03 9f 39 fe fc 7a bb
       0.008441192 0.0022532744 0.00030329128 -0.0038297768
0002e0 56 39 d0 3b ec 34 46 3a f6 df 75 bb 30 47 c9 bc
       0.006354491 0.00075609866 -0.0037517524 -0.024570078
0002f0 53 62 38 ba 98 1b a8 bc 47 d7 3f 3a e8 16 20 3b
       -0.00070336944 -0.02052097 0.00073181506 0.0024427716
000300 88 44 9e bc 90 33 50 bc f3 16 45 bc e1 c9 16 bc
       -0.019319788 -0.012707606 -0.012029397 -0.009203405
000310 e2 c9 08 3c 77 fc 69 3b 78 ba be 3b 51 64 36 bc
       0.008348914 0.003570346 0.0058205687 -0.011132316
000320 11 b5 27 b7 83 0b 87 bb 60 01 2c bb 36 95 cc bc
       -9.9961335e-06 -0.0041212454 -0.0026245937 -0.024973493
000330 1e bd c0 3b 61 9f 84 3c f2 85 e9 bb 5c 92 83 3c
       0.0058819195 0.016189279 -0.007126563 0.016061
000340 c2 01 2d bc dc 15 74 bc ee 92 2b 3c 21 4c c6 bb
       -0.010559501 -0.01489779 0.0104720425 -0.0060515557
000350 fb 95 8d 3b 2a c1 34 39 24 df a1 bc 44 70 44 3b
       0.0043208576 0.00017238097 -0.019759722 0.0029974142
000360 fb 7d 62 3b 7e a9 6c 3b 93 3e 85 bc a3 ac b3 3c
       0.0034559953 0.0036111767 -0.01626519 0.021932906
000370 d9 56 c5 bb 98 7d 5b bc 90 84 dc 3c bd 88 82 bb
       -0.006022316 -0.013396643 0.02691868 -0.0039835856
000380 67 b3 b7 3c da 1f 74 bc 4b b1 b2 bc 60 79 44 3b
       0.022424413 -0.014900172 -0.021813056 0.0029979572
000390 30 b0 51 3b 76 55 aa 3b b2 9d f6 3a 23 98 0d 3c
       0.0031995885 0.005198176 0.0018815307 0.008642229
0003a0 9c 18 91 3c fe 12 88 bc a6 c6 b5 3b 98 32 06 bc
       0.01771193 -0.016610619 0.0055473624 -0.008190773
0003b0 66 2f 12 3a d9 a2 30 ba 8e d1 91 bc 1d b3 4d 3c
       0.0005576521 -0.00067381334 -0.017800119 0.012554911
0003c0 e5 db 5e bc d4 59 54 3a 65 20 47 bc 66 cf 13 3c
       -0.013602232 0.00081005436 -0.01215372 0.009021616
0003d0 50 0c 58 bc 64 df 43 bc 23 a7 a0 bc eb 8c 20 bc
       -0.013186529 -0.011955116 -0.019610947 -0.009799222
0003e0 69 da ff 39 40 cb 49 3c 0e c8 4a bb d7 8a 71 bc
       0.00048800118 0.012316525 -0.0030941996 -0.014742575
0003f0 d9 f1 54 bc c7 e3 2c 3a 76 46 4d bc ae a3 7e 3c
       -0.012997114 0.0006595221 -0.012529006 0.015541954

encoder.encoder.1.0.bias f4 [64]
000000 cf 17 65 bc 32 8d 9c 3b 6c c9 1a bc f3 65 80 bc
       -0.013982727 0.004777574 -0.009447437 -0.015673613
000010 61 c3 2d 3c d7 7c 0f bc ce be 42 3c 3b fa 43 bc
       0.010605664 -0.0087577915 0.011886312 -0.011961515
000020 8a 9a b2 bb 3f 3a 2c bc e4 7d f9 3b 5d 00 4a bc
       -0.0054505514 -0.010511934 0.0076138843 -0.012329188
000030 ca 9b a5 3b ba 73 a9 3b 24 21 74 3b 87 4c 90 b8
       0.005053972 0.0051712664 0.0037251199 -6.8807094e-05
000040 26 db 5a bc c8 b8 62 bc 6d 14 13 3b 8c e5 da 3b
       -0.013357913 -0.013838001 0.0022442595 0.006680196
000050 33 e3 31 bc e4 a9 a8 3b 04 ea 09 bb 31 85 88 ba
       -0.010857391 0.0051472057 -0.0021044025 -0.0010415671
000060 0c 1a d7 bb 47 a4 10 3c 8e ac 6f 3b 50 84 0c 3c
       -0.0065643843 0.008828229 0.0036571356 0.008576468
000070 b4 68 61 3c 7e d1 dd b9 71 20 61 3c 10 66 1e 3b
       0.013757873 -0.0004230849 0.013740645 0.002416972
000080 e1 e9 81 bc 7d 1b 68 3c f9 3a 6d bc 3b db f9 b9
       -0.015858592 0.01416671 -0.014479392 -0.0004765632
000090 db 2c 70 bc ec f6 06 bc ad 40 ff 3b 95 87 0d bc
       -0.014659132 -0.008237582 0.0077896924 -0.008638282
0000a0 32 e4 25 3b 68 f1 48 3c ab db 9e bb 1b 03 78 bc
       0.0025313017 0.012264587 -0.004847964 -0.015137459
0000b0 c5 ac 60 bc 01 8f 43 bc 0b b6 6a 3c 4f d9 52 3c
       -0.0137130665 -0.01193595 0.014325629 0.012869193
0000c0 2d f4 6a 3a 77 cd e6 3b 20 fd e9 bb 32 24 06 bc
       0.00089627766 0.0070435363 -0.0071407706 -0.008187341
0000d0 64 75 5d 3c 54 ec 98 bb 38 a1 96 bb fe ae ad bb
       0.013516758 -0.0046668444 -0.0045968555 -0.0053004017
0000e0 f4 51 80 3c 47 33 9e 3b 68 2c 33 b9 c3 51 47 3c
       0.015664078 0.00482789 -0.00017087313 0.01216549
0000f0 0e 10 bf 3b 27 a1 33 3c 7b 14 07 bc d3 bc 1d 3c
       0.0058307713 0.010963715 -0.008244629 0.009627539

encoder.encoder.1.1.weight f4 [64]
000000 17 dd c9 3d bd 2c a4 3e d7 b3 95 3e ad 53 9a 3e
       0.09856623 0.32065383 0.2923877 0.30141965
000010 b9 8e 01 3e 33 2a 24 3e 24 82 84 3e a7 2e 0f 3e
       0.126521 0.16031723 0.2588054 0.1398264
000020 97 10 90 3e 33 4d 59 3e e7 60 99 3e 96 99 0a 3e
       0.28137657 0.21220855 0.29956743 0.13535151
000030 30 e5 87 3e 90 ea ac 3e 8f b3 8a 3e 48 1a 8f 3d
       0.26542044 0.33772707 0.27090117 0.069874346
000040 36 8d ac 3e e5 c0 c2 3d a7 e4 a3 3e 4d fa bf 3e
       0.33701485 0.09509448 0.32010385 0.37495652
000050 56 0e 1c 3e 9a fe 99 3c d8 6f 60 3e 10 8d 3b 3e
       0.15239844 0.018798161 0.21917665 0.1831553
000060 2c 2f 4b 3e d0 9c b6 3e 83 af 68 3e 0d 4c 18 3e
       0.19842213 0.35666513 0.22723202 0.14872761
000070 e7 ec 9c 3e cd 7c 6b 3e 48 7c db 3d c5 cb 51 3e
       0.30649492 0.22996826 0.10717064 0.20487888
000080 53 83 46 3e 49 ed 1e 3e 44 7d 89 3e 5a b7 47 3e
       0.19386034 0.15520205 0.26853383 0.19503537
000090 ea cf 71 3e 51 68 8e 3e c7 fd 7c 3e 9d 29 00 3e
       0.23614469 0.27813962 0.24706183 0.12515874
0000a0 4f b7 92 3e aa c1 38 3e 7e 0b 95 3e 7a 66 9b 3e
       0.28655478 0.18042627 0.2911033 0.3035162
0000b0 b5 0c a6 3d 3d 59 1b 3e 60 be 7d 3e 9e 3b 16 3e
       0.081078924 0.1517076 0.24779654 0.1467118
0000c0 69 17 2f 3e f7 f4 9d 3e d8 df 88 3e 30 94 53 3e
       0.17098774 0.30850956 0.2673328 0.20661998
0000d0 0c a0 59 3e 47 a0 37 3e 72 6c b4 3d 34 14 88 3d
       0.2125246 0.17932235 0.08809747 0.066444784
0000e0 25 5c bb 3d 82 9b c9 3e aa 47 8d 3d df e2 3f 3e
       0.091484345 0.39376456 0.068984345 0.18738888
0000f0 05 e5 6f 3e a3 9a 91 3e 64 9f e1 3d a0 d0 54 3e
       0.23427208 0.2843829 0.110167295 0.20782709

encoder.encoder.1.1.bias f4 [64]
000000 5a 54 75 bd 31 ef 00 be e0 00 db bd 84 92 0d be
       -0.059894897 -0.12591244 -0.10693526 -0.13825423
000010 6b 4a a0 bd 6d 32 39 be 4a 71 2e be fe c1 c3 bd
       -0.07826694 -0.18085642 -0.17035404 -0.095584854
000020 ba 3d 93 bd c3 f5 2c bd ab f6 fd bd ef a4 48 bd
       -0.07189508 -0.042226564 -0.12400564 -0.048985418
000030 e9 59 8f bd b6 34 f3 bd 0b 61 ea bd 14 72 77 bd
       -0.06999571 -0.11875288 -0.11444291 -0.060411528
000040 e0 0f 48 be f0 69 08 bd 50 1b 40 be 34 57 0f be
       -0.19537306 -0.033304155 -0.18760419 -0.13998109
000050 6c b1 82 bc 68 1d 3d 3c a2 ef cd bd 8d 68 65 bd
       -0.015953742 0.0115426555 -0.10055472 -0.05600791
000060 e1 cf ef bd ca c9 3c be b7 15 dd bd ba 67 a2 bd
       -0.11709572 -0.18436351 -0.107951574 -0.079299405
000070 9f 18 c4 bd 1d f9 38 bd 77 53 51 bd 75 67 95 bd
       -0.095750086 -0.045159448 -0.05110499 -0.072951235
000080 9f 99 92 bc 02 14 7a bd f0 64 0c be 30 d1 d0 bd
       -0.017895518 -0.061054237 -0.1371038 -0.10196149
000090 f7 f8 b0 bd a1 85 bf bd 15 cb e5 bd ea fb 8b bd
       -0.08641236 -0.093516596 -0.112203754 -0.06835158
0000a0 83 e5 6f bd 34 ea 77 3d d7 a5 60 bd 96 95 39 bd
       -0.05856849 0.060526088 -0.054845657 -0.045308672
0000b0 11 c9 0f ba 4f 1e c4 bd 35 33 71 bd 5b c6 d4 bd
       -0.00054849783 -0.095760934 -0.058886725 -0.10389396
0000c0 93 e9 0a bd c9 00 1d be 50 7a aa bd 38 97 09 be
       -0.03391416 -0.15332331 -0.083241105 -0.13436592
0000d0 86 68 19 be c6 d5 e9 bc 88 8b ce 3b b7 21 42 bc
       -0.14981279 -0.028544318 0.0063032545 -0.011848859
0000e0 e3 18 8a bd c4 f0 2f be 38 8a 4a bd d9 a5 fc bd
       -0.06743028 -0.17181689 -0.049448222 -0.123363204
0000f0 06 9e 9c bd d8 aa 53 bd ef 91 de bc 27 dd 08 be
       -0.07647328 -0.0516766 -0.027169196 -0.13365613

encoder.encoder.1.1.running_mean f4 [64]
000000 a6 6a d7 bd 5b ab ba be e5 d5 f1 be ba 27 b9 be
       -0.105183885 -0.3645886 -0.472335 -0.3616312
000010 7f e0 44 be bb 43 ad bd 39 e9 a4 be 93 2b 5f bd
       -0.19226263 -0.08460184 -0.32209185 -0.054484915
000020 cd a3 7d be 09 d7 51 be 48 5b c0 be ae 11 d0 bd
       -0.24769516 -0.20492186 -0.37569642 -0.10159622
000030 1b 19 5c be 39 57 e6 be d3 a6 75 be 16 c7 4d bc
       -0.21493952 -0.4498842 -0.2398942 -0.012559673
000040 5a b1 b7 be 4d bd 08 be 0d 57 91 be fe 54 07 bf
       -0.35877496 -0.13353463 -0.28386727 -0.5286406
000050 7e bc ed bd e5 11 05 bd dc 75 d9 bd dd 0b 3f be
       -0.11608218 -0.03248777 -0.10618183 -0.18656869
000060 a6 0f bf bd 76 f7 e2 be 9b 4f 87 be 0b 96 3b bd
       -0.093291566 -0.44329423 -0.26427922 -0.04579739
000070 3d 1c bf be c9 3f 5f be ce 82 3a 3c 7b d0 c8 bd
       -0.37326232 -0.21801676 0.011383725 -0.098053895
000080 41 cd c3 bd 37 79 35 3c ff e6 59 be 1c 54 3f be
       -0.095606335 0.011076263 -0.21279524 -0.18684429
000090 92 47 a9 be e2 90 8f be 7e 32 ca be 80 b7 0a be
       -0.33062416 -0.28040224 -0.39491647 -0.13546562
0000a0 97 92 8c be 7c 4e 8e bd d0 1a cb be 99 3a a0 be
       -0.2745559 -0.069485635 -0.39668894 -0.31294706
0000b0 d0 3d a8 bd 6c 70 3c be f9 fd ac bd b1 da 71 bd
       -0.08214915 -0.1840226 -0.08446879 -0.05904645
0000c0 59 35 f4 bd 00 bc 69 be f6 27 8c be 91 09 0b 3e
       -0.11924238 -0.22825623 -0.27374238 0.13577868
0000d0 54 11 aa 3d 72 c1 41 be e2 3f a0 bd 11 df 19 bd
       0.08304086 -0.1892145 -0.07824685 -0.03756625
0000e0 14 7d 79 3d 92 7d 00 bf e9 5f e8 3c 8a a3 0a 3e
       0.0609103 -0.50191605 0.028366046 0.13538948
0000f0 f8 d2 98 be 98 16 58 be 5d 97 c2 bd 00 8f 3c be
       -0.29848456 -0.21102369 -0.095015265 -0.18413925

encoder.encoder.1.1.running_var f4 [64]
000000 d6 57 1d 3c 3d 09 66 3e 1f b8 f6 3d 01 29 4c 3e
       0.009603461 0.22464462 0.12046837 0.19937517
000010 bb ab b5 3c 88 00 3b 3d d1 ea 27 3e ab 01 ef 3c
       0.022176614 0.045654804 0.16398169 0.0291756
000020 9b 5a c4 3d 11 f8 58 3d 56 91 1d 3e 3e 94 84 3c
       0.09587594 0.05297095 0.15387473 0.016183969
000030 5d 24 a5 3d b1 89 83 3e 0f 51 bd 3d 04 d1 0d 3c
       0.08063576 0.25690988 0.09243976 0.00865579
000040 09 65 53 3e 1b 86 16 3c 31 3d 61 3e 39 7b a9 3e
       0.2064401 0.009187247 0.21995999 0.33101824
000050 55 96 db 3c ed f5 ef 3a 1b e3 07 3e 91 a2 28 3d
       0.026805082 0.0018307545 0.13270228 0.04117066
000060 80 c4 b3 3d 67 b0 65 3e 97 83 ff 3d d5 8c a7 3c
       0.08777714 0.22430573 0.12476271 0.020452896
000070 64 90 1e 3e fa f4 71 3d 27 cb 27 3c 59 db 5d 3d
       0.15484768 0.05907152 0.010241306 0.054164264
000080 43 3a 00 3d c6 57 89 3c 88 8b df 3d c3 22 14 3d
       0.031305563 0.016765486 0.10915285 0.036165964
000090 b9 48 98 3d 81 ae 72 3d 29 d7 95 3d 4f f2 1a 3d
       0.07435746 0.05924845 0.07316429 0.03782874
0000a0 cd 84 39 3e 42 d5 9b 3d ab dc f6 3d 8e 71 bc 3d
       0.18117066 0.07609035 0.12053808 0.09201346
0000b0 78 34 d7 3b 58 32 66 3d 97 20 da 3d 46 47 a1 3c
       0.006567534 0.056200355 0.10650747 0.019687306
0000c0 e1 5a 93 3c 9e 82 28 3e 29 7c 43 3e 3e d2 be 3d
       0.01798767 0.16456077 0.19090332 0.09317444
0000d0 15 01 48 3d 66 99 05 3d 35 a5 28 3c 70 b8 80 3b
       0.048829157 0.032616995 0.010293295 0.0039282367
0000e0 56 e0 58 3c c6 03 b6 3e 2d e3 19 3c 49 d8 dd 3d
       0.01323708 0.35549754 0.009392542 0.10832269
0000f0 b4 fc bb 3d 8b 50 88 3d e1 c4 25 3c 52 bb be 3d
       0.09179059 0.06655987 0.01011774 0.09313072

encoder.encoder.2.0.weight f4 [64, 64, 3, 3]
000000 01 b4 88 bb 33 65 e2 bc 28 8d d8 3b 2c e0 73 ba
       -0.0041718488 -0.027636146 0.006608624 -0.00093031186
000010 1e 6b d6 bc c4 7d b3 ba 38 2a d2 bb 50 d8 b1 bc
       -0.026174124 -0.0013694097 -0.0064137243 -0.021709591
000020 c5 b5 f4 bb 04 78 60 bd d8 57 55 3a 41 6b c3 bc
       -0.0074679577 -0.054801956 0.0008138395 -0.023854854
000030 df ea bc 3c 4c 9a fc 3a 79 52 87 3c 9c 0c 0f bd
       0.023061214 0.0019272058 0.016518818 -0.034924135
000040 46 9d f9 bc 06 8b 00 3d 73 9d 00 3a 1a 18 b2 3c
       -0.030470502 0.031382583 0.0004906274 0.021740008
000050 de ef 5c bc 2b a1 61 3c f5 60 da 3b 8a 12 15 ba
       -0.013484923 0.013771336 0.00666439 -0.00056866615
000060 ec 91 f6 3c 5a f1 7e 3c b8 6c d7 bb f9 4c 91 bb
       0.030098878 0.015560472 -0.0065742396 -0.0044342247
000070 e5 f4 aa ba 23 6b ec 3c de e4 0e 3b 29 fe e2 3b
       -0.0013042955 0.02885968 0.0021803896 0.006927271
000080 ee f5 e7 bc 8c 29 ce bc 95 56 75 3c e5 61 25 bc
       -0.02831551 -0.025166295 0.014974256 -0.010094141
000090 58 fc ff 3a e5 d4 7b bc 5d e7 05 bd d3 2a 7c 3c
       0.001953016 -0.015370582 -0.03269135 0.015391069
0000a0 40 b0 00 bc 2e 16 96 bc 2c fa 43 3c 47 9f aa 3c
       -0.007854521 -0.018321123 0.011961501 0.020827902
0000b0 7b c9 0e 3b 7b 6b 23 bd 6f 1a 18 bb af fd 21 bc
       0.0021787572 -0.039897423 -0.0023209115 -0.009887143
0000c0 26 9b a8 bc c3 fc 82 bc fa d3 63 3c c6 6f 78 3c
       -0.020581793 -0.015989667 0.01390552 0.015163368
0000d0 0a 3d f1 3c 4b 19 08 3c 69 b1 bb 3b b9 b9 a4 3b
       0.029448051 0.008306812 0.005727936 0.0050270227
0000e0 1e c4 77 bc f0 3e 82 3b 66 32 58 3c 4e 46 15 bc
       -0.015122442 0.003974788 0.01319561 -0.009111
0000f0 0c b7 3a 3c ab 75 43 3c 41 d9 29 bc 93 ed f9 bc
       0.011396181 0.01192991 -0.010366739 -0.030508792
000100 e9 c5 c5 bb ad e8 92 bc 11 10 a3 bc 82 97 07 3c
       -0.0060355556 -0.017933214 -0.019905122 0.008275868
000110 07 ce d8 bb ee 7b 54 bb 18 15 97 bc 0e 2d f8 bc
       -0.0066163572 -0.00324225 -0.018442675 -0.030294921
000120 2b dc 87 bb 70 8b 1f bd 72 71 4f bc 33 70 07 3d
       -0.004146119 -0.038951337 -0.012661325 0.033065986
000130 15 0d 54 bb 06 08 42 bd 14 df a5 3c 46 f0 f3 3c
       -0.003235643 -0.047370933 0.020247974 0.029777657
000140 e1 00 39 3c 2b 45 06 bd 3b ff 14 bc 20 c3 0e bc
       0.011291713 -0.032780807 -0.009094055 -0.008713514
000150 1c f0 40 3c 1a c3 c2 3b 83 3d 62 bc 79 16 58 3c
       0.011775997 0.005943668 -0.013808611 0.013188952
000160 e5 7a df 3c 7f 07 26 bb c9 53 29 3d 7a 29 9e bc
       0.02728028 -0.0025334058 0.04133967 -0.019306887
000170 e8 ca a1 bc 62 16 c7 bc 48 7f a6 b9 67 4c 04 3d
       -0.019750074 -0.024302665 -0.0003175682 0.032299425
000180 b0 8b a0 3b 2f 7c 1a 3c 34 ec ab 3c 86 08 98 3b
       0.0048994645 0.009429022 0.020986654 0.004639688
000190 3a ce 37 ba c6 57 b5 bc 1e 3c fd 3b 57 14 80 bb
       -0.0007011626 -0.02213658 0.007728114 -0.0039086747
0001a0 79 28 d2 3b b8 47 4e bc 89 58 98 bc 81 13 f2 ba
       0.006413516 -0.012590341 -0.018596904 -0.0018468947
0001b0 af 9b b0 bc 13 15 dd 3a 79 50 86 3c da 36 98 3c
       -0.02155861 0.0016867243 0.016395794 0.018580843
0001c0 8f 7e 06 bd d2 bc ba 3c 7a 0b 9e bb 4d ac 0a 3c
       -0.03283554 0.022795115 -0.0048231455 0.008463931
0001d0 f5 84 30 3b ed 2c e9 bc 2d b4 6e bb 29 08 5a bb
       0.0026934717 -0.028463805 -0.003642331 -0.0033269024
0001e0 7d bb 9e ba 12 23 4f 3d 79 56 8d bc 89 f4 22 bc
       -0.0012110319 0.050570555 -0.017253147 -0.009945997
0001f0 b0 4b ad 3c ed 88 14 3c d0 0e 82 3c d0 3c e7 bc
       0.021154255 0.009065849 0.015876204 -0.02822724
000200 90 9f 00 3c 37 65 46 bc 98 8e ca bc 39 bf 40 bc
       0.007850543 -0.012109092 -0.024726197 -0.011764341
000210 e0 8d c2 3c cf f6 68 3c 9e 7a 06 bd f1 96 24 3c
       0.023749292 0.014219 -0.03283178 0.010045753
000220 a4 db 34 3c 84 63 b5 3b 5b 42 39 bc c6 a3 a3 bc
       0.0110386945 0.005535545 -0.011307324 -0.019975554
000230 68 95 90 3c a6 b3 63 ba 9d 2f b7 3b 43 89 21 3c
       0.017649367 -0.00086861325 0.0055903927 0.009859386
000240 b3 a2 df 3b 81 8d 1e bd 78 f3 5f bc a8 9c 1f bc
       0.006824815 -0.038709167 -0.013668887 -0.00974194
000250 64 6e 6d bc 1a 3f c6 bc 4a 3b e4 bc 68 fb ab 3c
       -0.014491651 -0.024200011 -0.027860302 0.020993903
000260 34 0a 02 3c 25 93 48 3c 37 4f b3 bc 56 f2 b5 3a
       0.007937003 0.012242113 -0.021888359 0.0013881426
000270 63 ab 9d b9 e2 32 07 3c e2 9b 45 bc 7a 77 05 3a
       -0.00030073067 0.0082518775 -0.012061091 0.0005091351
000280 7c c6 4a 3b d5 d5 24 3c e9 b0 0e bd 32 ac 32 bd
       0.003094106 0.010060747 -0.034836683 -0.04362125
000290 5b a1 17 bd 81 44 d7 bc 6c 3f 92 bc 36 e6 88 bc
       -0.037019115 -0.026277782 -0.017852508 -0.016711336
0002a0 75 86 82 bc a5 8f a5 3c 8b b4 0f 3b ca bc d3 3c
       -0.015933255 0.020210097 0.002192768 0.025846858
0002b0 db 06 1d bc 6c b0 ab 3b bc 5b a3 39 91 17 12 bd
       -0.009584154 0.005239537 0.0003115813 -0.035667006
0002c0 35 55 32 3d 99 10 2c 39 8b 2d 38 bd c8 44 85 bb
       0.04353829 0.00016409381 -0.04496531 -0.0040670373
0002d0 1d a8 06 3a 69 4c 8a bc e5 93 88 3b 84 79 8f bb
       0.0005136745 -0.016882138 0.004168021 -0.0043784995
0002e0 50 cd db 3c 6f c0 32 39 ff 7a c9 bc dd 56 07 3d
       0.026831299 0.0001704709 -0.024594782 0.033041824
0002f0 b5 c7 86 bc ee 0b c4 3b 28 6a 4d bc 73 46 18 3a
       -0.01645265 0.0059828674 -0.012537517 0.00058088376
000300 51 78 1e 3a da 2a b6 b9 61 e9 2f bc 24 73 9b 3c
       0.000604515 -0.00034745672 -0.010736794 0.018975802
000310 2c 5f 4b ba 50 a4 ad 3b 57 8e 8e 3c b9 ba 03 3d
       -0.0007758017 0.0052991286 0.017401857 0.032160494
000320 24 d4 37 3c e1 86 a7 bb 69 d2 82 bc b9 94 e1 3c
       0.011220012 -0.0051125144 -0.015969472 0.027536737
000330 17 43 85 bc 77 6f 7e bc ab f2 1b bc f6 ab f9 bc
       -0.016267342 -0.015529505 -0.009518306 -0.030477505
000340 e6 c7 8d bc ff ed 0c bd df f6 c8 bb 7d bd ac 39
       -0.017307233 -0.03440666 -0.006132945 0.00032947576
000350 10 04 b1 bc 5f 74 06 3c 9b 7b ba 3c 97 22 0f 3c
       -0.021608382 0.008206456 0.022764018 0.008736274
000360 a3 e7 d3 bc 1e 17 08 3c 8b 91 87 3c 85 b9 d4 bb
       -0.025867289 0.008306293 0.016548892 -0.006491842
000370 dc 23 0b bb eb c4 d3 ba 7d 82 5e bc a9 bf ec bb
       -0.002123109 -0.0016156709 -0.0135809155 -0.007224996
000380 22 7b b0 bb dc ba f8 3c 55 cb fb bc 55 70 0d bd
       -0.0053857723 0.030362539 -0.030736605 -0.034530956
000390 35 a7 c8 3c 40 4e 81 bc 27 4b 0d bc e3 0e be 3c
       0.024493793 -0.015784383 -0.008623875 0.023200458
0003a0 80 8d a4 bc 8b cd b2 bc a1 59 af ba c3 0b f4 bc
       -0.020087004 -0.021826526 -0.0013378152 -0.029790765
0003b0 37 ae 51 3c c3 51 71 bc c5 24 8b bc 37 64 af ba
       0.012797884 -0.014728966 -0.016985307 -0.0013381307
0003c0 ef fb 05 bc d0 ab a5 3c 9a 23 18 3c 40 26 9a bc
       -0.008177741 0.020223528 0.009285832 -0.018817067
0003d0 5d a3 26 bd b0 d1 e9 bb 45 70 fc bb c3 b4 37 bc
       -0.04068314 -0.0071355924 -0.0077038133 -0.011212531
0003e0 8d 85 f0 bc 18 2b c6 3c 59 86 81 bc 2f 75 80 3c
       -0.029360557 0.02419047 -0.015811132 0.015680877
0003f0 89 c1 27 bc c7 7e b1 3a fa 6b 98 3a 6e be c3 3c
       -0.0102390135 0.0013541811 0.0011628859 0.023894515

encoder.encoder.2.0.bias f4 [64]
000000 63 a9 43 bc 0d 2c 95 bb 91 81 6e 3a 68 9c 1a 3b
       -0.01194224 -0.0045523704 0.00090982864 0.002359176
000010 39 13 ea 3b fe df a0 3b e6 a6 60 bb ec b4 36 3b
       0.007143405 0.0049095144 -0.0034279167 0.0027878834
000020 55 97 26 bc d3 7b 84 ba 84 33 b8 ba 6d 3e 85 bb
       -0.010167916 -0.0010107703 -0.0014053439 -0.0040662796
000030 aa 48 4d bc 11 95 2f 3b ff 60 c1 bb 06 56 76 bc
       -0.0125295315 0.0026791731 -0.0059014554 -0.015035158
000040 36 e1 65 3b 64 15 0a 3c 58 b1 81 bc 8d df e5 bb
       0.0035076863 0.0084279515 -0.015831634 -0.0070151747
000050 07 ff 60 3c 6d ce cd 3b 5d 07 60 bb dd fd 84 bc
       0.013732678 0.0062807114 -0.0034184076 -0.016234333
000060 d7 3f 1e 3c d5 da 54 bb 35 df c2 bb 16 02 18 3c
       0.009658775 -0.0032479067 -0.0059470185 0.009277841
000070 33 36 a9 bb 75 6a 6b 3c 24 b4 53 ba 44 ca 2f bc
       -0.0051639318 0.014368643 -0.0008075854 -0.010729376
000080 c7 ac 16 bc 38 76 dd 3b 1b e7 83 b7 31 63 17 bc
       -0.009196467 0.0067584775 -1.5724034e-05 -0.009239958
000090 bd b4 06 3c 89 83 2f bc 48 08 4b 39 86 85 85 bc
       0.008221802 -0.010712513 0.00019362674 -0.01629902
0000a0 f0 a4 62 3b 21 70 01 bc 2b ff 40 bc 9e 24 33 3c
       0.0034583174 -0.007900269 -0.011779587 0.010934023
0000b0 2d a0 8d bb d5 fb 55 bc 08 0f 99 3b bb 13 75 3c
       -0.004322073 -0.01306053 0.0046709813 0.014958317
0000c0 a5 ee 97 3b 77 36 bd bb 1f 0d 4f bc f1 a9 46 3c
       0.004636603 -0.005774315 -0.012637406 0.012125478
0000d0 30 a2 80 3c a3 c5 bf 3b 6b 4c 04 bc 11 9d 2d bc
       0.015702337 0.0058524176 -0.00807486 -0.01059653
0000e0 7b 09 42 3b be eb 32 bb 80 c4 8f bb 13 a8 1c 3c
       0.0029607702 -0.0027301158 -0.0043874383 0.009561556
0000f0 a8 08 73 3c 93 bd b7 3b 9f d5 93 3a 67 17 9b 3b
       0.014833607 0.005607316 0.0011278874 0.0047330144

encoder.encoder.2.1.weight f4 [64]
000000 72 7c 8a 3e 19 96 30 3e 0b b1 84 3e 38 98 df 3d
       0.2704807 0.17244758 0.25916323 0.10917705
000010 d5 56 82 3e 86 86 bc 3d 39 51 98 3e 61 e3 40 3e
       0.25456873 0.09205346 0.29749468 0.18836738
000020 e8 9c 84 3e 7c 37 87 3e f7 4c 8a 3e 54 d3 50 3e
       0.2590096 0.2640952 0.27011845 0.20393115
000030 a0 60 9d 3e f0 8b 4c 3e 95 6e 65 3e fb cd be 3e
       0.30737782 0.19975257 0.22405465 0.37266526
000040 86 97 b8 3e 5e 13 6f 3e 2d 3d b6 3e 72 17 6c 3e
       0.36053103 0.23347232 0.35593548 0.23055819
000050 0f 01 78 3e 3d c7 76 3e 40 9f a9 3e 06 a3 a9 3e
       0.24219154 0.24099441 0.3312931 0.3313219
000060 f8 f3 9a 3e 9c 60 d0 3d 67 26 07 3e ea d9 01 3e
       0.30264258 0.10174677 0.13198243 0.12680784
000070 e0 25 9d 3e 9e 68 64 3e 07 34 8e 3e ec a1 98 3e
       0.3069296 0.22305533 0.2777407 0.29811037
000080 7a 98 9e 3e 56 3d eb 3d 9d 33 82 3e f5 7c 80 3e
       0.30975705 0.11486308 0.25430003 0.25095335
000090 e3 f1 8e 3e cb b3 b5 3e 6d e5 50 3e 30 f1 52 3e
       0.2791892 0.35488734 0.20400019 0.20599818
0000a0 e7 f6 94 3e c7 f6 95 3e c3 b3 1d 3e 42 f1 b0 3d
       0.29094622 0.2928984 0.15400605 0.08639766
0000b0 2f 7b 10 3e 98 eb ae 3e 79 19 90 3e 38 92 90 3e
       0.14109491 0.3416412 0.28144434 0.28236556
0000c0 3a e8 81 3e 49 8d a2 3e ca 54 73 3e 04 91 b2 3e
       0.25372487 0.31748417 0.23762813 0.34876263
0000d0 8d 05 5d 3e 0e ea 51 3e cf 2b 35 3e 25 ba 3c 3e
       0.21584149 0.20499441 0.17692493 0.18430384
0000e0 25 9c 8e 3e aa d8 b4 3d b3 fc 7c 3e 72 1e 90 3e
       0.27853504 0.08830388 0.24705772 0.28148228
0000f0 ee da 8b 3e f2 1c 97 3e 60 43 61 3e 9c 33 0d 3e
       0.27315468 0.2951427 0.21998358 0.13789219

encoder.encoder.2.1.bias f4 [64]
000000 41 80 39 bc eb 03 55 bd c0 71 47 be ed 6e 2e bd
       -0.011322082 -0.05200569 -0.19476986 -0.042586256
000010 98 cd 59 bb 5c ec a1 3c 01 36 3b be 91 7f ea bd
       -0.0033234116 0.019766025 -0.1828232 -0.114501126
000020 e4 2a 1d bd cb 04 dc bd 2a 1f 07 be 82 a3 8b bd
       -0.03837098 -0.10743102 -0.13195482 -0.06818296
000030 5d d5 cf bd 26 ba 97 bd 52 91 9b bd d3 67 a2 bd
       -0.10148118 -0.07408552 -0.07596077 -0.07929959
000040 ac e7 eb bd 2c e1 91 bd e1 be 9f bd 54 6b ba bd
       -0.11518797 -0.07123026 -0.07800079 -0.091025025
000050 49 cb 37 be 84 01 07 be ee ed d5 bd b0 49 bd bd
       -0.17948641 -0.13184172 -0.10445772 -0.092425704
000060 dc e9 c2 bd 49 f4 0a bc ed 26 b4 3b 10 6a 64 bd
       -0.095172614 -0.008481094 0.0054978044 -0.05576521
000070 25 67 09 be 0f 9a 24 bd dd e6 af bd ed 98 da bc
       -0.13418253 -0.040185984 -0.085889556 -0.026684249
000080 8d cc f0 bd 5a 8a 1f bc 3a 8a fe bd 60 f9 bb bd
       -0.11757765 -0.009737575 -0.124287084 -0.09178424
000090 a7 a0 9b bd 41 13 5b be 72 a0 83 3b 9a ee ee 3b
       -0.075990014 -0.21394064 0.0040169293 0.007291627
0000a0 dc 5d 92 bd 4f a5 32 be 25 16 47 bd 3b 8c 1b bd
       -0.071468085 -0.17445873 -0.048605103 -0.03797553
0000b0 b0 5c 1e bd a9 31 57 be 31 ce ef bd 03 89 0f be
       -0.038662612 -0.21015038 -0.1170925 -0.1401711
0000c0 fa 4a 1f bd e9 43 14 bd b6 60 53 bd f9 41 81 be
       -0.038889863 -0.036197577 -0.051605903 -0.25245646
0000d0 3a f7 b0 bc de ba 97 3a fd 52 21 bd f1 d2 5f bd
       -0.021602262 0.0011576077 -0.039385784 -0.05464453
0000e0 25 62 4f bd 41 8f d8 bc ba 7f d2 bd d3 55 4e bd
       -0.050630707 -0.026435496 -0.10278268 -0.050374817
0000f0 73 63 3f bd 32 27 18 be 2b f6 b9 bd da 86 86 bd
       -0.0467257 -0.14858702 -0.09080156 -0.0656869

encoder.encoder.2.1.running_mean f4 [64]
000000 2d 4f bd bd 0d a1 61 bd 96 a1 3d be 96 da 35 bd
       -0.09243617 -0.05508523 -0.18518671 -0.044397913
000010 a2 83 0d bd cf d4 e9 bc 6e d6 8d be 50 0e 05 be
       -0.034549363 -0.028543858 -0.2770266 -0.12993741
000020 37 7b e9 bd dd d4 02 be f4 0a 27 be f4 c1 97 bd
       -0.114004545 -0.12776513 -0.16312772 -0.074100405
000030 4e ff 13 be a7 39 13 bd dd 5b 98 bd 45 8a 07 be
       -0.1445286 -0.035943653 -0.074393965 -0.1323634
000040 10 0b 2e be e2 df cd bd c5 ce 84 bd 95 66 9d bd
       -0.16996408 -0.10052468 -0.06484751 -0.076855816
000050 c2 cc 8d bd cd fe 45 be c6 ef ca bd 53 e7 10 be
       -0.0692382 -0.1933548 -0.099090144 -0.14150743
000060 7a 10 d1 bc 6e 55 2f bc 06 0f 0a bd 1d 93 1e bd
       -0.025520552 -0.01070152 -0.033705734 -0.038714517
000070 b4 4d c4 bd de 4f a1 bd 15 14 1b be 8d e9 ec bd
       -0.09585133 -0.078765616 -0.1514438 -0.11567984
000080 08 31 93 bd a5 f3 c8 bd b3 57 99 bd 04 61 1b be
       -0.07187086 -0.098120965 -0.074874304 -0.15173727
000090 28 a4 9f bd da c9 cf be 85 be 8d bd f5 1e c8 bd
       -0.07794982 -0.40583688 -0.06921104 -0.097715296
0000a0 11 57 d7 bd 2b 16 77 be 2b ef 94 3c a5 63 90 3c
       -0.105146535 -0.2412955 0.01818045 0.01762564
0000b0 47 4e 70 bd 4f a7 59 be 1c 25 08 be ee 06 c9 bd
       -0.0586684 -0.2125523 -0.13295406 -0.09815775
0000c0 1d d5 0f be 7d 01 2a be c5 b3 28 be 53 af 7b be
       -0.1404614 -0.1660213 -0.16474827 -0.245786
0000d0 13 58 60 bd c4 04 29 bd c9 b0 8b bd 2b b3 b6 bd
       -0.054771494 -0.04126431 -0.068208285 -0.08920892
0000e0 0a 52 97 bd 9b 4a 00 ba 49 06 e1 bb 58 cf 0a be
       -0.073886946 -0.00048939296 -0.0068672043 -0.13555658
0000f0 1e cf b9 bd 27 2f 55 be 26 8f 9e bd dd 99 1a bd
       -0.090727076 -0.20818768 -0.07742147 -0.03774439

encoder.encoder.2.1.running_var f4 [64]
000000 bf 6c d3 3b ec f4 39 3b 75 a7 a7 3c 56 a2 4e 3b
       0.0064521725 0.0028374745 0.020465592 0.0031529865
000010 ac 9e 03 3c ee 14 e5 3a e7 f6 b9 3c f2 35 ba 3b
       0.008033436 0.0017477551 0.02270074 0.0056827003
000020 4b 6a 83 3c 1f 6f d6 3c 7c c8 74 3c 0c 00 bc 3b
       0.016041895 0.026176034 0.014940377 0.0057373103
000030 64 fa 81 3c e0 89 e8 3b 9c 25 13 3c 3f 31 85 3c
       0.015866466 0.007096514 0.008981135 0.016258834
000040 64 21 91 3c a9 ec 52 3c 93 7f 95 3c 18 63 d6 3b
       0.017716117 0.012873807 0.018249309 0.0065425746
000050 8c 81 27 3c b8 87 8c 3c 48 c0 57 3c 8a 17 53 3c
       0.0102237575 0.01715456 0.013168402 0.01288403
000060 f3 f0 66 3c c4 fa c5 3a 67 29 09 3b 9e 1a 6b 3b
       0.014095533 0.0015104641 0.0020929219 0.003587402
000070 73 9b 85 3c d7 fc ac 3b 3d 32 ca 3c 35 20 f4 3b
       0.016309476 0.0052791643 0.024682159 0.0074501284
000080 e3 b3 90 3c bc 02 28 3b 25 76 23 3c 2c 92 92 3c
       0.017663902 0.0025636395 0.009976898 0.017891966
000090 fd f9 ec 3b e9 ca 5a 3d 36 40 67 3b 14 a9 ae 3b
       0.0072319494 0.053416166 0.0035286075 0.0053302143
0000a0 e4 3f aa 3c 2c fd 45 3c 2e e3 32 3c e5 a7 85 3a
       0.020782419 0.012084287 0.010918422 0.0010197131
0000b0 1a 30 2d 3b 21 d3 ee 3c c7 cc 51 3c c1 56 3b 3c
       0.0026426376 0.029153408 0.01280517 0.011434258
0000c0 4d 7d e6 3c 08 c4 76 3c d9 ca 19 3c 01 b4 e5 3c
       0.02813592 0.015061386 0.009386742 0.028039934
0000d0 10 1d f1 3b 1d af 90 3b 94 29 84 3c 16 d9 1c 3c
       0.007358201 0.0044154064 0.016133107 0.009573242
0000e0 a7 e8 28 3c 87 25 bf 3a 57 83 81 3c 52 d0 41 3c
       0.010309375 0.0014583328 0.015809698 0.011829453
0000f0 a5 91 66 3c d5 10 83 3c 4e f4 b9 3b fe 01 ec 3b
       0.01407281 0.015999237 0.0056748753 0.007202386
