saves_concept/pacs/art_painting/max_acc.pth (torch_old, 526838 bytes, 28 tensors)

encoder.encoder.0.0.weight f4 [64, 3, 3, 3]
00000000: e791 033e 41dd 813d c697 413e af04 c13d
00000010: 06c6 18bd 2d14 1c3e 7fe4 573d 745c 9b3c
00000020: c97e 4d3e c566 f2bd 75b1 cdbd 35f7 95bd
00000030: d63a 12be f416 a63d 5aae 0fbc 553c febd
00000040: 00f7 753d 9aee ccbd 52f9 e5bd 2ae6 f33c
00000050: 17b7 11be 43ec 093d b4d4 28be 41ee 84bc
00000060: 4977 20be 8e90 83bc ec68 b1bd db4c 2fbd
00000070: a59d 2c3d 0959 fc3d 99a9 8cbd fbc7 acbd
00000080: 414c c73d b500 1f3e 7746 8dbb 62e8 113e
00000090: 6661 f03d 11f7 8e3d 7afc 0a3e 5cd0 10bd
000000a0: a7cb 373d 06bb cdbc a55a 37bd e38d e4bd
000000b0: be7f 9a3d ef80 e73c 1c8a 9d3d 82cb f3bd
000000c0: d860 5d3d bc71 103a b4b8 c33d 7bf8 61bb
000000d0: f187 1e3d 95e0 663c 683a b4bd 5791 b23d
000000e0: d940 e3bd 4326 a93d 4487 8d3d a170 ec3d
000000f0: 28f8 dc3d a1f7 d13d 55c2 fc3d d3cf debd
00000100: b5e4 2c3d 69c2 09be dd8e a23d e4a2 f4bd
00000110: 0c51 53bd 8ade 2f3d 45b5 553d 3874 1dbb
00000120: cd2e 023d cbc2 f13c c072 e03d cc09 9ebd
00000130: aa99 da3d b927 4f3c 51a2 0e3e 258e 1cbd
00000140: 8acb 623d 9206 3c3d 503d e9bd 273a 433e
00000150: 6420 98bb 3347 d5bb a12c b03c 6842 aa3c
00000160: b666 2dbe 88aa 793c 4774 ba3c 5062 5fbd
00000170: 556d 8c3d 59c5 bf3d 33f3 b7bd f322 753d
00000180: 4ac6 bcbd 45b5 30bd fd40 3ebd b195 1d3e
00000190: 7cb3 21bc c95d 433e 40b2 e53d c215 20be
000001a0: 3b4e 913d a896 a2bd e10b 23be 8bc2 d2bd
000001b0: 9cef c23d 51b4 103e 4eca 6bbd 2c47 bfbd
000001c0: 9166 ccbc f199 913d 00a3 7bbd d5af b1bc
000001d0: 8d56 043e dd16 9a3c 2d1d 89bc 84cc 673d
000001e0: 57aa a03d 887a 36bd 2f58 a03d ccc3 d43a
000001f0: 01be 06be 0e6c 783d cf58 98bd f904 8dbd
00000200: 050a a73d a7e6 a03d b240 44bd 1860 c8bd
00000210: a549 df3c e43d bebb fc56 523d 39f2 19be
00000220: 272f d63d 76eb 0b3e f0c4 cbbd ee66 ce3d
00000230: a9f0 3b3e 39fd 04be 4a66 1d3e e3b7 b7bd
00000240: e525 e33d cf38 1cbe 614a ca3c c92f 69bd
00000250: e4f3 a33d e1ae fabd 6808 1dbe 6656 ecbd
00000260: 0631 e53d d880 fc3d 93fb 8a3d f0c5 77bc
00000270: ddba 5d3c ba2a 203d c3a8 92bd fac0 bf3d
00000280: 7800 10bd 524f e83d 7b4e 88bd f445 0ebd
00000290: b85b efbd f2cb c63d 394a 9fbd 1311 06be
000002a0: 63e9 14be 736d 16bc eef7 6abd 958a dd3d
000002b0: 93b0 fabd 4ddb d83c 9ca2 c4bd b3d1 febd
000002c0: d49b aa3d 84ce ec3d 955b 98bc 38f6 1ebd
000002d0: 0fb3 d6bc bf8a dc3b b556 1b3e 8123 873d
000002e0: 0d87 fc3d 8cc7 bdbb ea40 8fbd 53c7 f13c
000002f0: 9bfe 03bd d784 bebd 295a 203d c6dd 46bd
00000300: c6f1 ae3c 01be 89bd b5fd 8ebd 22ad 283d
00000310: 45af b83d bf6d eebd 5ca2 b03d 09a2 a5bd
00000320: ddfd 09bd cda9 24be 9647 413d 0625 b2bd
00000330: bbfd 0ebe a104 12be 2ced 123e 8117 873d
00000340: 2f36 c9bd 4db0 213d 7966 8d3d e812 0ebd
00000350: 334d 073d 493e 8a3d 7ac4 0ebd 2404 0d3e
00000360: ff13 0d3d faac b5bd 6def f6bd a428 d03d
00000370: 788c 923d b0fe f6bd 4df4 ad3d db56 05be
00000380: a20a 16be 97ef 333c 9209 a2bd 24bd a33d
00000390: 66c0 e43d 1c99 963c dd09 04be 034e ba3d
000003a0: 4095 fc3c 9b89 21be f6a1 aebd 9dc2 a93d
000003b0: bb92 d1bd b198 c43d d857 9e3b ead4 623b
000003c0: cbbd 013d aa05 63bd a564 d63d 87e2 2e3d
000003d0: 4f34 913d b2ea 02be 2569 053e 50fb b0bd
000003e0: c51d cf3d e1b0 273e 9a48 00bc ffbf 77bc
000003f0: f8f0 233d f44a 773d b030 553d e229 98bd
0.12848626 0.06341029 0.18905553 0.094247214 -0.037298225 0.15242071 0.052708145 0.018964984
0.20067896 -0.11836008 -0.10043613 -0.073225416 -0.14280257 0.08109847 -0.008769596 -0.12413851
0.06005001 -0.10006447 -0.11229195 0.029772837 -0.1423 0.033672582 -0.1648739 -0.01622689
-0.15670504 -0.01606014 -0.086625904 -0.042797904 0.04214253 0.123216696 -0.06868286 -0.08436581
0.09731341 0.15527613 -0.0043113786 0.14248803 0.11737327 0.06980718 0.13572875 -0.035354957
0.044871952 -0.025113594 -0.04476418 -0.11159875 0.07543896 0.028259723 0.07692358 -0.119040504
0.054047436 0.0005510112 0.09556714 -0.0034480381 0.038703863 0.0140916305 -0.088002026 0.087191276
-0.11096353 0.08259251 0.069105655 0.1154492 0.107895195 0.102523096 0.123417534 -0.10879483
0.0422103 -0.13453068 0.07937405 -0.119451314 -0.051590964 0.04293684 0.052174825 -0.002402557
0.031782914 0.02951183 0.10959387 -0.07716712 0.1067384 0.012643748 0.13929106 -0.038221497
0.05536989 0.045904703 -0.113886476 0.19065152 -0.004642533 -0.0065087317 0.021505656 0.020783618
-0.16933712 0.015238412 0.022760523 -0.054537117 0.06856791 0.09363813 -0.089819334 0.059847783
-0.09217508 -0.043141622 -0.046448696 0.15389134 -0.009869453 0.19078745 0.11215639 -0.156333
0.070949994 -0.07938892 -0.159225 -0.102910124 0.09518358 0.14131285 -0.05756598 -0.09339747
-0.024951251 0.0710944 -0.061434746 -0.021690289 0.12923642 0.01880973 -0.016737545 0.056591526
0.0784499 -0.04455045 0.0782932 0.0016232668 -0.13158418 0.060649924 -0.07438814 -0.06885714
0.08156208 0.078564934 -0.04791326 -0.097839534 0.027256796 -0.005805718 0.051352486 -0.15033807
0.10458212 0.1366404 -0.09949672 0.10078226 0.18353523 -0.12987222 0.15371051 -0.089706205
0.11091212 -0.15256046 0.02469367 -0.056930337 0.08005503 -0.12240387 -0.15335238 -0.11539917
0.11190991 0.123292625 0.06786265 -0.015122876 0.013533321 0.039103247 -0.07161095 0.09362979
-0.035156697 0.11343254 -0.06655594 -0.03473468 -0.11687416 0.09706868 -0.07777829 -0.13092451
-0.14542155 -0.009181368 -0.05736535 0.10817448 -0.1224071 0.026471758 -0.09601328 -0.12442341
0.08330503 0.11562827 -0.018598357 -0.03880903 -0.026208429 0.006730407 0.15169795 0.06598569
0.123304464 -0.00579161 -0.06994803 0.02951399 -0.032225233 -0.09302681 0.039148483 -0.048551343
0.021355521 -0.067256935 -0.069819845 0.041180737 0.09017805 -0.11642026 0.086247176 -0.080875464
-0.03368937 -0.16080399 0.04718741 -0.08698468 -0.13963978 -0.14259578 0.14348286 0.0659628
-0.09824788 0.039474774 0.06904311 -0.034686 0.033032607 0.06750161 -0.034855343 0.13771111
0.034442898 -0.08870883 -0.120573856 0.101640016 0.071556985 -0.120602965 0.08493862 -0.13021414
-0.14652494 0.010982416 -0.07911982 0.0799506 0.111695096 0.018383555 -0.12894388 0.09096911
0.030832887 -0.15775149 -0.08526985 0.08289073 -0.10233065 0.09599436 0.004832249 0.003461177
0.03167514 -0.055425324 0.10468415 0.042696502 0.07090055 -0.12784842 0.1302839 -0.08641684
0.101131 0.16376068 -0.00782981 -0.015121459 0.040024728 0.060374215 0.052048385 -0.074298635

encoder.encoder.0.0.bias f4 [64]
00000000: 3fda b1bd d4e5 62bb 1d6b 443d 979e b3bd
00000010: baa6 143d 44cd d6bd 9189 3e3d d0b4 80bc
00000020: aba0 453d b44c 093e a60c 9abc e770 ab3d
00000030: 70cc dcbd 9991 64bd 6344 d5bc 00a9 9c3d
00000040: 3792 13bd e88d b5bd c70e 24bb 706e 7fbc
00000050: ec50 b63c b9c5 d63d 5f87 73bd 64fd 0b3e
00000060: 7674 0dbd c6a2 e6bd 4954 ba3c fd87 463d
00000070: 2d62 e6bd 3d57 b7bd 83f0 e7bc be79 0abe
00000080: f867 38bd 1f67 32bd e002 fd3c a360 fe3c
00000090: 149a c2bd bbc1 efbd 663d 08be 41ac 0abe
000000a0: e385 643d 88db eabd ba87 e7bd 9402 c7bd
000000b0: ae00 cb3c 71bb f5bc 3f8c e33d 65f7 a63d
000000c0: 0a8b d3bd fc88 82bb affc c63d 5a40 f13d
000000d0: 6a1a e7bd f126 9f3d b519 193c 80f4 ca3d
000000e0: 5687 d1bd ed7a f7bd 8d11 113d 8324 c6bd
000000f0: c003 ed3d 30a8 aa3d fc22 81bd 97c4 06be
-0.08684205 -0.0034621852 0.047953714 -0.08770483 0.036291815 -0.1048837 0.046517912 -0.015711218
0.048248928 0.13408166 -0.01880486 0.08371144 -0.10781181 -0.055802915 -0.026033586 0.07649422
-0.036028113 -0.08864957 -0.0025033222 -0.015590295 0.022255383 0.10486931 -0.05945527 0.1367088
-0.034534894 -0.11261515 0.022745268 0.048469532 -0.11249194 -0.08952186 -0.028312927 -0.13523003
-0.045021027 -0.043555375 0.03088516 0.03105194 -0.09502044 -0.11706873 -0.13304672 -0.13542272
0.055791747 -0.114676535 -0.11305185 -0.097172886 0.024780598 -0.029996606 0.11110734 0.081526555
-0.10329254 -0.003983615 0.09716164 0.11779852 -0.11284335 0.07771099 0.009344508 0.09909916
-0.102308914 -0.12083993 0.03541713 -0.09674933 0.11572981 0.083328605 -0.06305501 -0.1316093

encoder.encoder.0.1.weight f4 [64]
00000000: 33b9 d13e 5c38 313f 3e8d c33c 1c90 d13e
00000010: 1cd9 e83d 82dd 0e3f d000 523e d15c 073f
00000020: 812f b73e cdb6 113f a864 793e 0848 3f3f
00000030: 1a24 163f 09c1 313f 9d29 323f 2a99 583e
00000040: 9cd6 8b3d 3785 263f deff 193f 6565 6d3d
00000050: 9707 1b3f e321 003f 377a 1a3f b530 dc3e
00000060: 099f 813d 918d 543e 20db dd3d bc19 ae3e
00000070: c201 0f3f 5378 ea3e 38a0 7d3e 9e65 cd3e
00000080: 6e0c 2a3e 1fef 073d 398f 9a3e 8f5e 6d3e
00000090: ba2c d73e b1a9 ce3e 4f16 003e 6528 163f
000000a0: ffd0 293f 569d ee3e c784 313f 8b02 993e
000000b0: dfca b73e 8bfb 423d c2af 353f ff82 a03e
000000c0: 5b62 0c3e 39dd 203f c1ea 293f 0af7 843e
000000d0: 2141 103f f3a3 2c3d 0d9a 3d3d a3a8 6b3e
000000e0: 9279 e83e df90 c13e ef59 033f dbbf 713e
000000f0: e8dc 0f3f 38b0 043f e264 f63d e60e 133f
0.40961608 0.6922662 0.02387106 0.4093026 0.11369535 0.55806744 0.20508122 0.52876
0.3577843 0.56919557 0.24354804 0.74719286 0.58648837 0.69435173 0.69594747 0.21152177
0.06828043 0.6504702 0.6015605 0.057958025 0.60558456 0.5005171 0.60342735 0.4300591
0.06329162 0.20757128 0.108328104 0.3400401 0.5586206 0.45794925 0.2476815 0.4011659
0.16606304 0.033187028 0.30187395 0.23180602 0.4202631 0.4036384 0.1250851 0.5865539
0.6633453 0.46604413 0.6934323 0.29884753 0.35896966 0.04760317 0.7097131 0.31349942
0.13709395 0.6283756 0.6637383 0.25969726 0.5634938 0.04214854 0.046289492 0.23013549
0.4540525 0.3780584 0.513091 0.23608343 0.5619645 0.5183139 0.120309606 0.5744461

encoder.encoder.0.1.bias f4 [64]
00000000: f00f 64bd 6bc2 bdbc 182e a03b a58d 833b
00000010: a42f d83b 0194 43bc 0734 a43b 3bd1 fbbc
00000020: 2e1a 7139 4e61 79bc aa5b 8bbc e99a 03bc
00000030: b796 82bc 35a3 0fbd f095 95bc bbaf 9cbc
00000040: cdee ba3b 4b34 8ebc f1be 87bb c2bf fb3b
00000050: a427 1dbd e4b8 553c d5f1 d1bd 7059 2cbc
00000060: 31d0 1fbc b328 69bc d046 34bd 6118 7abc
00000070: 152d 5dbd 3a8a 513c d112 d0bb 2da2 35bc
00000080: bb00 d03a 26a1 44ba c73a 9bbc 91d2 7cbc
00000090: b94d 31bd 0de0 89bc 07ee 32bc 27c6 d4bd
000000a0: b287 083d f06d a6bb f941 25bd c64d 1c3a
000000b0: 76be 6abd c95e a5bc 0395 87bc bd26 233c
000000c0: 241a 1bbc 3a6c 49b9 e626 dcbc 11b7 c9bc
000000d0: 1a7b 28bb 810b 053c abb6 2fbb 55f3 abbc
000000e0: adf2 253b fb10 33bd ffda 9abc 59fc c4bc
000000f0: 1312 03bd 4512 8cbc 0b88 45bc c61f 5ebc
-0.05567926 -0.023163995 0.0048883073 0.004014688 0.006597476 -0.011937142 0.005011085 -0.030739417
0.00022993304 -0.015220953 -0.017011482 -0.008032539 -0.015941007 -0.035067756 -0.018259972 -0.019126764
0.005704737 -0.01735892 -0.004142635 0.0076827714 -0.038367882 0.01304457 -0.10251204 -0.01051937
-0.009754227 -0.014230895 -0.044012845 -0.015264601 -0.05399807 0.012789303 -0.0063498993 -0.011086029
0.0015869358 -0.00075008196 -0.018948926 -0.015431062 -0.043287013 -0.016830469 -0.010921008 -0.10389357
0.033332534 -0.0050790235 -0.04034612 0.0005962517 -0.057310544 -0.020186799 -0.016550547 0.009957966
-0.009466682 -0.00019209171 -0.026874017 -0.024623426 -0.002570814 0.0081204185 -0.002681176 -0.020990053
0.0025321648 -0.043717366 -0.018903254 -0.02404611 -0.03199966 -0.017098555 -0.012056361 -0.01355738

encoder.encoder.0.1.running_mean f4 [64]
00000000: 5acf 4fbf 3c09 ac3f a54c 9a3f 13c4 54be
00000010: 8915 cc3e 43e4 c73e 399e 01bf edbd 0abf
00000020: eeb9 b9be 0dd0 263f 307b 5c3f eac6 503d
00000030: 6131 343f 7856 c13e 3964 583f e1b9 a9be
00000040: 475b 09be fba7 613f 34e7 45bc a8f6 7bbe
00000050: 05c9 93be 2f46 d43e 6c6b 30bf d25b c43e
00000060: 2e2b 303f ee1c d33e f2ef 88be 0723 a1be
00000070: 27c7 a4be cf7f b0be 54a9 c03e 275f 283f
00000080: fa6c 49be e80c 77bf 66ad 5b3f 375b 363e
00000090: 4a24 74bf fc51 8f3d 327a d3bf 65d0 65bf
000000a0: e70e e03e 72e5 a9bd c4a0 c23f 905b dabd
000000b0: 809c 8abf c911 d1be ff3f af3f 5600 153f
000000c0: 6141 293f b4e7 c13f 9d75 893f fdb3 90bd
000000d0: 3e39 bbbe a358 343f 8c59 d3bd 14e0 883d
000000e0: 5ad8 79be 3bdc fdbe ce7e 263f 643d cdbd
000000f0: 6afb b53f f790 ad3c 3a3f a3bf 7f3f c7bd
-0.8117577 1.3440318 1.205464 -0.20777921 0.3986018 0.39041337 -0.50632054 -0.54196054
-0.36274666 0.6516121 0.8612547 0.05097095 0.70387846 0.37761283 0.8452793 -0.33149627
-0.13413726 0.8814694 -0.012079049 -0.2460581 -0.28864303 0.41459796 -0.6891391 0.38351303
0.68815887 0.4123301 -0.26745564 -0.31472036 -0.3218319 -0.3447251 0.37629187 0.6577019
-0.19670478 -0.9650407 0.8581146 0.17808233 -0.9536787 0.06998059 -1.6521666 -0.8977111
0.4376137 -0.08295716 1.5205312 -0.106619954 -1.082901 -0.40833881 1.3691405 0.5820364
0.66115385 1.5148835 1.0739018 -0.0706558 -0.3656711 0.7044775 -0.10319814 0.066833645
-0.24398938 -0.49582085 0.6503724 -0.10021475 1.421735 0.021187289 -1.275367 -0.09728908

encoder.encoder.0.1.running_var f4 [64]
00000000: d774 c93e 58ab 433f 6f8b 1c3f 0c38 063e
00000010: 86c0 903d 2d5a 193e 6edc 343e 6d2e 133e
00000020: e54b 503e 259b 1b3e 05c8 ab3e fd7d b63e
00000030: ea3c c13e 0665 8c3e db31 073f a9cb c93d
00000040: 7918 2f3d dc03 0f3f 756a 473e b121 353d
00000050: 7eb5 f03d 5580 f23d 4102 753e 5f03 253d
00000060: a02b 823e 7c53 763e 0b3b 873d 7127 1a3e
00000070: d903 0f3d 3782 083e bbb4 b53d cdb1 983e
00000080: 6e44 0f3d 693d c83e 1e7f ab3e c1da 2a3d
00000090: 39ef d03e db79 5a3d 7e44 7a3f 676b 9e3e
000000a0: 29ce 4a3e 2ac0 493e 48bb 8f3f 4146 673d
000000b0: 8e53 0b3f 1d61 ce3d b53a 2c3f 490d 053e
000000c0: 0a42 823e cba4 853f a530 e13e e098 373d
000000d0: 357f b83e 2802 463e d3ef ae3c 3d77 8c3d
000000e0: 377c e93d 0675 b73d 16d7 453e bc33 a13d
000000f0: 812a 383f c976 8f3d a750 2d3f 6a39 823e
0.39346954 0.76433325 0.6115026 0.13107318 0.07067971 0.14975806 0.17662212 0.14373179
0.20341451 0.15195902 0.3355104 0.35642996 0.37741786 0.27420825 0.5281045 0.09853298
0.04274795 0.55865264 0.19474204 0.044221584 0.11753367 0.11840884 0.23926641 0.040286418
0.25423908 0.24055284 0.066030584 0.15054108 0.03491578 0.13330923 0.08872362 0.2982315
0.03497737 0.39109352 0.3349542 0.041712526 0.40807512 0.053338867 0.9776076 0.30941316
0.19805206 0.19702211 1.1229029 0.056463484 0.5442437 0.10077117 0.6727708 0.12993349
0.2544101 1.0440916 0.43982425 0.044823527 0.3603455 0.1933676 0.021354591 0.068586804
0.11400645 0.08957867 0.1932033 0.07871196 0.71939856 0.07005078 0.6770119 0.25434428

encoder.encoder.1.0.weight f4 [64, 64, 3, 3]
00000000: c3ea cfbc 79ca 5b3c d184 5fbb 357f 53bc
00000010: 12d1 373c 6bea 56bc 7527 2dbd b340 12bd
00000020: 4092 05bc 0c46 a93c de89 a8bc 8c1c ea3b
00000030: 7287 c8b9 46e7 783c 0b66 033d 2f9e 853c
00000040: 44d9 283d 414b f13c 1bcd b9bb 40b5 003b
00000050: 2f1a 843b 31ce 74bc 565b 843c 08ff 943c
00000060: 6557 36b9 a028 bb3c 0046 d53c dfe8 31bb
00000070: 986f 1dbc d7d5 7abb f6cd 1d3c 809e 8e3c
00000080: 42b4 b5bc 7096 17bd fd15 4d3c 95ef fc3c
00000090: 1051 d9bc c46d 7f3c 703b c73c 31d6 5dbc
000000a0: 77e1 113c 9d67 ae3c 73c3 903c e705 ccbb
000000b0: 3515 9fbc f5ec e53c 358f d3bb d721 813c
000000c0: c599 d5bb 07d8 edbb 0f55 be3a e027 de3a
000000d0: dd6e 58bc a4a0 153d 14b4 d93c 2df2 3f3b
000000e0: a1a6 92bc e1d8 b43c 1c03 f7bc fc92 66bc
000000f0: fae6 04bd 204e 903c 452f b23c b3da 803c
00000100: 78bd 7fbc aa94 a63c 81e6 dc3b b53c 00bd
00000110: 486d b43c 34c9 0fbd 2a6c 33bd 146f 923a
00000120: 0a34 58bc baf7 f6bb 4686 9bbc fb97 293c
00000130: 90f5 203b 93a7 0a3b 7a7c c03c 206a 96bc
00000140: e74a bfbc 03cf 5d3b 60a5 353c 7eaa 2c3c
00000150: ae4a f4bc a9f0 fbbb 8e03 dfbc 19e8 edbc
00000160: df41 ab3c 3edc c93c b466 7fbb bd46 d9bc
00000170: 747c a63c e6f2 acb9 1a68 9abb 313d ffbb
00000180: af4c 3b3b 33dc 0fba 771c 4a3c aa50 8bbc
00000190: dea9 bd3c 577a 37ba b6bf 0dbd 9e27 bd3c
000001a0: c6a4 4d3c 2ab4 a2bc b1c4 51bc 2fe9 08bd
000001b0: 5fab e23c 8c9e 853c 2a92 bd3c d2fb b83c
000001c0: bf9b 03bb abe3 8cbc b648 77bc c197 573c
000001d0: 7b9d 123d 0cb3 e1bc ae81 13bb 59a4 00bd
000001e0: c59a 053d e940 813c a412 04bb da3e 01bd
000001f0: ff43 c33c 3db2 4ebc affb 363c dfad 4b3c
00000200: 0336 58bc c424 9abc 2842 efbc 9225 45bc
00000210: fa47 2fbd 26d2 2a3c 61fc 05bd 0cf7 39bc
00000220: 6d2d 8e3c 846c be3b 360e 903c a39e 07bd
00000230: 01a8 aabb bfa9 58bc f9b3 bbbb 264e d5bc
00000240: 5c76 68ba 28d1 e53c 8300 80bc 0785 99bc
00000250: 301e 383c 658e 9ebc 8bd0 133b 1cd7 893b
00000260: 7508 6cbb 126f 1ebc 79fd 2d3c ea29 98bc
00000270: 6bc1 7036 eb5c 9b3c 3300 ae3c 416b 60ba
00000280: 900d 343c b9bb d0bc b01e 383c e397 0ab9
00000290: 6a25 bbbc e244 fa3c ab76 a93c 6e7f 0fbd
000002a0: 090d a8bc b1bb a2bb a35f b7bc 40b9 c53c
000002b0: 2552 8dbc 1b6c d1bc 7f11 9dbc 101f 9bbc
000002c0: 4b14 693c 6795 a53b ff95 723c 79b0 ea3c
000002d0: a87d cb3c 154e b33b 52a1 093d 8538 cebc
000002e0: 6f0f ca3c 19f4 cb3b 58dc 903c c31f 2dbc
000002f0: 48db 0b3c fd9d b53a 687d bb3c 53d7 94b9
00000300: a6ec 58bc bfca 3ebc 682b 0fbc a9df fc3c
00000310: 19a4 4d3b 5254 843c 54b5 903a be1b 9c3c
00000320: 6e0d fa3c 3576 ab3c 936f aabc 0c68 eb3c
00000330: 83ec e13c 0f98 e1bb e4b2 853c 8427 c1bc
00000340: 3c52 e3ba 65e0 a2bc f4ba 07bb 0e68 253c
00000350: c6a6 f7bc 408a e13c 6da3 aabc 1b5b 08bd
00000360: 062e b6bc 5819 b6bc 4613 ae3c fd16 edbc
00000370: 4a00 cd3b 97af 8fbb d075 a6bc 63d2 893c
00000380: 6e29 59bc d68e f63c 16ae bdbc d64a 8f3c
00000390: 03ba 85bc d8fa 6e3c e935 3dba 95f4 903c
000003a0: 83b0 613c 7daa 59bc e9e7 123c f8ef 5abc
000003b0: 26ba a6bc f30f fdbc aee5 a33c ed90 f2bc
000003c0: fe79 7f3c 5998 cebc b89b ea3c b657 95bc
000003d0: d6e3 2abd 2f0f febc daa1 bcbc 0c3f f0bc
000003e0: 8b86 71bc b98e 7cbb 6eae 983b 2076 7bbc
000003f0: 0af3 ad3c 89a7 06bc e9c0 be3b 4fe6 9bbc
-0.025380498 0.013414972 -0.0034106264 -0.0129087465 0.01121928 -0.013117413 -0.042273957 -0.035706233
-0.0081525445 0.020663284 -0.020573553 0.0071445163 -0.00038247887 0.015191859 0.032079738 0.01631078
0.041222826 0.02945483 -0.0056702024 0.0019639283 0.0040314416 -0.014941738 0.016156834 0.018188015
-0.0001738943 0.02284652 0.026034355 -0.0027146859 -0.009609126 -0.003827443 0.009631624 0.017409563
-0.02218068 -0.037008703 0.012517449 0.03087596 -0.026527911 0.015590135 0.024320334 -0.013539837
0.008903853 0.021289641 0.017671322 -0.0062262896 -0.019419292 0.028067091 -0.0064562806 0.015763206
-0.006518575 -0.0072584185 0.0014521199 0.001694914 -0.013210026 0.036530152 0.026575126 0.0029288635
-0.01790172 0.022076072 -0.03015285 -0.01407313 -0.03244684 0.017615378 0.021751055 0.015729284
-0.015609138 0.02033456 0.0067413454 -0.031307895 0.022024766 -0.03510399 -0.043804325 0.001117202
-0.013196001 -0.0075368555 -0.018984925 0.010351176 0.002456043 0.002115701 0.023496855 -0.018361151
-0.023351146 0.0033845312 0.011086792 0.010538695 -0.029820766 -0.007688601 -0.027223375 -0.029041337
0.020905433 0.024641152 -0.0038971128 -0.026522988 0.020323016 -0.0003298737 -0.004712117 -0.007789277
0.0028579643 -0.00054878293 0.012335888 -0.017006237 0.023152288 -0.0006999126 -0.034606658 0.02309018
0.012551492 -0.0198613 -0.012803243 -0.033425506 0.027669607 0.016310953 0.023140986 0.022581015
-0.0020081846 -0.017198404 -0.015093019 0.01315874 0.035794716 -0.027551197 -0.0022507715 -0.031406734
0.032618303 0.015778022 -0.0020152712 -0.03155408 0.023836134 -0.0126157375 0.0111684045 0.012431591
-0.013196471 -0.01881636 -0.02920635 -0.012032883 -0.04279325 0.01042608 -0.03271139 -0.0113504045
0.017355645 0.005811276 0.017584901 -0.033110272 -0.005208016 -0.013224064 -0.0057282415 -0.02603824
-0.00088677346 0.028053835 -0.015625244 -0.01874019 0.011237666 -0.019355008 0.0022554721 0.0042065512
-0.0036015783 -0.009670036 0.010619515 -0.018574674 3.587537e-06 0.018965205 0.02124033 -0.0008560904
0.010989562 -0.025480138 0.011237785 -0.00013217288 -0.022844989 0.030550424 0.020686468 -0.035033636
-0.020514028 -0.004966222 -0.02238447 0.024136186 -0.017251084 -0.025564244 -0.019173382 -0.01893571
0.01422603 0.0050532105 0.01480627 0.028648602 0.024840191 0.0054719546 0.033601113 -0.025173435
0.024665562 0.006224167 0.017683193 -0.010566655 0.008536167 0.0013856288 0.022886947 -0.0002838919
-0.013240015 -0.011645018 -0.008738376 0.030868368 0.0031378327 0.016153488 0.0011040368 0.019056197
0.030523982 0.020930389 -0.020805156 0.028736137 0.027578598 -0.006884582 0.016320653 -0.023578413
-0.0017343233 -0.01988239 -0.0020710798 0.010095609 -0.030230891 0.027531743 -0.02082988 -0.03329001
-0.022238743 -0.022228882 0.021249425 -0.028941626 0.006256138 -0.0043849456 -0.02031985 0.016823953
-0.0132545065 0.030097406 -0.0231543 0.01749174 -0.016324049 0.014586173 -0.0007217811 0.01769475
0.013774994 -0.0132852765 0.0089664245 -0.013362877 -0.020352434 -0.030891394 0.02000698 -0.029610122
0.01559305 -0.02521913 0.028638706 -0.0182303 -0.041721188 -0.0310131 -0.023026396 -0.029326938
-0.01474155 -0.0038537218 0.0046594655 -0.015347987 0.021234054 -0.008218654 0.0058213365 -0.019030718

encoder.encoder.1.0.bias f4 [64]
00000000: a3ef c23c 96af a1bc adce f13b dc86 b8bc
00000010: 2b47 453c cddc b13c 4e51 163c 032c c5ba
00000020: 55f8 273c 10ca 96bc 883a 8fbc 08e2 903c
00000030: a5a0 f63c 0dd2 603c a090 0bbc f16c 4c3c
00000040: f818 ffbb f22c e9bc c47b d3bb 6419 95bc
00000050: 219d 553c 2b1f 8fbc 339a fdba 5ac9 303c
00000060: 8e54 f7bc 4599 31bc d996 9c3c 859a b63c
00000070: de90 81bc 22bc ab3b ca22 333a 26c4 273c
00000080: 9885 19bc e3e1 f03c 9177 bfbb 19db 57bc
00000090: 1228 cebb 2a1e 57bc e539 e13c 2062 84bc
000000a0: 5b84 793c f147 833c 4fc0 1e3c d751 703c
000000b0: d174 1bbc eea1 32bc b135 d4bb 1490 3fbb
000000c0: 7340 e73c 44ba f83c d0b7 c33c 0834 873b
000000d0: 9b8a bb3c abad 1a3c 0782 893c b5cb b5bc
000000e0: bad3 bcbc 859f 9f3b 4feb f03c bc41 b23c
000000f0: 0d6b 6c3c 6cec 95bc 211d fabc 78dd fb3b
0.023795908 -0.019737046 0.007379374 -0.022525243 0.012040894 0.021711731 0.009174658 -0.0015043024
0.010252078 -0.018406898 -0.017483965 0.017685905 0.030105898 0.013721955 -0.008518368 0.0124771455
-0.007784959 -0.028463814 -0.006453963 -0.018200584 0.013037951 -0.017470917 -0.0019348323 0.010790193
-0.030191686 -0.010839765 0.019114899 0.022290478 -0.015816148 0.005240933 0.0006833492 0.0102396365
-0.00937023 0.029404586 -0.005843111 -0.013174796 -0.006291398 -0.01312975 0.027493427 -0.01616007
0.01522931 0.016025515 0.009689405 0.01466795 -0.0094883 -0.010902865 -0.006476127 -0.0029230164
0.028228974 0.030362256 0.02389136 0.0041260757 0.02289324 0.00944082 0.016785635 -0.022191862
-0.023050178 0.004871311 0.029409079 0.02175986 0.01442982 -0.018301211 -0.030531468 0.0076863132

encoder.encoder.1.1.weight f4 [64]
00000000: 1469 303f 7a17 8b3d 029c 103f 39d7 0c3f
00000010: 4f90 c43d d4cc 153f 8058 703e 9323 123f
00000020: cc26 a03e ee31 8e3e 490d 8b3e 7b35 353f
00000030: 6256 023f 00da a73e 7f9d 383f d71a 843e
00000040: ee74 223e 4f6f 8c3e 451c 523e 8f12 283f
00000050: 0dd6 0a3f dfc6 c73d 93c1 933e 7f85 5f3e
00000060: 93cb 1f3f 6177 903e c610 0d3f a2e0 e33e
00000070: 7362 ac3e a415 933e 6359 323d 9ef7 833e
00000080: 1709 a93e 5e95 303f e0ba b83d 2758 a23e
00000090: 96de b53c e016 ee3e 6787 c53e a352 ec3e
000000a0: 843b 743e ed3c 113e 1ee0 763e 2ca1 163f
000000b0: 93b2 273e f939 003e 2ad0 883e a4e8 383e
000000c0: b1e1 2c3f 788d 113f 406f 093e bc34 933c
000000d0: 10e6 cc3e e40c 5f3e cacb 153f 3231 b93e
000000e0: bc01 123f 2e13 943e c187 903e 6f5b ac3e
000000f0: 04f8 313f 1f76 083f 4a1c fa3e b504 c13e
0.68910336 0.06791587 0.5648805 0.55015904 0.09597837 0.5851567 0.2347126 0.5708553
0.312796 0.27772468 0.27158573 0.7078473 0.5091306 0.32783508 0.7211532 0.25801727
0.15864918 0.27428672 0.20518596 0.6565332 0.54232866 0.097547285 0.28858623 0.21828268
0.62420005 0.2821608 0.5510372 0.4450732 0.3366886 0.28727448 0.043542277 0.25774854
0.33014748 0.68977916 0.090200186 0.3170788 0.022200864 0.46501827 0.38579866 0.46156797
0.23850828 0.14183398 0.24108931 0.5883968 0.16376714 0.12522115 0.26721317 0.18057495
0.6753188 0.5685649 0.13421345 0.017969482 0.40019274 0.21782261 0.5851408 0.36170346
0.57033896 0.28920883 0.28228572 0.33663508 0.69519067 0.5330524 0.48849708 0.37698904

encoder.encoder.1.1.bias f4 [64]
00000000: 1b5d ebbb 379e fdbb 2ba7 79bd 545a 24bc
00000010: fe7f a5bb 2eb4 18bd 7d05 2bbd edc3 183d
00000020: aec1 21bd 8641 843c dbe3 42bd 223a 15bd
00000030: b389 33bd 8933 193c e844 64bd 1a6b acbc
00000040: b61d 84bc 6de6 f23b 33e3 5abc ec61 3abd
00000050: 1cbd 60bd 443d acbb c9a4 c0bb 8042 00bc
00000060: 77d0 5abd 7bbf 55bd 64c2 a9bd 808f c1bc
00000070: d804 8dbc b889 14bd da76 853a 53d8 f53c
00000080: 9daf 9abb b4a6 66bd 2918 e6bb e8a3 24bc
00000090: fcb8 f3ba ae07 c6bc 7e3a 27bd c642 38bd
000000a0: 0e96 58bc 8b18 75bc 9fdd 313c 9b7a 82bd
000000b0: 8a60 2139 5213 533a be93 c0bc e18e 90bb
000000c0: 2f85 c5bd e2cb 05bd 49e7 99bb adcd de3b
000000d0: 98fc ccbc 6b34 17bc 4aeb acbc 6961 b9bc
000000e0: b269 f3bc 2678 cf3c 68f1 46ba e9ba 9a3b
000000f0: 8400 b83b 0e64 c03c 2379 d4bc 3a71 1a3c
-0.00718273 -0.007739808 -0.06095044 -0.0100313015 -0.0050506582 -0.037281208 -0.04175328 0.037296224
-0.039491348 0.016144525 -0.04758058 -0.036432393 -0.043832492 0.009350666 -0.055729777 -0.021047164
-0.016127449 0.007412723 -0.013359833 -0.04550354 -0.05486785 -0.005256327 -0.005879019 -0.007828355
-0.053421464 -0.052184563 -0.0828903 -0.023627996 -0.017214224 -0.03626415 0.0010182515 0.030010378
-0.0047206418 -0.056311324 -0.007021923 -0.010048844 -0.0018594558 -0.024173584 -0.040827267 -0.044985555
-0.01321937 -0.014959465 0.010856061 -0.063710414 0.0001539012 0.000805189 -0.023507949 -0.0044115637
-0.096445434 -0.03266514 -0.004696761 0.006799421 -0.02502279 -0.009228806 -0.021108288 -0.022629457
-0.029713485 0.025325846 -0.0007589073 0.0047219885 0.005615296 0.02348521 -0.025936669 0.009426409

encoder.encoder.1.1.running_mean f4 [64]
00000000: 9f91 87be fde0 943c 10f7 463e a068 fb3d
00000010: ee2c a6bd ec15 4ebd d250 e23e 8e90 8dbe
00000020: f288 ac3d 41fa 23be d00f 853e 475b 0e3e
00000030: eef8 533e 025b 21be 3e43 ab3e 0a5f 853e
00000040: 699c 51bd c1c6 50be fe9f dfbd 1780 023e
00000050: 97bb c0be 2540 c8bd 02f0 02be 9496 d1bc
00000060: 300f a5bd 6132 113f c16c 1b3f 9629 763b
00000070: 983a dabc 7d4c 78be 3214 7fbd 8f54 babd
00000080: 75c6 c13e 139e be3e 57bb 993d ee19 43bd
00000090: 3421 0cbd ccb3 953d dd6f a53e bd0b 0e3e
000000a0: ffbd b83d 0ffe 883c f1e2 3dbe 4b75 413f
000000b0: b15e cebd d429 6fbd a22f 863c 1c7d c1bd
000000c0: a31d 9e3f fd79 0b3e eeec 483d f4ef 1e3e
000000d0: 53b3 cebc fd87 27be 7b4d d5bd efb2 0f3e
000000e0: c6f0 cb3e 6f95 a5be 480b 233e 786a 07be
000000f0: efab 80be 490e b1be 4e22 063e 743f 7c3d
-0.26478288 0.018173689 0.19430184 0.12275815 -0.081140384 -0.050313875 0.44202286 -0.2764935
0.08424558 -0.16013433 0.25988626 0.13902007 0.20700428 -0.15757373 0.3344974 0.26049072
-0.051174555 -0.20388319 -0.10919188 0.12744175 -0.3764312 -0.097778596 -0.12786868 -0.025584497
-0.080595374 0.567175 0.6071282 0.0037561408 -0.026639268 -0.24247928 -0.06227512 -0.090981595
0.37846723 0.37229976 0.07506435 -0.04763215 -0.034211352 0.07309684 0.32311907 0.13871665
0.09020614 0.016722707 -0.18543603 0.755696 -0.10076655 -0.0583895 0.016380135 -0.09447691
1.2352794 0.13620754 0.04905408 0.15521222 -0.025231993 -0.16360469 -0.10415169 0.14033101
0.39832133 -0.3234057 0.15922272 -0.13224208 -0.25131175 -0.3458121 0.13099024 0.06158395

encoder.encoder.1.1.running_var f4 [64]
00000000: e8e7 d63d 6bf5 1f3c a46d b23d 4082 293d
00000010: 3b37 a23c 997e 723d e344 3b3d d630 f03d
00000020: 33c5 a13c 2d0c 183d 5920 d23d a22d 983e
00000030: efc9 663d 5cc2 ce3c c2e6 cf3e 821e d23c
00000040: 0d76 4f3c d70f 813d e5e2 0f3d 4230 0f3f
00000050: c19d fb3d c44b 1a3c 299f eb3c 4f36 5e3d
00000060: 0765 0c3e 91b1 a93d bbd2 583e 00cc dc3d
00000070: 48b0 ac3d bb09 b23d e2cb 543c bd2f 8c3c
00000080: f7ab e23d 8afc e33d 2c70 7c3c da73 523d
00000090: 448c 033c 2e5d d23d 7184 d43d 0885 823d
000000a0: 9c63 f33c fd02 9d3c bd4d 6a3d 34a9 6d3e
000000b0: 7feb 7f3c 66f6 fb3b 7524 8d3d 3050 483c
000000c0: df28 b23e 46c5 653e dcfe 7f3c 5b90 ca3c
000000d0: ff2e 433d 1d27 263d 5b5a 143e 584f 373d
000000e0: e278 2c3e 5193 bc3d d411 ee3c 05ea 313d
000000f0: 0b07 0a3e 8393 933d 8ef0 4d3e 8b7d 283e
0.10493451 0.009763102 0.087123185 0.04138398 0.019801727 0.059202764 0.045719992 0.11728065
0.019747352 0.037120987 0.10260076 0.29722315 0.056344923 0.025239162 0.40605742 0.025649313
0.012662423 0.06301849 0.035128493 0.5593301 0.122859485 0.009417478 0.028762417 0.05425101
0.13710414 0.08285821 0.21174137 0.107810974 0.084320605 0.08693262 0.012988063 0.017112607
0.11067956 0.111321524 0.015407603 0.051380016 0.008029047 0.10271679 0.10376824 0.0637303
0.029710583 0.019166464 0.057203043 0.23209077 0.0156201115 0.007689285 0.06891719 0.012226149
0.34796807 0.22438535 0.015624728 0.024727037 0.04765224 0.040564645 0.14487593 0.044753402
0.16842988 0.09207786 0.029061235 0.04343607 0.13479249 0.0720587 0.20111296 0.16454141

encoder.encoder.2.0.weight f4 [64, 64, 3, 3]
00000000: e07d acbb 3f6b 9cbc a822 febb a10e eb3c
00000010: 3e3e 123d 670f 83bc ca9f 7f3c f3ad 143d
00000020: 4091 4d3c 85c6 9a3c 638b 5b3c 7feb fbbc
00000030: 5d3c b43c 577a 953c 1b30 03bd b443 c8bc
00000040: 1ddb dcbc 4e23 c73c af03 76b9 3770 003b
00000050: 9c24 f63c 726a d9bb becd ef3c 29d9 a73b
00000060: 6b3c cebb b70b 473c a580 d3bb df0a 85ba
00000070: 5d5b 793c 17ae d53c 37d8 e73a 69c6 5ebc
00000080: 8d29 4ebb 066b 193d 4c7d f63c 1620 b13c
00000090: b3ee 1cbc ca56 da3c 13d5 633c 58c0 8f3c
000000a0: bb5e 3bbc 9f2c 79bc 34ee c33c 37c0 aebc
000000b0: 2963 c53b e1b3 d53c d525 823c ff21 d2bc
000000c0: 6893 303c abd1 ee3c 08dc 323c 0a47 443c
000000d0: 05c1 353c f54d 083c 0fa2 adbc e438 a63c
000000e0: f620 e13c d9d9 7cbc be10 903c 829d f03c
000000f0: a107 afbc 29a2 4f3b 695e f8bc 0d44 27bc
00000100: ecfd 7abc ca3b 03bd 9d25 22bc 94d5 033c
00000110: 5760 a63a 160e f23b b26f 6cbc e617 de3c
00000120: ab48 67bc eb59 033c e18e 28ba 3e65 983c
00000130: 14d8 08bc 784c 35bc 8cf5 97bc 6be1 d9bc
00000140: 0119 a839 4f79 adbc 060b 9abb b150 ae3b
00000150: 1118 e0bb 3328 0bbd dcc1 fbbb ddd1 79bc
00000160: c02f 343b 74bc 48bc be1b 353c 270d 683c
00000170: 1dc7 49bc 6008 19ba de1d 2cbb cd20 ee3b
00000180: 3601 ed3c 7a19 fc3a ceb4 c03b 8d35 193d
00000190: 66b5 eab9 5240 543c ea3b 113d c5c7 93bc
000001a0: 1950 29bc fe11 aabb e7b2 0a3d db38 983b
000001b0: 19d5 3d3c a0a0 5bbc d2e1 1bbd bfc6 a03c
000001c0: d1b6 98bc b819 17bc aa19 cc3c d229 afbc
000001d0: 077a ba3c 5094 c03c ae32 f0ba 5703 dd3c
000001e0: 59e6 a43c ab59 5f3c a730 e23a 07b6 9b3a
000001f0: 66eb 893c dcd5 00bc d752 dd3c 1084 98bb
00000200: 6a58 f83c e4c6 2f3d d912 873b e975 68bc
00000210: 3a3b ed3c e421 033c d834 4fbc c11a 093d
00000220: cf0a babc 2e25 cc3b 7181 d23b 3ab8 57bc
00000230: dce0 d4bc a6c8 183c b9e6 aabc e1bd 0ebb
00000240: a979 9e3c 520d 83bb 84b8 6c3b 6064 103c
00000250: ad7d 233c ff2e 9a3c b995 7fbc 6b30 ccbc
00000260: f755 83bb 8900 a13b a658 30ba 654f be3c
00000270: f49f 4c3c 8822 05bc 4855 ed3c 8759 b73c
00000280: f827 c93c 98f4 f03c 85e9 c2bc e448 afbc
00000290: a944 19bc 5728 f3bc ff07 eb3b 5769 df39
000002a0: 6f86 ed3c 4a86 b03c 3652 33bc 0556 93bb
000002b0: 8f9a 4f3a bc52 943c 3806 fdbc 5c37 4f3c
000002c0: 8892 8fbc a6dd 06bd 4043 833c c3fd 73bb
000002d0: ff86 89bb 0f92 5a3c d0c2 8d3a caaf 1c3c
000002e0: 5d96 0c3c 1128 6cbb 63fd d6bc 960b 44bc
000002f0: 7122 fabc 4bf9 273b 9935 013c d70b 0f3c
00000300: feca 033c 9f3d 15bc d8f6 ca3c 1667 29bc
00000310: aea9 cd3c 8dea d9bc a8d3 833c 7c8b 5ebc
00000320: ebc4 943b ecad 83bc b735 003d da9e 38bb
00000330: 0024 acbb 9711 903c f5be a7bc 3998 d0bc
00000340: 70fb f7bb d429 843c 36ae a0ba 69d3 a1bc
00000350: 6039 cf3b 8a87 d43c a0fa 753c c99c 2bbc
00000360: 7553 1dbc 8172 8c3c 086d c5bc 2326 993c
00000370: d709 c1bb f644 b13b b760 aa3c f2c5 de3c
00000380: 6281 173d 4bbe 22bc d61e 9c3c d31f 233a
00000390: e21c d63c 810b 9bbc 7754 9fbc 81b8 c23c
000003a0: b7ed cbbc 4b53 c1bc 4148 c2bc 9af5 103b
000003b0: 5150 eebb 3147 96bc 3d21 4abc 293a 8bba
000003c0: 7f0c 433c 0f11 22bb e813 40bc 27ff 10bb
000003d0: 75ea 34bb 4092 2bbc 1ce4 74bc 0be6 563c
000003e0: c7c1 ce3c 6f92 c93c bb78 a4bc 4a84 023c
000003f0: 06cd 01bc c825 86bb ba7f 84bc 1a67 d93c
-0.005264029 -0.019094108 -0.007755596 0.028693499 0.03570389 -0.015998555 0.0156020615 0.036298703
0.012546837 0.01889349 0.013399932 -0.030751942 0.02200144 0.018246813 -0.0320283 -0.024446346
-0.02695995 0.024308827 -0.0002346176 0.0019598135 0.030046754 -0.0066350037 0.02927291 0.005122323
-0.0062938235 0.012148789 -0.0064545446 -0.0010150335 0.015219537 0.02608399 0.0017688338 -0.013597109
-0.0031457872 0.03745558 0.030089043 0.021621745 -0.009578395 0.026652712 0.013905781 0.017547771
-0.01143616 -0.015208392 0.023917295 -0.02133189 0.0060237837 0.02608675 0.01588718 -0.025650976
0.010777332 0.029152712 0.010916717 0.011979828 0.011093383 0.008319368 -0.02119544 0.0202908
0.027481537 -0.015432798 0.017586108 0.02937198 -0.021365942 0.0031682348 -0.030318456 -0.010209096
-0.015319329 -0.03203944 -0.009896663 0.008046526 0.0012693506 0.007386933 -0.014430927 0.027111005
-0.0141164465 0.008017044 -0.0006429982 0.018602964 -0.008352298 -0.011065595 -0.018549703 -0.026596745
0.00032062086 -0.021176009 -0.004701021 0.0053196778 -0.0068388064 -0.033973884 -0.007683022 -0.015247789
0.0027494282 -0.012251962 0.0110539775 0.014163292 -0.012315539 -0.0005837735 -0.002626292 0.0072670938
0.028931241 0.0019233667 0.0058809286 0.037404586 -0.0004476711 0.012954788 0.03545753 -0.018039593
-0.010334038 -0.005190133 0.03386202 0.0046454496 0.011586451 -0.013404995 -0.038057156 0.01962602
-0.018641861 -0.00922244 0.024914581 -0.021382246 0.022763265 0.02350822 -0.0018325651 0.026979132
0.02012937 0.013632218 0.0017256931 0.001187981 0.01683588 -0.007863488 0.02701704 -0.004654415
0.030315597 0.042914286 0.00412212 -0.014188268 0.028958905 0.008003686 -0.012646876 0.03347278
-0.022710232 0.006230018 0.006424122 -0.013166482 -0.025986128 0.009325182 -0.02086197 -0.0021780657
0.019345121 -0.0039993906 0.0036120722 0.008812994 0.009978694 0.018821238 -0.0155996615 -0.024925431
-0.0040080505 0.004913394 -0.0006727077 0.023231218 0.012489308 -0.008125909 0.02897133 0.022381557
0.024555191 0.029413506 -0.023792991 -0.021397062 -0.009354749 -0.029682321 0.007172584 0.0004261236
0.028994767 0.021548409 -0.010944894 -0.0044963383 0.00079194544 0.018105857 -0.030886754 0.012647476
-0.017525926 -0.032926224 0.016023278 -0.0037230111 -0.004197001 0.013340487 0.0010815505 0.009563396
0.008580771 -0.0036034624 -0.026243871 -0.011965653 -0.030534001 0.0025630768 0.007886314 0.00873085
0.008044003 -0.00910893 0.024775907 -0.010339519 0.025105324 -0.0266011 0.016092137 -0.01358306
0.004540076 -0.016074143 0.031301226 -0.0028170855 -0.005253315 0.017586512 -0.020476798 -0.02546321
-0.0075678155 0.016133226 -0.001225895 -0.019754129 0.0063239783 0.025943536 0.015013367 -0.010474392
-0.009602417 0.017144443 -0.024099842 0.018694943 -0.0058910656 0.005409832 0.02079807 0.027193997
0.036988623 -0.009933065 0.019057672 0.0006222699 0.02613682 -0.018926384 -0.019449456 0.023769619
-0.024893625 -0.023599287 -0.023716094 0.0022119046 -0.007272758 -0.018344494 -0.012337026 -0.0010622191
0.011904835 -0.0024729406 -0.011723496 -0.002212474 -0.0027605568 -0.01047188 -0.014946964 0.01311637
0.025238885 0.024605958 -0.0200771 0.0079661105 -0.007922417 -0.0040938593 -0.016174186 0.02653842

encoder.encoder.2.0.bias f4 [64]
00000000: 1f40 8cbc 9e64 bcbc e5da e03c 55a7 d63b
00000010: b04b 29bc d344 103b f2ce 403c 5c15 a53c
00000020: 6093 083a 8a71 e93c 5b58 71bc 49b5 b2bc
00000030: 1f9e 12bb af8c 7f3c 451b a2bc 461f 1e3c
00000040: ac40 2a3c 631b 48ba ef70 b1bc d651 8abb
00000050: 4b13 a6bb 36dd 0fbc 37b6 8ebb 2938 8abc
00000060: 565f c53b 3eb5 643c 628c a9bc a7e3 e43b
00000070: 8ebd 393b bbdf cabc 940c 93bc 603d 963c
00000080: 53fd 85bc 3a2e 9c3a 78e2 f0bc d286 523b
00000090: 2d14 023c 8ff6 edbb f47a 83bb e505 1cbc
000000a0: 59cd a7bb 7b84 d7bc fa69 bbbc 01e2 cfbb
000000b0: e59d dbbc 4963 173a 1580 c0bc 5683 4dbc
000000c0: 7aa8 b7bc da8e bf3c 6939 4039 e11f 123c
000000d0: 3b46 aa3b 3730 dbbc 66cc eb3c 9084 833c
000000e0: df0f afbb 3917 38ba 2239 73bc 5a46 b13c
000000f0: a75b 32bc a8d5 d9bc 9fcb 133c df9e a0bb
-0.01712042 -0.022997197 0.027448127 0.0065507093 -0.010332987 0.0022013679 0.01176809 0.020151787
0.0005209949 0.028496522 -0.014730538 -0.02181496 -0.002237208 0.015597506 -0.019788394 0.009651011
0.010391396 -0.00076334755 -0.021660296 -0.0042211814 -0.005068218 -0.008780768 -0.004355218 -0.016872482
0.006023328 0.013959227 -0.020696823 0.006985146 0.0028341743 -0.024764886 -0.017950334 0.018339813
-0.016356146 0.0011915632 -0.029404864 0.0032123816 0.007939381 -0.007262058 -0.00401246 -0.00952289
-0.005120915 -0.026308289 -0.022877682 -0.0063440804 -0.026808688 0.00057749875 -0.023498574 -0.01254352
-0.022419203 0.023383547 0.00018331934 0.008918733 0.0051963604 -0.026756389 0.028783988 0.016054422
-0.005342468 -0.00070225034 -0.0148451645 0.021639992 -0.010886109 -0.026591137 0.009020715 -0.0049017514

encoder.encoder.2.1.weight f4 [64]
00000000: 8cec 9d3e 6b37 7d3d 8ab8 d03d a17b 793e
00000010: dafc a23c 8e4d 8b3d c39e f03d c720 0b3f
00000020: 0fda 2e3e 1b40 253e fd53 243f a661 243f
00000030: ea49 e23e 1a33 013f 303f 083e 1c3b 213f
00000040: 9d44 b93d 162b a13e 0e9e 2e3f 595e 353f
00000050: 442a d33e b2b3 fb3e c56f 023f 381b da3e
00000060: f0be b93e d356 343f 47a7 0c3f 9041 a53e
00000070: d74c 7f3e eacb 963e 2034 283e b952 4f3e
00000080: 1d93 1a3f 725e 8b3e cbf5 193f 9e50 e93e
00000090: aac2 c73e 683e 8a3e e33c 003f a5c8 9d3e
000000a0: 8ee7 9c3e 479c 123f ff87 d53e 690b 043d
000000b0: 7ae6 6a3e 19d2 993e e98f 113f 8b94 2c3f
000000c0: bcc1 513e 9f13 353f e1b4 4a3e 60fe c03e
000000d0: 2e25 0c3f 0c42 233f d82c ef3e 7778 773e
000000e0: 2d95 093e a3cd 203f 8826 853e d6dc 7e3d
000000f0: 6c48 9439 079a 053f 91a0 db3e d189 0d3f
0.30844533 0.06182043 0.10191448 0.24363567 0.01989596 0.06801902 0.117490314 0.5434689
0.1707537 0.16137736 0.64190656 0.642115 0.44197017 0.504686 0.13305354 0.6298082
0.0904629 0.31478184 0.6820992 0.7084709 0.41243184 0.49160534 0.50951797 0.4259889
0.36278486 0.70444983 0.54942745 0.32276583 0.24931656 0.2945245 0.16426134 0.202464
0.6038073 0.27220494 0.60140675 0.4556932 0.39015704 0.27000737 0.50092906 0.30817142
0.30645412 0.5726971 0.4170532 0.032237444 0.22939482 0.30043104 0.56860214 0.6741416
0.2048406 0.70733064 0.19795562 0.37694073 0.5474423 0.63772655 0.467139 0.24167047
0.13435812 0.62813777 0.2600596 0.062222324 0.00028282718 0.5218815 0.4289594 0.55288416

encoder.encoder.2.1.bias f4 [64]
00000000: 8601 f5bc beea 0e3b b960 77bc 5f37 0b3b
00000010: 9d40 a3bb b641 163b 59b7 80bb 0508 0abd
00000020: 8592 c039 7597 c3bc 56db 2f3c 7003 50bc
00000030: a23d dfbc 572e 13bd eba0 dbbb 2b6d 9cbc
00000040: 2dcb 29bc ff54 cdbc e84f acbc f76a d0bb
00000050: 5154 2cbc ebec 20bd c182 aabc 120f 31bc
00000060: 2d20 42bd 5e9c 3fbd c5c6 05be 45eb 133c
00000070: 18a3 7bbc a94b c1bc 4fa8 cdbb d0ba 02bd
00000080: a887 70bd edfb 76bc d360 6ebd 06d4 86bd
00000090: 9c79 31bd 8842 80bc 2100 39bc 3404 733c
000000a0: 9e65 903b 8d98 6fbc 6440 05bc 2cfe b6bb
000000b0: 8b94 d43b 61c8 54bc 80b5 b2bc cb2c c8bc
000000c0: caba babc f5b8 5dbd 6b97 e33b 4cf2 a7ba
000000d0: 7618 4cbd 6bb8 78bd f62d eebc 1efb b2bc
000000e0: a3f1 0bbc 7f5b fcbd 07b6 453c d154 7a3c
000000f0: 230e f9ba fb2e d1bb 1837 20bd 36b7 b3bd
-0.029907953 0.0021807398 -0.015098744 0.002124272 -0.0049820677 0.002292735 -0.0039281067 -0.033699054
0.0003673026 -0.023875931 0.010733446 -0.012696132 -0.027251069 -0.035932865 -0.0067025325 -0.019095024
-0.010363382 -0.025064943 -0.021034196 -0.0063604075 -0.0105181495 -0.039288443 -0.020814301 -0.010806816
-0.047393966 -0.046779983 -0.13064106 0.009028261 -0.015358709 -0.023595648 -0.0062761675 -0.03191644
-0.058723122 -0.015074712 -0.058197808 -0.06583409 -0.043328866 -0.015656725 -0.011291535 0.014832545
0.004406645 -0.014623773 -0.008133028 -0.005584499 0.0064874343 -0.012987227 -0.021815062 -0.024435421
-0.022794146 -0.054131467 0.0069455407 -0.0012813299 -0.049828015 -0.06072275 -0.02907465 -0.021848258
-0.008541497 -0.12322139 0.0120673245 0.015279011 -0.0019001405 -0.0063837743 -0.03911504 -0.08775179

encoder.encoder.2.1.running_mean f4 [64]
00000000: 1ada 8c3e ebae 8abd ce30 843d 5ae1 e8bc
00000010: 0c00 2dbc 501c 99bd 6f84 1fbe 089b 9e3d
00000020: 602f 453c 2104 323e 98d7 14bf 210e 363c
00000030: da93 bf3d 7c73 fd3e 8c1c 8abd 00fa 75be
00000040: 688e 3b3d f912 0a3d eb0d 96be 2c49 edbe
00000050: 9d9d 653c 85a5 523e 399f 5bbe f8c5 cebd
00000060: 24f9 ac3e 5559 8dbe eba1 093f 889d 80be
00000070: a9f5 00bc 88b4 96bb 118b a53b 677a 6cbd
00000080: 7486 ef3e bdc0 563e b1e9 7b3e 2e5d 2b3e
00000090: 5533 a43d 7857 bc3c b804 f13a 8037 30be
000000a0: 7c7d a2bd 4dff bfbe 3d6e dc3c 74c8 4abd
000000b0: 019d f5bd a40a 11bd a666 0a3d cedd fdbd
000000c0: d2db f1bc 2bea a83d cb9c 86be 1e22 a1bd
000000d0: 2fc0 7a3e ff70 853e 3991 023d 5378 80ba
000000e0: 93a6 4dbd ec95 3a3f 5d2c a4bd 909c ceba
000000f0: 27e8 a4bd 27af 7cbe f342 bb3c d82c 14be
0.27510148 -0.06771644 0.06454621 -0.028427768 -0.010559093 -0.07476103 -0.15577863 0.077444136
0.012035221 0.17384388 -0.5814147 0.011111767 0.09354372 0.4950217 -0.06743726 -0.24021149
0.045790106 0.0337095 -0.29307494 -0.46344888 0.014014629 0.20570953 -0.21447457 -0.10096353
0.3378383 -0.27607217 0.5376269 -0.25120187 -0.00787107 -0.0045991577 0.0050519784 -0.05773392
0.46782267 0.20971961 0.24600865 0.16734764 0.08017603 0.022990927 0.0018388247 -0.17208672
-0.079340905 -0.37499467 0.026908034 -0.049507573 -0.11992837 -0.03541054 0.0337893 -0.123958215
-0.029523764 0.08247789 -0.262915 -0.078678355 0.24487375 0.26062772 0.031876776 -0.0009801484
-0.050207686 0.7288501 -0.08016274 -0.0015763212 -0.08052092 -0.2467619 0.022859072 -0.14470232

encoder.encoder.2.1.running_var f4 [64]
00000000: 062d 5e3d 9284 383c f0d2 653c 1c8f 963c
00000010: d967 3f3c d230 4b3c ed50 3c3d 67bb 263e
00000020: 8023 f83c c6b5 ed3c ca2b 4b3e 1a49 d53d
00000030: 2d7d aa3d 16a5 573d a644 e03c be04 af3e
00000040: 7797 3e3c 13d8 833d 2036 ab3d 05f8 fd3d
00000050: a4fb 6c3d 2c8b 503d 84e9 8a3d 4325 5d3d
00000060: bf08 cb3d a72a d83d c700 773e 59c8 603d
00000070: 8953 883c ec66 023d cbb0 6a3c 4d50 ba3c
00000080: 6d5f ec3d 117b 923d af80 ff3d 5b51 593d
00000090: ebe4 8e3d 8579 063d e9c4 273d fe17 233d
000000a0: aba8 003d 3f21 573e f388 7b3d eb83 dc3c
000000b0: 6c87 a03c 4587 f33c 35b0 a93d 7d25 5a3d
000000c0: 7d1e 043d c2d0 213e a3ee 4f3d 6e2e fe3c
000000d0: 3234 8e3d 6923 ba3d 107e 783d 3d04 3a3d
000000e0: 51a3 f23c f7bd 7e3e a512 da3c 52e3 fe3b
000000f0: fa7c 363c ce55 4c3d 7d85 953d e264 e93d
0.054242156 0.011262076 0.014027342 0.018378787 0.011682474 0.012401776 0.045975614 0.16282426
0.030290365 0.02901734 0.19840923 0.10414334 0.08324657 0.052647673 0.027376484 0.34183306
0.011632792 0.06437697 0.08359933 0.124008216 0.05785717 0.050913975 0.06782821 0.053990614
0.099137776 0.1055501 0.2412139 0.054878566 0.016641395 0.031836435 0.014324377 0.022743369
0.115416385 0.07152379 0.12475716 0.053056102 0.069772564 0.032830734 0.040959273 0.039817803
0.031410854 0.21008776 0.0614099 0.026918372 0.019595824 0.029727587 0.08285562 0.053258408
0.03225564 0.15802291 0.05076469 0.031027999 0.06943549 0.09088785 0.060667098 0.0454142
0.029618891 0.24877153 0.026620219 0.0077785635 0.011138195 0.049886517 0.073008515 0.11396195

encoder.encoder.3.0.weight f4 [64, 64, 3, 3]
00000000: 519a 8ebc 1106 36bc 4dc1 5dbc 936c 003d
00000010: 945a d73a eb50 b0bc 5d8e bdbc 7b36 abbc
00000020: af7e 4d39 ee36 c4bc 4a86 643b 062e 033c
00000030: 050d 933c bb20 e4bc 9cd4 71bc f8ad 87bc
00000040: 72b4 a63c 25e5 b6bc 3b86 503b 6725 bebc
00000050: 03cf 03bb 5ed7 7eba fc7e aabc 3fe4 be3c
00000060: f17b b93b ddcd fa3c fc54 93bc 39dd f13c
00000070: 95a7 b3bc 24ee 9bbb 87ae 753b eaed d33c
00000080: 664e ed3c 42c2 7ebc 0d94 c03b 85d5 81bc
00000090: 3478 f53c d90e 273c a938 c9bc 4523 173c
000000a0: 2887 a0bc 8b5b fabb fd78 92bb 9a9c 423c
000000b0: 455d d2bc 39e3 93bc 4425 483c 607c e8bb
000000c0: ca0b 1e3b 8e6a 72bc 2572 3f3b 61f3 f03c
000000d0: dcd1 febc 9ff0 8d3c 5139 b63c 234c 453b
000000e0: 2cac 093c 928d 43bc 5597 003d cba4 903c
000000f0: 39ed 883c 207a 70bb a999 283c 1e0c 1e3c
00000100: dc91 333b b471 b03b 04f8 98bc 62ba ab3b
00000110: bce8 163c b36e 3cbc ca6f b43c 0c47 e83c
00000120: b5ef ac3c 90ba 173c 140f 91bc 8a20 c8bc
00000130: d0bc 773b d239 71bc 50a0 903c 9a6d dabb
00000140: 3145 883c 28b0 bf3c 8435 603c ddac d5bc
00000150: ec8d e73c 53a2 463c d59e 86bc fdae 09bc
00000160: e779 62bb 833d 353c dd9b babb 46b8 8bbc
00000170: ce5c d33c 5fbd 90bc 562b b5bc 7dc3 04bd
00000180: dd60 01bd 63ad 9bbc 8cf5 b03c 0438 1dbc
00000190: be05 9dbc 1928 bc3a 31d6 08bc a53f 02bd
000001a0: 56b1 cbbc f47b 843c 28af 4fbc 59d6 dcbc
000001b0: 396a 8d3c e04b 8ebc 53db d23b de6e 87b9
000001c0: 2855 293d ebc5 db3c 4ff0 ac3c 220c 79bc
000001d0: 5805 0e3d 9049 f93c ea81 5f3c 65e6 023d
000001e0: 0673 af3c 900e c63b 12ae ab3c b232 bf3c
000001f0: 82b2 d53c bcbb 363b 9ed3 493b b113 98bc
00000200: a71f 45ba 2737 013d f16e 00bc 53c6 96bc
00000210: a728 bb3b c08f bfbc ee32 93bc c6fa da3a
00000220: f2f2 603d 5888 263d 8df6 ac3c c2f3 d23c
00000230: f638 2e3d c80b 373d 77f0 f83c b250 923c
00000240: 4225 b83c c7df d33b a533 eb3c 75e7 85bc
00000250: 298e de3c dcb7 7b3b d830 5bbc ca0e 7f3c
00000260: 7dcd d5ba d01b 87bc 063c c2bc 8fab c339
00000270: ca21 e33c 0c2c 79bc 8cf8 0f3c dc81 93bc
00000280: 39b9 99bb 388a 0bbd 345f 72bc c025 bf3c
00000290: d92c 853c 90bd aabc 1826 94bc a781 2e3b
000002a0: f445 953b d79b d0bc 00a9 24bd d935 06bd
000002b0: 3daa c5bc 5bb1 3abc bed9 183a 0263 973c
000002c0: e0a4 873c af7f ffbb 7ba4 9abc 9f4b 593c
000002d0: af15 c63b ea12 813c 02f1 81bb 9ecb c8bc
000002e0: 1bc6 bb3b a933 4ebb 473a abb9 0bf9 0f3a
000002f0: 7aaa 88bb 7885 18bd 2be9 543c a097 06bd
00000300: 2482 65bc 62d8 183b 0fdc 053c db88 bdbc
00000310: e625 d83c 94ab c33c e5eb b8bc a837 dfbb
00000320: d836 96bb 5902 e83c ee9a d53c f6cb d3bc
00000330: 8014 eb3b bcff 013b 3255 55bc dc8c 92bb
00000340: 0613 05bc c7a7 17bd 1dd9 c9bc 8e8e 633c
00000350: ae84 f0bc 0000 0bbc c0ab e7bc 9ef5 e03b
00000360: db24 4f3c 0546 d43c 9c69 a93b 17c4 b83c
00000370: 506c d7bc 3c4a 95ba ba0e b33c e378 93bc
00000380: a02f 443c ef3c b8bc 0a04 953c 5121 1abc
00000390: bdf4 7e3c 1170 abbc bd00 cc3c 8876 cd3c
000003a0: 94f9 e6bb aa24 4b3a 7ad1 e43c 4a86 3dbc
000003b0: 82e6 b63c 6844 073c 690b 2bbc b2e3 963b
000003c0: 0d09 95bc 2108 053d e3f4 a4bb b1d1 693c
000003d0: f0cc 79bc 118d 83bc 40dd 123c 5602 833b
000003e0: 23ce 943c 1016 8e3c 7156 1fbb 282f bcbb
000003f0: c00c 39bc 03b0 953a 11a4 32bc 9268 f13c
-0.017407568 -0.011109845 -0.013534856 0.031353544 0.0016430193 -0.02152296 -0.023139173 -0.020900002
0.00019597517 -0.023951974 0.0034870082 0.008006578 0.017950544 -0.027847638 -0.014760163 -0.016562447
0.020349715 -0.022326062 0.003181829 -0.023211194 -0.0020112402 -0.0009721423 -0.020812504 0.023302196
0.005660527 0.030615741 -0.01798486 0.029524432 -0.021930495 -0.004758613 0.003748806 0.025870282
0.028968047 -0.015549244 0.005877024 -0.015848884 0.029964544 0.010196411 -0.02456315 0.0092247175
-0.019595698 -0.0076403073 -0.0044699893 0.011878157 -0.02567924 -0.018052684 0.012215916 -0.007094905
0.0024115914 -0.014795912 0.0029212323 0.029412927 -0.031105928 0.017326651 0.022244127 0.0030105195
0.008402865 -0.011935608 0.03139432 0.017656704 0.01671468 -0.0036693886 0.010290542 0.009646444
0.0027400171 0.005384648 -0.01867295 0.0052407244 0.009210762 -0.011501002 0.022025961 0.02835419
0.021110395 0.009260789 -0.017707385 -0.024429578 0.003780175 -0.014723258 0.017654568 -0.0066658976
0.016634556 0.023399428 0.013684634 -0.026083404 0.028265916 0.012123662 -0.016433159 -0.008403537
-0.0034557523 0.011062029 -0.00569485 -0.017055642 0.025801089 -0.017668424 -0.02211539 -0.032412995
-0.031586517 -0.019003576 0.02160146 -0.009595875 -0.019167777 0.0014355212 -0.008351848 -0.031798977
-0.024864834 0.016172387 -0.012676038 -0.026957678 0.017262565 -0.017370164 0.006434837 -0.0002583181
0.041340977 0.026827773 0.021110682 -0.015200647 0.034673065 0.030430585 0.013641814 0.031958003
0.021417152 0.0060442165 0.020957027 0.023339603 0.026086096 0.0027882895 0.00307963 -0.018564077
-0.000751967 0.031546738 -0.0078389505 -0.018405115 0.0057116332 -0.023383975 -0.017968621 0.0016706816
0.05491919 0.04065737 0.021113658 0.025750998 0.04253479 0.04468897 0.0303881 0.017860744
0.022478703 0.0064658853 0.02871115 -0.016345719 0.027167397 0.003840915 -0.0133783445 0.015567491
-0.0016311851 -0.016492754 -0.023710262 0.0003732112 0.027726073 -0.0152082555 0.008787286 -0.018006258
-0.0046912697 -0.034067363 -0.014793206 0.02333343 0.016256737 -0.020842344 -0.01808457 0.0026627572
0.004555458 -0.025464935 -0.040200233 -0.032766197 -0.024129028 -0.011394824 0.0005830786 0.018479828
0.01655811 -0.0077972035 -0.018877259 0.013262658 0.0060450654 0.01575609 -0.003965498 -0.024511155
0.005730403 -0.0031463897 -0.00032659082 0.00054921274 -0.004170713 -0.03723666 0.012995045 -0.032859445
-0.014008079 0.0023322334 0.008170142 -0.023136547 0.026385259 0.023885526 -0.02257342 -0.0068120547
-0.0045841746 0.028321432 0.026074853 -0.025854092 0.0071740746 0.0019836267 -0.0130208 -0.004472358
-0.008122211 -0.03702524 -0.02463966 0.013888968 -0.029360142 -0.008483887 -0.028280139 0.0068652174
0.012643064 0.025912294 0.0051700603 0.02255444 -0.026296765 -0.0011389921 0.021857608 -0.01800198
0.011974245 -0.022489993 0.018190403 -0.009407357 0.01556128 -0.02092746 0.024902696 0.025080934
-0.007048795 0.0007749299 0.027931917 -0.011567662 0.022326712 0.008256055 -0.010439732 0.00460478
-0.018192792 0.032478455 -0.0050340756 0.014271186 -0.015246615 -0.016058477 0.008963883 0.003998081
0.0181647 0.017344505 -0.0024312998 -0.005742926 -0.011294544 0.0011420253 -0.010903374 0.029468808
