saves_concept/nico_vehicle/max_acc.pth (torch_old, 483405 bytes, 28 tensors)

encoder.encoder.0.0.weight f4 [64, 3, 3, 3]
00000000: 996e 07be 717d 5fbe d836 a1bd 219b 7bbe
00000010: bee4 94be a1ec 81bc d46e 1d3d c86b 8b3e
00000020: e018 dc3d 99e6 3d3e ba57 363e d92a 7b3c
00000030: dd4f 253d 6138 41be d2c6 0c3e 6f5a 5c3c
00000040: e73f 973e 7d98 883e 6bc2 16bd 081b 46bd
00000050: c7a6 12be f775 c5be 1bd0 bbbe 28be 50be
00000060: ba4d 653e 18b6 183e 8a28 ba3e d33b 943d
00000070: 053c b1bc 10f1 1abc 2d95 613d 4558 693d
00000080: 5162 043b 4dd3 403c dc9c b33d 4638 1f3d
00000090: e03a f23d 9e18 083e ae56 a23b 4ed1 32bd
000000a0: 204d 3f3a 35ea af3d b7db a9bd d03d 853d
000000b0: ffca 96bc eb60 9a3d 4b4d a0bd 00f1 843d
000000c0: f4e4 513d 8f6b 093e eddd 45bc 1504 0dbe
000000d0: 70e0 bb3c 293e 9a3d ce3e 8c3c 80de 90be
000000e0: 36ed c4be 37f5 203e 4118 e4bd f9da fcbe
000000f0: 371b 2a3e 8421 8dbe ff1d d5be 2a6d 963e
00000100: f465 6a3e 1233 023e dd70 f83e 04cf bf3e
00000110: 4893 a23e 2c6b bc3e 7a27 d73e 7f99 8d3e
00000120: c0f9 a5be 5608 623d ea1f 843e 4b95 1dbf
00000130: 2246 80be 3a17 253e 382c 02bf 7a61 d3bd
00000140: d6cf be3d 0ae5 853d f8b4 0e3e ea87 2f3e
00000150: 4d9b 68be 5d8d 4ebe c478 05be d332 113d
00000160: fe71 c23d 0692 993c 1448 413e 18f1 983e
00000170: 09d2 bb3d a255 47be 0232 92be 67d3 2fbe
00000180: 81dd 0f3e 2fc8 c13c fc60 67bd bd7f 973e
00000190: 85f6 783e e11d 6e3e 1cb6 9cbe e163 9fbe
000001a0: b114 5dbc a86c 08be 8d41 f2bd f61a f53d
000001b0: 14a6 95bd 306e 653b d05f f9bc cd75 633d
000001c0: 7209 08be 56dd 80bd 9a07 913d ca6c 003d
000001d0: a2f4 cfbd 1f74 a13c 8687 05be 01c9 d1bd
000001e0: 3cb1 6c3d 7679 603c 8fda 12be d008 d8bd
000001f0: 208c 10bc e3d3 14bc 98d0 05be 05f8 a8bd
00000200: 663f 103d 6a3a 163d 5027 82bd 514d 103d
00000210: 62e9 ecbc 7be6 0fbe 069f e23d 0c21 babd
00000220: ee08 c93c f6c6 0e3e afcd eebd d54b 1f3d
00000230: 3901 a9bd bfed 643c 3242 d13c 8966 6a3d
00000240: 9453 dabd f485 a73d f9b0 7d3d 58c5 e03d
00000250: 4b6d c3bd f493 95bc 576a c7bd ce4f 75bd
00000260: b6c5 d13d cc37 96bd 629e 793d 82da 06bd
00000270: f260 66bd e601 b6bd c386 fabd dd14 5a3d
00000280: f0e6 723d fd95 f03c d906 81bd 5a89 223e
00000290: 5913 90bd 59a1 d03d 788e 26bd 825e 293d
000002a0: fdcc 62bd 4934 de3b 9447 8b3d 2146 3f3d
000002b0: 9ca0 1a3d 5807 d83d 25bb 38bb a8a9 07be
000002c0: 1a56 f4bd 7a2f 153d d18e cfbd ffdf e5bd
000002d0: 2c5a 093e fb84 773e b964 19bc d461 29be
000002e0: 58bd 41bd 6e3b 6bbe ec87 3f3d 1b7c 4b3d
000002f0: f8a4 66be b064 dd3c aef6 bd3d bb0d a23b
00000300: f7e1 5c3d 4110 be3d b02e e73d 3a15 bc3c
00000310: 5506 c03c 7d31 63bd 047f 4c3c 8d8b 99bd
00000320: 8e30 e23d 20b8 bbbd 3f62 88bd 9607 4a3c
00000330: 82dc 913d 96a9 cabc 3d7d ffbd 7551 8cbd
00000340: 1672 9f3b 80b6 b33d cb75 bd3d cbf2 f93d
00000350: c542 fb3d a4f1 133d 6563 583d 607e a23d
00000360: 9ddb 10bc 5d1a f93d 349b 243d c938 f63d
00000370: 89a7 40bd aa89 6e3d e1f8 483b 2b5c 393d
00000380: dcb8 bf3d 7ae0 a13d 8c6b 2fbe 392e 28be
00000390: b5f4 a3bb 06ea 9bbe 6296 71be 112b 73be
000003a0: 252b 8cbe e51a 8cbe a462 8d3e 6beb 573e
000003b0: b2b8 a1bd d2e5 853d 596e 673e eec3 d33d
000003c0: 95d8 043e d6ea f03d 65fc 4abd d4bc d3bd
000003d0: 08a7 b83c 6643 12bd 8229 053e 98f2 aebd
000003e0: 5284 513c 6865 c93c 142e c23d eb59 893d
000003f0: f934 583d d6c8 cdbd 0825 c7bd b52a f3bd
-0.13225783 -0.21825196 -0.07871789 -0.24570896 -0.29080766 -0.015859904 0.038435772 0.27230668
0.10746932 0.18544997 0.17806903 0.01533004 0.040359367 -0.18869163 0.13747719 0.013449295
0.2954094 0.2667884 -0.036806505 -0.048365623 -0.14321433 -0.38566563 -0.3668221 -0.20385039
0.22392932 0.14913213 0.36359054 0.07237973 -0.021635065 -0.009456888 0.055073906 0.056968946
0.0020200203 0.011769128 0.08770153 0.038872026 0.11827636 0.1329064 0.0049541807 -0.04365664
0.00072975643 0.08589593 -0.082938604 0.065059304 -0.018407343 0.07538017 -0.078272425 0.064912796
0.051243737 0.13419937 -0.012076837 -0.13771088 0.022934169 0.07531387 0.017119791 -0.28294754
-0.38462228 0.15718542 -0.111374386 -0.49385813 0.16611944 -0.27564633 -0.41624448 0.2938016
0.22890455 0.12714794 0.48523608 0.37462628 0.31752992 0.36800516 0.42022306 0.2765617
-0.32417107 0.05518373 0.25805598 -0.6155593 -0.25053507 0.16122141 -0.5084872 -0.103213266
0.09316985 0.06537826 0.13936222 0.17141691 -0.22715493 -0.20171113 -0.1303435 0.03544886
0.094943985 0.018746387 0.18875152 0.2987144 0.091709204 -0.1946626 -0.28553778 -0.17170487
0.14049341 0.023655025 -0.056488976 0.29589644 0.2431279 0.23253585 -0.30607688 -0.3113089
-0.013493703 -0.13322699 -0.11828909 0.11968033 -0.073070675 0.0035008304 -0.030441195 0.055532265
-0.13284853 -0.062922165 0.07081528 0.03135375 -0.10154082 0.019708691 -0.1303998 -0.102434166
0.05778621 0.013700834 -0.14341186 -0.10548556 -0.008822471 -0.009083721 -0.13067853 -0.08250431
0.03521671 0.0366768 -0.063551545 0.035229985 -0.02891988 -0.14052765 0.110654876 -0.090883344
0.02454039 0.13943085 -0.11660325 0.03889068 -0.08252186 0.013972699 0.02554426 0.05722669
-0.106604725 0.081798464 0.061936352 0.1097514 -0.0954233 -0.018259026 -0.097370796 -0.05989056
0.102427885 -0.07334861 0.06094206 -0.03292323 -0.056244798 -0.08887081 -0.12232735 0.053242553
0.05930227 0.029368395 -0.06300134 0.15872708 -0.0703494 0.101870246 -0.040663213 0.041349895
-0.055371273 0.006781135 0.06800762 0.04669774 0.037750825 0.10548276 -0.0028187719 -0.13248312
-0.11930485 0.03642223 -0.10134662 -0.112243645 0.13413304 0.24171822 -0.009362393 -0.16541225
-0.047299713 -0.2297189 0.046760485 0.049678903 -0.22523868 0.02702555 0.09275566 0.0049454845
0.053926434 0.09280444 0.11288202 0.02295934 0.02344052 -0.055467118 0.012481455 -0.0749732
0.11044417 -0.091659784 -0.06659364 0.01233091 0.07122137 -0.024739068 -0.12475059 -0.06851474
0.004865895 0.087750435 0.09250983 0.12204512 0.12268595 0.03611912 0.052829165 0.0793426
-0.008841422 0.121632315 0.040187076 0.1202255 -0.047034774 0.058236755 0.0030665922 0.045253914
0.09361431 0.07904144 -0.1713087 -0.16423883 -0.0050035366 -0.30451983 -0.23592523 -0.23746897
-0.27376667 -0.2736427 0.2761432 0.21085899 -0.07896556 0.06537975 0.22600688 0.10340105
0.12973244 0.117635414 -0.04955711 -0.103387505 0.022540584 -0.035708807 0.13004115 -0.08542365
0.012787895 0.024584487 0.09481445 0.067066036 0.052784894 -0.10048072 -0.0972386 -0.1187338

encoder.encoder.0.0.bias f4 [64]
00000000: 36d2 ac3d a460 9b3d 7e18 343d e28b f4bc
00000010: a830 cb3c a523 cabd 68d6 063d a56e 84bc
00000020: 70d3 e5bd 731d 26bd 8c92 2d3d 1fe9 8e3d
00000030: 8acc 893d c1b4 673d 2c70 8f3d e271 7f3d
00000040: 57d2 2d3d 8a33 853d 8623 f8bd d75a e0bd
00000050: 321f f2bd ded8 07be e0d8 543d fd1e 04be
00000060: a0e7 fcbd 4e83 9a3d 6e39 de3d 4bac 9cbd
00000070: 1fd2 51bd 6a60 febc 90b1 d93c bcfc 003e
00000080: a7b9 3e3d 988f 5abd 34ae 35bd cb16 f23d
00000090: 5b74 e1bc 8499 49bb d093 bcbc d16f 803d
000000a0: d08c d73d 4587 763d ec58 033e b1cc 723d
000000b0: a0b3 023d 8673 c0bd 7587 073d 8806 ecbd
000000c0: 4bfa d93d 5977 393d d75d bdbd c014 a8bc
000000d0: 12ac f5bd 6fab 03be 7710 cf3d 1947 073e
000000e0: 3aea e13d 4126 7b3c 29ff 613d 2c00 de3d
000000f0: 6f30 cd3c 1dbf 2ebd 42e9 933c 3302 70bd
0.08438532 0.07586792 0.04396867 -0.029851858 0.024803475 -0.0987008 0.032919317 -0.01616604
-0.11221969 -0.04055543 0.042376086 0.06978058 0.06728466 0.056568865 0.07003817 0.062364466
0.042436924 0.06503971 -0.121161506 -0.10954826 -0.11822356 -0.13266322 0.05196464 -0.12902446
-0.123488665 0.07544576 0.108507976 -0.0765005 -0.051225778 -0.031051833 0.026573926 0.1259641
0.04656377 -0.053359598 -0.044355586 0.11820754 -0.027521303 -0.0030761668 -0.023019701 0.06271327
0.10524905 0.060187597 0.1282689 0.05927724 0.031909585 -0.09397034 0.033088166 -0.11524683
0.10643443 0.045279834 -0.09246414 -0.020517707 -0.119957104 -0.12858365 0.10110562 0.13210715
0.11031003 0.015328945 0.05517498 0.108398765 0.025047509 -0.04266273 0.018055562 -0.058595847

encoder.encoder.0.1.weight f4 [64]
00000000: 8748 e03e dc78 643e e693 1f3f 7a60 c73e
00000010: 46c9 963e 8855 3c3e b31d c83e 5533 bd3d
00000020: 3948 df3e 7f5a df3e 8dc6 a23e 2f95 143e
00000030: 6e2e f73e 97e6 923e f701 173e eaf2 be3e
00000040: e923 093f 42c8 1f3f 9f82 bf3e 3c94 d43e
00000050: 9fb3 883e 15ed a13e 3db1 e33e 87ad 073e
00000060: e34c ae3d f9ec 153f 64a4 573e e5b0 113f
00000070: efbc 963e c36b a23e dcc4 b63e 7377 fb3e
00000080: 0efa e33e 9d46 a73e 98f8 0a3f b19e 683e
00000090: 7000 2a3e 81d6 283f 91c6 1a3f e815 a53e
000000a0: 8175 063f 6823 833e 4436 883e 0ef4 2d3f
000000b0: c66f cf3d c0be d33e a702 cd3e 99f9 ce3e
000000c0: cb2a b53e 221e ae3e 720f ee3e 50d5 873d
000000d0: 0970 143f 8d18 2d3e 52c0 163f 897f f03e
000000e0: dd27 513e 4107 103f b36e a83e 165e 193e
000000f0: da08 493f 1df7 9a3e ad51 743e 8d5a 563e
0.43805334 0.22311729 0.6233505 0.38940793 0.29450434 0.18392003 0.3908516 0.092383064
0.4360979 0.4362373 0.31792107 0.14510034 0.4827761 0.2869155 0.14746843 0.37294704
0.5357042 0.62414944 0.37404343 0.41519344 0.2669954 0.31626192 0.4447116 0.13249789
0.08510759 0.58564717 0.21058804 0.56910545 0.2944102 0.3172284 0.35697067 0.4911457
0.44526714 0.3267106 0.54285574 0.22716786 0.1660173 0.65952307 0.6045924 0.32243276
0.52523047 0.2561295 0.266039 0.6795052 0.10128741 0.41356468 0.40041086 0.40424803
0.3538421 0.34007365 0.4649616 0.06632483 0.5798345 0.16903897 0.5888721 0.46972302
0.20425363 0.5626107 0.32896957 0.14977297 0.7852913 0.30266657 0.23859282 0.2093298

encoder.encoder.0.1.bias f4 [64]
00000000: 46ed be3c 0b89 523d 380c 913d 9bef c93c
00000010: 51d0 1cbe 5bf8 0fbd 6f6d 01be 2ce7 8dbd
00000020: c86f 263d b7d0 3bbe d5cc 013e a92f d5bd
00000030: 97e8 a2bb 1a73 9a3c a4a2 cdbd e411 f43d
00000040: 6eb2 acbe a70e fdbc 1ac2 0e3d 127f a13b
00000050: 8800 2fbe 307b c33c fd70 cd3d 32aa 5e3d
00000060: f813 1f3d d8cb 413c e887 93bb e669 2f3b
00000070: 8cf3 823e 587c 11bd a058 d93d 9284 52bc
00000080: bcb1 e33d 402c 1dbd a739 96bc 4366 cebd
00000090: a6f9 aabd 93d8 31bd 928a 62be 3b10 973d
000000a0: 1309 473e 9466 4d3d 77c0 3e3c a228 183d
000000b0: 9d83 cb3d 7f32 7f3c a10b 40bd b800 663d
000000c0: 74aa 41bd 3327 9b3d bd17 42be 9200 7b3d
000000d0: a4d2 90bc 2bdc aebd 3422 93be 56a7 aebc
000000e0: 4e31 533c 4c81 8cbc 001a 753d 8666 9fbd
000000f0: 326d cabb 88ab 08be 643f b8bd 0600 253d
0.0233065 0.051400226 0.07082409 0.024650386 -0.15313841 -0.03514896 -0.12639402 -0.06928858
0.040633947 -0.18341337 0.12675793 -0.10409481 -0.0049715745 0.018853713 -0.10040787 0.11917475
-0.3372988 -0.030890776 0.03485308 0.004928478 -0.17090046 0.023862451 0.100313164 0.05436153
0.038837403 0.011828385 -0.0045022853 0.0026766001 0.25576437 -0.035518974 0.10612607 -0.01284899
0.111178845 -0.03837228 -0.018338038 -0.100780986 -0.08348398 -0.043419432 -0.22123173 0.073761426
0.19437055 0.050146654 0.011642567 0.037148125 0.099372126 0.015576004 -0.04688609 0.05615303
-0.047281697 0.07575836 -0.18954368 0.06127984 -0.017678566 -0.085380875 -0.28737032 -0.021320026
0.012890173 -0.017151497 0.05983925 -0.07783227 -0.006177568 -0.13346684 -0.08996466 0.040283225

encoder.encoder.0.1.running_mean f4 [64]
00000000: 22cd 433e 3372 a9be d418 6a3e 7f96 7fbc
00000010: 2df2 fb3e 769d b33b 1d7a 453e a238 e3be
00000020: e82b 0cbe c897 ca3e 41df 1b3d 4754 dc3e
00000030: e739 813d d04b 943e 7c1c 6bbe 8ed0 e03c
00000040: aeeb d53e 1e17 573d a53c 60be b97e d5bd
00000050: e9ed d33d 864e cfbd 928f 953d 9115 6abe
00000060: 4569 6ebe 7f68 c93d 8fac d73d d480 93bd
00000070: 9c41 18be 538d dfbc 1436 1fbe 66b8 003e
00000080: d4ea ce3b 3671 41be b592 b4be 5af7 403e
00000090: 3227 8cbe ac78 acbc f252 a83e db8e c93d
000000a0: 430b 34bc 07dd d03d 7fcd 9fbd 4199 b93d
000000b0: ef9c 07bb a2cf 56be 9081 1d3d 8fb0 06bf
000000c0: 7eb7 c4be 3b6d e13d 0e16 f03b 77b1 f03a
000000d0: 48b0 ffbc 04e4 03be b70f d0be 2726 d23d
000000e0: f573 9e3e d52e 1e3d 1556 80be 5e88 d6bd
000000f0: 773b c03c ad5f a7be 9b42 2bbc d781 71bd
0.1912122 -0.3309494 0.22861034 -0.015599846 0.49208203 0.0054814173 0.19284864 -0.44379145
-0.13688624 0.39568925 0.03805471 0.4303305 0.06309872 0.2896409 -0.22960085 0.027443197
0.41781372 0.05251228 -0.21898134 -0.10424561 0.10348112 -0.10122399 0.073027745 -0.2285979
-0.23282345 0.09834384 0.1053096 -0.072023064 -0.14868778 -0.027289068 -0.15547973 0.12570342
0.006314615 -0.18890843 -0.3526818 0.18844357 -0.27373654 -0.021053635 0.32875782 0.09841701
-0.010989013 0.101984076 -0.07802867 0.09062434 -0.0020692905 -0.20977643 0.03845364 -0.5261316
-0.38421243 0.11007162 0.007326848 0.0018363436 -0.031211987 -0.1287995 -0.4063699 0.10261183
0.30947843 0.03861888 -0.25065675 -0.10475229 0.023465855 -0.32690182 -0.010452892 -0.058961716

encoder.encoder.0.1.running_var f4 [64]
00000000: afc8 223f 6b88 423f f9d4 573f ec3e da3e
00000010: 314b 833f 8c35 b23d 66fa 903e 0b8b 423f
00000020: 2ee3 d53e 783b 893f 8995 263e c421 123f
00000030: d799 c23e 9040 b23e 95ed d53e 244a fa3e
00000040: 18c9 303f c1b6 ca3e 715f 993f a043 093e
00000050: 47e7 633e c72c a93d 3e1c 943f 0810 b03d
00000060: 50c9 b13d e1f0 6a3f 6882 943d b9c7 783e
00000070: 257f e43d 6e48 f93d f03c aa3e d26c ad3e
00000080: d5df e93e da99 083e 3d82 a13f b50b 433d
00000090: 5328 a83e 6619 c23e 9dfc 7f3f 7007 ae3e
000000a0: 8195 843f 6781 7d3e 0a01 463f 0f1f e33e
000000b0: dc8d 2d3d 2542 833e 5658 c03e f558 323f
000000c0: a408 883f 668b 263f 9b05 df3e 5b96 253d
000000d0: a0e7 313f 5411 b13c 3eea cd3f 76bd 783f
000000e0: 26dd 3b3e 177a 183f 5890 243f 7c76 853e
000000f0: fc4a e03f 9fe1 b13e 1757 0c3e 637b b53c
0.6358747 0.7598941 0.84309345 0.4262613 1.0257322 0.087016195 0.2831604 0.7599341
0.41774887 1.0721273 0.1626798 0.5708277 0.38007995 0.34814882 0.41782823 0.4888469
0.69056845 0.39592555 1.1982251 0.13404703 0.22256194 0.08260494 1.1571119 0.08596808
0.086809754 0.917738 0.072514355 0.24294938 0.111570634 0.12172018 0.33249617 0.33872086
0.45678583 0.1333994 1.261787 0.047618587 0.32843265 0.37910002 0.9999483 0.3399005
1.0358125 0.24756394 0.77345335 0.44359633 0.042371616 0.25636402 0.37567395 0.6966699
1.0627637 0.65056455 0.43558964 0.040426593 0.69494057 0.021614708 1.608711 0.97164094
0.1834608 0.59561294 0.6428275 0.2606696 1.7522883 0.34742448 0.13705097 0.022153562

encoder.encoder.1.0.weight f4 [64, 64, 3, 3]
00000000: 8148 50bc 1cf6 8a3a 3450 3abc fdcd c33c
00000010: 71e7 a43c f763 acba 653f 7bbb 05c0 b7bc
00000020: a224 85bc 8107 d6bc 4605 c9bc 73aa f53b
00000030: 1ea7 3fbc b9ee 3fbc 65dd 4e3b 8ff2 8e3c
00000040: 43be 2dbc 1f88 b33c fc06 e9bb e6f5 46bc
00000050: 6479 e13b 1b2a e4bc 99e4 58bb 4da7 1c3c
00000060: 0be5 b1bc 2f13 c0bc 1503 55ba 327d 953b
00000070: 172e 263b 4604 d13c 0556 c33b 18e9 75bc
00000080: 283c 323c 99f2 8bbc e89f 853b d400 6b3c
00000090: 43d9 1fbd b3ef 54ba 3bb6 093c 175b 6bbc
000000a0: df9b 61bc 1b39 cbbc 11e4 88bc a8df 243b
000000b0: 6672 ffbb fe91 4c3a 3421 57bc 16db c63c
000000c0: 9294 5ebc 72d8 edbc 4728 49bb 0c64 28ba
000000d0: faaf 61bc 3d12 653b e206 8b3c 3be1 953c
000000e0: ae56 adbc 9d7c 36bb 0736 80ba 3a35 183b
000000f0: 3e6f 57bc 0307 07bd 87cd ea3b cda8 15bc
00000100: d2dc 9ebc ae3c bcbc c0d0 73bb 5d87 403c
00000110: fe1e 0c3c 35af 92bc 8571 e43c 3afd 3fbc
00000120: 2609 d8bc a412 033b ada2 7f3c 89c0 9cbc
00000130: 691a 7ebc f790 98bc b06f edbc 5a86 abbb
00000140: 7e9f c3bc 14c6 a43c 0905 8d3c 8d41 cf3c
00000150: ad6f bcbc fc46 943c 7395 a73c 1b5a 02bd
00000160: 72a8 e6bc 033d 17bd e8af 6dbc 8e79 78bb
00000170: 02b7 89bc d6d2 a83c af7b 26bc 52d5 183c
00000180: 8aec 36bc b14e 173c 5274 4bbc c630 643c
00000190: 8304 c6bc 6bc0 883c e79e 533b d006 b33c
000001a0: db70 03bd 8b31 9ebc bb71 99bc c075 0bbd
000001b0: e679 8d3c 92f3 993b ff26 8f3b 8734 6cbb
000001c0: a2c4 273b 9fa0 babc 79f7 9d3c 0d4c 87bc
000001d0: 4da0 d93c 8a5f 83bb dadf 993b 5907 c2bc
000001e0: 0741 a2bc cadd b83c d877 593c 8f31 c6bc
000001f0: 7f73 283b 8989 bf3b b9d6 7a3c 20e5 dcbc
00000200: 67a9 ccbc 7d33 45bc 464e 8e3c b21d 6b3c
00000210: da60 15bc ad84 e03b 0d00 99bc 8b70 b9bb
00000220: d218 993b 11c9 083c 3d4e 603c d9fc f63b
00000230: 5aaa 8a3c a6f0 3fbc d2de f5bc d1a1 403c
00000240: 4878 29bd 4f32 e1bb 2bca 08bd 5fb3 42bc
00000250: 2c44 1fbc b5e9 83bb 710a eebc 442e d1bb
00000260: d721 1fbd 1924 76bc e256 d2bb 024b f43b
00000270: 49d4 81bc cbb7 cbbb a236 d73a 0f0d 413d
00000280: a4de d13c 3fb9 4d3d 71a3 d83c 61e8 e93c
00000290: bd18 e13c 8da5 c03c f4ae bfbc fb7e 84bc
000002a0: 23f1 d13c b699 ce3c 23a0 623c e2a5 c5bc
000002b0: a10a 893c 949b dbbc 4da5 663c 73fd 223d
000002c0: 05e6 163c e0d9 583c 4e3e 2f3d 4c59 123c
000002d0: ae69 fdbc 2239 263c 79ab b1bc 5c30 a9bc
000002e0: 5c44 50bc 1639 0abd c317 cbbc c227 9b3c
000002f0: 474e 8cbc 0839 09bd 2f6b 3bbc f7bf d23a
00000300: 2a47 cf3b 514b 2ebc c512 d73b d872 bc3b
00000310: 1076 f53b 7045 ae3c 04c9 933c 55a8 3bbc
00000320: 1627 2e3c 4ae0 75bc 4b12 f939 0321 f63c
00000330: e5a0 89bb 9aff 0d3c a19c 683c 4b27 2f3c
00000340: d206 a83b c115 f53b c193 b3bc 8cfb a0bc
00000350: a1f5 963c 5961 eb3c 5656 debb 604a 01bb
00000360: eaca 833c 5a91 d03c d7d7 843c 72b1 c43c
00000370: 6038 533c d1f6 31bc 8767 79bb ae30 2fbc
00000380: b5d5 be3c f9b4 d3bc f4c6 b6bc ec51 39bd
00000390: a7da 18bc 77fb aebb aa1f b43b e447 e33a
000003a0: f187 603c f8d6 43b8 eeda b5bc 8985 ccbc
000003b0: 9dd3 4cbc 3f24 fabc 706a e1bb 6563 bc3c
000003c0: a268 4bbc 337e b3bc c018 1a3c efd4 acba
000003d0: 9568 213c 3fda 423c 2e57 e1b9 88bd 01bc
000003e0: a603 d8bb 58ef 783d d052 b23c fb3c 3a3d
000003f0: 536e 2dbb 3371 aabc d6e0 08bd c116 d3bc
-0.012712599 0.0010601911 -0.011371661 0.023901934 0.020129891 -0.001315235 -0.0038337347 -0.02243043
-0.01625282 -0.026126625 -0.024538647 0.007497126 -0.011697559 -0.011714631 0.0031565067 0.017449645
-0.010604444 0.021915494 -0.0071114283 -0.012143588 0.006880926 -0.027852109 -0.003309524 0.009561372
-0.021715662 -0.023446647 -0.00081257644 0.0045620436 0.0025357062 0.025514733 0.005961182 -0.015009187
0.0108786 -0.017083453 0.0040779 0.014343459 -0.039025556 -0.0008122876 0.008405264 -0.014364979
-0.013770073 -0.024807503 -0.016710313 0.0025157724 -0.00779562 0.0007803737 -0.013130475 0.02427439
-0.013585227 -0.029033873 -0.0030694173 -0.00064235996 -0.013774866 0.0034953498 0.016971055 0.018295875
-0.021159496 -0.0027845271 -0.0009781726 0.0023225085 -0.013149081 -0.03296567 0.007165614 -0.0091344835
-0.019392405 -0.022978153 -0.0037203282 0.011751023 0.008552311 -0.01790581 0.027886162 -0.011718089
-0.02637155 0.0020000124 0.01560275 -0.019134777 -0.015509226 -0.018623812 -0.02898392 -0.005234522
-0.023879763 0.020113982 0.017214315 0.025299812 -0.02300247 0.018100254 0.020457005 -0.031824213
-0.028156493 -0.03692342 -0.014507271 -0.003791425 -0.016810898 0.020608347 -0.010161324 0.009328203
-0.011164794 0.00923507 -0.01241787 0.013927644 -0.024172073 0.016693315 0.0032290758 0.021853834
-0.03209005 -0.019310733 -0.018730989 -0.034047842 0.01727004 0.0046982253 0.0043686624 -0.003604205
0.002559938 -0.022781668 0.019283043 -0.016515756 0.026565695 -0.004009192 0.0046958746 -0.023685144
-0.019806398 0.022566695 0.013273202 -0.024193553 0.0025703607 0.005845253 0.015309983 -0.026964724
-0.024983121 -0.012036202 0.017371308 0.014350342 -0.0091173295 0.0068517537 -0.018676782 -0.005659168
0.0046721483 0.008348719 0.013690528 0.007537466 0.016926933 -0.01171509 -0.030013476 0.01175733
-0.041374475 -0.0068724523 -0.033395927 -0.011883586 -0.009720843 -0.004025663 -0.029057713 -0.006383689
-0.03885063 -0.015023255 -0.0064190486 0.0074552307 -0.015848296 -0.006216978 0.001641948 0.047131594
0.025618859 0.050225493 0.026445122 0.02855319 0.027477616 0.02351644 -0.023398854 -0.01617383
0.025627678 0.02521978 0.013832125 -0.02412695 0.016728701 -0.026807584 0.014077497 0.03979249
0.009210114 0.013235539 0.042784028 0.008932423 -0.030934181 0.010145457 -0.02168821 -0.020652942
-0.012711611 -0.033745848 -0.024791604 0.018939856 -0.01712717 -0.033501655 -0.011439129 0.0016078938
0.006325622 -0.010638074 0.006563517 0.005750995 0.007490881 0.021273345 0.018040188 -0.011453708
0.010629436 -0.015007088 0.0004750661 0.030045038 -0.0042000883 0.008666897 0.0141974995 0.0106905205
0.005127766 0.0074794 -0.02192104 -0.019651197 0.018427672 0.028732942 -0.0067851944 -0.001972817
0.016087968 0.025459934 0.016216202 0.024010394 0.012891859 -0.010862068 -0.0038056092 -0.0106927585
0.023295263 -0.02584313 -0.022311665 -0.045244142 -0.0093294745 -0.0053400355 0.0054969387 0.0017340151
0.013704286 -4.6691828e-05 -0.02219912 -0.024966018 -0.012501624 -0.030534862 -0.0068791434 0.022996614
-0.012415083 -0.021910762 0.009405315 -0.0013186018 0.009851594 0.011892854 -0.00042980298 -0.007918723
-0.006592232 0.06077513 0.021768004 0.04546831 -0.0026463463 -0.02080593 -0.033417545 -0.025767686

encoder.encoder.1.0.bias f4 [64]
00000000: 716b 01bc 7112 d23c 8f7c b73c c577 b63b
00000010: 7131 843c cdb9 883c 7970 a5bb a094 1d3b
00000020: 0748 a0bc 8a9f c0bc bd89 e63c eec1 a43b
00000030: 1ca9 c4bc d8f7 6dbb 4678 cc3c 356f 413c
00000040: 80b3 9d3c 3179 1bbc 4a2c a1bb 6ef0 abbc
00000050: ff3a 883c 78d7 ed3b 27ab 263b cd86 b2bc
00000060: db33 dcbc 41e5 e53c 3a48 81bc 0c56 bbbc
00000070: 5437 ad38 b681 9c3b 1a89 e93c 10e4 e1bc
00000080: 15fa 88bc ed90 1d3c 61ed 0dbc bfc3 d7bc
00000090: 585b be3c 2228 303c 3421 cc3c 0eb6 a83c
000000a0: 40cf 24bc f750 b93c 5b65 b23c 4974 86bc
000000b0: 9b96 44bb cf0d acbc 1f95 01bc 3e81 c93c
000000c0: 6450 2b3c 0d62 3cbc c8d8 cbbc e7e3 bb39
000000d0: d1d0 f3bb 6b73 5c3c fe06 cebb 8bcf d8bb
000000e0: 1922 50bc e7c9 54bb 6946 a93c 1ede 66bc
000000f0: f7f2 043c 6705 4e3c 1dfd 94bc f1a8 903a
-0.007899151 0.02564356 0.022398261 0.005568477 0.016136857 0.01669016 -0.005048808 0.0024044886
-0.019565595 -0.023513574 0.02814185 0.005028001 -0.024006419 -0.0036311056 0.024959695 0.011806299
0.019250631 -0.0094893435 -0.0049186097 -0.02098867 0.016629694 0.007258352 0.0025431605 -0.021792794
-0.026880195 0.028063418 -0.01578151 -0.022868179 8.2595885e-05 0.004776205 0.028507758 -0.027574569
-0.01672081 0.0096170725 -0.008662553 -0.026338456 0.023236915 0.010751756 0.024918176 0.020594623
-0.010059178 0.022621615 0.021776846 -0.016412871 -0.0029996994 -0.021002678 -0.007909088 0.02459776
0.010456178 -0.0114979865 -0.024883643 0.0003583722 -0.0074406643 0.013455252 -0.0062874546 -0.006616538
-0.012703442 -0.0032468976 0.020663457 -0.014091043 0.008114568 0.01257453 -0.0181871 0.0011036677

encoder.encoder.1.1.weight f4 [64]
00000000: 42b3 183e a3e5 0e3f 92ba 153f 44f6 d83e
00000010: cf85 e63e 2e7b cd3e b59f c43e 123a 0f3f
00000020: d3a1 963e 0f6e 053f ab69 183f 5a57 6a3e
00000030: ead6 f33e b67b d93e 0a9a 003f 79ec 073f
00000040: d0f6 9b3e a5ba 143f 506d b33e af20 c03e
00000050: 339f 043f 46b6 ef3e 8084 103f 2ba0 343f
00000060: 807d e33e 1c6a a93e ed1c 8e3e 59ba ba3e
00000070: 8f6b c03e ca60 7f3e 2431 943e bf2f d53e
00000080: 5de7 fb3e 667c cd3e 6390 153f ffc5 a33e
00000090: 0dde fb3e 2672 a23e 78dc 1e3e 0f65 1e3f
000000a0: ea58 0a3f 0b79 bd3e 0d52 f03e eefc e23e
000000b0: 7792 ad3e 8ed5 ca3e 57a0 1e3f 2ed9 fc3e
000000c0: 2798 b63e 545e b23e 378f a03d cf37 aa3d
000000d0: 1882 783e 7bba 8e3e 3603 d63e c6f9 b83e
000000e0: 1687 be3e 5ccc c43e a472 ec3e 34fa e53e
000000f0: e3cf fd3e c821 cb3e 9aa0 843e a5ff c83e
0.14912131 0.5581915 0.5848781 0.42375386 0.45023963 0.4013304 0.38403097 0.55947983
0.29420337 0.5212106 0.59536237 0.22884884 0.47624904 0.42477196 0.50235045 0.53095204
0.3046174 0.58097297 0.35044336 0.37524936 0.5180542 0.4681875 0.5645218 0.70556897
0.44431686 0.33088768 0.27756444 0.36470297 0.3758206 0.24939266 0.2894374 0.4163799
0.49199954 0.4013397 0.5842344 0.31986997 0.4919285 0.31727713 0.1551379 0.61872953
0.5404192 0.3700641 0.469376 0.44333595 0.33900806 0.39616054 0.6196341 0.49384445
0.35662958 0.34837592 0.07839816 0.08311426 0.24268377 0.27876648 0.41799325 0.36128062
0.37212437 0.38437164 0.46181214 0.44917452 0.49572667 0.3967421 0.2590378 0.3925754

encoder.encoder.1.1.bias f4 [64]
00000000: 827a 18bd 73c0 8abe 3a48 89be 8d5e 77be
00000010: 3c07 95be 6e76 83be ed0c d7bd 5002 3ebe
00000020: 509a 24be 5760 62be 2e60 b8be 6d25 21be
00000030: 326e 3fbe 132c f9be c62d 3bbe ff24 92be
00000040: 05e9 22be 8e10 9ebe cfa4 54bd 9f6d b2be
00000050: 23c1 8abe f175 4ebe 9c55 9dbe 21b8 aabe
00000060: e4e8 b3bd 3a2c 1bbe 9a16 09be 9ace 14be
00000070: 05e6 78be c2ba d2bd 0ff5 c6bd 3e9c 35be
00000080: 704e 9dbe 2e6b 2dbe 0406 7fbe 8b96 c3bd
00000090: 7684 75be 7757 88be 9469 76bd a91f 99be
000000a0: 9561 8abe 51d5 92be 765b 43be 89b6 6abd
000000b0: 1131 10be 4817 54be 6e0d 5dbe 5b71 47be
000000c0: d11a 17be bf9a f3bd 6e8c 2fbc 9919 8fbc
000000d0: 52d3 2dbe 5dde 68bd 1411 bbbe 17fb 30be
000000e0: 7b21 33be c393 1abe 449d 56be be11 4bbe
000000f0: b699 82be 4ef3 05be ebcc 0cbe f8dd c8bd
-0.037226208 -0.27099952 -0.26812917 -0.24157162 -0.29107082 -0.25676292 -0.10500512 -0.1855557
-0.1607449 -0.22107063 -0.3601088 -0.15736933 -0.1869438 -0.48666438 -0.1827918 -0.2854385
-0.15909202 -0.30872005 -0.051914986 -0.3484926 -0.27100477 -0.20162179 -0.30729377 -0.33343604
-0.08784655 -0.1515359 -0.13387528 -0.14531937 -0.24306495 -0.102895275 -0.0971471 -0.17735383
-0.30723906 -0.16935417 -0.24904639 -0.09550198 -0.23976311 -0.2662923 -0.06015928 -0.29906967
-0.27027574 -0.28678373 -0.19077858 -0.057302985 -0.14081217 -0.20712006 -0.21587154 -0.19476835
-0.14756323 -0.1189475 -0.010714633 -0.01746826 -0.16975144 -0.056852687 -0.36536467 -0.17283283
-0.1749324 -0.15095429 -0.2095843 -0.19830987 -0.25507897 -0.13081095 -0.13750045 -0.09807962

encoder.encoder.1.1.running_mean f4 [64]
00000000: ae7e c43a 651f 69bf 423c adbf 4a62 55bf
00000010: e524 49bf 8008 17be 0381 38bf a897 dbbf
00000020: c134 263e 9d88 3dbf b0a4 e8bf d10c e7ba
00000030: 3ce1 33bf c8c9 a33f ade7 7abf 09c5 3fbf
00000040: 2163 17be 7aae 32bf fb99 99be db1b 7c3f
00000050: 3546 4ebf cce7 c6be e5e5 7cbf 505e a8bf
00000060: f22e 59bf 6d34 2ebf 7649 f43d 0bd0 e0be
00000070: 04fe 333e 2e83 94be 68d9 74be f004 53bf
00000080: 1c50 b3bf 9a69 9dbf a309 68bf cd99 bcbe
00000090: adcc 07bf 3616 463f 8c36 9dbd bbe4 93bf
000000a0: 5914 8fbf cf33 0fbf 7ded a6bf eb59 a2bf
000000b0: 67ef 9cbe 2f06 36bf 1612 9abf 96b3 8dbf
000000c0: 63c4 babe a7f4 89bf 254a f7bd 6853 9fbe
000000d0: 5300 c9bd 3712 03bf db2f 00bf 4579 b8be
000000e0: 65e5 6d3d cb45 e5be 37b4 37bf ef89 31bf
000000f0: 237a 84bf 28bd 4cbf 2dac f73c f702 2fbf
0.0014991367 -0.9106353 -1.3534014 -0.833531 -0.7857192 -0.14749336 -0.72071856 -1.7155657
0.16231062 -0.7403658 -1.8175259 -0.0017627721 -0.70265555 1.2795954 -0.9800976 -0.74910027
-0.14783908 -0.6979748 -0.3000029 0.98480004 -0.8057588 -0.38848722 -0.9878829 -1.3153782
-0.8483726 -0.68048745 0.11928074 -0.43908724 0.17577368 -0.29006332 -0.23911059 -0.8242941
-1.4008822 -1.2297852 -0.90639704 -0.3683609 -0.53046685 0.7737764 -0.076764196 -1.1554178
-1.1178085 -0.5593843 -1.3041226 -1.2683691 -0.306514 -0.71103185 -1.2036769 -1.107043
-0.36477956 -1.0777787 -0.12074689 -0.3111832 -0.09814515 -0.5119967 -0.5007302 -0.3603002
0.058080096 -0.4477981 -0.7175936 -0.69351095 -1.0349773 -0.7997613 0.030233467 -0.683639

encoder.encoder.1.1.running_var f4 [64]
00000000: 5cbd 0e3d 26af 183f 33b0 bd3f 74bc 1e3f
00000010: bd55 453f 6f0c bb3e cf36 313f d115 893f
00000020: 3a1a 1a3f 900b 263f 448b ce3f 4608 e33d
00000030: 9e1e 393f 89de 173f b18b 243f 9465 0e3f
00000040: 4244 023e c183 1f3f 1706 563e aa41 cb3e
00000050: c2a1 473f 0137 333f 571f 823f 8cc1 0540
00000060: 0f36 f03e 6231 cf3e 5419 aa3e c4a0 c33e
00000070: 7f28 443f aec3 b63e f279 883e 927b 373f
00000080: 3ccd 283f dc45 263f 7027 723f 06a4 4c3e
00000090: 1fac 773f fc2d fd3e 78d6 4b3d 0da3 c23f
000000a0: ba47 673f 39ce f93e 38de 173f 87e5 853f
000000b0: 9cf9 843e ca3e 0d3f ea6b 923f d056 943f
000000c0: 6320 533f 23e8 333f 61e9 d33c 9600 593d
000000d0: 74f8 3b3e 548b c13e 65a4 dc3e a157 873e
000000e0: 18d1 073f 59c5 d43e 4691 e13e 3f36 ec3e
000000f0: 33d0 053f c686 163f 755a 043e cffe 603f
0.034848556 0.59642255 1.4819397 0.62006307 0.7708395 0.36532924 0.69224256 1.0709783
0.6019627 0.6486139 1.613625 0.110855624 0.72312343 0.59323937 0.6427565 0.55623746
0.12721351 0.62310416 0.2090076 0.39698535 0.779812 0.70005804 1.0165814 2.0899382
0.46916243 0.40467364 0.3322245 0.38208592 0.7662429 0.35696167 0.26655537 0.7167293
0.6593816 0.64950347 0.94591427 0.19984445 0.9674701 0.49449146 0.04976508 1.5206009
0.9034382 0.48790148 0.59323454 1.0460671 0.25971687 0.55173934 1.1439183 1.1588993
0.82471293 0.7027609 0.02586812 0.052979074 0.18356496 0.3780161 0.43094173 0.26434043
0.53053427 0.41556814 0.44056147 0.46135136 0.5227081 0.587994 0.12925132 0.8788881

encoder.encoder.2.0.weight f4 [64, 64, 3, 3]
00000000: 658d bebc c197 9bbc 3db6 76bc d1e0 d53c
00000010: b789 5f3c 0081 edbc 9fb3 aebb 4aff 733c
00000020: f49b 34bc ad84 7b3d ff47 9e3d 798a 633d
00000030: 5258 8c3c d6d7 fcbb 125a ae3c dcf7 f73c
00000040: 9822 913c 6efe 273c 51c9 b4bd 4835 70bd
00000050: fe74 34bc 8628 8ebc 541b 343d ac9d 313d
00000060: fef0 703d 3349 c23d b089 d53d 281c 393d
00000070: 02d7 cb3c 3ad2 6cbc c2a3 9ebc 7926 063c
00000080: 34bc fe3b ee9e 953c eeab 2f3d acbe ae3a
00000090: 0f7a 223d 4cbe 493d f4a8 c23d d774 4fbc
000000a0: 701e 25bd ebdc 913c c3c1 0bbd e8bd 13bd
000000b0: f550 fabc 308d c9bc b6b2 6abd 098c e5bc
000000c0: 1075 65bd 1045 48bd 504f 6cbd 2a59 62bc
000000d0: 8f48 03bb e81e 83bc 1fcf 753d 7d14 dc3d
000000e0: b4e6 bd3d ef21 0ebd 70b4 aebc ee14 1b3d
000000f0: 2ccc 3bbd c979 23bd 2b54 c93c bc02 3e3c
00000100: 7a53 50bd 80c1 0dbc c9eb 82bc 36a7 b2bc
00000110: 7dc1 30bd 5f82 31bd 0ac7 14bd af23 3abd
00000120: c5b7 94bd 9c9e 70bd a80f 83bd 6fdf 003d
00000130: fe19 12bd b4be cdbc d89d d43b 25e4 4a3d
00000140: 164d 053d 968d b5bc bb77 09bd ed2d 6abd
00000150: 88fe 6dbc 71df 2b3d 41f1 b1bc db06 353c
00000160: 22c7 6e3d a2ad 233d 9885 98bd 41c6 7dbd
00000170: 6d0a 8bbd 11a1 f33c 5fde c23c 0400 5a3d
00000180: 44e1 813d b274 473d ac08 a43d 31d4 f73c
00000190: 41e7 1b3d bb45 773c 42ca 443d 03d7 3a3d
000001a0: 3200 da3c 4be6 8e3c b3c5 423b 245d ff3c
000001b0: 08b4 de3d 73dc 473d 2002 b63d eb27 b5bc
000001c0: fd8e 50bd 51c7 eabc 4aa6 973b 2521 4abd
000001d0: 3905 173c c5dd 41bd d4dc 84bd 4106 2ebd
000001e0: 84a5 0b3c 3c9d e03c 5747 d03c 83f9 473d
000001f0: fb6a 543c 3c5f ddbc 95a8 4dbd 3728 36bd
00000200: 7203 95bb 2fc7 11bc 16fc 9c3c 3a38 cbbc
00000210: 4520 f2bb c12f 2d3d 2d64 79bb 6fec 25bd
00000220: b4ea 0bbd 452e 43bd ed12 103d 37e9 c7bb
00000230: a4c2 113d 9196 2d3d 50cd 093d 51e5 0e3d
00000240: 4a20 f03c cd56 16bd 32b2 25bd 15c4 f93c
00000250: 6bff 58bd 1530 063a e6c1 593d 2a34 8f3c
00000260: b809 483d a97f f8bc b8f3 d4bd 114b 9e3c
00000270: 71c3 a5bd 4b6b b4bd 0e9c 65bd a276 a1bb
00000280: 619f 083d b39b 283d 5100 62bc 4d6b 8d3c
00000290: 49d5 27bd 8326 45bc 9581 a6bc 507d 84b9
000002a0: e8d9 b93c fc22 ec3c 127c b4bc 6206 25bc
000002b0: 4112 17bd 6c87 86bd 7793 943c 73bb 44bc
000002c0: 7222 64bc 251b 253d 8363 623c 8040 b3bb
000002d0: c5ba 123e 0684 0f3e 91df bb3d 9d74 723d
000002e0: e0c1 693c 43fe 313c 4874 b93b 62c2 10bc
000002f0: 8583 9fbc 193b b73d 9aea 223d 1fed c83d
00000300: b0a2 2dbc 1437 86bb d611 a9bc 8b60 dfbc
00000310: 319c 56bd c38a 56bd ee1a 7fbd dacd 2ebd
00000320: e4c4 08bd 361c 01be b72d 26be a16f 0ebe
00000330: 9e35 f2bc be88 0dbd 4e42 2abc d54e 61bd
00000340: 20f9 85bd 9e26 23bd cf4d edba bced 203d
00000350: b675 05bc 2220 0c3d 197a 443d d3bf 4e3d
00000360: 518e 323c 5c66 943d 571d bd3d 1ffc c6bc
00000370: 6377 123d 250d 713d 494f b7bd 393f 3fbd
00000380: a588 0f3d 3a78 03bd 84ca 4abd b6ba 0ebd
00000390: 89d0 f93b ff21 a5bb 7b2b 0b3b 3a2f e8bc
000003a0: b9cb 35bd e3e9 34bd c4d7 303d a9e7 553d
000003b0: 1281 ef3c c21e 7a3c f92b d73b 01be 95bb
000003c0: 8a5b 813c 0154 203d 26a7 843c e531 1e3d
000003d0: e883 1b3d 933c 583c c6c8 053c fe45 7bbc
000003e0: 3afa e9bc f423 babc 9d3f f0bc 809d e3bb
000003f0: f17e 153d 69f9 de3c f217 46bd 696d ad3a
-0.023260782 -0.01899326 -0.015058097 0.026108177 0.013643674 -0.028992176 -0.005331471 0.014892409
-0.01102351 0.061405826 0.07728576 0.05555198 0.017131958 -0.0077161593 0.021283183 0.030269556
0.01771669 0.010253532 -0.088274606 -0.058644563 -0.011014221 -0.017353307 0.043971375 0.04336326
0.058823578 0.09486618 0.104266524 0.045192868 0.024882797 -0.014454419 -0.019365195 0.0081878835
0.0077739004 0.01826426 0.042888574 0.0013331971 0.039667185 0.049253747 0.095048815 -0.012662134
-0.04031223 0.017805537 -0.034120332 -0.03606978 -0.030556181 -0.024603456 -0.05729934 -0.028020876
-0.056019843 -0.048893988 -0.057692826 -0.013815204 -0.0020032262 -0.016005948 0.06001198 0.10746095
0.09272519 -0.03470033 -0.021326274 0.037861757 -0.04584901 -0.039911065 0.024576267 0.011597332
-0.05086086 -0.008652091 -0.015981572 -0.021808248 -0.043153275 -0.043337222 -0.03632263 -0.045444187
-0.07261614 -0.05874501 -0.063994706 0.031463083 -0.03566932 -0.025115348 0.006488543 0.04953398
0.032544218 -0.02216224 -0.03356145 -0.057172704 -0.014526017 0.041961137 -0.021721484 0.011048998
0.058295377 0.03996051 -0.07447356 -0.061956648 -0.06789098 0.029739888 0.023787675 0.05322267
0.06341794 0.048695274 0.080094665 0.030252548 0.038062338 0.015092309 0.04804445 0.045615207
0.026611421 0.017443797 0.0029719889 0.031172343 0.10874182 0.04879422 0.08887124 -0.022113761
-0.050917614 -0.028659495 0.0046279775 -0.049348015 0.009217554 -0.047330637 -0.06487432 -0.042486433
0.008523349 0.027418725 0.025424642 0.048821937 0.012964959 -0.02702295 -0.0502096 -0.044471946
-0.00454753 -0.008897587 0.019163173 -0.024807084 -0.0073891007 0.04228187 -0.0038054094 -0.040508684
-0.034159377 -0.047651548 0.0351743 -0.0061007994 0.035586014 0.04237992 0.033643067 0.034886662
0.029312272 -0.036703873 -0.040453143 0.030489007 -0.05297796 0.0005118859 0.05316343 0.017480928
0.048837394 -0.03033431 -0.10398048 0.019322904 -0.08093918 -0.08809527 -0.05605703 -0.004927472
0.03335512 0.04116411 -0.013794021 0.017263079 -0.04097489 -0.012033108 -0.020325461 -0.00025270367
0.022686914 0.028825276 -0.022031818 -0.010072323 -0.036882643 -0.065687984 0.018136723 -0.012007582
-0.013924228 0.04030909 0.013817671 -0.0054703355 0.1432906 0.14015207 0.09173501 0.059193242
0.014267415 0.010863843 0.0056596138 -0.008835407 -0.019471893 0.08946819 0.039774515 0.09810852
-0.01059787 -0.0040959213 -0.020638388 -0.027267715 -0.05239505 -0.052378427 -0.06228154 -0.042676784
-0.033390895 -0.12608418 -0.16228376 -0.1390977 -0.029566582 -0.034554236 -0.010391785 -0.05500682
-0.065416574 -0.03983175 -0.0018104854 0.03928922 -0.00814574 0.03421033 0.047968004 0.050475907
0.010898189 0.07246086 0.09234112 -0.024290143 0.035758387 0.058850426 -0.08950669 -0.046691153
0.035042424 -0.03209708 -0.04950954 -0.03484603 0.0076237363 -0.005039453 0.0021235633 -0.028342832
-0.04438374 -0.044168364 0.04317452 0.05222288 0.02923635 0.015266122 0.0065665212 -0.0045697694
0.01579072 0.039142612 0.016192984 0.038621802 0.037967592 0.013198036 0.008165544 -0.015336512
-0.0285617 -0.022722222 -0.029327208 -0.0069462657 0.036498014 0.027218537 -0.04836268 0.0013231459

encoder.encoder.2.0.bias f4 [64]
00000000: 1fa8 debb 45ac 653c 79e0 a5bc 60f9 9c39
00000010: 1c35 903c 3dce c23c cb34 11bc c15d 7f3c
00000020: b81b 9abc 09e2 db3b 7ea8 2f3c 7610 03bc
00000030: df40 b5bb 836a 5f3c 38dc f63b 4564 43bc
00000040: 480d 90bc 2361 093c 0eb6 9ebc 7eca 22ba
00000050: 975e aebc 4aae 573c d2d4 b63b 628f 2dbc
00000060: 8a14 a83c c06c 98bc 966e 823c bed4 bcbc
00000070: 2753 e93b ea03 7bbb 3839 ce3c f89d d33c
00000080: 254c d0bb 4d88 d23c 9d77 7abc 74b9 a13c
00000090: ceaa d8bc cd21 0bb9 3eae 273b 7dd5 70bc
000000a0: e351 e33c 5a04 c93b f194 843c c1d1 5c3c
000000b0: 5aac 003c c0c0 f63a 6f7e 8d3c b29b a0bb
000000c0: 3c1f 9ebb 4757 4b3c 3898 3e3c 4c29 f33b
000000d0: 342f e9bb 3e6c 20bc 0abf f73b b265 89bc
000000e0: c718 30bb ea53 23bc 0ad8 c8bc 7096 a73c
000000f0: d940 8ebb 5a9e fcbb 553a 1b3b 6ed3 823c
-0.006794944 0.014018123 -0.020248638 0.00029940438 0.01760345 0.023779983 -0.0088626845 0.0155863175
-0.018812045 0.006710295 0.010721324 -0.00799953 -0.005531415 0.013636234 0.0075335763 -0.011925762
-0.017584458 0.008384976 -0.01937392 -0.0006209983 -0.021285338 0.013164112 0.0055795694 -0.010593267
0.020517606 -0.018606544 0.015921872 -0.023050662 0.0071205082 -0.0038301894 0.025173768 0.025832161
-0.0063567334 0.025699759 -0.015287307 0.019741751 -0.026448634 -0.00013268665 0.0025586034 -0.014699337
0.027749008 0.006134552 0.016184302 0.013477744 0.007853592 0.0018825755 0.017272202 -0.004901373
-0.004825501 0.012410945 0.011632971 0.0074206945 -0.0071162228 -0.009791432 0.0075606154 -0.016772125
-0.0026870237 -0.009968737 -0.024517078 0.020457476 -0.0043412265 -0.0077093067 0.0023685892 0.015969958

encoder.encoder.2.1.weight f4 [64]
00000000: 5eec 673e da7f c63e 6e69 e43e 3bc1 a43e
00000010: 08bc af3e 278a f73e 591c 033f 0fd7 a93e
00000020: 4755 ee3e 9986 e53e e270 c43e 2499 ad3e
00000030: fa4d 003f a10f d33e d72d 8d3e 31f4 ae3e
00000040: 4f17 af3e 5dbe e43e b213 de3e 0660 823e
00000050: 8422 cc3e 4683 ee3e f0a1 b43e 9a2b ba3e
00000060: 9749 bb3e 7472 a23e 5684 ad3e 79d4 dc3e
00000070: 3e40 023f 954f f03e 66d2 f33e d688 913e
00000080: b183 eb3e e69b 9a3e 392e b43e 3f0d de3e
00000090: 7168 af3e 374e f13e 0187 a13e 4301 fb3e
000000a0: 17d6 0e3f a7d2 093f 1862 a53e 1c09 ab3e
000000b0: 4577 e43e d83e be3e 71d1 d53e 7ed2 813e
000000c0: 0b47 aa3e 4c56 d13e 5025 823a 168e e23e
000000d0: 3c5a f63e 651e e13e ae41 fb3e ffa2 de3e
000000e0: 5ee2 9a3e bc2a d13e c9fe b93e 70a2 a93e
000000f0: 31e2 e93e 7370 8b3e c6a5 f13e 9e37 c33e
0.2264876 0.38769418 0.44611686 0.32178673 0.34323144 0.4834759 0.5121513 0.3317189
0.46549436 0.44829252 0.38367373 0.339059 0.5011898 0.4122286 0.27574036 0.34170678
0.3419747 0.44676486 0.433744 0.25463885 0.39870083 0.4658453 0.35279799 0.3636139
0.36579582 0.31727946 0.33890027 0.43130854 0.50879276 0.46935716 0.4762146 0.2842471
0.4599891 0.30197066 0.35191515 0.4336948 0.3425937 0.47129986 0.31548312 0.490244
0.55795425 0.53837055 0.32301402 0.33405387 0.44622245 0.3715732 0.41761354 0.25355905
0.33257326 0.40886152 0.0009929333 0.44249028 0.48115718 0.43968502 0.49073547 0.4348373
0.3025083 0.40852916 0.36327198 0.33131742 0.45680383 0.2723423 0.47196788 0.3812837

encoder.encoder.2.1.bias f4 [64]
00000000: aa60 24be 40c5 87be b793 babe d90f 86be
00000010: ec05 83be a7cf 7bbe a4a1 a9be 38a0 7abe
00000020: 701e 1fbf 8ac2 fdbe 7da0 b2be 6f9e 91be
00000030: 364e d5be 76e8 98be 5970 2ebe f770 c6be
00000040: 60c6 8ebe bf15 89be 756f 8dbe 476a 3ebe
00000050: 6340 babe 937e b7be 2083 7ebe 6d22 acbe
00000060: 3693 a7be 622e 85be 61d5 92be 56ca d9be
00000070: 5f98 03bf 005c d7be 8882 01bf 9bf5 88be
00000080: 39bc e3be b487 48be 63f4 71be aded f1be
00000090: 7cf8 94be 6701 99be d43e 81be cd94 ebbe
000000a0: 3a7b f7be d40a ecbe 5de8 99be b479 79be
000000b0: fb34 d2be a604 a0be 5d6f e1be dca0 f9bd
000000c0: 1a4e 81be d6e7 b6be f991 a7bb e086 ebbe
000000d0: 39a0 a7be 4cb1 c5be b71e bdbe 1625 99be
000000e0: 7864 6dbe 848b 97be abb6 99be 8e1f 9abe
000000f0: 56c4 92be e6b8 71be b247 b7be ed04 c0be
-0.160525 -0.26517677 -0.36440822 -0.26183966 -0.25590456 -0.24590932 -0.33131135 -0.24475181
-0.6215582 -0.49562484 -0.34888068 -0.28441188 -0.41661233 -0.29864854 -0.17035045 -0.3875806
-0.27885723 -0.26774403 -0.27624097 -0.18595229 -0.36377248 -0.35838756 -0.24854708 -0.33620015
-0.327295 -0.2601195 -0.2867842 -0.42537183 -0.51404375 -0.42062378 -0.505898 -0.26749882
-0.4447954 -0.19583017 -0.23628382 -0.47251645 -0.2909583 -0.29883882 -0.25243247 -0.46011963
-0.48336202 -0.4610201 -0.30060092 -0.24362832 -0.41056046 -0.31253546 -0.44030276 -0.121888846
-0.252549 -0.35723752 -0.005113837 -0.4600134 -0.32739428 -0.3861183 -0.36937496 -0.29911107
-0.23182857 -0.2959863 -0.30022177 -0.301022 -0.28665417 -0.2360569 -0.35796887 -0.37503758

encoder.encoder.2.1.running_mean f4 [64]
00000000: 220a 91bd e482 82be 0961 3dbf f93a d13c
00000010: 35c2 07be 45be 0ebf 182b 19bf cc8b 48be
00000020: 2d82 b8be b55d 03be bda1 c3be 37ef 40be
00000030: 03b4 3bbf 6310 3bbf d4b6 9ebd 804c e03e
00000040: e4e1 acbe 4b64 15bf d9b1 2dbf 3582 5d3e
00000050: 45e5 bbbe 3343 a4be 06c2 df3c 1651 73bd
00000060: be93 bdbe 0fcb 093d 7e91 27bc 866c 87be
00000070: dff3 2abf 1b32 39bf 9315 a3be 1824 3e3e
00000080: ac4e ccbe add4 a5bd 4826 dfbd 006d edbe
00000090: 004a 9cbe 7502 34bf 470e 93be 5ba9 39bf
000000a0: 04e4 7cbf 88a6 41bf 1a2b d8be c3ad 92be
000000b0: 336f 03be f134 96be fd4c 85be ce2f 483d
000000c0: 15a1 a8be 35c5 8dbe beb6 e0bc 16ed 13bf
000000d0: b025 18bf 488f 16bf 868d 18bf a173 e7be
000000e0: b3f2 60be 059c acbe f095 1ebe 99bc 8dbe
000000f0: fc8c 34bf 9543 88bd bae4 a0be 0a40 b6be
-0.07082011 -0.25490487 -0.7397619 0.025540816 -0.13257678 -0.5575908 -0.5983138 -0.19584578
-0.36036816 -0.12828715 -0.38209334 -0.18841253 -0.7332155 -0.7307188 -0.077497154 0.43808365
-0.3376609 -0.5835616 -0.678495 0.21631701 -0.36698356 -0.3208252 0.027314197 -0.0594035
-0.3702678 0.033640917 -0.010227559 -0.26449984 -0.6677837 -0.7234208 -0.31852397 0.18568456
-0.39903772 -0.08097205 -0.108959734 -0.46372223 -0.30525208 -0.7031625 -0.2872183 -0.7252404
-0.98785424 -0.7564473 -0.42220384 -0.28648195 -0.12835388 -0.29337266 -0.260353 0.048873715
-0.32935396 -0.2768952 -0.027430888 -0.5778364 -0.59432507 -0.5881238 -0.5959095 -0.45205405
-0.21967582 -0.33712783 -0.15486884 -0.2768295 -0.70527625 -0.06653515 -0.31424505 -0.35595733

encoder.encoder.2.1.running_var f4 [64]
00000000: 9948 ab3d a7cb 9d3d aaf6 433e fda3 b83d
00000010: a0c5 ca3d a096 8d3e a02c 343e df93 2f3e
00000020: c7cf 1b3e d916 ff3d dbc9 d33d b42f be3d
00000030: 205e 4a3e 1f04 2d3e c37f 5b3d c85a be3d
00000040: 72cb a73d 9aaa 123e dc43 023e 8517 a13d
00000050: 69cb 033e ffba 063e d024 6e3d 082e cf3d
00000060: d198 bb3d dc07 323d 319b ca3d 18c1 693d
00000070: 24ee 083e c395 063e c06d 2d3e 4276 8e3d
00000080: 2e74 103e 15c1 b83d f4ef c23d 632a 063e
00000090: 0086 3b3d 73f9 423e 8202 cd3d a127 133e
000000a0: 5ab8 773e 151e 793e 9e1a 2e3d a52c 7d3d
000000b0: dfab 293e 30c4 8a3d 9783 e83d 2f36 573d
000000c0: 98d5 4c3d fe1e d23d c810 b03b e8a9 063e
000000d0: bc4d 1d3e 964f 103e 8a8c 103e a6eb 1c3e
000000e0: d405 c23d 2f65 113e b3e4 a33d dd66 b93d
000000f0: 3829 6b3e f135 2d3d 18d0 f93d 7d06 053e
0.08363456 0.07704859 0.19137064 0.09015653 0.09900975 0.2765398 0.17595148 0.17146252
0.1521598 0.1245553 0.10341235 0.092864424 0.19762468 0.16896103 0.05358864 0.09294659
0.08193101 0.14322892 0.12721199 0.07865814 0.12870564 0.13157271 0.058140576 0.10116202
0.09160007 0.043464527 0.09892882 0.057068914 0.13372093 0.13143067 0.16936398 0.0695615
0.14106819 0.090212025 0.09518424 0.13102107 0.04578209 0.1904047 0.10010244 0.14370586
0.24191418 0.24327882 0.042505853 0.061810154 0.1656947 0.06775701 0.11353224 0.052541908
0.050008386 0.102598175 0.005373094 0.13150752 0.15361685 0.1409286 0.14116111 0.15324268
0.09473768 0.14198755 0.08002605 0.09052823 0.22964942 0.04228777 0.12197894 0.12990756

encoder.encoder.3.0.weight f4 [64, 64, 3, 3]
00000000: 6283 14bd 6491 233c a7a6 62bc 51c8 6f3c
00000010: 328d 3c3d ae61 943c f51d 313d af34 e13c
00000020: 5b37 823c caa2 92bc 8b32 553c c2df a13b
00000030: c200 01bd 2adb e7bc ed77 83bd efb9 b0bc
00000040: a5d5 4139 06a7 a2bc d77d 39bb 0efa e0bb
00000050: df87 fdbc 49d7 e4bb 2870 7abc 41f5 71bd
00000060: 9957 193b 2a73 65bd c7bf 82bd 29ca a83c
00000070: 9a04 0d3d 46d6 833c e9a4 663d 6cf5 3a3d
00000080: 1b1a 8dbc c21f bd3b c7c1 acbc 1b3e 8ebd
00000090: 7a13 fdbc 59b4 d33a 1ee3 80bc 1ae0 8f3c
000000a0: 2279 543d 07fb 6f3c 22d8 393c 7052 473d
000000b0: bbb0 143d efea 073e 51d2 d43d 7866 ce3d
000000c0: f26e 553d 30ea 173c 72f8 c13c 77b1 d73c
000000d0: e477 523d 1bc2 533c 1d45 4cbd c498 6ebd
000000e0: 7078 72bd 6447 0f3b 3198 08bc f6d9 d1bc
000000f0: 2cdd 06bd b3f0 40bd 152b d1bc d382 cebb
00000100: 2bb1 11bc 51b7 4bbd e478 4fbd a65f 6bbc
00000110: 0bd0 0bbd 0b39 3ebc 9aa2 ce3c 5d2b 8abc
00000120: 1ddb dabb 57db 263d bcf5 0dbc f7e1 113d
00000130: 3f9f df3c 1ac8 d0bc 6aab 3dbd a531 d3bc
00000140: 1a57 8ebd 084d b5bd 2046 3abd a54d 72bd
00000150: 9819 5ebb 50dd 303c 4351 243b cb89 0e3d
00000160: 00c0 60bc 5e71 873c 8570 cd3c 1b11 91bc
00000170: ea65 37bd 6fb8 ef3d 8c9e 873d 9aaa 9f3d
00000180: 03eb 933d 220c 193d 0440 a93d e91d e13c
00000190: d9d7 cf3b c589 103d 6cfd 163d e564 b93b
000001a0: 780f f03c 052c 5e3d 6477 ce3b e601 433d
000001b0: 9f79 bfbd 3340 7dbd 9e10 b6bd 397c 193d
000001c0: 50c2 353d e4b7 d03c a376 253d 7612 513c
000001d0: 1fdd 7bbb 7e56 d0bc 554d 57bd 545a 6bbd
000001e0: b0a2 f03c e02d fd3c f8b2 b93c f762 abbc
000001f0: fc7c c6bc ed37 bf3c 997d 113c c0ed cd3c
00000200: 72be 3c3d 4472 403c 2f4e dc3b 0dc1 ce3c
00000210: 691f e23c 421e cf3c bcab b73c f7ee 77bd
00000220: 49b6 763c ec39 f0bb 4899 b2bd 982c 3fbd
00000230: a802 4abc a8fb 143d 463f 4e3d 3b0b b53d
00000240: dd33 be3a 55d6 8a3a 5638 91bd 4a92 28bc
00000250: f0b8 21bc f1ca 643c 7698 6c3c 34fc 783c
00000260: adb4 803c 6ee7 acbd 4de1 35bd 7288 9bbd
00000270: 4985 32bd 38a2 a93c 81a1 1dbd 4683 62bd
00000280: 5d88 24bd 45e5 07bd 2d44 b7bb 80dd bc3c
00000290: c776 2a3d f616 7abd 00c3 42bd e6ea 63bd
000002a0: e577 75bc 79c8 ec3b 9de5 11ba 9113 6c3d
000002b0: a2b3 9f3d 807f 3d3d 1edb 893b 1814 2dbc
000002c0: 6f4f 3cbc a49c 44bc f83b ccbc 7102 28bd
000002d0: 4100 a8bc ed74 303b 0dca 5abd e3a2 713d
000002e0: 92f3 283d 43c5 303d 8382 de3c c75b 8b3c
000002f0: 076d 073c 409f 273d eafd 433d 544a a93d
00000300: 5a59 27bd 16be c33b 3e6c 7e3c a55c 76bd
00000310: 77d9 2bbd fd56 e3b9 3fad 9a3d 3c82 653d
00000320: ecdd e03d 2e60 b43c d219 a1bb e832 923d
00000330: 9cf1 883c 0cd2 1c3d 85a4 143d cd95 2c3d
00000340: 9ecc 4e3c 7acf 5ebc bba7 1f3b 2cd9 593c
00000350: 1de2 d33c 2aaa b7bc 5621 53bd 729a 82bb
00000360: 40df 2d3c 3106 3bbb fd6a 9f3c f3e7 0bbc
00000370: b390 0b3c fa11 f3bc af82 b0bb f91c 00bd
00000380: 7949 0ebd ee89 6bbd 82b3 89bd 75d2 843b
00000390: fdfe bb3c b64e f93c ed4a 9e3d 776e f0bc
000003a0: ad02 24bc a7c7 383c e2e7 4abc 159d 843c
000003b0: 8724 273b ce71 133d 44a4 3fbb 8c91 8a3c
000003c0: 94cc 8b3a 1412 b83a d525 fa3a 18e0 333d
000003d0: ccdf 683d 63df 643d eb4d 6e3d 84c4 123d
000003e0: b1a4 063d 57b1 933c 26fb 973c 8900 223d
000003f0: e2f9 553c 5040 443c b072 24bd db56 23bd
-0.03625811 0.009983394 -0.013833678 0.0146351615 0.04603309 0.018112984 0.04324146 0.027490942
0.015895536 -0.01789989 0.013012539 0.004940004 -0.031494863 -0.028302748 -0.064193584 -0.021573035
0.00018485503 -0.019855034 -0.0028303766 -0.0068657463 -0.030948577 -0.006983672 -0.015285529 -0.059071783
0.002339816 -0.056018032 -0.06384235 0.02060421 0.034428217 0.016093384 0.056309614 0.04564421
-0.017224362 0.005771608 -0.021088494 -0.069454394 -0.030893076 0.001615177 -0.015733298 0.017562915
0.051873334 0.014647252 0.011343034 0.048662603 0.036301356 0.13273214 0.10391677 0.10078138
0.05210776 0.009272143 0.023678038 0.026329739 0.051383868 0.012924696 -0.0498706 -0.058251157
-0.05919689 0.002186262 -0.0083370665 -0.025616627 -0.03292577 -0.04710455 -0.025533238 -0.0063022166
-0.008892338 -0.04973537 -0.0506524 -0.014366066 -0.034133952 -0.01161028 0.025224019 -0.01686638
-0.0066789524 0.040736523 -0.008664545 0.035615887 0.027297614 -0.02548604 -0.04630605 -0.025780508
-0.06950207 -0.08852583 -0.045477033 -0.05915608 -0.0033889767 0.0107949525 0.002507285 0.03479938
-0.013717651 0.01653355 0.025078068 -0.017708352 -0.044774927 0.117051 0.06622037 0.077962115
0.07222559 0.037365086 0.08264163 0.027480083 0.0063428697 0.035287637 0.036862776 0.0056577795
0.029304251 0.0542412 0.0063008536 0.047609232 -0.09349369 -0.061828803 -0.08889888 0.037471984
0.044374764 0.02547831 0.040396344 0.012760749 -0.003843136 -0.025431868 -0.052563984 -0.05745919
0.02937445 0.030905664 0.022668347 -0.020921214 -0.02422952 0.023342097 0.0088800425 0.025137782
0.04608006 0.011745993 0.0067231874 0.025238538 0.027602868 0.025282983 0.022420757 -0.06053063
0.015058109 -0.0073311236 -0.08720642 -0.046673387 -0.012329735 0.03637281 0.05035331 0.08840033
0.0014511306 0.001059244 -0.07090823 -0.010288784 -0.009870753 0.013964401 0.014440646 0.015196849
0.015711153 -0.08442579 -0.044404317 -0.07594384 -0.043584142 0.020707235 -0.0384841 -0.055300973
-0.04016911 -0.033177633 -0.005592844 0.023054838 0.04161718 -0.061057054 -0.047549248 -0.05564394
-0.014982198 0.0072260466 -0.0005565526 0.057635847 0.07797934 0.04626417 0.004207029 -0.010563873
-0.011493548 -0.012000237 -0.02493094 -0.041017953 -0.020507934 0.0026925162 -0.053415347 0.05899323
0.04124791 0.043156873 0.027161842 0.017011536 0.00826574 0.040923357 0.047849573 0.0826613
-0.040856697 0.0059735877 0.015528737 -0.060146946 -0.041955438 -0.00043361625 0.07552575 0.056032404
0.10979828 0.022018518 -0.004916408 0.07138616 0.01671677 0.038286254 0.03628971 0.04213505
0.012622027 -0.013599271 0.002436145 0.013296407 0.025864655 -0.022420008 -0.051545464 -0.0039856965
0.010612309 -0.0028537626 0.019460196 -0.008539188 0.008518386 -0.029671658 -0.0053866724 -0.03127763
-0.034738038 -0.057504587 -0.067236915 0.0040534087 0.022948736 0.03043304 0.07729135 -0.029349549
-0.010010404 0.01127807 -0.012384387 0.016188184 0.002550395 0.035997204 -0.0029242197 0.016915105
0.0010665827 0.0014043474 0.0019084761 0.043914884 0.056854054 0.0558771 0.058179777 0.035831943
0.032871906 0.018028898 0.018552374 0.03955129 0.013060065 0.011978224 -0.040148437 -0.039877754

encoder.encoder.3.0.bias f4 [64]
00000000: 7cf4 efbb 13bc e9bc d9d3 d63c 20f7 70ba
00000010: debe 4dbb d822 4abc 1d0c 1ebc dce5 ae3c
00000020: 7719 dc3b 92eb 27bc b458 f1bb 8731 25bb
00000030: 4f7c 6ebc 5c4a 923a 57e1 17ba 95ab 60bc
00000040: ca4b a73c 61e3 b8bc f2cd 7b3c 37e8 973b
00000050: 3a0e 69bc 4e40 5c3c 03c5 d1bc 274c a23c
00000060: 7008 853b 549d b93c b54b 47bc 85fe 923c
00000070: 9f44 c43c 83da 35bc 8706 ab3c 8298 5e3c
00000080: 5ed5 da3c 5fe3 4cbb 1c01 ab3b 1d65 8ebb
00000090: 7feb b2bc 083b 38bc 43c8 7fbc ab39 c83c
000000a0: d868 a33c 9716 d3bb 1bf9 c03c 6db3 a2bc
000000b0: 92c4 a53c b3d8 ae3a 74a5 ce3c 7032 a3bc
000000c0: f91f 06bb bc00 db3c 08fe 15bc 8974 ebbc
000000d0: fa83 903b 9c7b b5ba 796d a4bb 78ee 9e3c
000000e0: 0d7f db3c e113 9bbc 6ad2 b23c 71ff 7b3c
000000f0: 78f5 d5bc ab23 2e3c 0c62 013c a736 c8ba
-0.007322846 -0.028532064 0.026224064 -0.0009192098 -0.0031394283 -0.012337409 -0.009646443 0.02134984
0.006716903 -0.010249035 -0.0073653106 -0.0025206523 -0.014556005 0.0011161077 -0.0005793771 -0.013712783
0.020421881 -0.02256936 0.015368925 0.0046358365 -0.014224583 0.013443066 -0.025606638 0.019811703
0.0040598437 0.022658028 -0.012164046 0.01794363 0.023958502 -0.011099461 0.020877136 0.013586165
0.02671307 -0.0031263453 0.005218638 -0.0043455497 -0.021840809 -0.011244543 -0.015611711 0.02444156
0.019947454 -0.006441902 0.023556283 -0.019860948 0.020235334 0.0013339728 0.025225379 -0.019921511
-0.0020465835 0.026733749 -0.009154804 -0.028742092 0.004410264 -0.0013846043 -0.005017933 0.01940082
0.026793981 -0.018930377 0.021828849 0.015380726 -0.026118025 0.010628621 0.007896911 -0.0015275077
