saves_concept/pacs/photo/max_acc.pth (torch_old, 526838 bytes, 28 tensors)

encoder.encoder.0.0.weight f4 [64, 3, 3, 3]
-0.15519033 0.12532626 -0.1674087 -0.08004947 0.14192367 -0.04892425 -0.017425362 0.20222966
-0.10162179 0.058153816 0.04379094 -0.16085719 -0.03352499 -0.020936893 -0.081243895 0.08287597
0.13687474 -0.09989921 -0.10466509 -0.012642872 0.044343214 -0.1124214 0.07023652 0.056687713
-0.047335576 -0.08233598 0.042022157 -0.13445798 -0.12059074 -0.20521675 0.15155262 0.080725126
0.097407036 0.112816095 -0.060798146 0.01689455 -0.074552834 -0.042320948 -0.18965909 -0.034603853
0.014896068 0.05348475 0.04275921 0.17954573 0.06217574 -0.094481975 -0.025146382 -0.078257784
0.19777693 0.18945995 -0.09856968 -0.06887942 0.04013607 -0.09550158 -0.14212124 0.058565583
-0.04257544 -0.10947648 0.016141122 0.105664834 -0.11439239 -0.04566897 0.119775854 -0.040955264
-0.070676096 0.09131086 0.013507711 0.10181238 0.07260362 -0.036004063 0.07429536 0.03637504
0.027053759 0.030799052 -0.14843576 0.11696764 0.08189034 -0.1267908 0.1395346 0.10572337
-0.10630242 0.12352336 0.00828572 -0.06621247 -0.037508197 -0.12445651 -0.0835165 -0.17249343
-0.15530643 -0.1048129 -0.11992909 -0.008316192 0.024627294 0.1605183 0.059638534 0.10587418
-0.1113393 0.062463567 0.036335614 -0.10954992 -0.06384296 0.02345449 0.13511679 0.06615338
0.0074919276 0.022488644 -0.07276347 0.0051261606 -0.18639496 0.02955912 0.0459 0.024886928
-0.07141673 0.09502737 -0.10919875 0.032450873 -0.0039989688 -0.18060091 0.054258753 0.028979622
-0.009077327 0.11228167 0.10179765 0.08162753 0.0046759215 -0.026700363 -0.10204551 0.19898088
0.037686497 -0.09274073 0.022618003 -0.035653677 -0.10386195 -0.0026640925 -0.093120724 0.0913283
-0.039368927 -0.08271542 -0.12428977 -0.037378266 0.06282685 -0.10943909 -0.043975856 -0.07556908
-0.010655053 -0.052319072 0.10152393 -0.08452443 -0.077627584 0.081812836 -0.18351077 -0.14825018
0.015004286 -0.035934966 -0.030580057 0.013061163 0.06610985 0.0074976436 0.14217678 0.11060846
0.03383965 -0.036162253 -0.05093822 0.0088521065 -0.10728314 -0.008548952 0.08721 0.11897608
0.022935668 0.0796346 0.103202894 0.040244978 -0.026837027 0.027664315 0.098879665 -0.07406741
0.10374254 0.10198981 -0.012990333 0.058459677 0.094090395 0.11035857 -0.06542083 -0.03995534
0.06966392 -0.09999638 -0.09061143 -0.0021289368 0.037762143 0.0820522 -0.005107563 0.013000958
0.045855135 -0.09089347 0.128598 -0.10787839 0.059267327 0.1141695 0.011136762 -0.11673491
0.07575697 0.13738964 0.09175452 0.06270921 0.13088316 0.0052335323 0.08819155 -0.117701106
-0.004140234 0.068036385 -0.14214294 -0.15289287 -0.06782423 -0.02100356 -0.02136846 0.12648378
-0.07980103 -0.099589385 -0.032678146 0.041013878 -0.017855726 -0.100662045 -0.12755466 0.10105839
0.080062196 -0.08721465 -0.07824995 -0.06773186 0.07835636 0.09543412 0.043925304 -0.114096135
0.006562009 0.08669939 0.10299935 -0.056254186 -0.106371 0.09169964 -0.12467408 0.08014557
0.034129076 -0.033440825 -0.10425835 -0.12088812 -0.14075999 0.10098548 -0.07703361 0.087394096
-0.0025251936 0.0010755712 0.03640228 0.13431053 0.08622152 -0.08013264 -0.13921678 0.06807529
00000000: 37ea 1ebe 8755 003e 306d 2bbe faf0 a3bd
00000010: 7054 113e cb64 48bd a2bf 8ebc 4b15 4f3e
00000020: 161f d0bd b232 6e3d 215e 333d bfb7 24be
00000030: 8051 09bd d983 abbc 3363 a6bd e0ba a93d
00000040: e428 0c3e f597 ccbd a75a d6bd 0c24 4fbc
00000050: 3ba1 353d 313d e6bd 2ad8 8f3d 6031 683d
00000060: f3e2 41bd c49f a8bd 6d1f 2c3d 5aaf 09be
00000070: 47f8 f6bd 5724 52be 9c30 1b3e 3753 a53d
00000080: 577d c73d 200c e73d 7a07 79bd 7066 8a3c
00000090: 28af 98bd bb58 2dbd fe35 42be c5bc 0dbd
000000a0: a30e 743c d312 5b3d 4824 2f3d d6da 373e
000000b0: fdab 7e3d c47f c1bd c9ff cdbc 9e45 a0bd
000000c0: 0986 4a3e ca01 423e e6de c9bd a710 8dbd
000000d0: b865 243d 5596 c3bd 3b88 11be 77e2 6f3d
000000e0: 9663 2ebd 3435 e0bd 633a 843c ce66 d83d
000000f0: 8f46 eabd 630f 3bbd 0b4d f53d b5c0 27bd
00000100: a1be 90bd 3001 bb3d 724f 5d3c 0283 d03d
00000110: 35b1 943d ff78 13bd 2a28 983d fefd 143d
00000120: d89f dd3c 4b4e fc3c 8bff 17be bb8c ef3d
00000130: 1fb6 a73d 73d5 01be 28e2 0e3e 7f85 d83d
00000140: 15b5 d9bd d1f9 fc3d d4c0 073c 679a 87bd
00000150: 32a2 19bd 0ee3 febd b30a abbd 1ea2 30be
00000160: a608 1fbe 25a8 d6bd 629d f5bd a340 08bc
00000170: 2ebf c93c e95e 243e 8947 743d 90d4 d83d
00000180: dc05 e4bd ccd9 7f3d a7d4 143d b55b e0bd
00000190: 19c0 82bd a123 c03c 0e5c 0a3e 6c7b 873d
000001a0: d87e f53b 1b3a b83c 0405 95bd 5af9 a73b
000001b0: 52de 3ebe f825 f23c a301 3c3d acdf cb3c
000001c0: ef42 92bd b69d c23d 98a3 dfbd 35eb 043d
000001d0: c809 83bb 72ef 38be 6d3e 5e3d ac66 ed3c
000001e0: 12b9 14bc eff3 e53d 497b d03d 562c a73d
000001f0: 7938 993b b8ba dabc 3dfd d0bd a5c1 4b3e
00000200: 285d 1a3d daee bdbd 6449 b93c 9709 12bd
00000210: 93b5 d4bd 0e98 2ebb 14b6 bebd 550a bb3d
00000220: 5041 21bd b466 a9bd a38b febd f419 19bd
00000230: 5dab 803d 9a21 e0bd 0720 34bd f6c3 9abd
00000240: 8892 2ebc 864c 56bd c7eb cf3d 251b adbd
00000250: 36fb 9ebd 7d8d a73d 3fea 3bbe e5ce 17be
00000260: 89d4 753c 8b30 13bd 0783 fabc 7dfe 553c
00000270: 9a64 873d cbae f53b ca96 113e b086 e23d
00000280: 729b 0a3d df1e 14bd 98a4 50bd 6d08 113c
00000290: 43b7 dbbd e710 0cbc 289b b23d bba9 f33d
000002a0: 95e3 bb3c 7717 a33d 0a5c d33d ebd7 243d
000002b0: 53d9 dbbc 46a0 e23c 6c81 ca3d a7b0 97bd
000002c0: f876 d43d 09e0 d03d 68d5 54bc 6a73 6f3d
000002d0: 77b2 c03d ad03 e23d 5bfb 85bd 36a8 23bd
000002e0: f5ab 8e3d e7ca ccbd 7c92 b9bd a285 0bbb
000002f0: 7aac 1a3d fc0a a83d 585d a7bb f801 553c
00000300: 98d2 3b3d 5b26 babd 32af 033e 58ef dcbd
00000310: 4cc2 723d b3d1 e93d f776 363c b612 efbd
00000320: 7826 9b3d dfaf 0c3e cbe9 bb3d b06d 803d
00000330: 3c06 063e 0d7e ab3b c59d b43d 470d f1bd
00000340: cdaa 87bb a956 8b3d eb8d 11be f38f 1cbe
00000350: 6ee7 8abd a80f acbc e90c afbc f784 013e
00000360: b96e a3bd 85f5 cbbd 85d9 05bd 2bfe 273d
00000370: 2c46 92bc e727 cebd b09d 02be b4f7 ce3d
00000380: a6f7 a33d 989d b2bd 8341 a0bd 00b7 8abd
00000390: 4d79 a03d f772 c33d 05eb 333d 3cab e9bd
000003a0: 1f06 d73b 738f b13d 53f1 d23d ca6a 66bd
000003b0: 0ad9 d9bd 05cd bb3d 2055 ffbd 5c23 a43d
000003c0: eeca 0b3d 3ff9 08bd 6785 d5bd 3194 f7bd
000003d0: 6323 10be 7ad1 ce3d ccc3 9dbd adfb b23d
000003e0: b87d 25bb 2efa 8c3a 8f1a 153d b388 093e
000003f0: e994 b03d 951c a4bd d88e 0ebe 0f6b 8b3d

encoder.encoder.0.0.bias f4 [64]
0.013108253 -0.067022994 0.04858413 0.01540333 -0.058125965 -0.06347711 -0.006857826 0.1271063
0.08883941 -0.1122461 0.06551523 0.13084884 -0.05251711 -0.038126804 -0.08494698 -0.09322508
-0.039636675 -0.11912978 -0.03685828 0.013528726 -0.05179493 0.085357 0.07897526 -0.024523359
0.016397819 -0.061350003 0.13209409 -0.08101899 -0.08278079 0.11358965 0.13299672 -0.053288102
-0.1273674 -0.112479165 0.048498206 0.009637922 -0.045737397 0.030991057 0.017957652 -0.01705267
-0.10417943 0.02344826 -0.06255623 0.08336561 -0.077633604 0.010778057 0.027081376 0.11154676
-0.1320481 -0.09476991 -0.08906136 -0.08064618 -0.10353615 -0.043718364 0.10183334 0.09349296
-0.022189777 -0.05728925 0.072888054 -0.056682892 -0.006247184 -0.08293295 -0.10635347 -0.005280127
00000000: ffc3 563c 5a43 89bd 2700 473d 405e 7c3c
00000010: 7e15 6ebd 4900 82bd 9db7 e0bb 2728 023e
00000020: 70f1 b53d 49e1 e5bd d92c 863d 3dfd 053e
00000030: 2e1c 57bd da2a 1cbd aff8 adbd caec bebd
00000040: 115a 22bd 50fa f3bd b5f8 16bd 97a7 5d3c
00000050: ec26 54bd a7cf ae3d c8bd a13d 36e5 c8bc
00000060: b854 863c 244a 7bbd ac43 073e 49ed a5bd
00000070: fa88 a9bd b1a1 e83d 4b30 083e a044 5abd
00000080: 9a6c 02be 7a5b e6bd 0ea6 463d 60e8 1d3c
00000090: 2357 3bbd f5e0 fd3c ed1b 933c 0ab2 8bbc
000000a0: 065c d5bd 9116 c03c 7b1d 80bd 97bb aa3d
000000b0: 5efe 9ebd 7396 303c c3d9 dd3c a172 e43d
000000c0: 9e37 07be ba16 c2bd cd65 b6bd d329 a5bd
000000d0: c30a d4bd 0712 33bd 008e d03d 3d79 bf3d
000000e0: 56c7 b5bc 22a8 6abd 5546 953d 522c 68bd
000000f0: 2db5 ccbb c0d8 a9bd d9cf d9bd ea04 adbb

encoder.encoder.0.1.weight f4 [64]
0.52713174 0.60234994 0.4027073 0.5030588 0.50664824 0.5312695 0.122358516 0.44291222
0.10658392 0.26704064 0.4945391 0.3929203 0.10694111 0.10389168 0.0674972 0.6051088
0.7594565 0.5668975 0.041792806 0.48897713 0.11137647 0.47187734 0.3802126 0.04916901
0.3303506 0.013825778 0.50292253 0.6863929 0.2123249 0.6109561 0.22719578 0.53528696
0.30248678 0.24522883 0.26059526 0.25043866 0.23551102 0.6935889 0.38293654 0.44336256
0.59778506 0.59815997 0.2643671 0.6976515 0.17172275 0.060548175 0.72956157 0.20152742
0.35824886 0.31260738 0.40860987 0.24373825 0.57635206 0.101919755 0.40072957 0.63125676
0.13529426 0.20588489 0.6829147 0.036519554 0.056923613 0.46785262 0.49933696 0.6947167
00000000: 1bf2 063f 9b33 1a3f a72f ce3e 76c8 003f
00000010: b3b3 013f 4701 083f 1a97 fa3d 64c5 e23e
00000020: ac48 da3d 8db9 883e 3b34 fd3e d92c c93e
00000030: f103 db3d 29c5 d43d f93b 8a3d 69e8 1a3f
00000040: be6b 423f 3220 113f ef2e 2b3d 365b fa3e
00000050: 5919 e43d e899 f13e 3aab c23e 7265 493d
00000060: b723 a93e 8485 623c 88bf 003f 72b7 2f3f
00000070: b36b 593e 9e67 1c3f 03a6 683e 9108 093f
00000080: 8cdf 9a3e 441d 7b3e be6c 853e 7f39 803e
00000090: cd29 713e 0b8f 313f 4210 c43e 6b00 e33e
000000a0: 7108 193f 0321 193f 205b 873e 4a99 323f
000000b0: 17d8 2f3e 5d01 783d 8cc4 3a3f 345d 4e3e
000000c0: 656c b73e 130e a03e 5035 d13e 8596 793e
000000d0: cf8b 133f 4ebb d03d 6d2c cd3e 0b9a 213f
000000e0: 948a 0a3e 7dd3 523e 7fd3 2e3f 8795 153d
000000f0: bc28 693d 618a ef3e 18a9 ff3e f4d8 313f

encoder.encoder.0.1.bias f4 [64]
-0.077190585 0.033061396 -0.011308449 -0.08530337 -0.038034253 -0.06376793 -0.021393387 0.01490386
-0.033614285 -0.04013048 -0.032643933 -0.009046895 0.02374993 0.009894172 0.009835048 -0.033342745
-0.0038971542 -0.024460275 -0.030307304 -0.05835871 0.0075334455 -0.0047384724 -0.0025680724 -0.017006822
-0.026082894 0.008712865 -0.0646056 -0.04784346 -0.048189484 -0.014070763 0.024392655 -0.016961558
-0.0035450198 -0.01997449 0.014730644 -0.03106882 0.021965902 -0.024030896 -0.017234208 0.046333183
-0.08242941 -0.0573479 -0.024271104 -0.010283484 -0.040412206 -0.0016454939 -0.031121382 -0.008596696
-0.07466312 -0.035033435 -0.11887572 -0.0043430664 -0.012962778 -0.003656734 -0.0028308446 -0.0030314685
0.012036365 0.005247234 0.04402034 0.016880907 -0.010992138 -0.069971874 -0.033789832 -0.071711935
00000000: 1916 9ebd 636b 073d 1347 39bc 89b3 aebd
00000010: cec9 1bbd c398 82bd 2f41 afbc 522f 743c
00000020: 22af 09bd dc5f 24bd a5b5 05bd 6e39 14bc
00000030: 378f c23c 2a1b 223c 2e23 213c 6792 08bd
00000040: 6667 7fbb ea60 c8bc 0647 f8bc 8b09 6fbd
00000050: 1fdb f63b 3045 9bbb 1b4d 28bb e451 8bbc
00000060: cbab d5bc 68c0 0e3c f14f 84bd 81f7 43bd
00000070: 5662 45bd 0f89 66bc 1bd3 c73c f7f2 8abc
00000080: 9053 68bb 8ba1 a3bc cd58 713c 0a84 febc
00000090: d6f1 b33c 71dc c4bc c12e 8dbc ddc7 3d3d
000000a0: c0d0 a8bd a2e5 6abd 32d4 c6bc 0f7c 28bc
000000b0: 4587 25bd 9dad d7ba 45f2 febc 28d9 0cbc
000000c0: fae8 98bd 387f 0fbd 1d75 f3bd 4850 8ebb
000000d0: d561 54bc d1a5 6fbb b185 39bb 9aab 46bb
000000e0: 2d34 453c fdf0 ab3b ac4e 343d d449 8a3c
000000f0: 5e18 34bc 6a4d 8fbd 3567 0abd b5dd 92bd

encoder.encoder.0.1.running_mean f4 [64]
-0.55621994 -0.19976267 0.45681924 -0.6023504 -0.32506248 -0.77319455 0.9994003 0.73707396
-0.5862279 -2.094405 1.2418696 -0.22692354 0.11033078 1.4327738 -0.35369805 0.7181604
-0.051977575 0.815622 -0.8707972 1.1593994 0.12750487 0.4141367 0.30777878 0.32821494
-0.30624574 -0.16446422 -1.7084848 1.0404136 0.012739845 0.012508471 0.61356294 0.9568375
-0.24112076 0.27892572 0.49947888 1.2800027 0.51718134 1.8666449 0.5205361 -0.26618809
-0.075308934 0.9970965 -0.06774209 -0.060550075 -0.13175459 0.54437363 -0.034820475 0.16463357
-0.62146205 1.2574469 -0.45777756 -0.34081003 -0.5447345 0.301291 0.8636268 1.2109196
-0.07663262 0.6061086 -0.041021902 -1.441986 0.1932253 -0.6909062 0.14382313 0.9093155
00000000: 6e64 0ebf 968e 4cbe 36e4 e93e a333 1abf
00000010: 976e a6be 14f0 45bf b3d8 7f3f e1b0 3c3f
00000020: 0813 16bf bb0a 06c0 95f5 9e3f a55e 68be
00000030: 1bf5 e13d 2265 b73f e917 b5be 5cd9 373f
00000040: 70e6 54bd 9acc 503f 91ec 5ebf 3367 943f
00000050: a390 023e ba09 d43e 2e95 9d3e ca0b a83e
00000060: 3ecc 9cbe 4f69 28be a1af dabf 462c 853f
00000070: c8ba 503c 54f0 4c3c 7612 1d3f 4df3 743f
00000080: 5ce8 76be 5acf 8e3e b2bb ff3e 21d7 a33f
00000090: ff65 043f 38ee ee3f db41 053f ce49 88be
000000a0: 923b 9abd b741 7f3f 5dbc 8abd 5b03 78bd
000000b0: adea 06be 125c 0b3f ea9f 0ebd b495 283e
000000c0: 2318 1fbf 05f4 a03f d261 eabe a77e aebe
000000d0: b873 0bbf d042 9a3e a516 5d3f 6aff 9a3f
000000e0: 90f1 9cbd ef29 1b3f 9506 28bd ff92 b8bf
000000f0: dadc 453e 3bdf 30bf 5f46 133e e7c8 683f

encoder.encoder.0.1.running_var f4 [64]
0.15350133 0.14403728 0.10713929 0.1854376 0.113477774 0.28609806 0.4157549 0.23475698
0.19508755 1.6236253 0.6492663 0.075596586 0.026783422 0.86092 0.089538604 0.35638168
0.4798743 0.3987704 0.3798662 0.65915275 0.02851515 0.17065881 0.065961756 0.09284741
0.112184115 0.07610713 1.3294026 0.5234505 0.043881223 0.3321639 0.14664413 0.4100358
0.08260718 0.13172972 0.15580413 0.64053625 0.19249806 1.3028712 0.13371608 0.16433322
0.24819443 0.432391 0.015432137 0.20754653 0.036631677 0.1513914 0.5581987 0.069777206
0.20011802 0.83583635 0.121002786 0.04601483 0.21783365 0.07566838 0.3556919 0.51548564
0.04817742 0.2244803 0.20025526 0.8984706 0.024976905 0.25499213 0.16890937 0.42083982
00000000: 742f 1d3e 827e 133e d86b db3d 5be3 3d3e
00000010: 0967 e83d 727b 923e d4dd d43e 2264 703e
00000020: 08c5 473e f4d2 cf3f 5136 263f 62d2 9a3d
00000030: e868 db3c 4165 5c3f 0460 b73d a977 b63e
00000040: 16b2 f53e a22b cc3e d37d c23e 3cbe 283f
00000050: 9b98 e93c 2fc1 2e3e f516 873d c826 be3d
00000060: c9c0 e53d 0ede 9b3d dd29 aa3f da00 063f
00000070: ccbc 333d 6311 aa3e e129 163e 36f0 d13e
00000080: f42d a93d 28e4 063e 1e8b 1f3e 2ffa 233f
00000090: 361e 453e 7cc4 a63f deec 083e f846 283e
000000a0: ae26 7e3e 5a62 dd3e 13d7 7c3c 1487 543e
000000b0: 190b 163d 5906 1b3e 1ce6 0e3f 5ae7 8e3d
000000c0: bdeb 4c3e 5ff9 553f 4fd0 f73d 0c7a 3c3d
000000d0: c90f 5f3e 06f8 9a3d 401d b63e def6 033f
000000e0: b055 453d 2ade 653e b70f 4d3e 2b02 663f
000000f0: 5e9c cc3c 548e 823e 94f6 2c3e 5178 d73e

encoder.encoder.1.0.weight f4 [64, 64, 3, 3]
-0.008379997 0.020740723 0.013284367 -0.028227042 0.015210172 0.0020244087 0.0027315773 -0.017438872
-0.01883015 0.004404131 -0.02014994 -0.023082225 0.02866938 0.013545343 0.001474497 -0.027499355
-0.0026324363 -0.00012858167 -0.0062011704 0.022224218 -0.0023806812 -0.014393012 0.016666833 0.022827214
-0.024954746 0.008848931 -0.013801503 -0.025134042 -0.027409239 -0.018032879 0.015704466 0.00636068
0.0059744907 0.024648104 0.02959387 -0.036699835 -0.024207339 0.03094435 -0.01367352 -0.02051401
-0.02704174 0.029397836 0.042912833 0.030064719 0.018045925 0.008704162 0.008181488 0.008868247
-0.0134598715 -0.0073392224 -0.025503375 -0.012124906 0.0029746369 -0.029574223 0.021342576 -0.020890769
0.010973807 0.009780753 0.005108125 -0.027645841 0.0024381469 -0.0071280543 0.023031952 0.0031471283
-0.031197 0.020234903 -0.0037442234 -0.022546617 0.0036960135 -0.02498595 -0.024757372 -0.015484057
0.019194316 -0.0105446605 -0.020594267 0.02173735 0.019796861 0.020000199 0.018261036 0.027334047
0.024590777 0.00063731655 -0.022975978 0.007583389 -0.009488681 0.0025423672 0.01754588 -0.012518756
0.0019038472 0.009603876 -0.0032297475 -0.007335098 -0.006609859 0.00021047557 -0.014284163 -0.01327934
0.009303846 0.012701835 -0.01638606 0.0039111995 -0.002508579 0.0079800375 0.009439612 -0.0097493855
0.018312912 0.020777242 -0.015317673 -0.0038068024 0.013326201 -0.012119966 0.022369424 0.028994689
-0.012258165 -0.0033959525 -0.011746068 0.0055202004 0.017360736 0.008941676 0.01926593 0.021889575
-0.005853008 0.026370635 -0.022098519 0.013747441 -0.0017019723 -0.010038088 -0.014641358 0.027587648
-0.00032078556 -0.0023085384 0.02129721 -0.022119347 -0.0057995752 -0.021405267 0.029726809 -0.019296654
-0.013215325 0.003908688 -0.016289843 -0.015706632 -0.008379115 -0.011530867 0.00017244086 -0.013644563
0.04034457 -0.021639101 -0.0167352 0.05394191 0.029743137 0.027998744 0.007278927 0.028320791
0.015309939 -0.002296766 -0.0017999877 0.03197279 -0.021862285 0.007296031 -0.02245257 -0.027954051
0.016568797 -0.007188217 0.0047506914 0.021333227 -0.017852847 -0.009449714 0.029730998 0.030178482
0.01786575 -0.009783107 0.007964984 -0.010231809 -0.02722034 -0.0041462365 0.004681482 -0.016963813
0.0005611384 0.024240373 -0.018272942 0.01748236 -0.021356039 -0.005354778 0.021993605 -0.016907929
0.029637994 0.010756258 0.009033448 -0.019281255 0.008383183 0.011085317 -0.027330833 0.0071737175
0.001629228 -0.01834629 -0.025513621 -0.029183937 0.0258024 0.008410764 -0.02137821 -0.0053573335
0.022738012 -0.013995863 -0.033244498 -0.0050326637 0.017270831 0.0023691247 -0.0014214139 -0.028428057
0.016321186 -0.024876265 -0.010820963 -0.010741646 -0.0060224948 -0.0048149345 -0.02154358 -0.008077334
-0.028370176 0.0009338576 0.0038501704 -0.000897612 -0.012136862 0.0026842267 -0.020651223 0.010634793
-0.007851408 0.009119306 0.0012825463 0.0205996 0.0049899463 -0.020855071 -0.011929848 -0.027366782
0.004534731 0.020226851 -0.019341579 0.017192384 -0.0006141868 -0.018324895 -0.030076416 -0.005859746
0.030383212 0.00839693 -0.0027542838 0.011185296 -0.020202845 0.017408727 -0.018031346 0.010673193
0.015979001 -0.03217419 -0.02371567 -0.019876532 0.00847912 0.016596789 -0.021599732 -0.02083721
00000000: 414c 09bc 73e8 a93c aca6 593c 663c e7bc
00000010: 1634 793c f1ab 043b 4304 333b f7db 8ebc
00000020: b041 9abc 8750 903b 7d11 a5bc ef16 bdbc
00000030: 0cdc ea3c 49ed 5d3c e943 c13a 5446 e1bc
00000040: f484 2cbb e1d3 06b9 3033 cbbb 900f b63c
00000050: 3405 1cbb abd0 6bbc e288 883c 2300 bb3c
00000060: e56d ccbc 1bfb 103c b31f 62bc e8e5 cdbc
00000070: 5789 e0bc b0b9 93bc a7a6 803c 406d d03b
00000080: a9c5 c33b d2ea c93c d86e f23c 9152 16bd
00000090: 784e c6bc 017f fd3c e606 60bc ff0c a8bc
000000a0: a486 ddbc bbd3 f03c 5ec5 2f3d 494a f63c
000000b0: 0cd5 933c e79b 0e3c a60b 063c 204c 113c
000000c0: cb86 5cbc dc7d f0bb 74ec d0bc 8ba7 46bc
000000d0: 20f2 423b a445 f2bc a0d6 ae3c 1e23 abbc
000000e0: 7ccb 333c 743f 203c 0f62 a73b 8879 e2bc
000000f0: 51c9 1f3b 7492 e9bb 81ad bc3c 0d40 4e3b
00000100: da90 ffbc abc3 a53c a561 75bb afb3 b8bc
00000110: d138 723b 56af ccbc f9cf cabc d8b0 7dbc
00000120: 663d 9d3c 83c3 2cbc 4fb5 a8bc 8712 b23c
00000130: 072d a23c 75d7 a33c 2b98 953c a7eb df3c
00000140: 9972 c93c 9711 273a 1e38 bcbc 147e f83b
00000150: 6a76 1bbc d89d 263b 61bc 8f3c 781b 4dbc
00000160: 838a f93a 9359 1d3c 2caa 53bb 435b f0bb
00000170: 8497 d8bb 1bb3 5c39 1f08 6abc 9791 59bc
00000180: 296f 183c 5b1b 503c 0f3c 86bc 8529 803b
00000190: f966 24bb b4be 023c 9aa8 1a3c e3bb 1fbc
000001a0: f604 963c 0935 aa3c faf6 7abc 8c7b 79bb
000001b0: 2356 5a3c d292 46bc 1540 b73c 4586 ed3c
000001c0: 78d6 48bc a18e 5ebb 9472 40bc cce2 b43b
000001d0: 1a38 8e3c 1b80 123c 95d3 9d3c c451 b33c
000001e0: 97ca bfbb 3b07 d83c f407 b5bc f23c 613c
000001f0: b714 dfba cb76 24bc 4ee2 6fbc 7eff e13c
00000200: 1c2f a8b9 d94a 17bb 7d77 ae3c a233 b5bc
00000210: 5d0a bebb 195a afbc a385 f33c 0414 9ebc
00000220: 1785 58bc 7414 803b 4772 85bc 32ab 80bc
00000230: 8e48 09bc f6eb 3cbc 3ed1 3439 728d 5fbc
00000240: 5940 253d 7c44 b1bc 4218 89bc 31f2 5c3d
00000250: e1a7 f33c 9f5d e53c 1184 ee3b 0101 e83c
00000260: 8ad6 7a3c 5785 16bb 91ed ebba e6f5 023d
00000270: 8918 b3bc 8b13 ef3b 74ee b7bc e5ff e4bc
00000280: 49bb 873c 228b ebbb b0ab 9b3b 05c3 ae3c
00000290: 2240 92bc f9d2 1abc 6c8e f33c dd38 f73c
000002a0: 315b 923c 5349 20bc 907f 023c 51a3 27bc
000002b0: 31fd debc 27dd 87bb 1e67 993b b2f7 8abc
000002c0: 5c19 133a bf93 c63c 23b1 95bc 2b37 8f3c
000002d0: dcf2 aebc 2277 afbb ef2b b43c 7f82 8abc
000002e0: 61cb f23c 043b 303c 0701 143c b9f3 9dbc
000002f0: 9e59 093c 309f 353c e9e4 dfbc 8111 eb3b
00000300: d28b d53a f54a 96bc f101 d1bc 2713 efbc
00000310: 8e5f d33c 4dcd 093c 5b21 afbc 928c afbb
00000320: 1145 ba3c e74e 65bc 622b 08bd 0be9 a4bb
00000330: 8f7b 8d3c 5143 1b3b bc4e baba f5e1 e8bc
00000340: 02b4 853c 4fc9 cbbc 694a 31bc bbfd 2fbc
00000350: 5958 c5bb 99c6 9dbb 297c b0bc cb56 04bc
00000360: 9268 e8bc 1fce 743a 2453 7c3b b94d 6bba
00000370: b0d9 46bc dae9 2f3b c12c a9bc 8e3d 2e3c
00000380: 31a3 00bc 2469 153c 1d1b a83a 7ec0 a83c
00000390: b482 a33b 41d8 aabc 6975 43bc 4d30 e0bc
000003a0: 1598 943b c8b2 a53c 3b72 9ebc 0bd7 8c3c
000003b0: 6101 21ba 171e 96bc d162 f6bc 1d03 c0bb
000003c0: 37e6 f83c 4793 093c 3781 34bb 8842 373c
000003d0: 7080 a5bc bf9c 8e3c 79b6 93bc 9ede 2e3c
000003e0: 65e6 823c 15c9 03bd 5d47 c2bc 1cd4 a2bc
000003f0: 02ec 0a3c fdf5 873c ecf1 b0bc ccb2 aabc

encoder.encoder.1.0.bias f4 [64]
-0.013790475 0.00088436407 0.02570739 -0.026552226 0.009008974 0.022316111 0.0085099265 -0.022032253
-0.02849375 -0.026873684 -0.010766693 0.027728526 0.009657775 -0.008855845 0.023546383 -0.026829127
0.005618143 0.00013319151 -0.016212286 -0.025689585 0.006535405 0.005293992 0.00061363744 -0.022696098
0.016211048 0.0070017437 -0.019978954 0.02798793 -0.011083576 -0.01679709 -0.007883125 -0.025065824
0.027943706 0.0003592309 0.011982962 -0.028211474 -0.012115356 -0.020765048 -0.0124900555 -0.011941845
-2.0758453e-05 -0.0030703247 0.015626313 0.02437086 0.016526148 -0.012710976 -0.011959445 0.0016345674
0.017669909 0.017335882 -0.022118395 -0.0063522183 0.023840735 0.023099437 -0.010750214 0.021679707
0.014233681 -0.019739361 0.010770028 0.0069629285 -0.022873897 -0.0096900435 -0.0060443105 -0.017831804
00000000: 72f1 61bc abd4 673a 4e98 d23c 0e84 d9bc
00000010: 609a 133c 47d0 b63c 386d 0b3c fc7c b4bc
00000020: ba6b e9bc 3326 dcbc c966 30bc ef26 e33c
00000030: a53b 1e3c 1b18 11bc 58e4 c03c c2c8 dbbc
00000040: 6618 b83b 53a9 0b39 a1cf 84bc f772 d2bc
00000050: f326 d63b 3979 ad3b 83dc 203a 2bed b9bc
00000060: 08cd 843c e26e e53b e7aa a3bc f246 e53c
00000070: e397 35bc 0d9a 89bc 3928 01bc d856 cdbc
00000080: 33ea e43c 2857 bc39 2f54 443c c01b e7bc
00000090: 7c7f 46bc 761b aabc 17a3 4cbc baa7 43bc
000000a0: 7022 aeb7 8037 49bb c102 803c 66a5 c73c
000000b0: d861 873c b341 50bc 8cf1 43bc fb3e d63a
000000c0: 7cc0 903c fb03 8e3c a331 b5bc 4526 d0bb
000000d0: a54d c33c 083b bd3c aa21 30bc a499 b13c
000000e0: 6334 693c 71b4 a1bc c674 303c 4729 e43b
000000f0: 0a62 bbbc fdc2 1ebc 5a0f c6bb 0114 92bc

encoder.encoder.1.1.weight f4 [64]
0.115743496 0.16448864 0.1050865 0.42399856 0.12622082 0.31173772 0.3354634 0.12071074
0.38236347 0.3782586 0.12679303 0.17797166 0.0712609 0.37543073 0.19222817 0.66357017
0.1872069 0.6192517 0.2949956 0.16242929 0.311754 0.20736235 0.48746592 0.65351987
0.5429152 0.5698776 0.54957473 0.18770581 0.37458348 0.3824608 0.55749375 0.25128016
0.3581907 0.30665895 0.50809115 0.0035753353 0.49976152 0.46138942 0.28289872 0.21776932
0.11572411 0.102609985 0.4405688 0.5807403 0.10299045 0.44865716 0.5294603 0.56360996
0.4338093 0.3257071 0.31555963 0.12638034 0.46933088 0.22405279 0.38977882 0.4993673
0.49734375 0.15953761 0.10788653 0.14951175 0.44443247 0.54361373 0.33236495 0.5112649
00000000: ed0a ed3d b66f 283e 9737 d73d 5716 d93e
00000010: 0840 013e 169c 9f3e dcc1 ab3e 3137 f73d
00000020: 25c5 c33e 1cab c13e 08d6 013e 343e 363e
00000030: 3cf1 913d 7538 c03e 76d7 443e bcdf 293f
00000040: 2ab3 3f3e 4887 1e3f aa09 973e dd53 263e
00000050: 389e 9f3e cc56 543e 2295 f93e 144d 273f
00000060: 7efc 0a3f 80e3 113f eeb0 0c3f f435 403e
00000070: 68c9 bf3e e7d1 c33e e9b7 0e3f cba7 803e
00000080: c564 b73e 6702 9d3e 4312 023f 2c50 6a3b
00000090: bee0 ff3e 3c3b ec3e 1ad8 903e ecfe 5e3e
000000a0: c300 ed3d 2f25 d23d 3c92 e13e 65ab 143f
000000b0: a8ec d23d 64b6 e53e b68a 073f be48 103f
000000c0: 411c de3e 15c3 a63e 0891 a13e d969 013e
000000d0: 234c f03e 186e 653e 1791 c73e 12ad ff3e
000000e0: d7a3 fe3e d45d 233e 9df3 dc3d 9c19 193e
000000f0: a78c e33e 452a 0b3f bd2b aa3e 42e2 023f

encoder.encoder.1.1.bias f4 [64]
0.0018869657 -0.01534001 0.0022440872 -0.007174986 0.011379144 -0.036550894 -0.023722995 -0.08789595
-0.15667245 -0.06591487 -0.017948896 0.003900732 -0.0014410586 -0.056129813 -0.022382692 0.024171544
0.0012228017 -0.107234426 -0.012408969 0.013579315 -0.021427043 -0.0010083739 -0.030555602 0.02190927
-0.084209934 -0.14019077 -0.014150502 -0.030192452 -0.0373648 -0.039926033 -0.11788352 -0.008203769
-0.09539876 -0.037832297 -0.022684341 -0.008407187 -0.16060589 -0.08354821 -0.035716172 -0.03235379
-0.024368806 0.004263185 -0.010212612 -0.07280037 -0.0049562478 -0.045728307 -0.04672111 -0.044118706
-0.013743395 -0.047953233 0.023777349 0.0039491486 -0.098508075 -0.021176254 0.020726731 -0.028508257
-0.0005162381 -0.02489736 -0.008453816 0.0103285415 0.014714447 -0.06128393 -0.08001083 -0.030091323
00000000: 1054 f73a aa54 7bbc 8911 133b 251c ebbb
00000010: 976f 3a3c 64b6 15bd ba56 c2bc cb02 b4bd
00000020: be6e 20be 60fe 86bd 9009 93bc 6ca3 7f3b
00000030: e7e1 bcba 60e8 65bd e85b b7bc 6703 c63c
00000040: 6b46 a03a b99d dbbd fd4e 4bbc c67b 5e3c
00000050: c487 afbc 6a2b 84ba be4f fabc 127b b33c
00000060: 4276 acbd 2b8e 0fbe 82d7 67bc 2956 f7bc
00000070: d50b 19bd 7b89 23bd ea6c f1bd 1a69 06bc
00000080: 6d60 c3bd 0af6 1abd 83d4 b9bc 4cbe 09bc
00000090: df75 24be 531b abbd 1f4b 12bd 6885 04bd
000000a0: 17a1 c7bc 30b2 8b3b cd52 27bc 5c18 95bd
000000b0: 0568 a2bb 9b4d 3bbd a25e 3fbd d1b5 34bd
000000c0: fa2b 61bc 9c6a 44bd b7c8 c23c dc67 813b
000000d0: 9abe c9bd d379 adbc 1bcb a93c 268a e9bc
000000e0: 2754 07ba 8cf5 cbbc e081 0abc 0b39 293c
000000f0: dd14 713c dc04 7bbd b8dc a3bd 1482 f6bc

encoder.encoder.1.1.running_mean f4 [64]
-0.10230916 0.0015389423 -0.014664356 -0.19755742 0.002724697 0.09302644 -0.04236261 0.20462492
0.7253484 0.5681225 -0.05045092 0.008259886 0.016362729 0.068885446 0.016509676 -0.44846925
-0.071965575 0.08807243 -0.06340505 -0.015066397 -0.13827413 -0.061676025 -0.13037102 -0.2947298
-0.1181492 0.68526787 0.20480904 0.060621697 -0.081412956 0.22751948 0.41211525 -0.08444514
-0.5239339 -0.13085046 0.095285304 0.039699446 1.0492451 0.7459018 -0.0017034828 -0.010208849
-0.053179897 -0.033219624 0.08795057 0.019993778 0.013768847 -0.05847216 -0.03272305 -0.17662406
-0.050182875 -0.17866167 -0.31653413 -0.041476246 0.24713604 0.107887946 -0.2994295 -0.07088501
-0.2983673 0.07480053 -0.029615749 -0.017674288 -0.048657987 -0.0010494292 0.33368146 0.10031129
00000000: 7787 d1bd 56b6 c93a c442 70bc 7e4c 4abe
00000010: d590 323b a584 be3d 6b84 2dbd 3289 513e
00000020: 6fb0 393f 7a70 113f a0a5 4ebd 7954 073c
00000030: 210b 863c d013 8d3d 4d3f 873c c39d e5be
00000040: b062 93bd 515f b43d 82da 81bd 0dd9 76bc
00000050: bc97 0dbe 00a0 7cbd fb7f 05be d3e6 96be
00000060: 35f8 f1bd b76d 2f3f 76b9 513e 754e 783d
00000070: d6bb a6bd defa 683e c500 d33e 93f1 acbd
00000080: 8820 06bf aafd 05be f124 c33d e39b 223d
00000090: aa4d 863f 6cf3 3e3f 6647 dfba 0443 27bc
000000a0: 2ad3 59bd 4d11 08bd 6e1f b43d fec9 a33c
000000b0: bb96 613c 8180 6fbd 9b08 06bd f0dc 34be
000000c0: 8f8c 4dbd 16f3 36be c310 a2be ffe2 29bd
000000d0: 3b11 7d3e 5bf4 dc3d d34e 99be 292c 91bd
000000e0: 99c3 98be 0531 993d ba9c f2bc abc9 90bc
000000f0: 994d 47bd 008d 89ba 4cd8 aa3e 0170 cd3d

encoder.encoder.1.1.running_var f4 [64]
0.014183381 0.016484046 0.022723205 0.15185381 0.01577995 0.0729579 0.04920635 0.06396897
0.4695579 0.16367002 0.008583958 0.05666641 0.00558832 0.22666767 0.07630312 0.23196742
0.08688119 0.1189383 0.042105563 0.10473411 0.078877926 0.05763605 0.12036151 0.09685158
0.29175332 0.15136309 0.12744595 0.026813988 0.20915885 0.20961988 0.11330644 0.033507425
0.30860484 0.050735343 0.12902245 0.010980319 0.24568158 0.1877278 0.027848294 0.060325228
0.00963662 0.024857141 0.15751053 0.14533457 0.019238792 0.04799546 0.24912111 0.30767983
0.05571077 0.08819292 0.06736404 0.021804037 0.14932896 0.074446775 0.111191794 0.063276246
0.20520727 0.04336502 0.02287224 0.0124566145 0.37020984 0.06690614 0.061728463 0.17253451
00000000: 6961 683c 8d09 873c 0426 ba3c 917f 1b3e
00000010: f444 813c f46a 953d 998c 493d 2a02 833d
00000020: e569 f03e 1d99 273e bba3 0c3c 0a1b 683d
00000030: 3a1e b73b 921b 683e cf44 9c3d de88 6d3e
00000040: c4ee b13d ec95 f33d e276 2c3d d67e d63d
00000050: c08a a13d c713 6c3d 1880 f63d 1f5a c63d
00000060: b160 953e edfe 1a3e 3181 023e 02a9 db3c
00000070: bd2d 563e 98a6 563e 350d e83d 153f 093d
00000080: 7401 9e3e ddcf 4f3d 761e 043e cce6 333c
00000090: f493 7b3e b73b 403e 1b22 e43c 9617 773d
000000a0: eae2 1d3c 34a1 cb3c 714a 213e 96d2 143e
000000b0: ac9a 9d3c e396 443d 9b19 7f3e 3688 9d3e
000000c0: fa30 643d 7d9e b43d 28f6 893d 619e b23c
000000d0: b1e9 183e 8d77 983d 86b8 e33d fa96 813d
000000e0: db21 523e 859f 313d 905e bb3c d416 4c3c
000000f0: 258c bd3e 1606 893d fcd6 7c3d e3ac 303e

encoder.encoder.2.0.weight f4 [64, 64, 3, 3]
-0.02709486 -0.001685835 -0.021284759 0.016486073 0.025604267 0.026035903 -0.027704557 0.00876613
-0.012423467 0.010570316 -0.03314948 -0.014029496 -0.018590016 -0.0150448205 0.030038252 0.02184192
0.0154397655 -0.007482567 0.009322599 0.018430747 0.026561495 -0.017373804 0.013732781 -0.017585814
-0.016677557 0.0030055142 -0.007888534 0.017652605 -0.006041417 0.037972607 0.010595618 0.028405616
0.022386983 0.017140921 0.02192294 0.033485956 0.01505635 0.012442988 -0.023794185 0.031956997
-0.001275929 0.011623901 -0.010587182 -0.022062855 0.027547045 -0.010201785 0.005694384 0.032778814
-0.006918918 0.01581363 0.006411574 0.010311844 0.03309001 -7.198119e-05 0.012710963 0.005319871
0.018289864 -0.031674817 -0.00066754775 0.04334474 -0.027726596 0.016591363 0.016318098 0.022061039
-0.018461354 0.031674363 -0.011018392 -0.016412908 -0.0070135174 -0.023852918 0.005904148 0.0065405336
0.053987544 0.0340173 -0.017689647 0.024915563 -0.0169241 -0.009803135 -0.00709803 0.020066112
-0.020018693 0.017615033 -0.0073536015 -0.006501877 0.032796938 -0.011824794 0.0027760155 0.016906489
-0.034764808 -0.022408826 -0.014928192 -0.013575856 0.007743941 0.006515791 0.019758087 -0.01337137
-0.0061622025 0.021167595 -0.034287218 -0.031173876 -0.035244245 -0.038260613 -0.022283964 -0.033792
-0.016856153 -0.023840096 -0.002449987 -0.0085356515 0.02550146 -0.00887241 -0.008552207 -0.0045369784
-0.025037 0.019805854 -0.029310087 0.012430186 0.0032251026 -0.021166863 -0.012218643 -0.039985582
0.008787789 -0.013911414 0.015520224 0.004696497 -0.032004867 -0.011191989 0.03260882 -0.0011135614
-0.008245488 0.03327938 0.003744587 -0.041281253 0.009399432 -0.033101127 -0.021226438 0.008539891
0.025883144 -0.0011486919 -0.013846507 -0.028222306 -0.034163583 0.0045328056 -0.03858203 -0.022265602
-0.020383157 -0.009986969 0.008610732 0.008940149 0.010874987 -0.0010698746 -0.027840741 -0.026372604
0.008716181 0.01763658 0.017279945 -0.03694453 0.035998914 -0.031437255 -0.036250822 -0.019576952
-0.026720632 -0.011509127 -0.022264782 0.0009474166 -0.02274342 0.030311912 -0.014255919 0.0067231096
-0.03176922 -0.0034269223 0.004214026 -0.019470904 -0.028521871 0.004821475 0.029185181 -0.034551
-0.0043445616 -0.022546917 -0.013772881 -0.01705648 -0.0157707 -0.028767578 -0.015292288 0.0084267985
-0.025029566 -0.02758789 0.020082962 0.006980836 -0.0026355016 0.03392012 0.01331714 0.033669524
0.0034206915 0.019360246 -0.0009094673 0.017761214 0.03747328 0.03389849 -0.01672706 0.0022882917
-0.009790788 -0.027940173 -0.02962276 -0.016968558 -0.039877396 -0.05300914 -0.033941086 -0.026078613
0.039244518 0.05601651 -0.007245371 0.007436114 0.03883967 0.012054073 0.007154711 0.01321726
0.034506094 0.025336191 -0.0042736907 0.06461315 0.038606256 -0.026356744 -0.015589258 -0.03739189
0.013627249 -0.024387928 0.002820133 -0.02481206 0.02956094 -0.017239349 -0.036877505 0.019197468
-0.015583849 -0.029596064 0.0036861324 -0.043554902 -0.02939636 -0.002074393 -0.043868184 -0.04609496
-0.026835669 -0.050031766 -0.023453731 0.015143385 0.013637148 -0.025360232 0.033580516 -0.016262282
0.02913897 0.013984598 -0.023502652 0.009577176 -0.033034354 0.0028989138 0.006315284 -0.023528019
00000000: 0af6 ddbc 3cf7 dcba 605d aebc cd0d 873c
00000010: 0ac0 d13c 3f49 d53c abf4 e2bc d09f 0f3c
00000020: cc8b 4bbc 1e2f 2d3c c0c7 07bd f9db 65bc
00000030: 174a 98bc 8d7e 76bc c812 f63c d4ed b23c
00000040: 12f7 7c3c 5230 f5bb d0bd 183c 14fc 963c
00000050: 7e97 d93c 8253 8ebc 75ff 603c 2010 90bc
00000060: 5f9f 88bc 29f8 443b e93e 01bc 329c 903c
00000070: 14f7 c5bb 2a89 1b3d 3e99 2d3c e5b2 e83c
00000080: e864 b73c 1e6b 8c3c bd97 b33c 9228 093d
00000090: e9ae 763c addd 4b3c 06ec c2bc 57e5 023d
000000a0: 133d a7ba 2d72 3e3c dc75 2dbc 29bd b4bc
000000b0: 57aa e13c 6325 27bc f597 ba3b 1443 063d
000000c0: 17b8 e2bb 968b 813c 2e18 d23b 02f3 283c
000000d0: 6489 073d 9bf4 96b8 a541 503c 5052 ae3b
000000e0: a0d4 953c 74bd 01bd 5ffe 2eba 418a 313d
000000f0: e322 e3bc 9cea 873c 88ad 853c 5ab9 b43c
00000100: 443c 97bc fabc 013d 7c86 34bc 5d74 86bc
00000110: a6d1 e5bb 3267 c3bc 9577 c13b f951 d63b
00000120: 0b22 5d3d b955 0b3d e1e9 90bc b91b cc3c
00000130: 69a4 8abc 549d 20bc 9796 e8bb b061 a43c
00000140: 3efe a3bc 674d 903c 7bf6 f0bb b30d d5bb
00000150: 1556 063d c8bc 41bc d0ed 353b 7a7f 8a3c
00000160: 8b65 0ebd b792 b7bc 6095 74bc 446d 5ebc
00000170: e3c0 fd3b 6b82 d53b b6db a13c 9713 5bbc
00000180: 4dec c9bb aa67 ad3c c170 0cbd 5b60 ffbc
00000190: 455c 10bd 29b7 1cbd dc8c b6bc 7b69 0abd
000001a0: ea15 8abc 4e4c c3bc f68f 20bb 1ed9 0bbc
000001b0: 70e8 d03c 965d 11bc 8e1e 0cbc efaa 94bb
000001c0: 651a cdbc e33f a23c b51b f0bc fba7 4b3c
000001d0: 3e5c 533b 2166 adbc b430 48bc ecc7 23bd
000001e0: a9fa 0f3c b3ec 63bc 8a48 7e3c 13e5 993b
000001f0: 8917 03bd 9b5e 37bc d390 053d ecf4 91ba
00000200: 1518 07bc f64f 083d bf67 753b 8816 29bd
00000210: 1300 1a3c 0c95 07bd 11e3 adbc e6ea 0b3c
00000220: e308 d43c b48f 96ba 76dc 62bc 7732 e7bc
00000230: 1def 0bbd ee87 943b 3108 1ebd 5a66 b6bc
00000240: 94fa a6bc 62a0 23bc 0714 0d3c b479 123c
00000250: 002d 323c 093b 8cba 4412 e4bc 5c0b d8bc
00000260: 50ce 0e3c 977a 903c ac8e 8d3c 2653 17bd
00000270: 9973 133d 5ac4 00bd be7b 14bd d85f a0bc
00000280: 3ae5 dabc c790 3cbc a264 b6bc 0d5c 783a
00000290: 6950 babc b050 f83c a891 69bc 884d dc3b
000002a0: 7120 02bd 3796 60bb d015 8a3b 7281 9fbc
000002b0: b3a6 e9bc 77fd 9d3b c315 ef3c 5985 0dbd
000002c0: d35c 8ebb 50b4 b8bc a6a7 61bc 08ba 8bbc
000002d0: 8e31 81bc fca9 ebbc 818c 7abc 8e10 0a3c
000002e0: ce0a cdbc 0000 e2bc 0685 a43c 7fbf e43b
000002f0: 61b8 2cbb d3ef 0a3d 2230 5a3c 0ee9 093d
00000300: ae2d 603b 6199 9e3c 5169 6eba f77f 913c
00000310: 957d 193d 25d9 0a3d 3007 89bc 2af7 153b
00000320: 8b69 20bc cae2 e4bc 6eab f2bc a501 8bbc
00000330: 7b56 23bd 1d20 59bd cf05 0bbd d1a2 d5bc
00000340: dcbe 203d 9171 653d 946a edbb a5aa f33b
00000350: 5916 1f3d 727e 453c 1172 ea3b 358d 583c
00000360: 4356 0d3d d88d cf3c 510a 8cbb e653 843d
00000370: 9821 1e3d 19ea d7bc 166a 7fbc 3d28 19bd
00000380: d344 5f3c 31c9 c7bc fbd1 383b a942 cbbc
00000390: c929 f23c 8939 8dbc de0c 17bd 0244 9d3c
000003a0: 6653 7fbc 7273 f2bc 0a93 713b a066 32bd
000003b0: a3d0 f0bc 8af2 07bb 20af 33bd 12ce 3cbd
000003c0: 7ad6 dbbc 1cee 4cbd 0a22 c0bc f61b 783c
000003d0: 586e 5f3c 43c0 cfbc b98b 093d 7a38 85bc
000003e0: d9b4 ee3c a81f 653c a288 c0bc 96e9 1c3c
000003f0: 084f 07bd b4fb 3d3b 71f0 ce3b d5bd c0bc

encoder.encoder.2.0.bias f4 [64]
0.023595255 0.022426412 -0.0082686795 0.028181504 -0.025720375 -0.014397037 0.026156086 -0.02144566
-0.01887768 -0.0074286107 0.015258279 0.0074325027 0.024043662 0.004262945 0.011271619 0.01212866
-0.014370635 0.017797228 0.020097723 0.0028899827 0.026385512 -0.006002736 0.026399313 0.0007053452
-0.008887376 -0.026027052 0.01682186 -0.00434254 -0.015307895 -0.021718018 0.019588111 -0.0235556
0.023310823 0.012471065 0.0057063466 0.0035637948 0.028548963 -0.026866702 -0.027023753 -0.011486304
-0.021172138 0.0023095438 0.011278633 -0.011161461 -0.008765884 0.0058514434 -0.0012408972 0.00065952254
0.01639119 -0.022823509 -0.0016036617 -0.001978615 -0.0046178587 -0.0041050934 0.023145288 0.023026088
-0.012513976 0.012464476 -0.024442904 0.02615435 0.017559258 0.024244031 0.0020666067 -0.024905326
00000000: d64a c13c 98b7 b73c 5b79 07bc e6dc e63c
00000010: 89b3 d2bc 8de1 6bbc 4a45 d63c cfae afbc
00000020: 5da5 9abc b46b f3bb dcfd 793c 5a8c f33b
00000030: 37f7 c43c 2db0 8b3b 99ac 383c 4ab7 463c
00000040: d072 6bbc 7ecb 913c fba3 a43c dd65 3d3b
00000050: 6e26 d83c 99b2 c4bb 5f43 d83c eae6 383a
00000060: 5b9c 11bc af36 d5bc ffcd 893c de4b 8ebb
00000070: f7cd 7abc fce9 b1bc 3f77 a03c acf7 c0bc
00000080: 57f6 be3c 7053 4c3c 4efc ba3b 8e8e 693b
00000090: 84df e93c 8f17 dcbc eb60 ddbc 0d31 3cbc
000000a0: 3171 adbc b75b 173b 04ca 383c 8fde 36bc
000000b0: c89e 0fbc 77bd bf3b 9aa5 a2ba cfe3 2c3a
000000c0: d146 863c 5ef8 babc f531 d2ba a7ab 01bb
000000d0: 6851 97bb 0584 86bb 309b bd3c 35a1 bc3c
000000e0: 6b07 4dbc cd37 4c3c 7c3c c8bc a641 d63c
000000f0: 6fd8 8f3c 6b9b c63c e86f 073b 4106 ccbc

encoder.encoder.2.1.weight f4 [64]
0.35429287 0.40552384 0.22845495 0.14146285 0.3505863 0.12214995 0.05085389 0.17587538
0.28813773 0.4617358 0.43130547 0.63023025 0.369335 0.7192763 0.22891797 0.17935704
0.04262279 0.107327595 0.32635614 0.29154876 0.4505334 0.120755106 0.6335653 0.047379363
0.27056748 0.094895154 0.082292005 0.19363685 0.17589583 0.42556655 0.492323 0.53667575
0.7059487 0.18698327 0.27451822 0.34110826 0.0633074 0.4286684 0.53568286 0.23870598
0.19143212 0.39341113 0.54881656 0.058538962 0.16340713 0.43501967 0.5081978 0.2966894
0.055821586 0.42922208 0.4454991 0.26124516 0.15278797 0.40421325 0.17902504 0.25545406
0.28207457 0.4954338 0.23899667 0.6136973 0.09171577 0.06154217 0.23105122 0.053173777
00000000: e065 b53e d2a0 cf3e 18f0 693e a3db 103e
00000010: 0c80 b33e c129 fa3d 2b4c 503d ad18 343e
00000020: ca86 933e a368 ec3e 12d4 dc3e c556 213f
00000030: 7a19 bd3e 7e22 383f 7969 6a3e 5fa9 373e
00000040: 3c95 2e3d 92ce db3d 2718 a73e e145 953e
00000050: 50ac e63e 744e f73d 5631 223f dd10 423d
00000060: d287 8a3e 6458 c23d b688 a83d bd48 463e
00000070: 091e 343e dce3 d93e c311 fc3e 9563 093f
00000080: 0eb9 343f 8b78 3f3e a78d 8c3e bea5 ae3e
00000090: 4fa7 813d 6d7a db3e 8322 093f 576f 743e
000000a0: c806 443e 2f6d c93e 3e7f 0c3f 8dc6 6f3d
000000b0: 3354 273e e6ba de3e 4019 023f ace7 973e
000000c0: 2da5 643d ffc2 db3e 7518 e43e edc1 853e
000000d0: 7374 1c3e 0af5 ce3e 5752 373e e0ca 823e
000000e0: 146c 903e 80a9 fd3e 8bbb 743e 441b 1d3f
000000f0: 7ad5 bb3d a413 7c3d b198 6c3e bfcc 593d

encoder.encoder.2.1.bias f4 [64]
-0.025224095 -0.037205834 -0.039541725 0.0035957713 -0.1514951 -0.023673968 -0.0076847556 -0.007026268
-0.0027062516 -0.028209815 -0.030304255 -0.00576536 -0.016083132 -0.026860202 -0.016559448 -0.06483926
-0.008075896 0.012515224 -0.008788664 -0.12336874 -0.07395312 -0.0073782094 -0.16851184 -0.0118974885
-0.08500449 -0.015969371 0.0009362519 -0.016362375 0.0021583845 -0.10448697 -0.1116093 -0.08476869
-0.09729725 -0.061617523 0.025990209 -0.11366123 0.00072161097 -0.023162274 0.040594846 -0.046364293
0.0005447059 -0.025871098 -0.005972254 0.0013472441 -0.025507607 0.0010393638 -0.1263103 -0.022457939
-0.008811842 0.020444227 -0.029152744 -0.03359864 0.0076307785 -0.021848865 -0.051216215 -0.012773912
-0.0108818775 -0.13433272 -0.031297825 -0.09812415 -0.017412039 -0.020387996 -0.0008872268 -0.008101288
00000000: c3a2 cebc 2565 18bd 81f6 21bd 08a7 6b3b
00000010: 8821 1bbe e9ef c1bc 67d0 fbbb 9c3c e6bb
00000020: 5e5b 31bb 4518 e7bc a140 f8bc 58eb bcbb
00000030: c6c0 83bc ed09 dcbc aea7 87bc 72ca 84bd
00000040: c350 04bc a70c 4d3c 54fe 0fbc c0a8 fcbd
00000050: bc74 97bd e8c4 f1bb 5e8e 2cbe afed 42bc
00000060: d616 aebd 33d2 82bc cd6e 753a 630a 86bc
00000070: af73 0d3b 44fd d5bd 6b93 e4bd 359b adbd
00000080: c843 c7bd a862 7cbd 6be9 d43c 38c7 e8bd
00000090: 7e2a 3d3a cfbe bdbc c846 263d 7ce8 3dbd
000000a0: 98ca 0e3a a0ef d3bc e6b2 c3bb 0396 b03a
000000b0: 54f5 d0bc 433b 883a 7d57 01be b6f9 b7bc
000000c0: 8b5f 10bc a77a a73c bcd1 eebc ba9e 09bd
000000d0: 9c0b fa3b 64fc b2bc 18c8 51bd ac49 51bc
000000e0: e749 32bc 848e 09be 2632 00bd 50f5 c8bd
000000f0: b1a3 8ebc ba04 a7bc c894 68ba 44bb 04bc

encoder.encoder.2.1.running_mean f4 [64]
0.011074416 0.060251176 -0.16712582 0.05410291 -0.27128485 0.07199787 -0.08106407 -0.09671114
0.02236863 -0.119931936 -0.34451395 -0.7758551 -0.37972146 -0.024437297 0.13536239 -0.02837193
0.04128511 -0.058664504 -0.23657413 0.21316196 -0.12288623 -0.03404844 -0.20861927 0.03917786
0.16373365 -0.09391112 0.023003263 -0.002670191 -0.06703042 0.26230755 0.15027678 -0.07096183
-0.2648731 0.18236844 -0.09884181 0.28743726 0.026446393 -0.24670482 -0.6164399 0.12368988
-0.011879556 -0.17674501 -0.3422145 0.046255447 0.04854805 -0.27572232 -0.006078761 -0.0935284
-0.059087966 -0.5207136 -0.011462625 0.0014965512 -0.029320182 -0.15823472 0.12982003 -0.17875889
0.0123159755 0.42688692 0.17719074 0.0387716 -0.0043426426 0.11235493 -0.20007494 0.024259677
00000000: 7871 353c f0c9 763d 0823 2bbe 039b 5d3d
00000010: d9e5 8abe 9f73 933d eb04 a6bd 7d10 c6bd
00000020: 6b3e b73c e09e f5bd 2264 b0be 719e 46bf
00000030: da6a c2be ba30 c8bc 709c 0a3e 406c e8bc
00000040: 931a 293d 314a 70bd 7d40 72be 2147 5a3e
00000050: c7ab fbbd 6176 0bbd 4aa0 55be f778 203d
00000060: cba9 273e 7954 c0bd 5771 bc3c 5ffe 2ebb
00000070: 3f47 89bd 2d4d 863e 28e2 193e 7054 91bd
00000080: 729d 87be cbbe 3a3e 936d cabd fa2a 933e
00000090: 1ba6 d83c 30a0 7cbe 01cf 1dbf 1f51 fd3d
000000a0: 78a2 42bc a5fc 34be bd36 afbe 5a76 3d3d
000000b0: 52da 463d 7a2b 8dbe 5830 c7bb d18b bfbd
000000c0: 3906 72bd 7d4d 05bf bccd 3bbc ed27 c43a
000000d0: e130 f0bc 4808 22be 8bef 043e 920c 37be
000000e0: f2c8 493c ec90 da3e 7d71 353e f8ce 1e3d
000000f0: ba4c 8ebb 571a e63d 72e0 4cbe 3bbc c63c

encoder.encoder.2.1.running_var f4 [64]
0.071435586 0.08171924 0.039269045 0.007164174 0.10336423 0.015445515 0.032996908 0.021714225
0.033197407 0.109898336 0.08861112 0.55175114 0.1354627 0.109170675 0.011205949 0.02182236
0.008930636 0.020159135 0.03732141 0.051056057 0.03513058 0.007283031 0.47987542 0.014808255
0.04105452 0.015409983 0.009018306 0.02380668 0.007838318 0.15406324 0.05003612 0.060088217
0.33292103 0.04115332 0.030094558 0.059143897 0.0074015725 0.17310013 0.34919825 0.04943059
0.014928383 0.033627853 0.21279068 0.009998234 0.012423744 0.15687919 0.13321441 0.06636363
0.015248225 0.4090872 0.040579647 0.02560086 0.0065917335 0.119915836 0.032983836 0.035259627
0.022722661 0.14252643 0.10206503 0.10489712 0.012215696 0.012669049 0.07350502 0.010978881
00000000: d24c 923d 6b5c a73d 94d8 203d 73c1 ea3b
00000010: a0b0 d33d 2f0f 7d3c c427 073d 08e2 b13c
00000020: 01fa 073d 6112 e13d bf79 b53d 903f 0d3f
00000030: bcb6 0a3e e094 df3d 2899 373c cec4 b23c
00000040: cd51 123c c524 a53c 56de 183d 2820 513d
00000050: 15e5 0f3d 7ea6 ee3b 3bb2 f53e 539e 723c
00000060: c928 283d 277a 7c3c 84c1 133c 3a06 c33c
00000070: 4a6c 003c c1c2 1d3e adf2 4c3d 101f 763d
00000080: a074 aa3e 6290 283d dd88 f63c df40 723d
00000090: e488 f23b 2941 313e 1dca b23e bb77 4a3d
000000a0: 2d96 743c 5cbd 093d cde5 593e a2cf 233c
000000b0: f68c 4b3c f0a4 203e 5c69 083e a8e9 873d
000000c0: b1d3 793c e173 d13e d836 263d e5b8 d13c
000000d0: 78ff d73b 6f96 f53d 0f1a 073d 666c 103d
000000e0: e024 ba3c 73f2 113e 7807 d13d 4dd4 d63d
000000f0: 5824 483c d891 4f3c cd89 963d c4e0 333c

encoder.encoder.3.0.weight f4 [64, 64, 3, 3]
0.009748718 -0.014428348 0.025048854 -0.008127206 0.01726305 -0.020517647 0.0060385643 0.0035937203
-0.017843936 0.0032292497 -0.012283771 -0.0029576786 -0.010516143 -0.0102852015 0.0106577 0.008830428
0.021004995 -0.0034413962 -0.0054425797 -0.013652062 0.017717615 0.0055910866 -0.02051971 -1.9325753e-05
0.004654246 -0.0031626297 0.0065267896 -0.017238611 0.00649115 -0.014976322 -0.029548937 -0.0049649836
0.02874298 0.009843248 0.012283468 -0.0056112297 -0.0052012936 0.0007989908 0.02037673 -0.0070121153
0.0070221517 0.021850701 0.0061665038 0.032987114 -0.0032323059 0.0007605915 0.022498319 -0.029446993
-0.019515485 -0.026566714 0.0122990385 0.008749089 -0.014120461 -0.01978284 -0.02371945 -0.009441156
-0.020954495 0.01206382 -0.011828206 0.012818157 0.0010036868 0.019172749 0.026982097 0.002371092
0.018957017 -0.007972601 -0.01399393 -0.002778851 -0.0020889866 -0.007655389 -0.002671765 0.0028977918
-0.037206575 -0.034494534 0.014718654 0.007031266 0.015982993 -0.03628712 -0.020804487 -0.009571181
0.013346768 -0.018267164 0.015711324 0.02651449 -0.014591937 0.02427555 0.028193858 0.0043584555
-0.031143561 0.0022348855 0.029394753 0.04098073 -0.019855997 0.024192305 0.03578587 0.003707098
0.012368034 0.0050514163 0.013685159 0.033624053 -7.3863575e-06 0.009138789 0.030537086 0.0012315505
-0.009900441 -0.013638947 0.004791097 0.031138072 0.0148568805 -0.001406342 -0.00045772098 0.008435217
0.0018029059 0.022415053 -0.022660775 -0.013560279 0.02171044 -0.009873513 -0.04440916 -0.023481626
-0.022856759 -0.02784753 -0.0011906787 0.019482281 0.03776951 0.024067117 0.024481356 0.007829546
-0.004311709 -0.009086444 0.009086487 0.012829239 0.018002773 -0.0053633293 0.00081000774 -0.02161413
-0.0010038415 0.0057909237 0.0028756063 0.019049438 0.022640701 -0.016842283 -0.012006588 0.039061323
0.017219624 0.027565526 0.015233162 0.00052445795 0.0014997373 0.025024252 0.00659816 -0.018646315
-0.0028626323 0.027448762 -0.01921639 0.0005037749 -0.027073083 0.0267612 -0.030981928 0.0245177
-0.031841647 0.0065986575 0.0124419695 -0.0075329165 0.020119915 0.008713899 -0.0043158284 0.025788026
0.032123633 0.02557889 -0.020936493 -0.020719873 -0.01579255 -0.023163075 -0.011230365 0.0013427769
-0.0073976074 0.0014323342 -0.02323467 -0.009532038 -0.029648168 -0.015335293 -0.026856525 -0.01642725
0.020990461 -0.00847992 -0.025848288 -0.010708064 0.0027479983 -0.015960248 -0.002590541 -0.016505778
0.014811511 -0.01637167 -0.002440095 -0.0055537866 0.015745576 -0.022920853 0.030990498 0.01365376
0.009524477 0.037907947 -0.010532326 0.0102953 -0.031254463 0.009365019 0.042088963 0.02710377
-0.0021183116 0.0038278992 -0.001997427 0.019851351 -0.02402684 0.010764649 -0.024630921 -0.008673493
-0.004969213 -0.017352045 0.011280265 -0.027504187 -0.0019943865 -0.009399998 0.0059555196 0.0028411837
-0.016114391 0.0050961473 -0.024916727 0.01768069 -0.0036103353 0.0012305637 0.013439302 -0.022810502
-0.014429715 -0.015965952 -0.010410108 -0.0192585 -0.008302037 0.029848795 0.01096394 0.030823676
-0.0007819794 -0.0042868247 0.011105781 -0.021364834 0.010212653 0.035108842 -0.0095756715 0.029421745
0.031014826 0.035475556 -0.010072388 0.03206457 0.013783766 -0.0031532168 0.03639984 -0.0077757444
00000000: 16b9 1f3c e164 6cbc 4133 cd3c f927 05bc
00000010: 3d6b 8d3c a014 a8bc 26df c53b 9f84 6b3b
00000020: 722d 92bc d2a1 533b df41 49bc 9dd5 41bb
00000030: e74b 2cbc 4383 28bc a29d 2e3c 80ad 103c
00000040: ab12 ac3c 0c89 61bb ab57 b2bb e6ac 5fbc
00000050: 8824 913c 6f35 b73b f318 a8bc bd1d a2b7
00000060: a582 983b 1f44 4fbb aede d53b fd37 8dbc
00000070: b6b3 d43b 3f5f 75bc 9d10 f2bc 4db1 a2bb
00000080: 6676 eb3c 9345 213c 9940 493c 68de b7bb
00000090: 9d6f aabb 5d73 513a 1aed a63c e3c5 e5bb
000000a0: 141a e63b 3e00 b33c 6210 ca3b 7f1d 073d
000000b0: 18d5 53bb 6e62 473a 654e b83c d23a f1bc
000000c0: f0de 9fbc 70a2 d9bc e881 493c 5758 0f3c
000000d0: 8259 67bc 9f0f a2bc 4b4f c2bc 14af 1abc
000000e0: c3a8 abbc 54a7 453c 17cb 41bc 3f03 523c
000000f0: 248e 833a 2b10 9d3c 8f09 dd3c 5364 1b3b
00000100: bf4b 9b3c 839f 02bc cc46 65bc 621d 36bb
00000110: 61e7 08bb 0fda fabb c718 2fbb e1e8 3d3b
00000120: ec65 18bd 244a 0dbd 8226 713c 8966 e63b
00000130: c4ee 823c cea1 14bd 2c6e aabc 71d0 1cbc
00000140: 67ac 5a3c 05a5 95bc 09b5 803c ea34 d93c
00000150: 0513 6fbc 85dd c63c cef6 e63c 60d1 8e3b
00000160: c820 ffbc 2877 123b 44cd f03c 69db 273d
00000170: 0ba9 a2bc f12e c63c 3494 123d c9f2 723b
00000180: 4ba3 4a3c 5a86 a53b b837 603c 60b9 093d
00000190: 54d8 f7b6 dcba 153c e928 fa3c fa6b a13a
000001a0: 7635 22bc e475 5fbc a2fe 9c3b 4515 ff3c
000001b0: 466a 733c 0255 b8ba 45fa efb9 dd33 0a3c
000001c0: 7c4f ec3a c69f b73c 17a3 b9bc ef2b 5ebc
000001d0: 18da b13c 84c4 21bc 61e6 35bd 8a5c c0bc
000001e0: 193e bbbc 8120 e4bc 8c10 9cba 4e99 9f3c
000001f0: 34b4 1a3d 6728 c53c 208d c83c 7f47 003c
00000200: 3d49 8dbb 4fdf 14bc 7ddf 143c ba31 523c
00000210: 8d7a 933c debe afbb b356 543a 1e10 b1bc
00000220: 5593 83ba cac1 bd3b ab74 3c3b 910d 9c3c
00000230: fe78 b93c d4f8 89bc 48b7 44bc c4fe 1f3d
00000240: 2b10 8d3c 19d1 e13c 8394 793c c77b 093a
00000250: d592 c43a a9ff cc3c 6135 d83b 28c0 98bc
00000260: 009b 3bbb 3adc e03c b16b 9dbc c30f 043a
00000270: 5fc8 ddbc 4e3a db3c d0cd fdbc 58d9 c83c
00000280: 636c 02bd 8d39 d83b 67d9 4b3c afd6 f6bb
00000290: 85d2 a43c bec4 0e3c cb6b 8dbb 6941 d33c
000002a0: 1294 033d d28a d13c 0283 abbc b9bc a9bc
000002b0: 615f 81bc 7dc0 bdbc 91ff 37bc 1e00 b03a
000002c0: a167 f2bb 29bd bb3a a256 bebc 442c 1cbc
000002d0: b7e0 f2bc e140 7bbc 3702 dcbc 7192 86bc
000002e0: 30f4 ab3c 5def 0abc cabf d3bc e070 2fbc
000002f0: c317 343b 11bf 82bc 11c6 29bb 2037 87bc
00000300: fbab 723c e11d 86bc 00ea 1fbb 8afc b5bb
00000310: defc 803c 83c4 bbbc c9df fd3c 05b4 5f3c
00000320: 8d0c 1c3c 5d45 1b3d c78f 2cbc 9ead 283c
00000330: ae04 00bd bd6f 193c 7a65 2c3d ba08 de3c
00000340: 5fd3 0abb 7edd 7a3b 44e7 02bb 4d9f a23c
00000350: f0d3 c4bc 365e 303c c9c6 c9bc 441b 0ebc
00000360: c8d4 a2bb e025 8ebc dcd0 383c 7650 e1bc
00000370: 41b4 02bb 7302 1abc 8526 c33b 2733 3a3b
00000380: 5402 84bc 95fd a63b 2a1e ccbc 18d7 903c
00000390: 609b 6cbb de4a a13a 8530 5c3c 17dd babc
000003a0: 9d6a 6cbc 07cb 82bc 288f 2abc 00c4 9dbc
000003b0: 4405 08bc 7685 f43c 19a2 333c ef81 fc3c
000003c0: c0fd 4cba 7e78 8cbb 06f5 353c 4e05 afbc
000003d0: f952 273c 4ace 0f3d 47e3 1cbc df05 f13c
000003e0: ce12 fe3c d14e 113d a806 25bc 2356 033d
000003f0: 4ed5 613c 33a6 4ebb 0018 153d accb febb
