saves_category/pacs/sketch/max_acc.pth (torch_old, 527876 bytes, 28 tensors)

encoder.encoder.0.0.weight f4 [64, 3, 3, 3]
00000000: 7eac ab3c db73 d5bd 341f d63d 8ea9 013e
00000010: 6d97 ed3c 6d78 2dbe 5b91 32bd ab99 253d
00000020: 56e1 36be 6c89 713e e196 403d c4b8 47be
00000030: c595 1c3e f080 d3bd a4c4 993d f48c 3f3e
00000040: 58c5 85bd 47f9 b5bd 3792 293e 501d acbd
00000050: 932e 77bd cd6e adbd 8e8d 50bd 3fa1 ccbc
00000060: c57c 283e fd2b c4bd 79dc 08be ee65 92be
00000070: 3dc7 debd ed35 213d 7b53 9c3b fccd 41be
00000080: 9e27 36bd 1ce9 c339 ba41 e6bd a57c ac3c
00000090: 8155 b9bd 2e69 183c f4a9 4cbe 2dc7 983d
000000a0: 3c6f 443e fcae 303d 4000 183d 97a8 333e
000000b0: 451a 053e 914a d7bd 5301 c03d 0ffe 7ebd
000000c0: dc39 d13d f215 123d c689 59bd ef0e f8bc
000000d0: f5f6 493e 56a0 793e c8cf 7fbd 1b92 2ebd
000000e0: 0aa9 433e e62d 843d 1473 393e dd70 193e
000000f0: 048a 8abd c638 b7bd 7477 0bbe b90b aebd
00000100: 8eea 0c3e df05 493e 0f4b 0d3e a645 123d
00000110: 51b6 69be fad9 71bd 7bc2 85be 9bf6 8bbe
00000120: 4312 4b3e 8547 373e b6ed c0bd c60e dc3d
00000130: 006b 203e 8255 a83d 3919 11be 40db 65bd
00000140: fb9a 8dbe 2e14 04be 7492 32be 9649 91bc
00000150: e44b 043e 41f3 66bc 076f 9bbc 8029 80bd
00000160: 5f1e 26be 4250 f1bd de75 a5bd 6710 1dbc
00000170: ce1a 4c3d d9f3 643e 9d69 423e 4738 43bc
00000180: 4c89 413e d0fa f33c 2c66 373d 84fa e63d
00000190: 46b1 083e eef8 a43b b69d a2bd ad3a 4abd
000001a0: 0004 a33d b252 99bd 7cb7 13be 5109 f8bd
000001b0: 0963 22be 3783 25be bf06 1a3e ffaa a5bd
000001c0: 9f16 813d d807 013d 5b00 7abd 03e0 43ba
000001d0: b29d 27bc c387 1c3e bece 2a3d b0a1 f73d
000001e0: 41d7 a1bd 8e26 f83d 30a7 cd3d 5281 14be
000001f0: 0ed8 e9bc 05ad b0bb 0c54 06bd 6d2f 6f3d
00000200: 132e c7bd a6fb 813c d364 883d 87b4 18be
00000210: f7c4 8c3d e901 1a3e 256a 02be 4395 b83e
00000220: b270 e03d b1a7 25bd d931 993e 87d1 cc3d
00000230: b8a2 48be c0d0 b0bd d57a c1be b3c0 efbd
00000240: 304a 483e 2d64 bf3e 8530 d83d b0f7 b03d
00000250: 8267 4bbd ab50 bbbe 2016 ff3c 532f 5dbe
00000260: c3d0 86be a106 74bd 92e3 f43d e738 98bd
00000270: 93f0 473e 95d4 38bd a7b0 28be ec13 ff3d
00000280: 0f7e 7f3c 0245 b8bd 6510 1a3e 0d34 483e
00000290: 7b80 21be 2c2a 9b3e 09bc 39bd 66a4 47be
000002a0: ff64 133e 9dde 12be d26e 8ebe c6f3 cd3c
000002b0: 09f1 253e 650e 67bc 4a28 c2bd e721 0a3e
000002c0: ae78 83bd 35ae a93c 05b3 d3bc bb92 0fbe
000002d0: d388 b1be d40d 06be 031a 87bd af59 723d
000002e0: 60c4 343e 067e 523e b5a7 52bd 2192 093d
000002f0: e2b0 b63d a698 ce3d 8248 003d d679 363e
00000300: 69af 2c3e 5bb8 f2bb f57f 563e f948 0a3e
00000310: 05d3 cc3d 8ed6 e13d 6d86 cabd 292e 923d
00000320: 3abc 913a 627a dc3d cbe3 16bc 6e8b 2e3e
00000330: 9196 103e b5c6 4c3e 3943 e9bd 626f a63d
00000340: ad85 54bc de88 a5bd 3b3c f1bd 3abf 143e
00000350: f423 16be 42b2 50bd a7eb dabd 50c9 09be
00000360: eb0e 19be ca16 8b3d 8f65 213d c06d 61bd
00000370: 9884 c73d 83e8 313c a059 0c3e 5e4e 21be
00000380: b292 f9bd ebe6 a2bd 740a 153d e249 bebc
00000390: 4a2c 91bd 1325 dcbd 38c7 2ebe 11e7 913c
000003a0: 7b5d d5bd 2bad 20be 13c2 86bd 9228 9fbd
000003b0: 9150 4b3e 8742 a43d 7bfa 98bd 7022 80bd
000003c0: 634a d2bb 17f6 12bd 934e e43d 90c4 6a3d
000003d0: 59c3 0c3e a474 a1bd 818e 833d 8139 c4bd
000003e0: a431 d93d 5bf1 9cbc 093c 063e eb60 243c
000003f0: 99a1 25be b483 f4bd 1e3b ab3d bba5 733d
0.020956274 -0.10422488 0.1045517 0.12662336 0.02900287 -0.1694047 -0.043595653 0.040429752
-0.17859396 0.23587579 0.04701889 -0.19504076 0.15291508 -0.10327327 0.07508209 0.18706113
-0.06531781 -0.088854365 0.16559683 -0.084040284 -0.06034715 -0.08468399 -0.050916247 -0.024979232
0.16453846 -0.095787026 -0.13365354 -0.2859339 -0.108778454 0.03935807 0.004770694 -0.18926233
-0.044471376 0.00037366978 -0.11243005 0.021055529 -0.09049512 0.009302421 -0.19986707 0.07459865
0.19183058 0.043135628 0.037109613 0.1754478 0.12998302 -0.10512269 0.093752526 -0.062254008
0.10216114 0.03566546 -0.053109907 -0.030280558 0.19723113 0.2437757 -0.062454015 -0.042619806
0.19107452 0.06454067 0.18110305 0.1498446 -0.06764606 -0.089463755 -0.13619787 -0.0849833
0.1376135 0.19631146 0.13798164 0.035710953 -0.22823454 -0.05904577 -0.2612494 -0.27336583
0.19831185 0.17898376 -0.0942034 0.10745005 0.15665817 0.08219434 -0.14169778 -0.056117296
-0.27657303 -0.12898323 -0.1743868 -0.017735284 0.12919575 -0.014096082 -0.01897384 -0.062579155
-0.16222523 -0.11782886 -0.08079122 -0.00958643 0.04983025 0.22358645 0.18985601 -0.011915273
0.18900031 0.029782683 0.044775173 0.11278251 0.13348874 0.0050345575 -0.07940237 -0.049372364
0.07959747 -0.07486476 -0.14425462 -0.12111152 -0.15858091 -0.16163336 0.15041636 -0.080892555
0.06303143 0.03150162 -0.061035495 -0.000747204 -0.010230469 0.15286164 0.04170107 0.12091386
-0.079023845 0.12116729 0.10041654 -0.14502457 -0.028545406 -0.0053917193 -0.032794997 0.058394838
-0.09725585 0.015867066 0.06659856 -0.14912616 0.068735056 0.15039791 -0.12735803 0.36051378
0.10958995 -0.040443126 0.29920843 0.10000902 -0.19593322 -0.08633566 -0.37789026 -0.11706676
0.1955955 0.37381116 0.10556129 0.08640993 -0.04965926 -0.36584982 0.03113848 -0.21600084
-0.26331148 -0.059576634 0.11957468 -0.07432728 0.19525366 -0.04512461 -0.16473638 0.12454972
0.01559402 -0.08997537 0.15045317 0.19551106 -0.15771668 0.30305612 -0.04534534 -0.19496307
0.14393996 -0.14342733 -0.27818924 0.025140654 0.16205229 -0.014102553 -0.09480341 0.13489495
-0.06419502 0.020712951 -0.0258422 -0.14020817 -0.346747 -0.13091213 -0.06596758 0.05916756
0.17653036 0.20555887 -0.05142947 0.033586625 0.089204565 0.10087709 0.03131915 0.17819914
0.16863789 -0.007407231 0.20947249 0.135044 0.10001186 0.11027251 -0.09888921 0.071377106
0.0011118718 0.1076553 -0.0092095835 0.17045376 0.14119937 0.19997676 -0.11389775 0.08126713
-0.012971324 -0.08082746 -0.11779066 0.14526072 -0.14662153 -0.05095125 -0.10689478 -0.13455701
-0.14947097 0.06791456 0.039403494 -0.055036306 0.09742087 0.010858658 0.13706064 -0.15752551
-0.12186183 -0.079542 0.036386922 -0.02322859 -0.070885256 -0.10749259 -0.17068183 0.017810376
-0.104182206 -0.15691058 -0.065799855 -0.0777141 0.19854952 0.080205016 -0.0746965 -0.062565684
-0.006417559 -0.03587922 0.11147799 0.057316363 0.13746394 -0.078835756 0.06423665 -0.095812805
0.10605171 -0.019158056 0.13108839 0.010032873 -0.16174926 -0.11939183 0.08360885 0.059484225

encoder.encoder.0.0.bias f4 [64]
00000000: 2fea 7ebd c5df 22bd 3760 023e b73f c23d
00000010: e2bd e03d 6461 a63d ca92 f4bd dfac ffbd
00000020: 71a5 1c3e 6a66 fb3d cabb 34bd ad70 123c
00000030: 5a43 d73d b57b 4a3d c4fd c03b e8c2 50bd
00000040: e47e ae3c edf9 333d 3c95 c4bd f4e0 1a3e
00000050: 1b5f 09be 8f8f db3d 07d2 ae3d b3dc 193e
00000060: fb9c e8bd 56f3 f1bd 1217 d6bd 3b5a 13be
00000070: b4a3 dfbd 982a aa3d fc08 f5bd 385d 223e
00000080: e356 5c3a 7e45 1a3e a9d0 adbc 6e4f 6c3d
00000090: e41d 8b3d 1346 79bd 6bd6 0abe 13e3 a63d
000000a0: 70c6 1abe 7ce5 8bbd e096 b43c 2ebe dd3d
000000b0: fba1 8bbd 7e35 ba3d b521 00be b460 03be
000000c0: 97f0 13be 8f9a 09be bfb8 04be 5741 1dbd
000000d0: de6a 9f3c 2a92 fcbd 3e55 733d 24de 163e
000000e0: 8102 b8bc b559 203c 17ed fa3d 2152 21bd
000000f0: 857d dcbc 6d40 4f3d 2648 1dbe e237 e0bd
-0.062235054 -0.039764185 0.12732016 0.09484809 0.10973717 0.081240445 -0.1194206 -0.124841444
0.15297486 0.12275393 -0.044124402 0.008937997 0.10510893 0.049434382 0.005889626 -0.050967127
0.02130074 0.04393952 -0.09598777 0.15124875 -0.13415186 0.10720741 0.08536153 0.15025596
-0.11358067 -0.11813991 -0.10453619 -0.14389889 -0.10919896 0.08308905 -0.11964604 0.15855873
0.0008405281 0.15065572 -0.021217661 0.057692938 0.067928106 -0.060857844 -0.13558356 0.0814878
-0.1511476 -0.0683088 0.022044599 0.108272895 -0.06818005 0.09092234 -0.12512858 -0.12829858
-0.14447246 -0.13437866 -0.129611 -0.03839239 0.019460138 -0.12332566 0.059407465 0.14733177
-0.022462131 0.009787013 0.122522525 -0.039384965 -0.026915321 0.05059855 -0.15359554 -0.10948159

encoder.encoder.0.1.weight f4 [64]
00000000: 2441 a13e dc55 043f f09e 003f ccdd 4a3e
00000010: ffae 053e e992 4e3f 567c ea3e 7ca9 1b3f
00000020: ea14 ea3e 1a4a 8f3d 90db 4b3f 9739 833e
00000030: 54f3 563e 6b48 b73e 17b3 443e 6d85 173f
00000040: e823 ad3e f6c9 5a3e c283 133f e8c4 343f
00000050: 5113 1a3e 780d 613f 5e00 bd3e bd6b 953e
00000060: 8e8f 2c3d 3b39 913e b6c6 4b3e 34bc ee3e
00000070: c8c2 6f3f 74f7 be3e 7227 123e e0a5 fe3e
00000080: 7afc 1d3f aaca dd3e e6ea 223f 40b6 b53b
00000090: e69b aa3e 10bb 323f 43e9 f13e 562c 143f
000000a0: 5d68 f53e 260a fb3e 272e 553e d09b ae3e
000000b0: 8baa f53e e134 3d3e c598 513f 1684 093e
000000c0: 7872 373f 8ed5 393e e143 29ba 5d6a 383e
000000d0: a14c 053e 496c 013f 1dfa 0e3f f61d 243f
000000e0: 9593 b43e a6a5 463f 5a41 aa3e 298e e53e
000000f0: 8145 4d3f bca3 813e 40ad f43e 0a0a 0f3f
0.3149501 0.5169351 0.5024252 0.19811171 0.13055037 0.8069292 0.45797986 0.6080549
0.4571908 0.069965556 0.796319 0.25629875 0.2099126 0.35797438 0.19208942 0.59187967
0.33816457 0.21366104 0.5762292 0.70612955 0.15046431 0.87911177 0.36914343 0.2918376
0.042129092 0.28363976 0.19900021 0.46627963 0.9365659 0.37298167 0.1427286 0.49735928
0.61713374 0.43318683 0.63639677 0.0055454075 0.33322066 0.69816685 0.47248277 0.5788015
0.47931185 0.4903118 0.20818387 0.3410325 0.47981676 0.18477203 0.8187373 0.13429293
0.7165904 0.18147871 -0.0006456953 0.18009324 0.13017513 0.50555855 0.5585039 0.64108217
0.35268846 0.7759651 0.33252984 0.44835022 0.8018418 0.25320232 0.4778843 0.55874693

encoder.encoder.0.1.bias f4 [64]
00000000: d1f4 863d e5a7 02bc d47c 993d 5def 333d
00000010: 0f68 f6bc 9196 3e3d 8d85 abbb e57a e23c
00000020: c0a9 05be d05f 89bc 57ee 2c3d f913 b2bd
00000030: cb00 56bd f7ca d7bd cfbd 97ba b639 93bd
00000040: 0414 33be 2967 38bd 6e92 01be 0c9d 82be
00000050: 96b6 20bc 2c11 9f3d 80e6 e7bd 57d4 073d
00000060: 881d 19bd 10ab 603d 4839 82bc 91ac bcbd
00000070: 0d7e 513d 5e93 85bd 82d8 e8bc 4f96 99bd
00000080: 3d16 053d cf45 ec3d 4d65 283d 0432 293c
00000090: 7ac4 d2bd b1cc 8dbe 176e debc cc56 f9bd
000000a0: b4d2 d8bd 197d 55be 92c3 63bd 4d1e 833d
000000b0: d499 17be 2d10 b4bc 58ec 8bbd 6e03 4dbd
000000c0: 8d9e e6bd fef8 48ba f042 15bb 20b9 dbba
000000d0: 4216 0cbc daac 7abd 2498 03be cc1d a2bd
000000e0: 4422 923d 6b7a 0bbd 4510 01bb 2106 3ebe
000000f0: 8a86 af3d 912c 38bd 5c40 603c 668d 6cbe
0.06589664 -0.0079745995 0.07494512 0.043929446 -0.030078916 0.04653031 -0.0052344264 0.027646491
-0.13053036 -0.01676932 0.042219486 -0.08695216 -0.05224685 -0.10536759 -0.0011576953 -0.07188742
-0.17488104 -0.045020256 -0.12653515 -0.25510442 -0.009809157 0.07766947 -0.11323261 0.033161487
-0.03738168 0.054850638 -0.015896454 -0.09212602 0.051145602 -0.06522249 -0.028423551 -0.07499372
0.03249191 0.115367524 0.041112233 0.010326866 -0.10291381 -0.2769523 -0.027152104 -0.12174758
-0.105870634 -0.20848502 -0.055606432 0.06402264 -0.14804775 -0.02198037 -0.06832188 -0.0500521
-0.1126071 -0.0007666497 -0.0022775494 -0.0016763546 -0.008550229 -0.0612 -0.12851006 -0.079158396
0.07135442 -0.034052294 -0.0019693535 -0.18557025 0.08570583 -0.044964377 0.0136872195 -0.23100814

encoder.encoder.0.1.running_mean f4 [64]
00000000: 2ffe 19be c372 673d 5c02 b33d 3734 423d
00000010: 8a81 f13d c6da 763d e277 0bbe 7b08 133f
00000020: a64c a6be ad47 6f3e 5256 49be 83c9 20be
00000030: 7ecb da3e e157 fc3c f910 083e b93b 603d
00000040: d1f9 28be baad 5a3f 5937 b1be 69fa 313f
00000050: a5ff e13b 5a38 fb3b 9d49 3fbe ff86 473e
00000060: 5aeb 613d 162f 243e da73 2cbe b1ad f8be
00000070: 1619 5bbe 096e d93e e81a 81be 98a8 423e
00000080: b12e 93bd 83b7 5c3e f639 96bd 6cf2 653b
00000090: 380a 683e 2981 83bb efba a1bc 5983 aebd
000000a0: 7e9d ea3e 35bd 5bbf b8be 5b3c b441 b83e
000000b0: 45d9 68be 3d17 abbd ba28 1abe 3425 6b3e
000000c0: 20f0 b33e d4a6 2cbe 74d2 283e a6f7 9bbe
000000d0: 1a70 7dbe 9030 02bc 8588 26be 2efd 023f
000000e0: 6729 63bc 28bb 54bd 58ac 413c 0822 a3bd
000000f0: 664e 0ebe 5501 48bd 019a 2a3d f739 e3be
-0.1503837 0.05650593 0.087406844 0.047413077 0.11792286 0.060267232 -0.1361995 0.57434815
-0.32480353 0.23367186 -0.19661835 -0.1570187 0.42733377 0.030803623 0.13287725 0.054744456
-0.16501547 0.85421336 -0.3461254 0.6952272 0.0068969303 0.0076666297 -0.18680425 0.1948509
0.05515609 0.16033587 -0.16841069 -0.48570016 -0.21396288 0.42466763 -0.2521584 0.19009626
-0.0718664 0.21554379 -0.07335274 0.0035087122 0.22660148 -0.0040132 -0.019742457 -0.08521146
0.45823282 -0.8583558 0.01341217 0.35987628 -0.22739132 -0.08354042 -0.15054598 0.2296341
0.35144138 -0.16860515 0.16486531 -0.30462378 -0.24749795 -0.0079461485 -0.16263016 0.5116757
-0.013864852 -0.0519363 0.011820875 -0.07965475 -0.13897094 -0.048829395 0.041650776 -0.4438016

encoder.encoder.0.1.running_var f4 [64]
00000000: 186d 2f3e de9c ed3e 8c7d 723e 3eb6 073e
00000010: 639a 183d d130 f83e 5ad5 843d e1ff 0540
00000020: 575b 683f be81 a53d 89d2 ee3e 3862 143e
00000030: cca8 e03e 1a01 b23d b557 f03d 4b07 7a3f
00000040: 319d 183e 2f51 1c40 4f0d 2d3f 6975 9b3f
00000050: 7be4 043e 55e9 0f3f 913f e43e 8153 c23d
00000060: 47d1 963e 761e 1e3f 4236 343d ab1d 5b3f
00000070: 85e7 443f 3df1 f33e f7c3 043e 19e0 0e3e
00000080: 97e1 033f 47e4 8d3e 8598 973e a96e f63c
00000090: 7a31 f83d 7a15 243f ea10 773e 00fa 0a3f
000000a0: 1b4c b63f f1ee 1540 0683 f73c 0fcb c63e
000000b0: 5ee7 bb3e 3029 1c3e d5a0 da3e 4284 0a3f
000000c0: ca29 833f 4107 fc3c b6fd b33e a77e f23e
000000d0: 5130 db3e 54c2 6d3e d4d4 bb3e 7a54 503f
000000e0: a869 623e 31bd 7c3e 5d18 413e dd15 713e
000000f0: 41fd 4a3f 16dc 943d df04 3a3f eecb 103f
0.1713146 0.46408743 0.23680705 0.13253114 0.03725661 0.48474744 0.06486006 2.0937426
0.90764374 0.08081387 0.46645 0.14490592 0.43878782 0.08691616 0.11735479 0.9766738
0.14903714 2.442455 0.6759843 1.2145206 0.12977783 0.5621541 0.44579747 0.09488583
0.2945654 0.6176523 0.043997057 0.85592145 0.7691577 0.47644988 0.1296538 0.13952674
0.515161 0.27713224 0.2960855 0.030082064 0.12118812 0.6409527 0.24127546 0.5428772
1.4241976 2.3427088 0.030213844 0.38826796 0.36699957 0.15250087 0.4270083 0.5410806
1.0247128 0.030765178 0.35154504 0.47362253 0.428103 0.23218662 0.36685812 0.813789
0.22110617 0.24681546 0.1885695 0.23543496 0.79292685 0.072685406 0.7266368 0.5656117

encoder.encoder.1.0.weight f4 [64, 64, 3, 3]
00000000: 714b 193d 7ee6 89bc 6711 a3bc e65b 8dbc
00000010: 6ca7 15bc 9056 eb3c a63f febc 371b d1bc
00000020: 7d11 973c 6f04 b83c 3205 cabc 2cc0 f63b
00000030: 55c4 823b dc78 313b 0c39 05bc 7b9b 053d
00000040: 167b 283d e9fc c3bc 67a6 c5bc 106e 423c
00000050: 52ef d1bc 927e a8bc e4fc 15bd ed99 c13c
00000060: 83d9 043d e42d f2bc 5468 253c fb97 feba
00000070: ca6a aabc e2e3 c8bc 5fe5 82bc 1b3d 833c
00000080: e081 87bc 3cbd cdbc bd63 f43b 49aa 4cba
00000090: 7f83 ba3c 4461 c43c 9e68 b53c 2b4d eeba
000000a0: 9b83 c63c c0f7 d93c 58c3 c6bc cd31 1abc
000000b0: 715b 18bb ec49 01bb f2bc c9bc 9dbc f1bc
000000c0: 148e e73b 0490 9fbc 78af e63c 8cca 3bbd
000000d0: 35e5 313c 1bce dabc dd00 073c 0105 cb3c
000000e0: 6a1e 1dbc d6a4 a63c a4f1 dabc f933 233c
000000f0: 6204 83bc e1de c7bc 86c7 143b 8b42 90bc
00000100: 5719 febc 4ec0 1fbc 52cd c7bc aa5f e33b
00000110: f04c f83b 81f7 8c3c 2466 143d 245a 4d3d
00000120: c7cb 14bd e732 12bd 925c 02bd d01b c03c
00000130: 0268 893c 8bac 99bb 8740 eabc 53f0 02bd
00000140: a437 c5ba ed7e d6bc 8627 ccbc b0cd 07bd
00000150: c648 e3bb 2032 2d3c 963d 723c 7d07 e03a
00000160: ace6 2a3b f1b6 5cbb a48d 1ebd 007a b2bc
00000170: ced1 aebc 8391 8dbc 6157 ff3c be9f 583d
00000180: 1201 0c3d 3764 bf3c 88cf aa3c c768 aa3c
00000190: 02fd 01bd 8ff4 f6bc 898b de3c dc60 123c
000001a0: 43ec 3fbc 4238 8bbb a913 833c 609e 8bbc
000001b0: eab7 483c 866a 673b 4135 c0bb 3dcf 483b
000001c0: 4525 7ebb 2991 233c 98d3 653c 01ac 76bc
000001d0: c9e8 90bc ecb4 a33c f2cb b6bc a8ee be3c
000001e0: f161 c1bc 73a2 febb 20d2 193d 72b2 1dbb
000001f0: f796 bc3b 7707 e3bc ef57 ddba d860 42bc
00000200: bb23 e73c 8b3a d8bc 9552 6bbc a44a 553b
00000210: 1a64 2ebc 138b db3c 63a7 ec3c 6371 f2bb
00000220: c5ba cb3c c0d1 1fbd e6b1 d93c 231c 883c
00000230: 357e b33c 0add 193d 6ad0 083d 2556 b7bc
00000240: 200c 43bc ab81 373c 944f ffbc 95d4 e1bc
00000250: 1c52 de3c da59 26bd cf4a e1bb 9487 13bd
00000260: 5257 283c ea4f aebc b1af 7d3b ee5d 2ebd
00000270: 306b bb3c b4b7 1f3c 14c6 033b dce2 98bb
00000280: ed31 c93c ebcc 1dbc f9f2 45bd 2fa0 1dbb
00000290: e91c d5bc 73b0 9cbc cf71 39bd 5022 b338
000002a0: fb2f 973c 821a e8ba 83c6 65bd b3aa 07bd
000002b0: 11b3 8dbb 3e04 a23b bfae 723c b52b f03c
000002c0: 20b7 973c 4962 123d 488a 1f3d d47e fb3c
000002d0: 9df7 d53c 2984 34bc ad72 cb3c da41 d8ba
000002e0: b2d2 c0bc e57f 763c abd7 f5bc b4ea 55bc
000002f0: bbfb 633c 71ac 0f3c c69c 8ebc a50c f33c
00000300: e0e6 203d aca5 35bd d279 233c 7ad4 de39
00000310: 7752 9cba 2894 64bd 0e14 ecbc 97fb 2dbc
00000320: 5fa9 93bc 36db 89bc 52b9 27bc 2c29 c43c
00000330: 33f5 c3bb 8966 fcba c591 d739 219d edbb
00000340: dc26 8abc c8eb 12bd 97f8 893c 6c5a 603c
00000350: c43c 02bc 79b6 483c 787d 0a3d 19a3 f83c
00000360: 2fcf d6bc 22f7 9f3c 667f c33c cbe2 003d
00000370: 7084 e3bc 4f95 c93c 2ef3 9a3c 3aee 503c
00000380: cec0 fdbc a401 f4bc 1596 07bd 94ac b33c
00000390: 75e4 b53c 55d2 75bb 2043 153c 5301 c03c
000003a0: 0428 dc3c 3af5 acbb 7c2f ddbc 1c01 c53b
000003b0: f5f1 8a3c 4caa d83c 6eed 3fbb 4906 053b
000003c0: 93bd d9b9 4a53 ee3b 9875 b73c 67d3 f6bb
000003d0: 5fe9 17bc c6b1 fa3c 5913 b2bc 85f4 66bb
000003e0: 575d 4e3c 52d7 1f3d de5a 793c a492 72bc
000003f0: b42d 443c 9508 ddbc a94f c6bc 6c94 673b
0.037425462 -0.01683354 -0.019905759 -0.017255735 -0.009134155 0.0287278 -0.03103621 -0.025525672
0.018440956 0.022463052 -0.02466068 0.007530233 0.0039906898 0.0027080094 -0.008131277 0.03261898
0.04113301 -0.023924308 -0.024127198 0.011867061 -0.025626812 -0.020568166 -0.03661813 0.023632968
0.032433998 -0.029562898 0.010095675 -0.0019423956 -0.020802874 -0.024522725 -0.015978513 0.016020348
-0.016541421 -0.025114648 0.007458179 -0.0007807357 0.02276778 0.023972161 0.022144612 -0.0018180957
0.024232676 0.026607394 -0.024263069 -0.0094112875 -0.0023247863 -0.0019727899 -0.024626229 -0.029508883
0.0070664976 -0.019477852 0.028159842 -0.04584746 0.01085787 -0.026709607 0.008239952 0.02478266
-0.009589771 0.020342272 -0.026726551 0.009961122 -0.0159933 -0.02439827 0.0022701933 -0.017609855
-0.031017942 -0.009750439 -0.024389897 0.0069388943 0.007577531 0.017207863 0.03623022 0.050134793
-0.03632715 -0.035693076 -0.031826563 0.023450762 0.016773228 -0.004689758 -0.028595222 -0.031967472
-0.001504649 -0.02618357 -0.02492119 -0.033155143 -0.0069361655 0.010571033 0.014785191 0.0017092075
0.0026077433 -0.0033678378 -0.038709298 -0.02178669 -0.021340277 -0.0172813 0.031169595 0.052886717
0.03418071 0.023363216 0.020850912 0.020801915 -0.031735428 -0.030145911 0.027166145 0.008934226
-0.011714044 -0.00424865 0.016000586 -0.017043293 0.01225088 0.0035311296 -0.0058657234 0.0030641102
-0.0038779539 0.009983339 0.014027499 -0.015055657 -0.017689126 0.019983731 -0.022314046 0.02330716
-0.023606272 -0.0077708303 0.037553906 -0.002406266 0.005755301 -0.02771352 -0.0016887168 -0.01186391
0.02821528 -0.026395103 -0.014362951 0.003254571 -0.010643983 0.026799714 0.02888841 -0.0073987707
0.024869332 -0.039018393 0.026574086 0.01661498 0.021910766 0.037564315 0.033401884 -0.022379944
-0.011904746 0.011200349 -0.031165875 -0.027567187 0.027138762 -0.040613033 -0.006875373 -0.03601797
0.010274725 -0.02127834 0.0038709457 -0.042570047 0.02287826 0.009748388 0.0020107077 -0.0046657156
0.02455994 -0.009631376 -0.04832742 -0.0024051776 -0.026014762 -0.019127106 -0.045274552 8.541776e-05
0.018455496 -0.0017708095 -0.05609752 -0.033121776 -0.004324325 0.0049443534 0.0148121705 0.029317716
0.018519938 0.035738263 0.038950235 0.030700125 0.026119048 -0.011017838 0.024834955 -0.0016499117
-0.023537967 0.015045141 -0.030010065 -0.013056446 0.013914998 0.008769141 -0.01740874 0.029669115
0.03928268 -0.04434745 0.009977775 0.00042501447 -0.0011926432 -0.055805355 -0.028818157 -0.010619066
-0.018025098 -0.01682816 -0.010237055 0.023945414 -0.0059801578 -0.0019256632 0.00041116602 -0.0072513972
-0.016864233 -0.03586939 0.01684217 0.013693433 -0.007949058 0.012250536 0.033811063 0.030351209
-0.02622184 0.019527022 0.02386446 0.031466287 -0.027773112 0.024607329 0.018914785 0.01275211
-0.030975726 -0.029785939 -0.033102114 0.021932878 0.022203663 -0.00375094 0.009110242 0.023438131
0.02687455 -0.0052782567 -0.027000181 0.006012095 0.016961077 0.026448391 -0.0029285806 0.0020297936
-0.0004153071 0.0072731124 0.02239494 -0.0075325253 -0.009271949 0.030602347 -0.021737741 -0.003524096
0.012595496 0.039023705 0.015219418 -0.01480547 0.011973787 -0.026981631 -0.024207907 0.003533627

encoder.encoder.1.0.bias f4 [64]
00000000: 27e9 c5bc 9eac ae3a 6164 bebc 8df8 f43c
00000010: d5ed 373b a632 50bc 3140 c2bc cf04 093d
00000020: f973 b13c e5be aebb 508d 953c 2941 903c
00000030: 448c a13b 5e74 d5bc 5d89 0c3d a45d 953b
00000040: 563d 8a3c af20 81bc d4f8 07bd a334 b4bc
00000050: c72e 9fbc ead8 afbc c1d4 263b 4bd1 adbc
00000060: 1d86 f33c 58fd af3c 8501 9bbc f8a2 003d
00000070: 9df1 dcbc 609b dd39 c0b2 8ebc 340f f3bc
00000080: d734 833c e6eb 003d 8ce1 943c 4839 8fbb
00000090: 6c39 5b3b 39d2 6dba b2c7 513c 41cc c13c
000000a0: f760 773c 3e65 08bd a59e 3a3b d82d 3cbb
000000b0: 5c5b dc3c 8919 cf3c 90ab 643c 32bd 1abc
000000c0: b08b 19bc 945f 7cb9 f1c9 f0bc 259e b0b9
000000d0: ba8d e0bb e6a0 6cbc 25d9 54bb 8407 f0bc
000000e0: fed6 ff3c 36dc c63b 4c9f b53c b392 4bbc
000000f0: 042c 983b 415b 8f3b a0e1 01bd ea15 da3c
-0.024159027 0.001332659 -0.023241224 0.029903674 0.0028065343 -0.012707388 -0.02371225 0.03345185
0.021661745 -0.005332815 0.01825586 0.017609196 0.004930051 -0.026056465 0.034310687 0.004558282
0.01687495 -0.015762655 -0.033196285 -0.021997755 -0.019431485 -0.021465737 0.00254564 -0.021217963
0.029727036 0.021483108 -0.018921623 0.03140542 -0.026970679 0.00042268168 -0.017419219 -0.029670335
0.016016407 0.03147497 0.018173955 -0.004370842 0.0033450974 -0.0009072158 0.012803959 0.023656966
0.015098802 -0.033299677 0.0028475907 -0.0028713848 0.026899032 0.02528073 0.013956919 -0.009444522
-0.009371683 -0.00024068198 -0.029393168 -0.00033687163 -0.0068528326 -0.014442658 -0.003247806 -0.029300459
0.031230446 0.0060687317 0.022170685 -0.012425113 0.004643919 0.004374892 -0.031709313 0.026621778

encoder.encoder.1.1.weight f4 [64]
00000000: 0777 843e 275a 543f b493 273f ba18 973e
00000010: 5db7 be3e 4d64 533e 0780 ee3e 3813 f63e
00000020: 4d96 573f 2964 2f3e 94e0 4d3f 4903 f53e
00000030: 1bf9 e53e 7b39 393f c004 6b3f 9108 dd3e
00000040: b436 303f 92bc e63e 9476 c53e a0f0 193f
00000050: 0759 bd3e f2b5 5e3e 3390 7c3e 31f4 e83e
00000060: 73e5 063f 631a 2c3f 36c5 183f 2b3b aa3e
00000070: a5ca 023f d186 093f 00a9 ee3e 6c55 0b3f
00000080: e549 0f3e f84e a73e 3d8b a73e bdc2 3d3f
00000090: 577b 153f 7204 a83e 2ade 483e cbf5 203e
000000a0: 48c4 413f 0f74 293f 2067 743e 4414 0c3d
000000b0: 46ed 463f 29a8 db3e 6fab d63e 8edb 063f
000000c0: 70b1 b13e 565e fa3e 1100 423f 2d80 e93e
000000d0: e065 153e d79f 6fb9 6cbd cd3e b151 383f
000000e0: db70 fd3e 7bfd c13e 4d4c f93e 403f 2a3f
000000f0: ff8e 3d3e a9e6 083f 8ef9 8d3e 05c4 043f
0.2587206 0.8295006 0.6545975 0.29511052 0.3724927 0.2064373 0.46582052 0.48061538
0.84213716 0.17128052 0.80420804 0.4785407 0.44916615 0.72353333 0.9180412 0.43170598
0.6883347 0.45065743 0.3856703 0.6013279 0.36981985 0.21749094 0.24664383 0.45498803
0.5269386 0.6722776 0.5967592 0.33248267 0.5109046 0.5372134 0.46613312 0.5442722
0.13993032 0.32677436 0.32723418 0.7412527 0.58391327 0.32815892 0.19615999 0.15718763
0.75690126 0.66192716 0.23867464 0.034199014 0.777058 0.42901734 0.41927668 0.52678764
0.34705687 0.48900098 0.7578135 0.45605603 0.14589643 -0.00022852361 0.4018358 0.7199965
0.49500164 0.37888703 0.48691025 0.6650276 0.1851158 0.5347696 0.27729458 0.518616

encoder.encoder.1.1.bias f4 [64]
00000000: d5d9 77bd 7368 07be b944 91be 21aa 63be
00000010: c158 75bd 75a4 d0bd 9720 8abe 906f 69be
00000020: 2fdf be3c 3dd7 3cbd ca48 90be 64c7 92bd
00000030: adbb 26be 6c8b 27be b08a 3abe 0f2e 88be
00000040: 9fd5 1dbe a1c1 e8bd cd86 4cbd 9891 81be
00000050: 7e19 4cbe 69a9 3ebd f6e8 cabc 92b6 4fbe
00000060: cebc 01be 6400 67be 1048 48be ac4d 1cbe
00000070: 8fd3 1ebe dce6 65be df67 a0bd ade9 a1be
00000080: 3e65 91bd cd48 30be 60a0 d6bd 2005 d6bd
00000090: 5a89 4bbe 04d1 d8bc 7925 b5bd 34bb 4abd
000000a0: d5ce 30be 9ecc 85bd 049b b0bc 1584 dbbb
000000b0: 24df 36be 7a42 52be aff3 dabd e45b 79be
000000c0: 5d97 e4bd 3332 41bd e545 e4bd 6ab2 17be
000000d0: 89af b63c 5129 94bb b99e 75be 67e1 75be
000000e0: 1196 d0bd 6115 92be 36ba 8abe a90a 95bd
000000f0: 456c 35be 2eb2 51bd 7d69 4bbe c959 80be
-0.060510475 -0.13223438 -0.28372744 -0.22232868 -0.059899095 -0.10187618 -0.2697799 -0.22796464
0.023299782 -0.046103705 -0.28180534 -0.07166937 -0.1628253 -0.16361779 -0.18216968 -0.2659764
-0.15413521 -0.11365057 -0.049933244 -0.25306392 -0.199316 -0.04654828 -0.024769288 -0.20284489
-0.1266968 -0.22558743 -0.1955874 -0.15264004 -0.1551039 -0.22451347 -0.07832312 -0.31623593
-0.070993885 -0.17215271 -0.10479808 -0.10450196 -0.19876614 -0.026466854 -0.08845038 -0.049494937
-0.172664 -0.06533168 -0.021558292 -0.006699095 -0.17858559 -0.20533171 -0.1069101 -0.2435146
-0.11161683 -0.047167014 -0.11146144 -0.14814153 0.022300499 -0.004521527 -0.23986329 -0.24011765
-0.10184873 -0.28531936 -0.27095193 -0.07277424 -0.17717083 -0.051195316 -0.1986446 -0.250685

encoder.encoder.1.1.running_mean f4 [64]
00000000: 99d2 a1be a2fa 96bf f9f8 50bf e794 073f
00000010: 4c35 1fbf cb28 41bc 7030 023f b7a1 9fbd
00000020: 0b05 43bf 6d4c 5cbd d612 95bf 6431 05bf
00000030: 2e46 00bf 2802 b6bf 05da 82bf aa96 7cbe
00000040: a5d6 47bf f905 89be 3c38 1cbf a518 45bf
00000050: f0bf 433f bd8d 99be 0a23 bfbe 1f9c 03bd
00000060: 3152 05bf e50e 74bf a75e 6fbf a579 36bf
00000070: e6fa afbe 98a1 0bbf 2170 eebe c273 b93d
00000080: e0f5 1e3e 8c9c 4ebd f2c3 07be 1da3 54bf
00000090: 6d25 43bf 698b 1bbe 5ec7 a7bd 6b41 63be
000000a0: d347 a8bf bc98 41bf b80e 59be 3eb5 12be
000000b0: 2bcc 6abf 18da 2b3e 1e56 7abf 380b 85bd
000000c0: 7579 04bf fa51 13bf 0a76 0ebf 91f5 eebe
000000d0: 7886 eabd 0620 3dbe 426f ea3e ad95 64bf
000000e0: 8f61 d3be 9b4f 233f e814 e2be 1eb4 9abf
000000f0: 75c8 b73d 3228 0ebf f1f8 9a3f 59e2 263f
-0.31605986 -1.1795237 -0.816299 0.5296158 -0.621907 -0.011789511 0.5085516 -0.077945165
-0.7617957 -0.053783823 -1.1646373 -0.5202849 -0.50107086 -1.4219408 -1.0222784 -0.24666849
-0.78061897 -0.2676237 -0.61023307 -0.7699073 0.7646475 -0.2999095 -0.3733142 -0.03213131
-0.5207854 -0.9533523 -0.93503803 -0.71279365 -0.34371108 -0.5454345 -0.46569923 0.09055282
0.15523481 -0.050442263 -0.13258341 -0.8306139 -0.7622898 -0.151899 -0.08192323 -0.22192924
-1.3146919 -0.7562368 -0.21197021 -0.14326951 -0.91717786 0.16782415 -0.97787654 -0.064962804
-0.5174783 -0.5754696 -0.55648863 -0.46671727 -0.11451429 -0.18469247 0.45788008 -0.8929089
-0.4128537 0.63793343 -0.44156575 -1.2086217 0.08973781 -0.55530083 1.2107221 0.6518913

encoder.encoder.1.1.running_var f4 [64]
00000000: a507 163e 2d21 b83f 09dd 2a3f 0542 893e
00000010: 6125 d83e 7afe c23d 5691 d13e 7794 b53e
00000020: be71 a23f 3c72 593d cf88 9f3f c8e6 6d3f
00000030: ef57 0c3f b5aa be3f 860a b03f a19a 143f
00000040: 0ad7 5e3f 40f1 be3e c25d 5b3f 9b99 2a3f
00000050: 32d9 143f 656d b63d 0ed1 113e d9d0 bf3e
00000060: b6ad f83e 4c9e 503f b72a 913f c3e9 a93e
00000070: f4e1 733f cd85 163f 6bde c03e f745 6a3f
00000080: f5fc 4f3d 4c8d 733e 5a67 333e c70d 583f
00000090: 1989 323f fd19 473e 65a5 343e 60ec 9b3d
000000a0: 792e 9a3f df60 453f f4cf a23d 1752 5d3d
000000b0: 53d9 3140 6d1d be3e 2305 893f 162d 343f
000000c0: 23c5 853e e0b0 dc3e 69da 3c3f facc 443f
000000d0: 6a4e 853d c723 093d 8793 fa3e f784 553f
000000e0: cf09 df3e d769 063f 3842 103f 0632 b43f
000000f0: 54d7 e13d e24d d33e c125 5b3f c4a2 153f
0.14651354 1.4385124 0.6674352 0.2680818 0.42216018 0.09521194 0.40931195 0.35464832
1.2690961 0.053087458 1.2463626 0.9293027 0.54821676 1.4895846 1.3753211 0.58048445
0.87046874 0.37293434 0.8568994 0.66640633 0.58143914 0.08907584 0.14239904 0.37464026
0.4857003 0.8149154 1.134116 0.3318616 0.9526665 0.58797914 0.3766969 0.9151301
0.050778348 0.23784369 0.17519894 0.8439602 0.69740444 0.19443507 0.17641218 0.07613444
1.2045432 0.7710094 0.0794982 0.054033365 2.7788894 0.37131825 1.0704693 0.70381296
0.26126966 0.43103695 0.7377077 0.7687527 0.06509097 0.033481386 0.4894068 0.83406013
0.4356217 0.5250525 0.5635104 1.4077766 0.11027399 0.41270357 0.8560448 0.58451486

encoder.encoder.2.0.weight f4 [64, 64, 3, 3]
00000000: 9513 0fbd ebc9 dfbc 76a3 c6bc c085 f4ba
00000010: 4471 78bb 8630 9fbc 44ee 513c 32c1 97bc
00000020: c877 013c 40d6 51bd 54de 1fbc 7ec9 37bc
00000030: 9a35 96bd 9557 8a3c f29e 223d ca49 ab3d
00000040: 3a14 8a3d 28c2 d4bc 9013 0c3c 18cc 953b
00000050: b76e b9bb b11e 743d d86c b83c 4810 7abc
00000060: ef0c c93c 159f 95bc 750f 8b3d 1783 ae3b
00000070: b215 8fbc aa22 233b 78c4 53bd 5e96 75bd
00000080: e860 5c3b 6bbc 91bc c5a9 7cbb dbfb cfbc
00000090: cbc2 16bd c74f 51bd f8db a6bc 3a55 00bd
000000a0: 1c3c 2abd 982f 7e3b c3a6 7ebd 866c a13c
000000b0: 25a5 46bd 0d8f 40bc 55d7 433c a846 65bc
000000c0: ee9d 28bd 6381 3bbc 2e1d a63c b173 b03c
000000d0: 296f 2ebc e819 28bb 6225 f4bc 0171 013c
000000e0: 2da1 d3bc 6cd0 183c 52d9 67bd a40e 57bd
000000f0: 5c5e 49bd 93bd 6fbd 3778 97bc 89b9 983b
00000100: 4d86 f73b e634 b93a a51d 0a3c 943a 533d
00000110: 6dc4 063d d5a3 78bd ab32 e5bc d5ea 313c
00000120: 0b21 04ba 9ea6 533d b8f5 323b c9a7 e1bc
00000130: dc77 dfbb 9955 ef3c bf1d bb3b 2d35 47bb
00000140: a369 cc3c 50c3 303d 4c15 28bb af43 e03c
00000150: f86b 383c 63ac 383c 923c 16bd d920 23bc
00000160: 7975 9d3c 1558 53bc a1e9 35bd 682d c4bb
00000170: d550 cfbc c915 363d 8507 77bd 647c 0ebd
00000180: 0d76 79bc c8a4 94bd 35eb 9dbd 13a2 8e3c
00000190: f006 0abd 0e02 0b3c 4f64 30bd 4dc4 91bd
000001a0: 49f8 62bd f2f9 babc ce59 a3bd 9a26 12bd
000001b0: a707 d43c 3682 073d 908a 4ebd d15b 473b
000001c0: 19cf 243c 9c06 dbbc d8e3 a8bc 3c74 4abd
000001d0: b85e 83bd fd86 9fbd 2496 6abc 3c7a bb3b
000001e0: 2b67 4cbd d2e9 143d 2453 073d 15ad dcbc
000001f0: e709 4a3d 2c77 523c a1bb 393c 8838 143d
00000200: b196 59bc 950c 043d 046d c33d 19a7 203e
00000210: b7d1 04be a211 52bd 8054 00be 7748 e73a
00000220: 11f4 853b 3e94 10bd c56f 42bd 481c 02bd
00000230: b285 13bd 4d3d 1ebd 3598 0ebc 22a8 18bd
00000240: 10cb 83bd c0aa e43c 0e09 e23b 8c64 bcbc
00000250: 8863 6c3c 5bb2 ddbc 12b3 893c e87c d939
00000260: 5a9c ef3c 5906 433d 85a6 2fbc 6f18 0dbc
00000270: b883 7a3d 55db 27bc 485f 06bd b7cf 89bb
00000280: cf62 1ebd ad93 983c 3b8b cd3c e2d0 ed3c
00000290: aaa6 dc3c f259 0bbc b9e1 b43c ff88 033d
000002a0: 5138 77bc d46d cdbc 80a8 043d 88d6 11bd
000002b0: 84c7 1e3c 9c19 0e3d e43c 763d eab5 b53d
000002c0: aac5 373d ad43 22be b8e1 c8bd ede6 1bbd
000002d0: eb9c 113e 02c0 d03d a3ba 7c3c 2dcd 99bd
000002e0: 6d6c 9ebd e39c 43bc fc80 5dbd 5409 04bd
000002f0: 1592 983a 073e ea3b 331e 8e3c 04ef 033c
00000300: 54a2 743b 00d7 afbb 03b5 8a3b ea3c 38bd
00000310: 7f0d 1d3d 2e96 3e3b 2e1e 14bd 9c31 863c
00000320: f8e5 8e3c b217 093d 4e81 21bb 0fc7 e0bc
00000330: 268c 1fbd 0e7e b1bc 643b 2bbd 6488 b9bc
00000340: 71e9 8fbd 3499 58bd 8223 0abd 3ff2 3bbd
00000350: 217a d6bc 523f 01bc 545a 483d 775c bc3c
00000360: cfc0 9b3d a81f 943d ffb6 933d 081c c63c
00000370: 4fd6 82bd 64be 8cbc 8fdf 08bd 38f7 58bc
00000380: 59b1 e1bc 1e36 bfbd 66cd 6dbd 3035 adbc
00000390: e585 95bc 2f96 deb9 3cf5 b9bc c5e3 92bd
000003a0: 5ced 07bd 9e72 963b 79a5 1c3d 2bba 15bc
000003b0: e8b0 13bc 1a1a bbbc c22d a33c 0d57 9dbc
000003c0: 8c4c 88bd 25a1 a0bd 8a9c dc3c a8a7 7bbc
000003d0: 7418 cabc 00e2 783a 9c0b 453d 7751 f93c
000003e0: bc20 3ebc 3303 903c bf8e 1d3c 0fa2 8e3c
000003f0: e82d 31bc 160d f83b 39e7 29bc a0c0 c03c
-0.034930784 -0.027317962 -0.024247866 -0.0018655583 -0.0037909308 -0.019432317 0.012813155 -0.01852474
0.007902093 -0.051229715 -0.009757597 -0.011217473 -0.073344424 0.016887465 0.039702363 0.083636835
0.06742139 -0.025971487 0.008549586 0.004571449 -0.00565895 0.059599582 0.022512838 -0.015262671
0.0245423 -0.018264333 0.067900576 0.0053256857 -0.0174664 0.0024892488 -0.05170104 -0.059957854
0.0033627097 -0.01779004 -0.003855334 -0.025388649 -0.036806863 -0.051101472 -0.020368561 -0.03133128
-0.04156123 0.0038785692 -0.062170755 0.019705068 -0.048497338 -0.011752856 0.011953195 -0.013993897
-0.04116624 -0.011444422 0.020277586 0.021539541 -0.01064662 -0.0025650207 -0.029802982 0.007900477
-0.02583369 0.009327035 -0.056603737 -0.052504197 -0.049162254 -0.0585304 -0.01848994 0.0046607894
0.0075538517 0.0014130145 0.008429919 0.051569536 0.03290217 -0.060703117 -0.027978262 0.010859211
-0.0005040324 0.05167257 0.0027307104 -0.027545827 -0.0068197083 0.02921562 0.005710333 -0.0030396685
0.024952715 0.043155015 -0.002564746 0.027376024 0.0112562105 0.011271569 -0.036678858 -0.009956562
0.019221054 -0.012899418 -0.04441226 -0.005986858 -0.025307098 0.04445437 -0.060309906 -0.034786597
-0.015225899 -0.07257992 -0.07710878 0.017411267 -0.033698022 0.008484377 -0.04306441 -0.071175195
-0.055412564 -0.022824261 -0.07976113 -0.035681345 0.025882555 0.033083163 -0.050425112 0.0030419717
0.010059142 -0.02673655 -0.020616457 -0.049427256 -0.064145505 -0.07789419 -0.014318023 0.0057213586
-0.049903076 0.0363558 0.033038273 -0.026938 0.04932585 0.012845796 0.011336238 0.036186725
-0.013280557 0.03223856 0.095422775 0.15688743 -0.12970625 -0.051286347 -0.12532234 0.0017645498
0.004087933 -0.035297625 -0.047469873 -0.031765252 -0.036016174 -0.03863268 -0.008703281 -0.03726972
-0.064352155 0.027913451 0.006898052 -0.022997163 0.014428027 -0.027062586 0.01680902 0.00041482528
0.029249359 0.047613475 -0.010720854 -0.008611782 0.061160773 -0.010245164 -0.03280571 -0.0042056697
-0.03866845 0.018625105 0.025090804 0.029030267 0.02693494 -0.008505331 0.02208029 0.03211307
-0.0150891105 -0.025076784 0.032387257 -0.035604984 0.009691123 0.03469239 0.060116664 0.08872588
0.04486624 -0.15846129 -0.098086774 -0.038062025 0.14220016 0.101928726 0.015425357 -0.07509837
-0.07735524 -0.01193926 -0.054078087 -0.03223546 0.0011640216 0.0071485075 0.017348384 0.008052591
0.00373282 -0.005366206 0.004233004 -0.044979967 0.03834295 0.0029081213 -0.036161594 0.016381077
0.017443642 0.033469863 -0.0024643722 -0.027438669 -0.038952015 -0.021666553 -0.041804686 -0.022648044
-0.07026947 -0.05288048 -0.03372527 -0.04588532 -0.026181282 -0.007888632 0.04891427 0.02299331
0.07605135 0.072326005 0.07212638 0.024183288 -0.06388532 -0.01718063 -0.033416327 -0.013242535
-0.027550386 -0.09336494 -0.05805721 -0.021143526 -0.018252322 -0.00042455035 -0.022699945 -0.0717235
-0.033185348 0.0045913 0.038243745 -0.009138624 -0.009014346 -0.022839595 0.01991928 -0.019206548
-0.06655225 -0.07843236 0.026930112 -0.015359797 -0.024669863 0.0009494126 0.048106775 0.030434353
-0.011604484 0.01757965 0.009616553 0.01741126 -0.010814168 0.0075699193 -0.010370069 0.02352935

encoder.encoder.2.0.bias f4 [64]
00000000: 4502 d3bc 90fa e33c 0d9a 0d3d d8e4 5bbc
00000010: ceaf 6e3c 1f5d 1bbc 7a1a c83c 056c d63c
00000020: 753a 0c3d c73e edbc 6249 78bc a587 7fbb
00000030: d72e 8f3c 97ff ebbb e88d 0b3d de1a ba3c
00000040: b1e9 b1bc 64c1 ef3b 5152 8f3c 46c3 323c
00000050: 45b9 66bc 2499 cf3c 62ba 04bd 4c3d 16bc
00000060: 9761 e1bc 322b 27bb 49ec 813c 13e6 ddbc
00000070: a1b1 95bc 8fe2 a13c 38e5 8cbc 3932 c0bc
00000080: 126c 89bc c3fc 0b3d 79ce ff3b 3026 9b3c
00000090: fb0d 163c 010e 0e3d b6e0 513c 0ac1 043d
000000a0: 6113 d4bb a74a ce3b 81b9 9d3a 0db8 a43c
000000b0: f3c3 0a3d 08a5 b13b 36d4 763c cffa 923a
000000c0: 6016 ac3b 0d41 fdbc c7c4 5e3c 0e17 953c
000000d0: 65b4 a5bc f977 d13b 9782 003d 392d 0fbd
000000e0: 7759 cf3c e602 803c 162c a43c 1a42 08bc
000000f0: 3786 7abb a6cd 02bb 1874 90bc 0814 ae3c
-0.025757918 0.027829438 0.034570742 -0.01342126 0.014568282 -0.009482651 0.024426688 0.026174555
0.034235436 -0.028960599 -0.015154215 -0.0038990763 0.01747839 -0.0072020995 0.03407088 0.02271789
-0.021717878 0.007316755 0.017495306 0.010910815 -0.014082258 0.025341578 -0.03240431 -0.009169888
-0.027512355 -0.0025507924 0.01585974 -0.027087247 -0.018273177 0.019761352 -0.017199144 -0.023461448
-0.016775165 0.0341766 0.007806596 0.018939108 0.009158607 0.034681324 0.012809923 0.03241066
-0.0064720367 0.0062955203 0.0012033434 0.020107294 0.033878278 0.0054212846 0.0150652435 0.0011213663
0.0052516907 -0.030914808 0.01359672 0.01819947 -0.02022762 0.0063924757 0.03137454 -0.034955237
0.025311215 0.015626382 0.020040553 -0.008316541 -0.003822697 -0.0019959002 -0.017633483 0.021249786

encoder.encoder.2.1.weight f4 [64]
00000000: 11de 1b3f f846 333f f2b8 c93e ec20 893e
00000010: 7125 c43e 9664 083f 74a0 dd3e af2b f53e
00000020: 770a 133f 8a25 0c3f 5cc6 0a3f b17c 313f
00000030: 8dd0 d73e 4e9f 8d3e 4a4f 253f c884 073f
00000040: 6fb7 2f3f 1cac 163f 0d21 c93e 7245 053f
00000050: 603f 2f3e e47b 3f3e 33f0 c93e 3030 063f
00000060: 7597 cd3e 2f2c 093f b649 2c3f d530 623e
00000070: 6cf3 e73e 2c91 b83e b333 043f 7d79 233f
00000080: da25 a73e 340f 053e 37c8 133f 3e63 0a3f
00000090: 086a ac3e 6c89 ee3e 3c20 083f 8e70 1e3f
000000a0: 782b 9d3e 4428 0f3f db26 1c3f 01ee e53e
000000b0: a632 0d3f 9aac d73e 47c6 fe3e 8b77 113f
000000c0: 637a 4a3e 9b1a e03e 32a9 e43e 400a 013f
000000d0: 0335 d23e 3d11 653e 142d 293f 7b55 ba3e
000000e0: 52b9 ae3e 066e d73e ed45 103f c77f db3e
000000f0: 54b5 8f3e 7d46 8b3e be96 a03e 720e 0d3f
0.6088572 0.70030165 0.39398915 0.2678293 0.38309816 0.5327848 0.4328648 0.4788489
0.57437843 0.5474478 0.5420892 0.6933089 0.421513 0.27660602 0.6457411 0.52936983
0.6863927 0.5885637 0.39283028 0.5205909 0.1711402 0.18699604 0.3944107 0.5241728
0.40154615 0.53583044 0.67299974 0.2208894 0.45302904 0.36048257 0.51641387 0.6385725
0.32646066 0.12994081 0.5772738 0.5405768 0.33674645 0.4658922 0.53174186 0.61890495
0.30697227 0.55920815 0.6099679 0.44908145 0.5515541 0.42123872 0.4976065 0.56823033
0.1977325 0.43770298 0.44660336 0.50406265 0.4105607 0.22369857 0.6608441 0.3639334
0.34125763 0.4207613 0.563567 0.42870924 0.2806803 0.27202216 0.31365007 0.55100167

encoder.encoder.2.1.bias f4 [64]
00000000: 54dd b1be e0d0 8cbe 477f 8dbe 77ec c1bd
00000010: c053 2bbe ea8e 57be c779 48be 9c2f 92be
00000020: e522 9dbe 6e00 7cbe 27dc 7cbe 5b8b e9be
00000030: f982 92be 941b b6bd cc9a 89be 583b bdbe
00000040: d7e6 8fbe 0253 61be e226 59be 1017 2fbe
00000050: 2482 9bbd 92c0 02be 8af1 22be e8a1 07bf
00000060: fd7f a4be 096c 78be 9021 8fbe 2f09 87bd
00000070: ab2c 59be 2c65 27be b8d3 87be 0ca7 d4be
00000080: 6579 41be 0fb4 a23c 03f6 a8be d833 a3be
00000090: 2a99 c6bd 59f4 5cbe 8b56 97be 5bfb bebe
000000a0: 1b29 82be b38d e4be 8d48 49be 8371 87be
000000b0: e95c e1be 4fbe 26be 000d 41be 26b0 64be
000000c0: 75d6 fabb e2e0 babc 9ed5 afbe 0bb3 a6be
000000d0: 53ad 52bd 71e7 35bd 4fa1 9bbe 0d19 44be
000000e0: ee66 71be f04c 2cbe 80ab 94be 5f11 a9be
000000f0: 8fdb 95be a2f7 11be e5b1 44be 2220 03bf
-0.34739172 -0.2750311 -0.27636167 -0.0946893 -0.16731167 -0.21050611 -0.19577704 -0.28551948
-0.30690685 -0.24609539 -0.24693356 -0.45614132 -0.2861555 -0.08891979 -0.26875913 -0.36959338
-0.28105804 -0.22004321 -0.21206239 -0.17098641 -0.07593182 -0.12768772 -0.15912452 -0.52981424
-0.32128897 -0.24259962 -0.27955294 -0.065935485 -0.21208446 -0.16347188 -0.26528716 -0.41533697
-0.18893965 0.01986125 -0.33000192 -0.3187549 -0.096971825 -0.21577586 -0.29558215 -0.37301144
-0.25421986 -0.44639358 -0.19656582 -0.2645379 -0.44016197 -0.16283534 -0.18852615 -0.2233282
-0.00765496 -0.02281231 -0.34342664 -0.32558474 -0.051434826 -0.044410173 -0.30396506 -0.19150181
-0.23574421 -0.16826224 -0.29037094 -0.33021066 -0.29269072 -0.1425462 -0.19208486 -0.51220906

encoder.encoder.2.1.running_mean f4 [64]
00000000: 8d4a 1cbf a495 a9be 7ddb 48be b1f3 efbd
00000010: aceb c83d 1acf 35bf 1b7c 46be 1f7f cabd
00000020: 785c e9be 3c57 73be 3378 acbe fe9c 98be
00000030: 4323 c3be deb3 e0bd 419d 4fbe ce8b 15be
00000040: 7987 dbbe 289e 97be 0dcc 1fbd 8550 55be
00000050: fd00 c1bd 7c6d 063e 82ac 89bb dd97 c6bd
00000060: 777c 03be 015f 1dbf 9550 a5be 3433 24bd
00000070: 6719 28bf d2e0 babe 0792 1abf fc25 48be
00000080: 7edc 1ebe 8e7e 93bd b756 79be bc49 a2be
00000090: 7191 8dbe b2b5 44be cc8f debe 79c7 09bf
000000a0: 5790 b83e 60be bdbe 9f08 bfbe be63 68bd
000000b0: 62fb 9bbe 0296 f1bd 1d94 adbe 95b2 22be
000000c0: fc2c 42bd aab4 8cbe 50f5 12be 1c80 06be
000000d0: 8a0a 30bf 0c89 483a 7e82 b9be 12de 54bd
000000e0: 669e 88bd ffe0 84be 1aa3 8bbe 97ba c0be
000000f0: 199d 9dbc 209d a5bc fda6 d13b d578 afbe
-0.61051255 -0.3312198 -0.19614978 -0.11716402 0.09810576 -0.71019137 -0.1938328 -0.09887528
-0.4557836 -0.23763746 -0.33685455 -0.29807276 -0.3811284 -0.10971807 -0.20274831 -0.14604113
-0.42876795 -0.2961285 -0.039012957 -0.20831497 -0.094240166 0.13127702 -0.0042014727 -0.09696934
-0.12840448 -0.6147309 -0.32288042 -0.040087894 -0.6566376 -0.3649965 -0.6037907 -0.1954574
-0.15513799 -0.07201873 -0.24349485 -0.3169688 -0.27650025 -0.19209936 -0.43469083 -0.53819996
0.36047623 -0.37059307 -0.37311265 -0.056735747 -0.30465227 -0.1179619 -0.33902064 -0.15888436
-0.04740618 -0.27481586 -0.14351392 -0.13134807 -0.6876608 0.0007649816 -0.3623237 -0.051969595
-0.06670837 -0.25952908 -0.27272874 -0.37642357 -0.019239949 -0.020216525 0.0063980804 -0.34271875

encoder.encoder.2.1.running_var f4 [64]
00000000: 4de3 b43e 1091 033f b813 4f3e 4f05 573d
00000010: 1445 f23d 3f6e 8d3e b2fa 243e c995 713e
00000020: 5603 cf3e ffff 913e 159b 893e 95dd d23e
00000030: f014 563e 77fa 113d 1a80 9d3e 78c6 af3e
00000040: ba19 e03e 575f c53e 6072 b13d d738 6e3e
00000050: 3ae3 ec3c 5fdb 163d e353 de3d a3e6 973e
00000060: 0baf 673e 381e e83e 33f4 923e 5911 2d3d
00000070: 4062 763e 91f8 fc3d d2f4 673e 6c23 a63e
00000080: dfa6 ca3d 8e31 963c 8789 883e 1f43 843e
00000090: 71a5 a73d c23f 773e f547 363e 9309 be3e
000000a0: 8e37 e43d be74 a23e 26b3 c13e f5a0 6a3e
000000b0: 2f54 cd3e 2a8f ca3d ecf1 2a3e 1f6d 813e
000000c0: 317e cf3c e6fb d03d 938c 7c3e 2f75 993e
000000d0: e641 ae3e 7056 c43c 1b2d 093f 9221 c53d
000000e0: 56cc 323e baa8 453e 8dee b73e 0b0e 313e
000000f0: 2605 dc3d 2674 3d3d f95b 063e 3c4a c03e
0.35329667 0.5139322 0.20222366 0.052495297 0.11829582 0.27623174 0.16111258 0.23592295
0.40432233 0.28515622 0.2687613 0.4118468 0.20906425 0.035639253 0.30761796 0.34331107
0.43769628 0.385493 0.086643934 0.2326387 0.028916944 0.036830302 0.10855844 0.2966815
0.22625367 0.45335555 0.28701934 0.042252872 0.24060917 0.12352098 0.22651985 0.324489
0.098951094 0.018334176 0.26667425 0.2583246 0.08185852 0.24145415 0.17800887 0.3711668
0.11143409 0.31729692 0.37831992 0.22912963 0.4010329 0.09890588 0.16693848 0.25278565
0.025328727 0.10204296 0.24663 0.29972216 0.34034652 0.023966998 0.5358445 0.09625544
0.1746076 0.19302645 0.35924187 0.17290513 0.107431695 0.046253346 0.13121022 0.37556636

encoder.encoder.3.0.weight f4 [64, 64, 3, 3]
00000000: 9c6d e6bd ee7f 84bc 35ff 2a3d 0d02 43bb
00000010: a9ca 023e 7222 80bc 488d fbbd 8205 803c
00000020: 74aa c8bc f740 983c 2b29 b7bd 9c66 37bc
00000030: 01b4 98bd 7126 a33b b18f 31bb 4d91 09b9
00000040: dc9e 773d ada8 1fbc 1d0e 813d 4aad 3f3d
00000050: ac46 1b3d c7d3 8d3c 17be 9e3c ce77 af3c
00000060: b487 c33c 3474 db3b 19a4 40bc 7358 31bd
00000070: ffbc 103d cbb3 793c 5808 99bd e78a bfbc
00000080: 6077 efbc 5c79 093c 0b07 0bbc bc21 283d
00000090: ff59 6d3d 3a0a 42bd 30d8 483d f080 a5bc
000000a0: 0160 d9bb 7902 ac3c 8a64 f43b f495 1f3d
000000b0: 3410 0e3d 2f87 903c 4796 cdbd fe0f 75bc
000000c0: 8192 163d 2f1f 88bd 351f 423d c067 803d
000000d0: f2d6 febc daf8 563c ac61 a7bc 19af ab3c
000000e0: 0287 ab3c 9131 9dbb 6ae9 3abd 1498 3f3d
000000f0: 97c0 86bc 1372 bd3c 1b30 5c3d f3b2 f73c
00000100: 7f35 03be e479 e63d 9570 f43c a515 5d3d
00000110: 4ff8 ec3d 9375 e03c 610a 48bc cf5a fb3c
00000120: 118a 22bc a014 473d 65d3 48bd bb71 9ebb
00000130: 31e4 263c 93d5 bfbc 1c31 1dbd 5577 9b3d
00000140: 11ce 1cbc d2b6 4e3d c021 c8bb e5f5 c23c
00000150: 629d 743c a643 1f3d 4dd9 e73c e35a 1cbd
00000160: fbf0 3abd 9df2 acbd cbe3 a4bc fb99 45bd
00000170: 3d10 5d3d 22aa 58bd 1f0b 7abd 71d0 4bbd
00000180: c801 ee3c 5d9a d93c ab6c 113d 7f75 533d
00000190: ab80 563a 1b69 0d3c 5991 243e 4fc8 ad3d
000001a0: c1b8 d2bb 46ef 803d b219 8d3c d280 773c
000001b0: 747b 3abc 0f4d 573d fa1f 733d 3329 863d
000001c0: cf61 22bd 0a2f 9dbb d850 903d 9c4a 823d
000001d0: dc2c 273d 8f83 4cbb ed97 38bd 245c 183d
000001e0: 5190 773c f5f9 273c 71e2 bcbc d1ed 183d
000001f0: 2496 bfbc 48a4 723c 11bb 7bbc a535 1a3c
00000200: bcc8 9cbd 2112 9abc c8b0 b1bc 56a0 5d3d
00000210: 7a5b d8bd 5ceb 023d 9cf1 563c e7ba 083d
00000220: c49d 943d 7045 d0bb ed7c 0cbd 9307 953c
00000230: 8f2a de3b df87 d4bc 34c3 27bd beaf acbd
00000240: 5506 983d cf64 813c 9357 2abd 5eee 453d
00000250: 0f62 96bb ce97 9abc 63fd 4a3c ac50 9bbd
00000260: 81b9 80bd ba14 363d 33be c03d 6aba c23d
00000270: b169 383d dc36 4b3c bb74 3bbb 1160 c4bc
00000280: ef22 dd3c 9219 8dbc 0e4c 773d 72ca 0a3c
00000290: 8687 273c 78e6 193d d55f 48bd 5fde c7bc
000002a0: 24c5 a83c 04a5 2c3d 518e 863a 9ea2 3e3d
000002b0: 6661 b93c eb03 14bd c24b 55bb 1f79 803d
000002c0: ea7d 313c 865a a93c bfe4 21bc d308 003d
000002d0: f1d6 ab3c e828 0bbc 4f7f 893d 1070 ea3c
000002e0: 2262 25bd 74ac 463c e87c 02bd 1fc0 85bc
000002f0: 9732 37bc a5ab bd3b b4fe bbbc f422 2dbd
00000300: 7c50 a8bc e80e c4bc 9a62 09bd ecdd 83bb
00000310: f34f 493b 6363 5cbd 509b 3a3a c3a6 733d
00000320: 17bd 6abd d089 de3b 5399 77bd 7ab9 86bd
00000330: c7fc 46bc 8f26 6cbc 5319 32bd e7c1 d9bd
00000340: 53bf 1ebd 9cd0 a3bc 3531 ffbd 1cfd e0bd
00000350: 9763 27bd 6fbb a8bd 82cf 81bd 5950 b3bd
00000360: ffc3 59bc 2a07 893d 7ea2 d3bc 7dc4 4b3d
00000370: 7c05 88bc 62fd 8dbd 76d7 cbbc 0b23 c5bc
00000380: c917 a1bd 9a43 143d b246 8f3d 3273 1b3d
00000390: c735 a23d 065b a23d 4f11 f73c d937 593c
000003a0: 4c6d 02bd 69bf 2bbd 04f9 9d3c 2ac6 55bc
000003b0: 32ab 2dbd 5cac 34bd 7527 84bb 721d 7ebd
000003c0: 780f 51bd f918 993d f866 b83d 34aa aebc
000003d0: d257 50bc 67ba b3bc 9f1b 4f3d f899 c9bb
000003e0: ebf9 b5bc 2776 8f3b 6ea3 ff3c 1b6a 713c
000003f0: 9b3f bf3c f28b 8c3c 59d5 3abc e6bb 5b3d
-0.11251375 -0.016174283 0.04174729 -0.002975586 0.12772621 -0.015641425 -0.12282807 0.015627626
-0.02449534 0.018585665 -0.08943399 -0.011193898 -0.07456208 0.004978948 -0.0027093703 -0.00013119467
0.060454234 -0.009744805 0.0630152 0.04679612 0.037909195 0.017312897 0.019377751 0.021419432
0.02386842 0.006697202 -0.011757874 -0.043297242 0.03533649 0.01524062 -0.074722946 -0.023381663
-0.029231727 0.008390751 -0.008485566 0.041047797 0.057947155 -0.047373034 0.049034297 -0.020203084
-0.006633759 0.020997273 0.0074582743 0.038961366 0.03468342 0.017642586 -0.10038429 -0.014957426
0.03676081 -0.06646573 0.047393043 0.06269789 -0.031108353 0.013120854 -0.020432316 0.020957517
0.0209384 -0.0047971685 -0.045632757 0.046775892 -0.016449256 0.023125684 0.053756814 0.030236697
-0.12813376 0.112537175 0.02983884 0.05397572 0.115707986 0.027399814 -0.012209506 0.03068295
-0.009920613 0.048603654 -0.049029727 -0.004835335 0.010186241 -0.02341727 -0.038376912 0.0759112
-0.009570614 0.05046732 -0.006107539 0.023798892 0.014930101 0.038882874 0.02830186 -0.038172614
-0.045639973 -0.08444712 -0.020128151 -0.04824255 0.053970564 -0.052896626 -0.061045762 -0.049759332
0.029053584 0.026562864 0.035504024 0.051625725 0.0008182625 0.008631016 0.1607107 0.084854715
-0.006430716 0.06295638 0.017224167 0.015106397 -0.011381973 0.052563723 0.059356667 0.06550827
-0.03964406 -0.0047968673 0.0704667 0.06361887 0.040814266 -0.0031206345 -0.045066763 0.037197247
0.015110091 0.0102524655 -0.023057194 0.037336174 -0.023387022 0.0148096755 -0.015364424 0.009412204
-0.076554745 -0.018807473 -0.021690741 0.054107986 -0.10564323 0.031962737 0.013119128 0.03338137
0.07256654 -0.006355934 -0.034298826 0.018192088 0.0067799757 -0.025943695 -0.040957645 -0.08431958
0.07423083 0.01579514 -0.041587424 0.048323028 -0.004589326 -0.018871214 0.012389514 -0.07583746
-0.06285382 0.04445336 0.094112776 0.09508212 0.04502267 0.012403216 -0.0028603512 -0.02397159
0.026994197 -0.017224107 0.060375266 0.008471118 0.010225182 0.037573308 -0.048919518 -0.024398027
0.020601816 0.04214956 0.0010265802 0.046541803 0.022629451 -0.03613655 -0.0032546376 0.06273102
0.010833243 0.020673048 -0.0098811975 0.031258415 0.020976515 -0.0084936395 0.06713735 0.028617889
-0.04037679 0.012126077 -0.0318574 -0.016326962 -0.011181495 0.005788284 -0.0229486 -0.042269662
-0.02054619 -0.02393289 -0.0335413 -0.004024258 0.003071782 -0.05380572 0.000711848 0.05948521
-0.057309236 0.006791331 -0.060448956 -0.065783456 -0.012145228 -0.01441349 -0.043481182 -0.10632687
-0.03875668 -0.019996934 -0.12460557 -0.10985777 -0.04086646 -0.08238875 -0.06338407 -0.087555595
-0.013291358 0.066908196 -0.025834318 0.049747933 -0.016604178 -0.069330946 -0.024883013 -0.024064561
-0.07865865 0.036197282 0.06995906 0.037951656 0.079204135 0.079275176 0.03015962 0.013257944
-0.031842515 -0.04193059 0.019283779 -0.013047734 -0.042399593 -0.044109687 -0.004033024 -0.0620398
-0.051040143 0.07475466 0.09004015 -0.021321394 -0.0127162505 -0.02193947 0.05056345 -0.0061523877
-0.022213897 0.0043780985 0.031205859 0.01473477 0.02334576 0.017156575 -0.011403405 0.05364599

encoder.encoder.3.0.bias f4 [64]
00000000: 25e8 a83c c8b8 2dbb 593d 04bd 4739 033b
00000010: e57b 5f3c cac1 71bb 4528 45bc ffae 293c
00000020: e622 4f3c 8caf 15bc 52f8 033d 0779 0c3d
00000030: ef94 31bc 8278 213c f37d e53b bf5d 743c
00000040: 7e61 cc3c 0b22 663c 26e1 c2bb b391 1f3c
00000050: 916a 81bc abcf 523c d563 483b 3408 8f3b
00000060: 9a7e 0fbd 9b6e 0ebd be2c 9dba c51b 463c
00000070: e994 6fbc 2086 023d 740a e9bc 7631 b9bc
00000080: 4dcd 4f3c 32d1 89bc 5009 96bc 9dd5 44bc
00000090: bbd7 8f3c 442f f43c d5c8 873c 558a a63c
000000a0: b957 963c 6a4e 0abd e333 893c b537 3fbc
000000b0: 3995 7abc 4b31 abbb 8a16 e8bc cf1e 08bc
000000c0: 68aa d93c 6ae3 ab3c a4ac 643c efa3 a1bc
000000d0: bd41 8ebb 975f a6bc e2e0 45bc 7618 f4bc
000000e0: 041d 31bb 59ab bf3b 3e03 d63b 350e 0cbd
000000f0: 533b dabc 45ad c43c 5241 a73b a334 c2bc
0.020618508 -0.0026507843 -0.03228507 0.0020023154 0.013640379 -0.003688919 -0.012033527 0.010356664
0.012642598 -0.009136092 0.03221924 0.03429511 -0.010838731 0.009855391 0.0070035397 0.014914929
0.024948832 0.014046202 -0.00594725 0.009739327 -0.015797885 0.012866895 0.0030577083 0.0043649916
-0.035032846 -0.03477345 -0.0011991484 0.012091582 -0.014622905 0.031866193 -0.028447367 -0.022606593
0.012683225 -0.016823385 -0.018314987 -0.01201382 0.017558923 0.029807694 0.016575256 0.020329634
0.018352376 -0.033766188 0.016748374 -0.011670996 -0.0152943665 -0.005224382 -0.02833106 -0.008308127
0.026570514 0.020982463 0.013957176 -0.01973149 -0.0043413327 -0.020309253 -0.012077542 -0.02979682
-0.0027025351 0.0058492837 0.006531148 -0.034193236 -0.026639616 0.024008403 0.0051042223 -0.02370674
