saves_concept/nico_animal/max_acc.pth (torch_old, 482105 bytes, 28 tensors)

encoder.encoder.0.0.weight f4 [64, 3, 3, 3]
00000000: 73ba 8fbd 31ae ab3d 9568 443c 7a8d 2cbd
00000010: 5273 f4bc c49c c13d b39e bebb 32ad b9bd
00000020: e70e 2e3d 6ec3 12bd 1d33 55bd 34f9 c5bc
00000030: ca3f 0a3e 9659 14bb afe7 85ba dc12 0e3e
00000040: 5b17 8dbc 2f2a abbd cd99 c6bb 6e81 02be
00000050: 4bc4 01be 7a69 b33d bfcd 48bd 4d91 e5bd
00000060: 4a9e b03c 658d bf3c 50c0 a2bd fb69 44be
00000070: a60c 90be 60c3 b83e 56a2 2fbe a26c 423d
00000080: b327 373e df59 9c3e f189 563e 00e9 febe
00000090: d308 a33c ea11 82be 3f41 ac3e d789 2fbe
000000a0: 0741 b13d d0fd 473d 1cb4 543e d79f 713e
000000b0: 7804 f9be bca5 e33c b8f9 4bbe 10f5 253e
000000c0: a950 e4bd 8b06 103e ee52 4f3d 98d6 553d
000000d0: 8c88 c03d e3a5 6fbe c037 43bd a873 0ebe
000000e0: b23e cabd 5466 49be 63d0 ebbd 4c5f 26be
000000f0: ecff f2bd 7191 61be 88c8 50be b54a e93d
00000100: 0bfa de3d a3fd 9cba 39c5 6f3d 0936 46bd
00000110: 58af e23d dd40 d7bc ab26 933d d38d 0a3e
00000120: 0432 373d 9617 1b3e 7546 ed3d 6c21 b83d
00000130: 4d14 733e cc6b ad3d 5cd7 1e3e 1b53 5c3e
00000140: 2cb7 753e 7304 c63d c7f5 93bd 9899 1e3d
00000150: dede 1abc 9200 da3d d8a5 cebd a6ed 763d
00000160: cdaa d4bd 45b1 67bd 542f e73d 1fab 81bd
00000170: f249 ab3d 7850 e23d fbfc c3bb 62d6 803d
00000180: c28a 60bd 2252 ec3c 1c9c ec3d 181b d1bd
00000190: b6b9 d73d a7b1 d43d eb30 343d a980 013c
000001a0: 9933 cc3d 8247 353d 2356 f73d 8621 973d
000001b0: 7864 983c ec0c 983c 07c4 8d3d 5368 f13d
000001c0: 4b26 08bd 2c8f b6bd f62a ff3c ddb3 e43d
000001d0: 8dd1 51bd 90e3 f639 681c 9dbd c049 08be
000001e0: 4555 733d 07c8 6b3d 2a7e 933d e794 b3bd
000001f0: 0764 063e 9a0b c73c 7d53 de3d 220e 9bbc
00000200: f39a 04be d5b1 cb3c bc07 123d 3b53 48bd
00000210: b228 0b3e 8b16 5f3c 08c9 34bd 7313 e43d
00000220: aeed a03d 16ef fb3d 0007 c63d 0c68 10bd
00000230: 1704 f53d 9166 f53d 524a a83c e4ab b5bd
00000240: 4d44 c5bc 77b0 583c b2b4 e23d df4d 2d3d
00000250: 3048 683a a0f7 a03d 7483 c93d 7c42 13bc
00000260: 078e 973d 2b91 9c3c fd70 e63b 272d e03d
00000270: 3d91 3b3d ee6b 633c f6ae c63d 36f7 f23d
00000280: 137e c13d 7c14 173d 9c67 f1bd 4756 14bd
00000290: c3fd abbd 97d5 50be ddd2 47be a80a dabc
000002a0: 2113 80bd 450e e2bc 7742 cbbd af07 433d
000002b0: b3b8 2cbd 77fd 063e fa09 d23c 60cd 94bd
000002c0: 1401 c83d cd83 b0bb 6b8b 17bc 362f 82bd
000002d0: f5ff 433d 4d3b 8bbd 2108 9a3d 249c 2f3d
000002e0: 2b1b b0bc 0f65 943c c35e 90bd 3dfa 81bd
000002f0: 9c15 0a3b 0dd0 0abf 14cf 41be 32a4 a13d
00000300: 6de6 c4be a0c9 3f3d ea50 7d3e db53 4cbd
00000310: 28d5 793e 1234 243f 4b7d 12be ed8c 4bbe
00000320: 80df b6be 9f33 1f3e 37a2 493e 8b44 2cbd
00000330: e361 d43d 6740 b53d 8ed2 81bd b460 2c3f
00000340: bb33 c73e 145a 5f3e 0e2b e13e 812b 4c3e
00000350: cecc 05be 7301 52be 199d 1ebf 01d5 4fbf
00000360: ac14 c83d b1d4 0fbd 4b95 753d 88f5 873c
00000370: e561 003d 83c2 043e 14e9 3a3c 887f a9bd
00000380: e21e 043e 42ab 933d c1a5 c63c c08a e43d
00000390: f05d 55bd efcd b13d f162 633d 28fc 5ebd
000003a0: aa19 b9ba 2010 dbbc 6b1e f7bd b995 d63c
000003b0: 37d3 52bc 7128 72bd a418 873c 1e26 debd
000003c0: a2ed 19be 2160 f3bd bd0e bd3d cb2f 99bd
000003d0: 0d4f dcbd 686d 10bd 2c68 01be 2e62 cbbe
000003e0: b98c d1be 9d35 113e 7785 84bc afbc 863e
000003f0: 1adb 6b3e 918c c53e 191d aa3e 1189 593d
-0.07017984 0.08382834 0.011987825 -0.04212711 -0.029840145 0.09453729 -0.0058172583 -0.090662375
0.04249468 -0.035830908 -0.0520507 -0.02416668 0.13500896 -0.0022636405 -0.0010216142 0.13874382
-0.01722305 -0.08357655 -0.006060815 -0.12744686 -0.12672536 0.087603524 -0.04902434 -0.112093545
0.021559853 0.023382852 -0.07946837 -0.19181053 -0.2813465 0.3608656 -0.1715177 0.04746688
0.17886238 0.30537316 0.20951058 -0.4978714 0.019901669 -0.25404292 0.3364353 -0.17142425
0.08654981 0.04882604 0.20771831 0.2359613 -0.48636222 0.02778899 -0.19919479 0.16206765
-0.11148197 0.14064996 0.050616197 0.052206606 0.09401044 -0.23403125 -0.04766059 -0.13911307
-0.098752394 -0.19667941 -0.11514356 -0.1624729 -0.118652195 -0.22028138 -0.20388997 0.11391202
0.10887536 -0.0011977445 0.058537696 -0.048391376 0.110686004 -0.026276046 0.0718511 0.13530664
0.044725433 0.15145716 0.11585704 0.0899075 0.23738213 0.08467826 0.1551184 0.21516077
0.23995656 0.09668817 -0.07224613 0.038720697 -0.00945255 0.1064464 -0.10090226 0.060285233
-0.1038414 -0.05656554 0.11288324 -0.06331467 0.08363713 0.110505044 -0.0059810854 0.0629089
-0.05481983 0.028847758 0.11553213 -0.10210246 0.105334684 0.10385447 0.043991964 0.00790421
0.09970779 0.04425765 0.12076976 0.07379441 0.018602595 0.01856085 0.06922155 0.117874764
-0.033239644 -0.089140266 0.031148415 0.11167119 -0.051225234 0.00047090324 -0.07671434 -0.13309383
0.05940749 0.057563808 0.07201798 -0.08768635 0.13124095 0.024297524 0.10855768 -0.018927637
-0.12949733 0.02486507 0.035651907 -0.0489075 0.13589743 0.0136162145 -0.04413703 0.11136522
0.07857834 0.123014614 0.09669304 -0.035255477 0.11963671 0.119824536 0.020543251 -0.08870676
-0.02408042 0.013225666 0.11069621 0.04231059 0.00088608544 0.07859731 0.09839526 -0.008988019
0.074001364 0.01911219 0.007032512 0.10946112 0.045792807 0.013880713 0.0970134 0.11863558
0.09447875 0.03688477 -0.1178734 -0.036215093 -0.083980106 -0.20393978 -0.19514032 -0.02661641
-0.062536485 -0.027594695 -0.099247865 0.04761475 -0.04216833 0.13182627 0.025639523 -0.07265735
0.09765831 -0.0053868056 -0.009249548 -0.06356661 0.04785152 -0.0679842 0.07521082 0.042873517
-0.02149733 0.018114595 -0.07049324 -0.06346557 0.002107001 -0.5422371 -0.1892665 0.07892646
-0.3845705 0.046823144 0.24737898 -0.04988466 0.24397719 0.64141953 -0.14305608 -0.19877978
-0.35717392 0.15547036 0.19690786 -0.042057555 0.10370233 0.088501744 -0.06338988 0.6733506
0.38906655 0.21811706 0.4397816 0.1993847 -0.13066408 -0.20508365 -0.6195846 -0.81184393
0.09769568 -0.035114948 0.05995683 0.01659657 0.03134336 0.12964825 0.011408109 -0.08276278
0.12902406 0.07210399 0.02424896 0.11159277 -0.05209154 0.08681857 0.05551428 -0.054439694
-0.0014122028 -0.026741087 -0.12066349 0.02619444 -0.01286774 -0.0591206 0.016491242 -0.10847114
-0.15032056 -0.118835695 0.09231327 -0.07479819 -0.10757265 -0.035260588 -0.12637395 -0.39723343
-0.40927675 0.14180608 -0.016176922 0.2631583 0.230328 0.38583806 0.33225325 0.053109232

encoder.encoder.0.0.bias f4 [64]
00000000: c585 e13b 2751 633c ea5d b2bd 8f5f 943d
00000010: 497c 65bd 3777 97bd aa06 f23c 77f6 c1bd
00000020: d1df dcbd f3f0 fbbd e435 d83d 5e8e 85bd
00000030: ef19 493d a3f5 3bbc 2039 a23d 8ff1 2a3d
00000040: 2f1e 563d 24c0 133c b7f5 c13d acde 223d
00000050: 03b1 de3d 4076 cbbc 6a42 f53d d130 603d
00000060: f324 ebbc 00ab 84bd 41bd b33d 89fc 863d
00000070: 8f75 fa3d 2798 9a3d 2b5d 8d3c 817e 5e3d
00000080: b864 a13d d634 e6bd e214 673c 83d8 5b3d
00000090: 845f eb3d d72f 803d 1d90 5e3d fa97 3d3d
000000a0: f510 f0bc 7368 50bd b398 f33d 48a3 edbc
000000b0: 828c e3bd 53c2 3abd bdeb c3bd b665 ab3d
000000c0: 36e8 f4bc cc99 783d 8403 bd3d 96e9 efbd
000000d0: 7025 833d f64e 64bd 7eaf cbbd 97e4 993d
000000e0: 1c1e 96bd 8acd e43d 6912 8e3d 3b7f 9ebb
000000f0: 4bdc 6dbd 0e97 64bd 7c55 efba 88ce 353d
0.0068824016 0.013874329 -0.08709319 0.07244789 -0.05602673 -0.07395785 0.029544193 -0.094708376
-0.10784877 -0.12301817 0.10557154 -0.06521295 0.049096998 -0.011472139 0.07921052 0.041734274
0.05227488 0.009017978 0.094706945 0.039763138 0.10873606 -0.02483666 0.11975558 0.054734055
-0.028704142 -0.06477928 0.08776332 0.06591136 0.12229454 0.07548552 0.01725634 0.054319862
0.07880539 -0.112405464 0.0141041 0.05367328 0.114928275 0.06259125 0.054336656 0.046287514
-0.02930496 -0.05088086 0.118943594 -0.029008523 -0.11110784 -0.04559548 -0.09566448 0.08369009
-0.029895883 0.060693547 0.09229186 -0.11714475 0.06403625 -0.055739366 -0.09945582 0.07514303
-0.07329962 0.11172016 0.06937105 -0.0048369444 -0.058071416 -0.05580812 -0.0018259729 0.044386417

encoder.encoder.0.1.weight f4 [64]
00000000: 48b1 843e 3186 913e 2b95 cb3e 1ad2 8e3e
00000010: 46d1 843e 0eeb 1d3d 8ed3 f53e e6ac 213f
00000020: c125 533e 7f4b a23e 6e37 243e 08a1 123e
00000030: 8a8d 933d da2f 133f a654 983e 60f8 223f
00000040: 458f 603e adda df3d 2c64 623e 75ba c03e
00000050: fe63 b23e 8ea4 953e 0b54 bf3e b56d 953e
00000060: e131 913e 781d bf3e 68ee 2b3e 8656 1d3f
00000070: 44a3 7d3e 40c8 303f 4f90 b23e e9ca 453e
00000080: 939f d43d b534 ec3e b729 333f 637c 9b3e
00000090: 4a08 153d 5bb9 3e3e ece2 183f 9d94 063f
000000a0: 4efc ed3c 48d3 633e 902d d03e 624d 1a3f
000000b0: b99a 0a3f ab6f f03e ab16 8c3e 0e7f 003f
000000c0: c268 073f 6b53 ef3e 2602 933d 5d02 0e3f
000000d0: 9f50 a93b 33ca dd3e 75f9 c93e 03c4 163e
000000e0: 9043 b83e 4a72 a43e 76c8 193e ddbe 823e
000000f0: 713f 0a3f b073 933e 010c 3b3e 8b97 203e
0.25916505 0.28422692 0.39762244 0.2789467 0.25940913 0.038554244 0.48012966 0.6315445
0.2061987 0.31698224 0.1603677 0.14319241 0.07204731 0.5749489 0.29752082 0.6366024
0.21929653 0.10930381 0.22108525 0.37642255 0.34841913 0.29227108 0.37368807 0.29185262
0.28358367 0.3732717 0.16790164 0.6146015 0.24769312 0.6905556 0.34875724 0.19315685
0.10381999 0.46133962 0.69985527 0.30368337 0.03638486 0.18625395 0.59721255 0.52570516
0.029050972 0.22248566 0.4065976 0.60274327 0.5414234 0.46960196 0.27361044 0.5019387
0.5289422 0.4674333 0.07178144 0.55472356 0.0051670815 0.43318328 0.39448133 0.1472321
0.35989046 0.32118446 0.15017876 0.25536242 0.54003054 0.287992 0.18266298 0.15682809

encoder.encoder.0.1.bias f4 [64]
00000000: bb5f c3bd 657e 5f3c eec2 75be 9785 e8bd
00000010: 032f 26be 7511 123d 7344 97be bb4c 3d3e
00000020: 188e c0bd f852 993e 4d96 09be e154 9c3c
00000030: f714 bebd 3824 003e b379 51be 8c53 273e
00000040: e1a9 0bbe 0981 8e3c 0b4d cfbc d2b4 18bd
00000050: 7b9f ba3c 68d1 94bd c6b7 2e3d 82bb 1dbe
00000060: 7856 47bd 3d93 1cbd af60 80bd ef52 983c
00000070: 2143 38be 18ef 8f3d 9bb1 713d 8cc1 233a
00000080: c3f1 76bd ba7b 34be 3600 5ebd 7223 383c
00000090: 95e6 f83c 9326 e0bc 1fd9 093e 8034 a63b
000000a0: fd07 873c 3e19 adbd 83c6 7dbe b6c4 dcbc
000000b0: edc1 513c 4e49 05be 57fc e8bd 6f85 ddbe
000000c0: fa94 b63c 11e2 43bc 7bd1 99bd 2e62 243e
000000d0: 1dd9 5dbc f5c2 1a3e 8db1 a2bd 32fa 2f3d
000000e0: 294a 893d e08d 40be 9e47 cabd 054e b03c
000000f0: ff4a 21be 1ffd 323d 1952 2ebd 3815 5abd
-0.095397435 0.013640975 -0.24000141 -0.11353605 -0.16228871 0.03566118 -0.2954441 0.18486302
-0.09402102 0.29946113 -0.13436241 0.019083442 -0.092813425 0.12513816 -0.20456581 0.16340464
-0.13639022 0.017395513 -0.025305292 -0.03728182 0.022781124 -0.072665036 0.04265573 -0.1540356
-0.048666447 -0.038226355 -0.06268441 0.018594233 -0.17994358 0.070280254 0.05900727 0.0006246797
-0.060289156 -0.17625323 -0.05419942 0.01123892 0.030383388 -0.027362144 0.13461731 0.0050721765
0.016483301 -0.0845208 -0.24782757 -0.026949268 0.012802583 -0.13016245 -0.11376255 -0.43265864
0.022287834 -0.011955754 -0.07510658 0.16053078 -0.013540533 0.15113433 -0.079440214 0.042963214
0.06703598 -0.18804121 -0.09876941 0.021521578 -0.15751265 0.043698426 -0.042558763 -0.053242892

encoder.encoder.0.1.running_mean f4 [64]
00000000: 3aa3 93bc e69b a737 faa8 e4be f7bb 943e
00000010: eafc bb3d eeda fc3e ad4b ddbe ff1a 07be
00000020: 7135 153e 862a 893d ba09 a5bd 7131 733d
00000030: ebcf 893e c494 e0bc 34a3 17bd 7b43 313c
00000040: f3d6 4abe 2cce 02be 6f01 873e a4d1 bd3d
00000050: fa64 463d 5e60 193e cd67 603d 5883 843e
00000060: d0c7 7cbc 129b 753e 0c7b 913d 447b 6c3d
00000070: e827 1f3e c436 b33d a353 82bc 7b9f 963d
00000080: e735 863c e2f4 b8be dd24 1a3c 5ed7 283d
00000090: 4426 043e 1c55 72bc cb98 d73d e861 74be
000000a0: 64c6 893d 2238 21bd 58c9 fdbc 0fab 4ebd
000000b0: 95a9 b3bd bfd2 5cbe 8252 f9bd acb8 5c3f
000000c0: 94ad 0cbd 9090 6f3d fa67 01be 6e6d 2c3e
000000d0: efde c73e 9a3a 83bd a17a 41bf 85ed b6bb
000000e0: c7c9 04be f515 843e 503d 40be 36f0 53bd
000000f0: a98f 4dbd dde3 f9be 5865 e3bd 972d d03b
-0.018022168 1.9980547e-05 -0.4466017 0.29049656 0.09179099 0.4938578 -0.432218 -0.13193892
0.14571168 0.06697564 -0.08058496 0.059373323 0.2691644 -0.027414687 -0.037020877 0.010819311
-0.19808559 -0.12773961 0.2636828 0.092685014 0.048436143 0.14978167 0.054786492 0.25881457
-0.015428498 0.23984936 0.071035475 0.057734743 0.15542567 0.0875068 -0.015909022 0.07354637
0.016383125 -0.3612433 0.009408203 0.041221015 0.12905222 -0.0147907995 0.1052719 -0.23865473
0.06727293 -0.039360173 -0.030979797 -0.050456103 -0.087725796 -0.21564768 -0.1217394 0.86219287
-0.034345224 0.058487475 -0.1263732 0.16838619 0.39037272 -0.06407662 -0.7557774 -0.0055825138
-0.12967597 0.25798002 -0.18773389 -0.051742755 -0.050185833 -0.48806658 -0.11103314 0.006353091

encoder.encoder.0.1.running_var f4 [64]
00000000: ba1e 453e 3c5a 383e e685 c33f 7f8f 8b3f
00000010: 6916 573e 3fc4 4d40 53d2 8d3f fade 663e
00000020: eb0c 483e e20b 0c3f e5b7 113f 72ad 213e
00000030: d8fa 203e 6f68 4f3f cd0d 1a3e e01a 503f
00000040: 6e06 523e 029d f63d 49ce ea3e 1508 c23e
00000050: 712f 9f3e 7efd 443e 5cf6 a53e 54e5 a43e
00000060: 7480 1d3e 1c5b fd3e ddab a03d fc3e ee3f
00000070: 5b75 003f b32e 0a40 077c 1d3e c167 553d
00000080: 82be 223d e968 1240 5cd8 ed3f 8c27 fb3d
00000090: 8a70 203d 7d12 0d3e dccf 1d40 2021 433f
000000a0: 3be9 893e a09f 113e c349 b53e bbd8 193f
000000b0: 0543 083f 23ac b93e f640 bc3c e603 0940
000000c0: b577 c93e b379 c93e 400c ae3e f7af d53f
000000d0: 261c 963f 6dcf f83e d8c6 bf3f 26d4 8a3d
000000e0: f8d8 523f 5453 2c3f 2a09 c03e a7b4 2b3e
000000f0: 7d59 e33d ef86 333f 73b1 a33d 7dfb f83c
0.19250003 0.18003172 1.5275238 1.0903167 0.21004643 3.215103 1.1079811 0.22545996
0.19536178 0.5470563 0.56921226 0.1578882 0.1572069 0.8101873 0.15044327 0.8129101
0.20510265 0.120416656 0.45860508 0.3789679 0.31090882 0.19237325 0.3241452 0.32206213
0.15381032 0.49483573 0.0784528 1.8612971 0.5017907 2.1591003 0.15379344 0.0521009
0.039732464 2.2876532 1.8581653 0.12263402 0.039169826 0.13776584 2.4658117 0.7622242
0.26935753 0.14221048 0.35407838 0.6009633 0.53227264 0.36264142 0.022980195 2.140863
0.39349142 0.39350662 0.3399372 1.6694325 1.172734 0.48595753 1.4982557 0.06778745
0.8236232 0.6731465 0.37506992 0.16768132 0.11101053 0.7012777 0.0799283 0.030393356

encoder.encoder.1.0.weight f4 [64, 64, 3, 3]
00000000: 4c15 1ebd e7eb 1dbd 4433 1dbd f9fd dfbc
00000010: c53d d1bc ba1c acbc fb34 65bb 57b1 c3bc
00000020: 0ca5 c2bc 812e a4bd a868 fbbc e5bd 60ba
00000030: 5cd9 63bc 13fa 373c 721e c63b dcff 81bb
00000040: 606f 973c cee0 053d 6e67 7fbc afa7 9cbd
00000050: de8d 20bd 36e9 adbc 43f9 cdbc 647a 73bc
00000060: b202 543b eb0d 26bd 1681 1a3c 1999 adbc
00000070: 7273 e9bc b1f4 733c b13d febc f52c 0ebd
00000080: 4b4f 55bc 8ebc b0bc 4bbb 4cbd f9bd 633a
00000090: 1497 173c 5160 d4bc 041e e03a 299d e03b
000000a0: d228 eebc 0863 b1bc 1caf 0b3c 8fb6 31bc
000000b0: 31ad 08bd dcfa 083b 7a16 94bc d722 85bc
000000c0: 5a20 08bc 6a63 873b d965 c83c 52ec 7c3c
000000d0: 9e71 27bc 339b 26bc 2fb5 a2bc 2d5a 96bd
000000e0: d322 60bd cd16 443d d964 febb 2c35 22bc
000000f0: d305 ed3c 8fe9 e5bb c771 c8bc 5315 87bc
00000100: fe12 e1bb 77e8 a03b 233c 02bc 2339 213c
00000110: 1dba 033b b388 713c 6976 cbbd 11dd abbd
00000120: 4c68 c43b 93b0 023d dbda 323d 2fdf 833c
00000130: 4802 f0ba 34a6 f83b 51c8 72bb 2fd4 063d
00000140: b3bb 15ba d94f 99bd b339 26bc 695a 10be
00000150: 7c41 a73c 1b22 583d 12e3 7ebd 0eb3 283d
00000160: b538 b73d 5a92 1ebd 2a04 70bb 1990 e2bc
00000170: cf34 40bd 872a 07bb 6b70 b1bc 4a36 02bc
00000180: 4fdd 52bc 648d 45bd 1cbe 5a3b b901 2bbd
00000190: c572 54bd 4d25 95bb 85d8 1dbd c5ab b3bc
000001a0: dfdb 26bd 2c26 65bd 6dc3 12bd 0727 c3bc
000001b0: 81ca 7dbc c0de 11bc 3511 a63c caf4 8e3c
000001c0: d00c 013d 1160 c33c f7ac a53a b710 aab9
000001d0: 89d0 7c3a 6790 6dbb ddc7 22ba 8727 b0bc
000001e0: 6d61 22bd 0fb9 80bd dcb6 1ebd 03f3 33bc
000001f0: 333c a4bc 4bb6 0c3d eb51 92bc 31b9 04bc
00000200: 3446 c7bc 198d dc3c eb63 bf3c f936 b0b9
00000210: 2ed4 f13c 7e7c 823c 510d c7bb f5d3 063c
00000220: f717 26bd c2f6 05bc 0c17 ab3d 3035 a23c
00000230: d940 133d 3e4b 383c cb44 87bc c20f 733c
00000240: ba19 19bd 4b41 15bd a0ea 1ebd 0945 abbc
00000250: ce31 11bc a9fe 99bb 80b4 98bc 6e68 d9bb
00000260: b4fd 65b9 a138 26bb 8391 9abc 3c65 ab3a
00000270: 9842 2a3c 36d0 14bc 0845 023c 2555 dc3c
00000280: 6132 08bd c02e 22bd 219a dcbd 9c8e b1bd
00000290: 05c0 d4bd cb40 a7bd a564 a4bd 9733 77bd
000002a0: b087 49bd 8f1e 8ebd fcbc 24bd e143 83bd
000002b0: 6476 42bd 81aa 59bb 4507 8fbd 2c52 87bd
000002c0: c529 073c 7ea9 bfbd 739b b6bd 565e 8dbc
000002d0: 90dc 2dbd 73d5 fa3b a1b7 07bd d36e 183c
000002e0: 40d8 993d 5ff5 cdbc e70d d5bc 8d71 5c3d
000002f0: 9969 9bbc 583d eabc a130 6abd 25bc 7fbd
00000300: 279a 36bd 5bed 133c b327 33bd 39d0 67bc
00000310: 3949 bcbc 113b b6bc 0761 88bd a96e 95bd
00000320: 1d3f 973c 384c 80bd b123 e6bd db18 b0bc
00000330: 79a3 62bd f1bd 92bd cec5 f53c 1e02 cd3c
00000340: 9f01 d1bb 140a 0d3a 983a 7ebc f0bf 75bc
00000350: 629f 6e3c 6884 1a3c 9a0a 153c ef19 dabc
00000360: de5d 09bd f1c1 97bc 02b2 0e3d 4ff8 c2bc
00000370: 86f9 08bc a917 1b3d 5cb8 dcbc cb5a e1bc
00000380: 828a 663a 925c 08bd b82c b63c 51a3 15bc
00000390: 91b0 1abd 558f 0c3d 439c fe3c 5c47 26bd
000003a0: adfc 1f3b 30c9 e1bc 8e49 c6bc 47a4 3fbd
000003b0: e229 10bd fc53 b1bc 911e 64bd 42f6 4fbd
000003c0: 703a 933a b568 40bd 7839 02bd 6b6f 8e3d
000003d0: 001a 593d 12c1 d73c ff26 b23d 07b6 893d
000003e0: 84d7 c13d 58ac 583d aa9a 6e3d 2be9 b43d
000003f0: beee debc ef41 8dbc 5afc 4bbd 0842 24bd
-0.03859453 -0.038555052 -0.03837897 -0.027342783 -0.02554215 -0.021009792 -0.0034974206 -0.023888273
-0.023760341 -0.080166824 -0.030689552 -0.00085732184 -0.013906803 0.011229056 0.00604611 -0.0039672684
0.018485725 0.032685094 -0.015588624 -0.076491706 -0.039197795 -0.021229368 -0.025143271 -0.014860723
0.003235024 -0.040540617 0.009430191 -0.021191167 -0.028497431 0.014889882 -0.031035276 -0.034710843
-0.013019393 -0.021574285 -0.049983304 0.0008687671 0.009252328 -0.025924833 0.0017098789 0.0068546725
-0.029072199 -0.021653667 0.008525636 -0.010846748 -0.033368293 0.0020901477 -0.018077124 -0.016251964
-0.008308494 0.004131724 0.024462627 0.0154372025 -0.01021996 -0.010168838 -0.019861786 -0.073414184
-0.05472071 0.047873307 -0.007763487 -0.0099003725 0.028933441 -0.0070163677 -0.024468316 -0.01648966
-0.006868719 0.0049105245 -0.007948908 0.009840283 0.0020099946 0.014742064 -0.09934694 -0.083917744
0.0059938785 0.031906676 0.043665748 0.016097633 -0.0018311227 0.0075881723 -0.0037045667 0.032917198
-0.0005711868 -0.07485933 -0.0101455925 -0.14096989 0.020416968 0.0527669 -0.06222827 0.041186385
0.08946363 -0.03871379 -0.0036623576 -0.027656602 -0.046925362 -0.0020624714 -0.02166005 -0.007947514
-0.012870147 -0.048230544 0.0033377474 -0.04174969 -0.051867265 -0.0045515657 -0.038536567 -0.021932492
-0.04073703 -0.055944607 -0.035830904 -0.02382232 -0.015490175 -0.008903205 0.020271877 0.017450709
0.03150636 0.023849519 0.0012640049 -0.0003243738 0.0009644111 -0.00362494 -0.00062095915 -0.021503223
-0.039643694 -0.06285297 -0.038748607 -0.0109832315 -0.020048236 0.034353536 -0.017861327 -0.008100794
-0.024325468 0.02692275 0.023363074 -0.00033610294 0.02952012 0.015928503 -0.0060745855 0.008229245
-0.0405502 -0.008176507 0.08354005 0.019800752 0.035950515 0.011248408 -0.016512295 0.0148353
-0.03737805 -0.03643922 -0.038797975 -0.020906942 -0.008861972 -0.0046995473 -0.018640757 -0.0066347634
-0.00021933654 -0.0025363343 -0.018868214 0.0013076435 0.010391854 -0.0090828445 0.007951029 0.026896069
-0.03325117 -0.039595366 -0.10771585 -0.08669779 -0.10388187 -0.08166655 -0.08027009 -0.060351934
-0.049201667 -0.06939422 -0.040219292 -0.06409431 -0.047476187 -0.00332132 -0.069838084 -0.0660747
0.008249705 -0.093585 -0.08916368 -0.017256897 -0.042446673 0.0076548397 -0.033134107 0.009303766
0.075119495 -0.025141416 -0.026007606 0.053819228 -0.018971251 -0.028593704 -0.057175282 -0.062435288
-0.044580605 0.009028758 -0.043739032 -0.014148765 -0.022984134 -0.022244962 -0.066591315 -0.072964974
0.018462712 -0.062645376 -0.11237276 -0.021496227 -0.05533168 -0.07165135 0.030001547 0.025025424
-0.006378367 0.0005380225 -0.0155168995 -0.014999375 0.014564367 0.009430982 0.009096766 -0.026623694
-0.033536784 -0.018525096 0.03483773 -0.023800043 -0.008360272 0.03786436 -0.026943378 -0.027509114
0.0008794443 -0.033291407 0.02223812 -0.009133176 -0.037766043 0.03431638 0.03108037 -0.040595397
0.002441208 -0.027561754 -0.024204995 -0.046787526 -0.035196193 -0.021646492 -0.055693213 -0.05077196
0.0011232626 -0.046974856 -0.031793088 0.06954845 0.05300331 0.02633718 0.08698844 0.06724172
0.094649345 0.052898735 0.058252968 0.08833536 -0.02721345 -0.017243354 -0.049801208 -0.040102035

encoder.encoder.1.0.bias f4 [64]
00000000: e75f cc3c 1a3f c4bc 39e2 ca3c 8a9a b2bc
00000010: 8a42 cabb 5bee c33c 36f9 1fbc 86e9 093c
00000020: 317f 7d3c c894 be3c 2d25 78bc 8454 953b
00000030: 2ac7 873c 46cb cabb ed36 a3bc cc03 89bc
00000040: 5181 673a b6ed 533c f731 193b fbee d4bb
00000050: c2eb d1bb afd2 e43b 0082 3c3c 0164 923c
00000060: 9eba 663c 8963 89bc 230f adbc cb7b 2abc
00000070: c215 833b 6ee5 bbbc 46b1 a03c a77f 72bc
00000080: de5c cabc 7319 0d3c fd18 97bc 0034 32bb
00000090: 1f5c e13a 9a36 57bb 14dd c73c 0587 b83c
000000a0: f098 143c bd01 acba 8dd8 c6bb 04cd a8bc
000000b0: a2ac 043c d2eb 9b3c 937b b93b 6f6b 563c
000000c0: 1f53 163c dde2 aabc 6575 6dbb 38ed 913b
000000d0: 50e1 01bc dda8 2eba 7ef8 89bc 1fab 5e3c
000000e0: 826e ae3c 5278 eb3b c261 81bc fce6 a93c
000000f0: 0284 a03b 1dec fe3a c98d 94bc 3c74 36bc
0.024948074 -0.02395587 0.024766074 -0.021802206 -0.006172483 0.023917368 -0.009764006 0.008417493
0.015472219 0.023264304 -0.015145582 0.004557194 0.016574461 -0.006188783 -0.019923652 -0.016725443
0.00088312203 0.012935093 0.0023375729 -0.0064982153 -0.0064062783 0.0069831233 0.011505604 0.017869951
0.014082579 -0.016771095 -0.021125382 -0.010405491 0.0040003965 -0.022936549 0.01961578 -0.0148009425
-0.024702486 0.008612025 -0.018444533 -0.002719164 0.0017193592 -0.0032838942 0.02439741 0.02252532
0.009069666 -0.0013123077 -0.0060682953 -0.020605572 0.0080977995 0.019033346 0.005660483 0.013087138
0.009175091 -0.02086013 -0.0036233303 0.0044533275 -0.007927254 -0.0006662736 -0.016842123 0.013590603
0.021292929 0.007185974 -0.015793685 0.020740025 0.004898549 0.0019449029 -0.018134015 -0.011136111

encoder.encoder.1.1.weight f4 [64]
00000000: 7b3e ff3e ab6e a93e 2348 4e3e fed7 133f
00000010: 78d9 d23e d0c7 c83e fe7a a13e ac10 f13e
00000020: e63b fa3e 9489 d83e 54bc 813e 2031 033f
00000030: 9776 0c3f 5d31 7f3e 3664 c63e 3379 f63e
00000040: 3ebe 2b3e c225 343f 382e dc3e cacd ee3e
00000050: e7a5 df3e b064 e93e 7b21 be3e bac0 e33e
00000060: b343 d73e fb15 053f a52a 003f d216 aa3e
00000070: 0c5d 793e 6419 093f ff76 783e 81a0 b73e
00000080: 7086 423e 11ba bc3e 003a 8c3e 8af1 9f3e
00000090: a1f8 033f fce8 ab3e 1115 a13e de7d 113f
000000a0: 3a45 9a3e 03d2 943e 0132 123f 7bfb 0e3f
000000b0: dd5f f73e 93de b33e 6f00 5f3e 2061 573e
000000c0: bdb1 f83e d37a f13e a8f2 f93e 3e89 923e
000000d0: 8aa7 d33e 4748 0b3f 9bc6 0d3f ca68 013e
000000e0: 4c97 e83e d978 8e3e a149 023f 6ab7 fe3e
000000f0: 9930 c83e ab17 fd3e b802 aa3e 601b 963e
0.49852356 0.33092245 0.20144705 0.5775145 0.4118154 0.39214945 0.31539148 0.47083032
0.48873824 0.42292464 0.25338995 0.51246834 0.54868454 0.24921174 0.3874833 0.48139343
0.1677179 0.70370114 0.43004012 0.4664138 0.4368126 0.4558463 0.3713492 0.44482976
0.42043838 0.51986665 0.5006507 0.33220536 0.24351901 0.5355437 0.24264143 0.35864642
0.18996596 0.36860707 0.27388 0.31238967 0.5155125 0.3357619 0.31461385 0.56832683
0.3013094 0.29066476 0.5710755 0.5585248 0.48315325 0.35130748 0.21777509 0.21033144
0.48573104 0.4716402 0.48817945 0.28620332 0.4133876 0.5440716 0.5538117 0.1263763
0.4542793 0.27826574 0.508936 0.4974931 0.39099577 0.4943212 0.332052 0.2931776

encoder.encoder.1.1.bias f4 [64]
00000000: 0edf 47be adeb 53be 1a99 acbd 3bf8 33be
00000010: aa49 22be 9bd3 3ebe 40e0 3ebe 589c c5bd
00000020: b037 82be fb97 fbbe f01b acbd 9040 3ebe
00000030: 9f14 aebe 2c4b bdbd 6a34 7bbe e11e 49be
00000040: ac35 883c 8d5f d2be 467d 5ebe cca6 96be
00000050: 3ef8 d8be 67a2 f3bd 3e14 4dbe 10be 8bbe
00000060: 5d8a 29be 44b0 5fbe 526e 29be 4cc2 26be
00000070: eae0 bdbd cb4f 89be 4b5d b3bd cf0e febd
00000080: d284 dd3b 4c2f 96be 4f7a 84be b1b6 27be
00000090: 2d21 6abe 76d9 81bd d50b 8cbd a12f debe
000000a0: f6a2 9fbd 53aa d7bc 2d55 5ebe 7add 5cbe
000000b0: bcc0 82be 8959 33be a6ec fdbd f000 3abd
000000c0: 3b52 41be 016a 13be b0ca 9cbe 43de abbd
000000d0: 5582 2dbe 5633 5dbe 640b babd 17b7 dd3c
000000e0: 4dbc 72be 9055 42be 7980 97be 5b87 86be
000000f0: 5818 4cbe cc63 89be 825a 7cbe 756a 20be
-0.19518682 -0.20695372 -0.08427639 -0.17575161 -0.15848413 -0.18635409 -0.18640232 -0.09648961
-0.2543311 -0.4913939 -0.08403766 -0.18579316 -0.34000108 -0.092428535 -0.24531713 -0.19640686
0.016627155 -0.41088524 -0.21727476 -0.2942413 -0.42376894 -0.1189621 -0.20027253 -0.27293444
-0.16556688 -0.21844584 -0.1654599 -0.16285056 -0.092714146 -0.2681869 -0.087580286 -0.12405168
0.006760218 -0.2933296 -0.25874564 -0.16378285 -0.22864218 -0.063403055 -0.06838194 -0.43395713
-0.07794754 -0.026326334 -0.2171218 -0.21568862 -0.2553767 -0.17514624 -0.12398653 -0.04541105
-0.18879025 -0.14395906 -0.30623388 -0.083920024 -0.16944249 -0.21601614 -0.09084204 0.027064843
-0.23704644 -0.18977952 -0.29590204 -0.26275143 -0.19931161 -0.2683395 -0.24643901 -0.1566561

encoder.encoder.1.1.running_mean f4 [64]
00000000: ba61 95bf bcac 03be 5378 f6bd b518 b0bf
00000010: f6d1 12bf fc75 53bf 50bf 50bd 82b5 9bbf
00000020: 057d a0bf f494 5a3f 0c7b 04be c576 46bf
00000030: a4a0 c4bf 4bc6 a1be 167d f3be 2066 66bf
00000040: 0b51 90bd efe3 17c0 1c01 39be 8aed 39bf
00000050: 0ffe be3e 9f3d 93be dcb1 02bf 01b9 8cbf
00000060: 34f0 2bbf 43bc 9bbf 656e 99bf deab 3ebe
00000070: 770b 7abe 2f9d 74bf 80ea 87be c39d 1a3d
00000080: 5d74 54be 3800 4d3e 652b 0f3f c6e9 973e
00000090: f901 2dbf 578c 90be 58a0 27bf 939f b4bf
000000a0: f495 b1be 0482 f6bd 071e 9abf bb9b 92bf
000000b0: 033c 58bf 62b5 1ebf 8b69 bfbd ba03 c73c
000000c0: 1bc0 43bf 7445 58bf 9dad 21bf 9316 b9be
000000d0: 5526 1dbf 14a7 2dbf 297c 56bf e135 b9bd
000000e0: b8df d83d 5878 903d c6b8 4fbf 3ab5 07bf
000000f0: ae0c 7cbe a129 3abf 0acf 2bbe 3f8b 2f3d
-1.1670449 -0.12858862 -0.12034669 -1.375754 -0.57351625 -0.82601905 -0.0509637 -1.2164767
-1.2538153 0.85383534 -0.12937564 -0.7752498 -1.5361524 -0.31596598 -0.4755637 -0.8999958
-0.07046708 -2.373287 -0.1806683 -0.7262808 0.37303206 -0.2875795 -0.5105264 -1.0993959
-0.67163396 -1.2166828 -1.1986815 -0.1862025 -0.24418436 -0.95552343 -0.26546097 0.03774811
-0.20747514 0.20019615 0.5592559 0.29670542 -0.67581135 -0.2823207 -0.6547904 -1.4111198
-0.34684718 -0.12036517 -1.2040414 -1.1453775 -0.8446657 -0.6199552 -0.093463026 0.02429377
-0.76465005 -0.8448098 -0.6315554 -0.36150035 -0.61386615 -0.67833066 -0.83783203 -0.0904348
0.10589546 0.07054204 -0.81141317 -0.53010905 -0.24614212 -0.7271977 -0.16778198 0.042857405

encoder.encoder.1.1.running_var f4 [64]
00000000: 1644 eb3e 45cc 6f3e bbd6 453d c6c2 713f
00000010: c0c4 583f 9e8b 163f b071 263e ae22 273f
00000020: 4729 873f 7af6 8b3e 9b6e eb3d 3364 723f
00000030: fd78 7f3f bb8d 2a3e e221 483e 9856 023f
00000040: f75e c93c 3a11 2140 6d9b c23e d815 e13e
00000050: 9bc1 e83e de73 c33e fe3c 9e3e 04c6 6c3f
00000060: 4c26 1a3f 4bba 583f 544c 7e3f 8740 083e
00000070: 82ab b33d b1dd 553f ae33 f03d dccf b53e
00000080: 7578 293d e818 b73e 1c2d 423e 8f30 b53e
00000090: b1c3 813f 21e9 183e ce33 913f 7abe 8f3f
000000a0: 8b63 ca3e 2973 cb3e 7554 683f 28a6 673f
000000b0: 5a61 e73e 66a7 0b3f 5069 683d 59ec 3b3d
000000c0: 26fe 053f 0fe4 f73e 1fd2 1b3f 24ac 163f
000000d0: 75a8 7e3e 7eb8 3f3f 7650 403f 057c 013d
000000e0: 1ec1 5c3f 28f5 ce3d aaf4 243f 194b 0b3f
000000f0: 0e84 693e 8cfb 133f 84e5 a33e dff4 7a3e
0.45950383 0.23417766 0.048300486 0.94437826 0.84675217 0.5880679 0.16254306 0.6528729
1.0559472 0.27336484 0.11495706 0.9468414 0.9979399 0.16655628 0.19544175 0.5091338
0.024581416 2.5166764 0.38009205 0.43961978 0.4546021 0.38174337 0.30905908 0.9248965
0.60214686 0.8465926 0.9933522 0.13305865 0.08772947 0.835414 0.11728607 0.35510147
0.041374642 0.3576119 0.1896252 0.3538861 1.0137845 0.14932682 1.1343935 1.1230004
0.3952907 0.39736298 0.9075387 0.9048791 0.4519146 0.54552305 0.05674106 0.045879696
0.52340925 0.48416182 0.60867494 0.58856416 0.24868949 0.7489089 0.75122774 0.031612415
0.86232173 0.101053536 0.6443583 0.54411465 0.22804281 0.57805705 0.32011044 0.24507473

encoder.encoder.2.0.weight f4 [64, 64, 3, 3]
00000000: 6511 003d 3da9 79bc 7e1d 663a 2d47 ba3b
00000010: c610 91bc 70d8 29bd d5ec fdbb bc15 633b
00000020: 8130 a93b 8dd2 2c3d 86ec c4bb d15e 4bbd
00000030: 9a2c 333c 582c 6cbd 93dd 80bd b596 bdbb
00000040: a15d f63c 63ff 163d 6fba 8bbb 0abc 6abc
00000050: 73d3 bebc bb07 d83c dec2 203d ca9c d63a
00000060: 9e2c 54bc 8685 e33c a44a 47bc 29ae 8dbd
00000070: 6812 58bd b010 35bb ab69 70bd 3c76 4dbc
00000080: 1f38 c53c ba02 8ebd f386 84bd 5475 a7bd
00000090: f278 e13c ca97 423c 256a 303c 2f20 803d
000000a0: 5978 033d 6c12 6dbc 1112 e83b a0af 363d
000000b0: bc5f 4e3d b1e3 f93c 33ef 90bb a706 a5ba
000000c0: 9735 94bc ab64 a4bc 90db 3abd d6b1 86bc
000000d0: c5d7 713a 53f0 dfbb a540 6ab9 4b16 29bd
000000e0: cc63 bebc 37fa 993b 5a71 6dbd fe10 38bd
000000f0: 77c5 fabb 5056 39bd 51c3 d23b 7cbe 10bd
00000100: 495e 16bd fdd6 29bd a78b 1abd aea7 93bd
00000110: e819 b3bc c03c e7bb 2e3e 82bd 6ce9 71bd
00000120: c24d c83c 25d7 1d3c c0fc 453d 4c09 093d
00000130: 0150 b93c add7 043c ec57 003e 89e3 9e3d
00000140: 4afb bb3b 512b 63bd 05c3 59bd fdaa 8abd
00000150: b4c3 d33a 58d2 57bd 9c45 ddbb a3e4 8cbc
00000160: b589 cbbc e4ca e0bc 3fac c0bc f5fd 8ebc
00000170: 91c3 a83c d653 013d c18e 003d bf59 84bb
00000180: ef8e 723b 0a46 d13b 2680 f6bb c2c4 c8bc
00000190: 6a35 31bd 0c7e 5ebd 8e3e c3bd 4dd8 2fbd
000001a0: 2352 01bd 32b4 9abd eb2e 93bd 5713 aebd
000001b0: ef06 50bd 9d92 cbbc 4790 f6bc d104 38bd
000001c0: 1cbc 82bd 323a c1bc 0134 c1bc 21e5 193c
000001d0: 46fd 093d b783 46bc a700 5fbd cc48 f6bb
000001e0: 1a05 0ebc 12d3 11bc 5351 34bd c414 253c
000001f0: 7570 df3a 128d babc 17d4 df3c 99c6 f83c
00000200: 8680 af3c f985 b0bc e5a3 9d38 45b6 833d
00000210: bab3 0abd 54e8 adbc d513 423d 1382 c5bc
00000220: 430f 3bbd 1a78 63bd 7970 31bc 0a94 7dbd
00000230: 7345 f4bc cd6b 2bbd bf3d fabc d790 dabc
00000240: 2367 803c 6158 5ebc 380d cfbc e1f2 223b
00000250: 444f 95bc cded 53bc 3ca0 893c bec6 bebc
00000260: 061c 243c 259d a7bc 3313 78bd 1cf2 373a
00000270: b6cb 9cbb 5064 0abd c161 5fbc 8df6 213c
00000280: 1eca ddbc 524a 32bd 0616 a7bd 164d 77bd
00000290: ff29 37bd 4f28 55bc c380 90bc f871 17bc
000002a0: f105 21bd d5fc 9fbc ae9d d3bc 460b 193a
000002b0: 64fd 993c b16d 733b c781 2c3d dcd0 633c
000002c0: 2d8f 323d c54e a73c c84c e6bc 3be3 34bc
000002d0: 0142 0fbd 009f f3bc 47f0 1ebd 6be2 c33b
000002e0: 9462 0f3c 74f1 b1bc 32d9 69bd b79d 86bc
000002f0: 3760 08bc a602 12bc 156f e4bc 37b9 7b3c
00000300: b428 5e3b 7d66 18bc 364c 11bc b364 15b9
00000310: eb5f c23b f422 50bc 2173 103c 4d24 173b
00000320: 1c8f 74ba 769a 1e3c 0dd9 c73c de9f e13c
00000330: dad1 e5bc 3518 bd3a 52c4 963c ab4b d2bc
00000340: 4494 c3bc 6c49 d13b f36c a33c 0ba2 0e3d
00000350: f6c2 603d 51dc 8ebc 16a8 293b 145e 60bc
00000360: 397f 173d a39f 4dbb 719b a1bc 2e45 da3b
00000370: d721 aebb 51a2 313d c608 383d 2d36 fb3c
00000380: c3cc b63d ffdb c03c 2725 19bc dc4f 28bc
00000390: d393 683d 07ca 5d3d d6a3 d43c a368 2d3d
000003a0: 3036 513d 08ac a53c 930a 25bd c5bb 22bd
000003b0: 6821 35bd 51a6 3bbd 8656 0bbd 425b dbbc
000003c0: 026c 94bd 17eb 88bd 79ff d1bc 4acd a2bc
000003d0: 4c2d 3abd bce5 88bd 9c5f 2cbd 1025 84bc
000003e0: 086d a8bd 4a00 95bc 821e e23a 8069 61ba
000003f0: eb73 2cbc d30e 02bd 5072 a6ba 0d7d 2dbd
0.03126659 -0.015238103 0.00087781984 0.0056847543 -0.017708194 -0.041466177 -0.00774918 0.0034650406
0.005163253 0.042192984 -0.006009641 -0.04965097 0.010935927 -0.057659477 -0.06292262 -0.005785788
0.030073943 0.03686465 -0.004264168 -0.014327059 -0.023294186 0.026370874 0.03924834 0.0016373631
-0.012950091 0.02777363 -0.012163792 -0.06917984 -0.05275193 -0.0027628355 -0.058694523 -0.012540396
0.024074612 -0.06934114 -0.06471052 -0.081766754 0.027523492 0.01187701 0.010767494 0.062561385
0.032097194 -0.014469724 0.007082232 0.044601083 0.05038427 0.03050408 -0.004423046 -0.0012590484
-0.01809196 -0.020067533 -0.045619547 -0.01644222 0.00092255726 -0.006834069 -0.00022340061 -0.041281026
-0.023240946 0.0046990174 -0.05796943 -0.04493808 -0.007652934 -0.04524833 0.006431975 -0.03533791
-0.03671101 -0.041464794 -0.03773084 -0.07209717 -0.021862939 -0.0070568025 -0.06359516 -0.0590605
0.02445114 0.009633814 0.048336744 0.03345613 0.022621157 0.008108062 0.1253354 0.07758243
0.005736743 -0.05546123 -0.0531645 -0.06770895 0.0016156347 -0.052690834 -0.006752683 -0.017198866
-0.024845937 -0.027440496 -0.023519633 -0.01745508 0.020601066 0.031574093 0.03138614 -0.004039019
0.0037011465 0.006386523 -0.0075226007 -0.024507884 -0.04326383 -0.054319426 -0.09533416 -0.04293089
-0.031572472 -0.07553901 -0.07186683 -0.084997825 -0.050787862 -0.024850184 -0.030098094 -0.04492647
-0.06383535 -0.02358732 -0.023584368 0.0093930075 0.033688806 -0.012116364 -0.05444398 -0.0075160023
-0.0086682085 -0.008900421 -0.04402287 0.010075752 0.0017047065 -0.022772346 0.027322812 0.030368136
0.02142359 -0.021548258 7.516871e-05 0.064312495 -0.033862807 -0.021228947 0.047382195 -0.024109876
-0.04566885 -0.05553446 -0.010830038 -0.06190876 -0.029818272 -0.041850854 -0.030547021 -0.026680393
0.01567418 -0.013570876 -0.025274858 0.0024864005 -0.018226273 -0.012935114 0.016800039 -0.023288127
0.010016447 -0.020460675 -0.060565185 0.0007016973 -0.0047850264 -0.03378707 -0.013634146 0.009885442
-0.027073916 -0.04352791 -0.081584975 -0.06037625 -0.044717785 -0.013010099 -0.017639523 -0.009243481
-0.039312307 -0.01952974 -0.025832023 0.00058381667 0.018797584 0.0037144239 0.042115953 0.013904776
0.043593574 0.020423302 -0.028112784 -0.011040504 -0.034975056 -0.029738903 -0.038803365 0.005977919
0.00875153 -0.02172158 -0.0570919 -0.016432626 -0.008323721 -0.008911764 -0.027885 0.015363983
0.0033898773 -0.009301779 -0.008868268 -0.0001424726 0.0059318445 -0.012703646 0.008816511 0.0023062408
-0.0009329186 0.009680381 0.02439549 0.02754205 -0.028054167 0.001442677 0.01840416 -0.025670847
-0.02387441 0.0063869264 0.019949412 0.034822505 0.05487343 -0.01743904 0.002588754 -0.013694305
0.036986563 -0.0031375668 -0.01972744 0.006661079 -0.0053140926 0.043367688 0.044930242 0.030665481
0.08925774 0.023542402 -0.009347237 -0.010272946 0.0567816 0.054147746 0.02595703 0.042336117
0.051077068 0.020223632 -0.040293287 -0.039729852 -0.04422131 -0.04581291 -0.034018062 -0.026776914
-0.07247163 -0.06685465 -0.025634514 -0.01987328 -0.045453355 -0.06684443 -0.042083368 -0.016130954
-0.08223921 -0.018188614 0.0017251524 -0.00085987896 -0.010525684 -0.03175242 -0.0012698863 -0.042355586

encoder.encoder.2.0.bias f4 [64]
00000000: a1cf a0bc d39e ae3c a11a bfbb 34b5 96bc
00000010: 859a f23b 2669 143b 2886 713c 65d4 223c
00000020: 1a04 37bc 638f ac3c b545 173b 9ce5 c33c
00000030: 87e7 8ebc 0977 c5ba 331d bcbc de11 b8bc
00000040: 699f d8ba c659 743c 9979 903b 9e07 a33c
00000050: 4f78 6ebb bb7f 5039 ec83 67bc 9238 3fbc
00000060: 932f 703b 5634 05ba 5236 9bbc 8df2 c63c
00000070: bf7b aebb f22d b9bb f53d 2ebc 9dd0 893c
00000080: 0b03 63bc 95e5 11bc d41b 84bc 4d89 abbc
00000090: 3e51 063c 24f9 a43a 4379 bbbc ba8f 943c
000000a0: f6fc 453c 90a9 9b3c 1123 433b 5031 49bc
000000b0: bf69 5d3c 53fe 883c 301b 413c 8b5f 95bc
000000c0: 68ba 24bc 7a00 9bbc 3cd3 40bb d573 9939
000000d0: d5cf 283a c594 253c e923 a5bc b5a9 a3bc
000000e0: 0d1b 8e3c 4c44 68bb 7ff1 d4bc 465c b4bc
000000f0: bc5c bbbc afd1 c43c 9571 6cbc 1377 dd3b
-0.019630255 0.021315968 -0.005832032 -0.018396951 0.007403674 0.0022645681 0.014741458 0.009938334
-0.0111704115 0.021064466 0.002308232 0.023913197 -0.017444385 -0.0015065382 -0.022963142 -0.022469457
-0.0016527 0.014913982 0.004409027 0.019901093 -0.0036387627 0.00019884009 -0.014130574 -0.011671202
0.003664945 -0.0005081346 -0.0189468 0.02428558 -0.0053248103 -0.005651229 -0.010634889 0.016823107
-0.013855706 -0.008904834 -0.01612655 -0.020939494 0.008198081 0.0012586457 -0.02288497 0.01813494
0.012084236 0.019001752 0.002977554 -0.012279823 0.013513981 0.016722834 0.011786267 -0.018234035
-0.010054208 -0.018921126 -0.002942278 0.00029268736 0.0006439661 0.01010627 -0.020158725 -0.019978384
0.017346883 -0.0035441099 -0.02599406 -0.022016656 -0.022871368 0.024025766 -0.014431377 0.0067585795

encoder.encoder.2.1.weight f4 [64]
00000000: 325a ba3e 6924 a23e f4b2 bd3e eee6 e63e
00000010: 79ab a93e 38d8 d73e 6c3d ee3e 5a5f b43e
00000020: ae85 ab3e f3ce 993e 712a bf3e 3259 f53e
00000030: abf7 023f e94d 763e 7a58 df3e 63a4 8a3e
00000040: 5396 ef3e 7d7b 843e 3bfc c73e 4e05 b23e
00000050: cf94 b73e ddb9 8e3e e25f 013f 7089 d13e
00000060: 15e9 df3e 4c40 a53e bbad fd3e 91a7 633e
00000070: 1b7d f53e 6d0f c43e af89 0d3e 9c7d d33e
00000080: 3875 ba3e e056 d33e e80c aa3e 1f49 bc3e
00000090: 7f15 ca3e 74fd e43e c8ca fb3e 641d ad3e
000000a0: 8714 b83e 5c69 d23e b50e b33e fac1 a63e
000000b0: d373 093f 48b4 bb3e ac3e a93e 3584 b13e
000000c0: 88d8 cd3e c1c1 3e3e 3698 de3e aea1 fe3e
000000d0: 12f2 d63e 6af0 c73e f17c e23d 0c38 023f
000000e0: 02c6 e33e f7bf ca3e 7052 eb3e 6fcc d33e
000000f0: 1ba6 8e3e 9e7e 9f3e 627c d33e 1b3e ae3e
0.3639694 0.31668404 0.37050593 0.4509806 0.33138636 0.4215715 0.46531236 0.35228997
0.33500427 0.30040702 0.37337068 0.47919613 0.5115916 0.24053158 0.4362219 0.27078542
0.46794376 0.25875464 0.39059624 0.34769672 0.3585572 0.27876177 0.5053693 0.4092517
0.43732515 0.32275617 0.49546608 0.2223189 0.4794701 0.3829302 0.13822053 0.4130677
0.36417556 0.41277218 0.33212972 0.36774537 0.39469525 0.4472462 0.49178147 0.33811486
0.3595316 0.41096008 0.34972158 0.32569867 0.5369236 0.3666098 0.33055627 0.34671178
0.40204263 0.18628599 0.43475503 0.49732727 0.4198156 0.3905061 0.11058987 0.5086677
0.44487005 0.39599583 0.45961332 0.41366908 0.27861103 0.3115129 0.41305834 0.34031758

encoder.encoder.2.1.bias f4 [64]
00000000: 6858 9abe b2e6 5abe f4d1 2cbe 571e c5be
00000010: 2d5e 9dbe f9df c8be dad8 9ebe 43f2 61be
00000020: 6fbc b2be 79de fdbd a1d0 a0be d2ef c1be
00000030: 94e9 bdbe 29c5 d9bd 41bf ccbe c104 80be
00000040: cc90 efbe 1496 0dbe f6a9 9fbe ca61 7dbe
00000050: f0fb 88be 5e4b 9bbe 7411 cbbe 1061 80be
00000060: b61e b4be b1e6 a9bd f1f3 b0be 5783 26be
00000070: 3e0d abbe e7be b1be 1a4b a5bc f044 9cbe
00000080: 8c7c 30be aaca d2be 2ddf 8cbe 01ac 90be
00000090: d318 9abe 11c0 77be e2cf 87be c62b 70be
000000a0: efd4 49be 70ac e3be 8de6 9abe 35f7 59be
000000b0: 5f42 cdbe 3948 aabe ad2e 7dbe 8328 4abe
000000c0: 8e74 9fbe bdd4 fb3c d8d1 abbe 6607 a0be
000000d0: 5f89 5fbe 38fa cebe c47a 4c3c 0a9e 18bf
000000e0: 12cc e0be d2a2 6ebe 7f2f c2be 5e33 cebe
000000f0: acbd 5cbe 9ee2 1abe e7a9 76be a909 73be
-0.30145574 -0.21377066 -0.16876966 -0.3849971 -0.30735913 -0.39233378 -0.3102482 -0.22065072
-0.34909388 -0.12395949 -0.3140917 -0.3787828 -0.37092268 -0.106333084 -0.39989665 -0.25003627
-0.4679016 -0.13826782 -0.31184357 -0.24744335 -0.26754713 -0.30330938 -0.39661753 -0.25074053
-0.3517968 -0.08295954 -0.34561113 -0.1626104 -0.3340854 -0.3471596 -0.020177413 -0.30521345
-0.17235011 -0.41170245 -0.2751402 -0.2825623 -0.30097064 -0.24194361 -0.2652579 -0.23454198
-0.19710134 -0.44467497 -0.3025402 -0.21285708 -0.400897 -0.33258227 -0.24724837 -0.19742016
-0.31143612 0.03074109 -0.33558536 -0.31255645 -0.21829747 -0.40425277 0.0124804415 -0.5961615
-0.43905693 -0.23304299 -0.37926862 -0.40273565 -0.21556729 -0.1512551 -0.2408825 -0.23734154

encoder.encoder.2.1.running_mean f4 [64]
00000000: c77d b8be 861b 13be d71c f9be 3489 b1be
00000010: b874 a93d ef44 59bd f5ca 26bf caed 40be
00000020: 0398 61bd 2056 85be 67c6 e6be 3b1d 9fbe
00000030: e8b8 29bf 0aac 80bc 9945 d1be 5f2c aa3d
00000040: 6225 04bf 1ff5 62be 0940 c03d 106f 0cbe
00000050: 05c8 77be 859e 0f3e f055 51bf 06ad 14bf
00000060: 43c7 7bbe 7f39 76be 9bb5 1bbf 87ed 5fbd
00000070: 5e08 60bf 98c9 afbe 9a2c 96bd 8b65 d0be
00000080: 7a93 7cbf dd69 d8be 0b46 503e 675a 08be
00000090: fe67 5bbe d814 08bf 63f2 43bf 0378 72be
000000a0: 85eb 64be 1731 31bf 84d2 94be a8cd 0abe
000000b0: 2b80 41bf 8023 96be cff2 babe c53b b6be
000000c0: 2720 02bf a59c 25bc 31a3 e7be 6a3f 32bf
000000d0: dfa0 e0be 698b 043d 6654 e2bd 0011 30bf
000000e0: 07e9 c9be 7c35 02bf bc7b adbe f44e f7be
000000f0: 57d2 023c f1ac 86be c65a 3ebf eb11 c8be
-0.3603346 -0.14365968 -0.48654816 -0.3467499 0.082742155 -0.053044256 -0.6515344 -0.1884071
-0.05507661 -0.2604227 -0.45073244 -0.3107699 -0.6629777 -0.015707035 -0.4087341 0.08309244
-0.5161954 -0.22163819 0.09387214 -0.13714242 -0.24197395 0.14025314 -0.81771755 -0.5807651
-0.24587731 -0.2404537 -0.6082398 -0.054669883 -0.8751277 -0.3433349 -0.07332726 -0.4070247
-0.9866253 -0.42268267 0.2033922 -0.13315736 -0.21426389 -0.53156805 -0.7654173 -0.23678593
-0.22355469 -0.6921553 -0.2906686 -0.13555014 -0.75586194 -0.2932396 -0.36513373 -0.35592476
-0.5083031 -0.010108148 -0.45241693 -0.6962801 -0.43872735 0.032359514 -0.11051254 -0.6877594
-0.39435598 -0.5086286 -0.33883464 -0.48302424 0.007984719 -0.2630382 -0.7435726 -0.3907617

encoder.encoder.2.1.running_var f4 [64]
00000000: b7ca a73d 0292 763d e41b 2b3e 48d2 323e
00000010: 984c d53d 2720 043e daab 913e d6c3 c33d
00000020: 3ceb 983d 57a6 633d 2037 c33d 4b40 443e
00000030: 58ef 763e 7fe7 403d afb6 f73d 4147 3a3d
00000040: 7531 1d3e bd7d 0f3d 09e9 513e 0857 ea3d
00000050: f24c b53d 4547 aa3d ecec 8c3e aa04 223e
00000060: 5349 253e 8ced bc3d c15f 543e 97c6 d33c
00000070: 1691 143e 6323 3b3e 03c0 083c c2e6 1b3e
00000080: aa04 533e 351e 033e 7334 cc3d b97c 0e3e
00000090: b977 013e 35e8 2c3e 313d 503e 08a2 d83d
000000a0: 5ca2 ee3d 4953 323e 8818 073e 7c9b 383d
000000b0: 0be3 953e eea7 c23d 1e62 c03d 2540 943d
000000c0: ab2c 0a3e 8115 593c 00b6 813e e3c0 6a3e
000000d0: 168e 723e 5622 223e 65c9 ea3b 9894 053e
000000e0: ba79 093e 323f 423e 16a1 7b3e eed6 d13d
000000f0: cb4c 523d c95e 3c3d b385 0b3e 26c5 373e
0.08192962 0.060197838 0.16709858 0.17463028 0.10415 0.1290289 0.28451425 0.09558837
0.074667424 0.055578556 0.09531999 0.19165151 0.2411474 0.047095772 0.12095391 0.04547811
0.15350898 0.035032023 0.20499052 0.11442381 0.08852567 0.08314375 0.27524507 0.15822092
0.16141252 0.09224996 0.20739652 0.025851531 0.14508471 0.18275218 0.00834656 0.15224746
0.20607248 0.12804492 0.099709414 0.13914765 0.12643327 0.16885455 0.20335843 0.1057778
0.11652061 0.17414583 0.13192952 0.045070156 0.29274783 0.09504686 0.09393714 0.07238797
0.13493602 0.013249756 0.25334167 0.22925143 0.23687014 0.1583341 0.0071651214 0.13044965
0.13425341 0.1896942 0.24573168 0.10246073 0.051342767 0.04598883 0.13625221 0.179463

encoder.encoder.3.0.weight f4 [64, 64, 3, 3]
00000000: 51ed 63bb 105e cabb 919c 803c 718d 3fbc
00000010: b901 d53c e7ab 923b 0f6d fdbb 4499 ffbc
00000020: d8e0 b5bc 61ae a0bd 1577 94bd f5ae ccbc
00000030: 9b6b 45bd 6f0b 0abd 2111 4b3c 1d87 e83c
00000040: 8cc2 00bc d422 e23b 71bb ba3c 210d a23b
00000050: 9ff2 f9bc ee0c 833c 398a 463c ba1d 86bc
00000060: 4915 37bd 4638 7bbd 27f9 84bd c50b e03c
00000070: 6bdc 023c d97a d83c 7e90 4f3d abdf 8d3d
00000080: 61aa 813d 2d1a 8e3d 3dbb f63d 6f80 a53c
00000090: 6f7c 85bc e968 2bbb 741f 90bc 6513 72bb
000000a0: ca42 11bc 1c2a 1a3c 90cc 6ebc 7f59 64bd
000000b0: 7dba 14bd ebb2 e23c e8d0 203d cdc8 ee3a
000000c0: 2950 2a3c a402 aabc 3b03 cebc 4a5e 1d3b
000000d0: c7e5 dfbc a609 4f3c c574 d43b 1582 a43c
000000e0: 92f0 a1bc dcdf 433d 5db5 9b3b eff8 1a3c
000000f0: 7839 bebc 31e8 8bbc 17cc a13c cf96 e6bc
00000100: a262 38bd b368 59bd 85e2 2ebd d7e7 08bd
00000110: 7a6c 48bd bfec 46bc 1da3 a2bc 7f57 c9bc
00000120: f277 09bd 3e43 d2bb 6d01 2cbb 8475 70bd
00000130: 40f5 92bd e8cb 2cbd 391f c2bd 49d3 b6bd
00000140: e508 5bbd 440f d6bc c440 633c 0037 0e3d
00000150: 4d22 b1bc 800c f43c 4cc6 9e3d c84b 65ba
00000160: 80f5 673d 67db 833d 7705 1fbd 2c5d 89bc
00000170: 2316 0ebd 0f52 3c3a 9272 80bc f041 12bc
00000180: b7f9 98bb 5109 dcbc 7361 68bc 0fca 893c
00000190: bf0f 9cbc 3a21 0f3d 028c 6eba 53f3 34bd
000001a0: eb52 93bc 7e30 2e3d 098d 9ebc c4d4 f6bc
000001b0: 5f99 073d b979 b73d 36bd 773c e1ed 193d
000001c0: 85a6 3e3c b92c 9b3c 36f1 133d ad57 463d
000001d0: f644 803d ea83 17bd 6c6e 66bc 671d 13bc
000001e0: 33eb 0c3c 43c0 5fbb ac2f 4cbc 248b 063d
000001f0: 7fdd 1dbc 1ab1 bdbc 3e22 82bc a402 383c
00000200: 11a7 93bc 32fa cbbc d234 283c a6ae 323c
00000210: f061 c63c 733c 0e3d 243a 9e3c e5c9 883a
00000220: a05b 35bb a257 5e3c afd1 35bc 3a49 4bbc
00000230: a73a 993c 1c98 89bc 1545 523c ee39 153d
00000240: 4b4c c7bb a8ec 24ba e711 0abd 3a6c 44bb
00000250: 8801 343c 0180 a0bc a392 b93c 1991 af3c
00000260: feee 1ebd 864c b43c 38d4 4b3d 78db 993c
00000270: 11a9 f13c 1664 ab3c ab96 173d 1a2e ab3c
00000280: 4a10 de3c 58f2 173d b3c8 943d 99d8 c93c
00000290: 6c4f a63d d397 bbbc dcc9 27bd 25e9 dfba
000002a0: bd68 fcbc aab9 92bd 91ff b1bd 84b5 2bbd
000002b0: 8f8c 6dbc e88d b93b a224 1cbc b8f3 94bc
000002c0: db7a 33bc 1132 493c 423c c1bc 165a 193a
000002d0: f733 2ebd 1729 75bd c2c3 4cbd a408 a73c
000002e0: 8c13 76bb 1648 d9bc 300e ba3c dfdd c23c
000002f0: 1a4b e1bc 10cc 1e3d 472e 973b 972e 823c
00000300: cb70 8e3d 28fb 723d 85fe ed3c f270 de3d
00000310: 4b54 853d 95e1 cf3d 838a 823d 23c7 553d
00000320: 7079 7cbc da22 173d 749a 213d 5d1a 9b3c
00000330: 126b 7ebc bb0a 84bb 67bc e5bc 000d 483d
00000340: a053 e83b f259 833c 9fac bebc e894 6fbd
00000350: 7412 dabc 2c92 afbc ec76 68bd 3368 bfbd
00000360: bc5a db3c 61b8 343d 171f adbc 4d2f 0b3d
00000370: bf2c 2d3d dc11 2f3b 2c79 403c ccc5 9f3c
00000380: 9f5e 28bd 92c7 cf3c 74fd 963c 7ddb 13bd
00000390: e86c 1e3d 6449 103c 9cf1 2ebd 6352 7d3c
000003a0: 9baa 163b a9e5 49bd cd2b cebc 9f9a b9bc
000003b0: a6df a93c fbf8 f6bc 85a1 663b c646 143d
000003c0: 1eed 86bc 47dc 853c 230b c23d a29c aabc
000003d0: 015b ccbc 1603 93bc 4b03 033d 8da7 073d
000003e0: 566c 3f3c 0f53 0e3c e261 d43b 5af0 273b
000003f0: 8df6 5d3c c274 7c3a d0de 30bc 9698 fc3c
-0.0034778903 -0.006175764 0.015699657 -0.011691437 0.026001798 0.0044760588 -0.007733948 -0.031201012
-0.02220194 -0.0784576 -0.072492756 -0.02498577 -0.048198324 -0.03370231 0.012394221 0.02838474
-0.007858884 0.0069011245 0.022794457 0.0049454127 -0.030511199 0.015997376 0.012117916 -0.016371597
-0.044698033 -0.061332963 -0.064928345 0.027349362 0.007987122 0.026425766 0.050674908 0.06927427
0.06331325 0.069385864 0.120474316 0.020202843 -0.016294686 -0.002615506 -0.017593123 -0.003693783
-0.008866021 0.009409454 -0.014575139 -0.055749413 -0.03631066 0.027673205 0.03926173 0.0018217802
0.010395088 -0.020753212 -0.025148025 0.00240125 -0.027331246 0.012636578 0.0064836466 0.02008156
-0.019768033 0.04782091 0.004751845 0.009458764 -0.023220763 -0.01707849 0.019750638 -0.028148083
-0.04501594 -0.053078365 -0.042696495 -0.033424225 -0.048931576 -0.012141406 -0.01985317 -0.024577854
-0.033561654 -0.0064167073 -0.0026245967 -0.05870582 -0.07175684 -0.042186648 -0.094786115 -0.08927018
-0.05347528 -0.026130326 0.013870422 0.03472042 -0.021622801 0.029791117 0.07752666 -0.0008746949
0.05663061 0.06438332 -0.03882357 -0.01676806 -0.03468908 0.00071838585 -0.015679631 -0.008926854
-0.00466844 -0.026859911 -0.01418339 0.016819982 -0.019050477 0.034943797 -0.0009099842 -0.044177365
-0.017983874 0.042526715 -0.01935436 -0.030130751 0.03310525 0.08958764 0.015120795 0.037580375
0.011636381 0.018942224 0.03611871 0.048423458 0.06263153 -0.036991037 -0.014064413 -0.008979178
0.008600998 -0.0034141697 -0.012462538 0.03284754 -0.009635328 -0.023155738 -0.015885469 0.011231098
-0.018024 -0.024899576 0.0102665 0.010905897 0.024216622 0.034725618 0.019314833 0.0010436146
-0.002767302 0.013570698 -0.011097356 -0.012407595 0.018704725 -0.016796164 0.012833853 0.0364322
-0.006082093 -0.0006291368 -0.03370848 -0.0029971735 0.010986693 -0.019592287 0.02265293 0.021431493
-0.03880214 0.022009145 0.049762934 0.018781409 0.029499562 0.020921748 0.037008923 0.020896006
0.027107377 0.03709635 0.07264843 0.024639415 0.08120617 -0.022899544 -0.040963992 -0.0017083032
-0.030811662 -0.07164319 -0.086913235 -0.041921154 -0.014498844 0.0056626685 -0.009530218 -0.01818262
-0.010954584 0.012280003 -0.023588303 0.00058499107 -0.042530026 -0.05985364 -0.049991377 0.020389862
-0.0037548272 -0.026523631 0.022711843 0.023787437 -0.027501632 0.038768828 0.004613671 0.015891356
0.06955107 0.059321553 0.029052028 0.10861386 0.06510218 0.10150448 0.06374075 0.052191865
-0.015409812 0.03689847 0.03945394 0.01893347 -0.015528457 -0.0040295995 -0.028043939 0.048840523
0.007090047 0.0160341 -0.023275672 -0.058491617 -0.026620127 -0.021432005 -0.056754038 -0.09346046
0.026776664 0.04412115 -0.021132989 0.033980656 0.042279 0.0026713526 0.01174764 0.019503497
-0.041105863 0.025363717 0.018431403 -0.036097992 0.03867808 0.00880656 -0.042710885 0.015461537
0.0022989872 -0.049291287 -0.02516737 -0.022656737 0.020736527 -0.03014802 0.0035191488 0.036200307
-0.016470488 0.016340388 0.094747804 -0.020826641 -0.024945738 -0.017945807 0.031985562 0.033118773
0.011683544 0.008686795 0.006481395 0.0025625438 0.013547552 0.00096304354 -0.01079531 0.030834477

encoder.encoder.3.0.bias f4 [64]
00000000: 14b3 143c f388 943b 6333 77bc 70ea 27bb
00000010: b1e3 adbb 1f2d 2bbb 6fdd 4fbc 30d8 25bc
00000020: 5637 2c3c 570e 3ebc c7eb 8d3b 4ca2 e73b
00000030: c639 aabc 30f1 b03b 482a ad3c c605 1cbb
00000040: 95bd b13c 454b c1bb 815a a0bc 4230 c03c
00000050: b23d bfbc e911 91ba 112a 1a3c 0f0b 343c
00000060: 892e 60bc a142 b7bc 7b9f 44bc 50dd b73c
00000070: ecd4 fe3b cb30 98bb 6f26 a6bc ed9d 85bc
00000080: 82bd 95ba 78da 413c 3e79 ae3b 2ce5 c83b
00000090: e5d3 b8bc f40b 2dbc 59d6 68bc ae30 0dba
000000a0: 8c41 c23c d04c 1b3b 8165 a83c 65a9 c2bc
000000b0: 96c4 c23c 2014 b0bc 1d85 e73b cdb6 c5bc
000000c0: f96a 073c 86aa 51bc b6ac d23b b97e 663b
000000d0: 88c3 7d3c 27b5 a63c 147d a0bc a624 10bc
000000e0: aad2 a63c a03a fc3b ce2e 12bc f162 4fbc
000000f0: 3d84 90bc 96d2 a83c 913e d2bc 4c8e b3bc
0.009075899 0.004532927 -0.015087935 -0.0025621913 -0.005306684 -0.0026119424 -0.012687071 -0.010122344
0.01051124 -0.011600099 0.0043310854 0.007068908 -0.020779502 0.0053998455 0.021138325 -0.0023807152
0.021696845 -0.0058988654 -0.019574406 0.023460511 -0.023344848 -0.001106796 0.0094094435 0.010988965
-0.01368297 -0.022370638 -0.012000914 0.022444397 0.007776847 -0.0046444885 -0.020281998 -0.016310656
-0.0011424276 0.011831872 0.005324512 0.006130835 -0.022561977 -0.010561932 -0.014211261 -0.0005385977
0.023712896 0.0023696907 0.020556213 -0.023762414 0.02377538 -0.021493971 0.007065429 -0.024135018
0.00826525 -0.012797004 0.00642928 0.0035170747 0.015488513 0.020350052 -0.019590892 -0.0087978
0.020364124 0.0076974183 -0.008922292 -0.012657867 -0.017641181 0.020608228 -0.0256646 -0.021918438
