saves_concept/finger/domain_4/max_acc.pth (torch_old, 606194 bytes, 28 tensors)

encoder.encoder.0.0.weight f4 [64, 2, 3, 3]
000000 67 9d 90 bd 28 b6 55 3d e9 db ae bd df f8 20 3e
       -0.07061272 0.05217567 -0.08538038 0.15719937
000010 d8 07 6c bc 51 ab de bd cd 5c d1 bd 42 ec 17 3d
       -0.014406167 -0.1087252 -0.102227785 0.037090547
000020 40 b8 f4 3d 6c d8 5f 3d 1e ba 06 be 18 1f f5 bd
       0.119492054 0.054649755 -0.13156936 -0.11968821
000030 db c6 ab bc 93 50 2a 3e 97 ec 0a 3e e6 e5 03 be
       -0.020968845 0.16632299 0.13566814 -0.12880668
000040 ee 5b 05 3e c7 bd eb bd 2c d9 eb bd 17 17 25 3d
       0.1302335 -0.115108065 -0.115160316 0.040305223
000050 6c 51 d2 3d 53 f3 83 bd 5a b4 19 3e 69 c1 e5 bd
       0.10269436 -0.06442895 0.15010205 -0.11218531
000060 f8 5e 7c bd 3c 51 16 3d c8 b9 dd 3d f5 e8 cd bd
       -0.061614007 0.036698565 0.108264506 -0.10054199
000070 45 92 a3 bd ee 01 ac bd d1 98 c9 3d a5 45 b1 bd
       -0.07986883 -0.083988056 0.098436005 -0.08655862
000080 52 fc 05 be 31 c2 57 bc 69 2b a4 bc 80 59 f7 bc
       -0.13084534 -0.013168857 -0.02004023 -0.030194044
000090 0a 4c 77 3d 21 ca 01 be 50 7f fb bd 46 f7 e9 bd
       0.06037525 -0.12674762 -0.12280142 -0.11424117
0000a0 29 20 06 3e 0c 43 08 be f5 6c bf 3d 2e 27 f5 3d
       0.13098206 -0.13306826 0.09346954 0.119703636
0000b0 d1 49 e0 bd a2 8c 83 bd 22 8e 85 3c 88 30 93 bd
       -0.10951579 -0.06423308 0.016303126 -0.07186991
0000c0 22 eb c3 3c e7 07 13 3d 00 90 91 3d 4c 1a 25 3d
       0.023915831 0.035896208 0.07107544 0.04030828
0000d0 95 c3 f2 bd 90 9d c3 bd 5f 95 cf bd c0 92 cc 3d
       -0.118537106 -0.09551537 -0.10135912 0.09988928
0000e0 09 1f dd bd c9 fc a7 3d 9d 5e 5f 3d e3 c2 6c bc
       -0.10796935 0.08202512 0.05453359 -0.0144507615
0000f0 ac f8 f2 bc 48 53 17 3e c8 09 09 be fc f9 b4 bc
       -0.029659592 0.14777863 -0.13382638 -0.022091858
000100 a3 7a ca bd b2 f6 04 be 30 0b de 3d 35 11 17 be
       -0.09886672 -0.12984732 0.108419776 -0.14752658
000110 54 1e c6 bd cf bf 0a 3e f8 68 fb 3d cb 99 f4 3d
       -0.096737534 0.13549732 0.122758806 0.11943396
000120 4b f6 5b bc 5f 5d 1e be 8d 38 ee bc 5d 28 e4 3d
       -0.01342542 -0.15465306 -0.0290797 0.11140511
000130 29 dc 7c bc 01 7b 21 3d d6 db d5 bd 3f 7a 0b 3e
       -0.01543335 0.039423946 -0.10442321 0.13620852
000140 f9 59 6c 3d ff b4 01 be 0e 14 c6 3c 66 28 09 bc
       0.057702992 -0.12666701 0.024179485 -0.008371448
000150 8f 7f 58 3d bc f6 b8 3d cc dc 9f 3d 48 52 d6 3d
       0.052856024 0.09031436 0.078057855 0.10464913
000160 15 a0 88 3d 48 ea ba 3d 90 63 2e be 16 cb 60 3b
       0.06671158 0.09126717 -0.17030168 0.0034300736
000170 c0 4e a4 3d dc b8 ea bd 71 f3 a5 3c 67 24 42 bd
       0.08022833 -0.114610404 0.020257683 -0.047397997
000180 72 d6 bc 3c 69 6c e5 3d ea c7 b8 3d 82 d0 f8 3b
       0.023051474 0.11202318 0.090225056 0.0075932154
000190 dc 33 7a 3d 9e 16 df 3d fc 40 2e be a1 22 5b 3c
       0.061084613 0.10892986 -0.17016977 0.013374955
0001a0 89 1e 27 be c4 ce 0c 3e 7d 8f 5b bd 40 34 77 3d
       -0.16320242 0.1375075 -0.053603638 0.060352564
0001b0 4e 27 ff bd 10 5a f9 bc 5d 7a e3 bd f5 4f 09 3e
       -0.12458669 -0.030438453 -0.11107323 0.13409407
0001c0 e0 b9 76 3d ac b4 06 3e 85 a8 00 3e 38 ec 97 3d
       0.060235858 0.13154858 0.12564285 0.07418102
0001d0 07 0e 38 bd 46 a8 d4 bb e3 6d a3 bd b1 ef 89 3d
       -0.044935253 -0.0064897863 -0.079799436 0.06735171
0001e0 38 9a 19 be b7 80 f1 bd 13 d0 09 bd c6 51 65 3d
       -0.15000236 -0.117921285 -0.0336457 0.05598619
0001f0 d6 c1 c2 3d 2f 9b 0c 3e 12 0a 5e 3d ba 76 09 3e
       0.095096275 0.13731073 0.054208823 0.13424197
000200 1f b6 06 be 4c 4b bc bd a4 a3 f0 3b e0 07 ff 3d
       -0.13155411 -0.09194049 0.007343726 0.12452674
000210 ef 35 9b bd 65 3e b1 bb c4 29 67 bc 14 a0 17 be
       -0.075786464 -0.0054090493 -0.014109079 -0.14807159
000220 e7 f6 cf bc 5d c8 80 3c 3f 91 15 bc a4 2c 7e bd
       -0.025386287 0.01572054 -0.009128868 -0.06205429
000230 9e d6 84 bd a6 94 04 3e be 1e bd 3d 49 7d 91 3d
       -0.064862475 0.1294733 0.09234379 0.07103974
000240 1a 07 13 3d 54 89 5a bd 93 e1 0e bc ed 6a 34 bd
       0.035895444 -0.053353623 -0.008720773 -0.044047285
000250 db ec 84 bd 02 95 c4 bd 89 e9 8d 3b d3 49 05 3c
       -0.06490489 -0.095987335 0.004330818 0.008135277
000260 19 fe 7d bd 9e 44 fd bd 7b 88 06 3e 46 02 f7 bd
       -0.062009905 -0.12366603 0.13138 -0.120609805
000270 5f 42 77 3d 03 9c 62 bd 7e fa f6 bc 86 96 36 3e
       0.06036603 -0.055324566 -0.03014874 0.17830858
000280 b6 76 d2 3d a4 87 aa bd 2e 7a 14 be 96 4a 45 bd
       0.102765486 -0.08326653 -0.14499733 -0.048166834
000290 cc d5 0d 3d 98 4e 1b be 4f 17 8f 3d ff 18 ce 3d
       0.03462772 -0.151667 0.06986868 0.100633614
0002a0 96 03 ce 3d 6b df 8b bc af db 45 3d 93 79 23 bd
       0.10059278 -0.017074307 0.04830521 -0.039910864
0002b0 4b b8 dd bc 5b 78 af 3d ed 53 19 3e b0 85 25 be
       -0.027065417 0.08567878 0.14973421 -0.16164279
0002c0 5b 84 01 be 24 25 7f bd b6 7d 4c 3d bd 25 fe 3d
       -0.12648146 -0.06229128 0.049924575 0.12409542
0002d0 bc 4c 28 ba ea 0e 93 3c e7 81 9e 3d ed 02 b2 bd
       -0.0006420126 0.017951448 0.07739621 -0.08691964
0002e0 18 b0 08 3e 2a 68 8b bd 30 d3 2c bd e3 07 f9 3d
       0.13348424 -0.06806977 -0.04219359 0.121597074
0002f0 7a df 2c 3d 7b a1 3c 38 31 a4 0b be 09 f3 00 be
       0.04220531 4.4973083e-05 -0.13636853 -0.1259271
000300 2f 81 29 3d cf 96 c8 3d 6a 17 91 bc e2 72 6b 3d
       0.041382965 0.097943895 -0.01771136 0.057482608
000310 b8 9b 6d bd b0 05 ba 3d b9 26 6d 3b 0e 97 bc 3b
       -0.058009833 0.09083116 0.003618641 0.005755312
000320 84 70 06 bd 1d 53 ec 3d c7 7f 51 bd 1a 3f d8 3d
       -0.032822147 0.1153929 -0.05114725 0.10558911
000330 ff 87 ba bd 5b 70 b9 3d 0a 63 16 3e 7c 0b e9 3b
       -0.091079704 0.09054633 0.14686218 0.0071119647
000340 e3 af a5 bd 3a 2c b6 3d 43 fe ad bc 6d 4a 0a be
       -0.08090188 0.08895154 -0.021239405 -0.13504954
000350 30 25 e8 bd d5 9e 0a be 98 dc c4 bd f4 ec aa bd
       -0.11335218 -0.13537152 -0.096123874 -0.083459765
000360 52 22 33 bd be 97 88 bd c8 d3 08 be 21 b9 55 3d
       -0.043733902 -0.066695675 -0.13362038 0.052178506
000370 f8 b1 bf 3d 0f da 2f 3d 0a 81 2d 3e d0 78 11 bd
       0.09360117 0.042932566 0.16943756 -0.035515606
000380 c9 fe ec bd 8e 99 5b 3d 68 95 c4 3d b1 6f f7 3d
       -0.11572034 0.053613238 0.095988095 0.1208185
000390 f9 34 07 be 4e 6d 4e 3d 53 c7 be bb 0b 2d 16 be
       -0.13203801 0.05039721 -0.005822101 -0.1466562
0003a0 bb 43 96 3d b3 1c 81 3c c4 77 2e bd 4a 3b a9 3d
       0.07337137 0.015760755 -0.042594686 0.082632616
0003b0 0d 37 0a 3e 14 f4 89 bd 38 d5 00 3e 02 4b d0 bd
       0.13497563 -0.06736007 0.12581336 -0.101705566
0003c0 9f 21 12 be d3 85 59 3d 88 5c 60 bd 13 5e 2c 3d
       -0.14270638 0.05310614 -0.054775745 0.042081904
0003d0 aa 9f cb 3d c8 39 13 be 19 ce 94 bd 59 db 6d 3d
       0.09942563 -0.1437751 -0.072658725 0.058070514
0003e0 5a 5d 5b 3d 7b 31 b0 3d ab 90 de 3d 7e d1 c2 3d
       0.053555824 0.08603188 0.10867437 0.09512614
0003f0 ce 73 73 3c cc e4 25 3e 5c ad a4 bd 4f d3 07 3e
       0.014859153 0.1620056 -0.08040878 0.13264202

encoder.encoder.0.0.bias f4 [64]
000000 81 bc d8 3c be 7c d5 3d 82 ca c3 3d 7c e7 ae bb
       0.026457073 0.10424183 0.0956011 -0.0053376537
000010 9f 56 ff 3c ce e6 f4 bd f8 75 a1 3d ca 83 16 be
       0.031169234 -0.11958085 0.07883829 -0.14698711
000020 43 40 c5 bd 68 28 04 be 9f 08 d1 3d 0e 33 e9 bd
       -0.096313976 -0.12906039 0.102067225 -0.11386691
000030 f6 1f d9 3d 8d 88 a7 bd d1 c4 1c bd 8b 94 14 be
       0.10601799 -0.08180342 -0.038273636 -0.1450979
000040 d3 b4 0e be d7 df 37 bd a4 dc 86 3d 71 25 6d bc
       -0.13936166 -0.044891205 0.065850526 -0.014474259
000050 ff fb 18 bd 4c ad bb bb 63 5a 2f bc 5f 73 36 3d
       -0.037349697 -0.0057274457 -0.010702702 0.04454362
000060 f9 a8 e7 bd d7 d2 14 3d 25 8b 58 3d cf a5 c0 3d
       -0.11311526 0.036333885 0.052867074 0.094066255
000070 e8 aa 99 3d 63 7c ca bd 78 09 d4 bd bb 9e 83 bd
       0.07503301 -0.09887006 -0.103533685 -0.0642676
000080 a1 f5 52 bd 28 31 be 3d 05 42 0f be 07 5c 8b 3d
       -0.05150378 0.092867196 -0.13990028 0.06804662
000090 e0 42 89 3c 63 36 57 bc d3 34 48 3a dd b1 09 be
       0.016755521 -0.013135525 0.0007637266 -0.13446756
0000a0 24 55 f4 3d bf 61 98 3d 25 4e 18 3e be 46 10 be
       0.11930302 0.074405186 0.1487356 -0.14089486
0000b0 6f 22 5a 3d 2f 2e 40 3d 42 b5 1b 3e a3 e6 3c bd
       0.053255495 0.046919044 0.15205863 -0.04611839
0000c0 fa d8 6e 3d 25 88 01 3e e0 6d 6a 3d e6 21 48 bd
       0.058312394 0.12649591 0.05723369 -0.048860453
0000d0 cb f5 13 be 2d 15 9d bd 53 c2 14 3d 01 d6 ab bd
       -0.14449231 -0.076700546 0.036318135 -0.083904274
0000e0 f5 96 05 3e f6 aa 87 3d ea a1 f4 3c b6 37 5f bd
       0.13045867 0.06624405 0.029862363 -0.05449649
0000f0 37 ae 94 3d f2 8c 08 3e 47 b1 04 3e bd 76 b5 3d
       0.07259791 0.13335016 0.12958251 0.08860538

encoder.encoder.0.1.weight f4 [64]
000000 9e 7e 26 3f 86 0e 70 3e 59 47 13 3e 22 6f 38 3e
       0.6503695 0.2344304 0.14382686 0.18011144
000010 c8 78 07 3e fe a0 1b 3f db 53 80 3e 61 97 2f 3e
       0.13229668 0.6079253 0.25063977 0.1714759
000020 cd c7 f4 3e 91 50 ae 3e 6f 5e 4b 3d ca 58 88 3e
       0.47808686 0.34045842 0.049650606 0.2663024
000030 e3 a4 03 3f c5 23 d9 3e ac d6 b7 3e 46 7c 2d 3f
       0.5142347 0.42410102 0.3590597 0.6776775
000040 5c d7 0a 3f 4b 1b 2b 3f a5 8d c8 3c 54 61 28 3d
       0.5423486 0.6683852 0.024481604 0.041108444
000050 5f 1b 0c 3f f8 b8 8a 3e a0 f3 07 3f 78 5b 0a 3f
       0.54729265 0.27094245 0.5310612 0.5404582
000060 d7 6f 2c 3f 0d 76 22 3f 5e b3 70 3e 72 53 27 3e
       0.67358154 0.6346138 0.23505923 0.16340426
000070 60 be ca 3e 89 9e 96 3e b3 98 b4 3e f7 64 bf 3e
       0.3959837 0.29417828 0.3527275 0.37381718
000080 f5 38 23 3d 22 73 12 3f 3c fc ac 3e 34 35 91 3e
       0.03984924 0.5720693 0.3378619 0.28360903
000090 64 d2 03 3f 44 93 45 3e 0d 75 1b 3f c1 18 a2 3e
       0.51492906 0.19294459 0.6072548 0.3165951
0000a0 88 6d fe 3d 26 14 16 3f 7d 5c 03 3f e3 e3 eb 3e
       0.12423235 0.58624494 0.51313 0.460723
0000b0 b2 72 9b 3d 68 88 8d 3e 84 7f d1 3e 89 36 9d 3d
       0.07590236 0.27643132 0.409176 0.076764174
0000c0 67 bb 07 3f 33 c5 9e 3e fa 1e c6 3e cc da c0 3e
       0.5302033 0.31009826 0.38695508 0.3766693
0000d0 c6 fd c1 3e c1 70 bb 3e ed a5 6c 3e f0 0e 27 3c
       0.37888926 0.36609462 0.2311017 0.0101964325
0000e0 a7 4f 87 3d 60 31 d3 3e 0d f5 36 3e de 53 b4 3d
       0.06606989 0.41248608 0.17866917 0.08805059
0000f0 6e 91 c2 3d f7 af ee 3d 04 69 dd 3e 71 60 31 3e
       0.09500395 0.116546564 0.43244183 0.17321946

encoder.encoder.0.1.bias f4 [64]
000000 30 08 07 3d bd 00 5a 3b d7 cd c7 bb d1 ff a1 3b
       0.032966793 0.00332646 -0.006097536 0.004943826
000010 98 af 6f bb 42 19 eb 3b 6b 22 93 3c ff 3b c0 3b
       -0.0036573168 0.007174642 0.017960748 0.005866527
000020 f2 42 13 bd 02 6a 0d 3d 53 36 0e 3b dc 17 6b bc
       -0.035952516 0.034524925 0.002169986 -0.01434895
000030 dc ef 0f bb 3e cd 54 bc 6c c9 0a bc d4 05 6c 3d
       -0.0021963036 -0.012988387 -0.008470874 0.057622746
000040 ca d8 86 bc d2 29 c4 3c a6 e7 83 3c 06 27 fa ba
       -0.016460795 0.023945723 0.01610167 -0.0019085116
000050 1b 33 33 bd da c5 92 3c 72 c2 ef bb c7 2f b9 bc
       -0.04374991 0.017916609 -0.007316881 -0.02260579
000060 12 48 81 3d c8 08 c7 3c 9b e0 53 bc 58 b1 dd bc
       0.063125744 0.02429618 -0.012931968 -0.027062103
000070 a6 90 10 bc d6 a6 b9 3c eb 8f c6 bb 53 44 18 3d
       -0.008823549 0.022662561 -0.006059637 0.037174534
000080 92 df da bb d3 17 38 3d e1 23 2b 3c ea 2d 2f 3c
       -0.0066794837 0.044944596 0.010445566 0.010692099
000090 1e 2d 85 3c 44 7b d1 3a 30 5b 09 bc d7 af d8 ba
       0.016256865 0.0015982171 -0.008383557 -0.0016531897
0000a0 5e ac 9c 3b c6 85 3c 3b c0 d9 19 3d 1a d6 db bb
       0.00478129 0.0028766259 0.03756118 -0.0067088725
0000b0 0a 10 f1 3a 39 1e 02 bc d3 c4 44 bc 2d a4 90 bc
       0.0018391621 -0.007941776 -0.012009817 -0.01765641
0000c0 10 6d ff b9 f1 5a 42 bd 56 b0 29 bc 7f 2c 89 3c
       -0.00048718648 -0.04745001 -0.010356983 0.01674485
0000d0 fd 13 3a 3c b4 b0 2b bc 46 14 b6 3a 13 6c 0a bc
       0.011357305 -0.010479141 0.001389154 -0.008448618
0000e0 fa 4e fc bb 74 40 7b bb 21 de fd 3b c9 d3 00 bb
       -0.0076998444 -0.0038337978 0.007747427 -0.0019657484
0000f0 a7 ef 35 3c 92 ac 97 3b 79 30 be 3a 58 83 a4 bb
       0.011104501 0.0046287263 0.0014510296 -0.00502054

encoder.encoder.0.1.running_mean f4 [64]
000000 be 5c bb 3b a2 2c b0 bd 9e 45 a3 bd 3a 49 3a bc
       0.005717843 -0.08602263 -0.07972263 -0.011369998
000010 3d 69 71 3e db f2 f7 bd 6b 28 24 3e f6 60 16 be
       0.23575301 -0.12106868 0.16031043 -0.14685425
000020 2a fd 46 be 37 c5 0c be fd c9 29 3e ea 8f 8b be
       -0.19432512 -0.13747106 0.16580959 -0.27258235
000030 a9 b8 1d 3e 13 0b a5 3d f2 8b 73 3d 1d b9 15 bd
       0.15402474 0.08058753 0.059459634 -0.03655349
000040 61 22 1a 3d fd ab ac bd eb ef a5 3e 5e 4d d4 be
       0.037630443 -0.08431242 0.32409605 -0.41465276
000050 29 c4 cf be 29 13 b9 bb 53 a0 05 3e da c0 09 bd
       -0.40579346 -0.005648036 0.1304944 -0.033631183
000060 cf 92 f7 bd 26 2f 06 3e d7 14 8e 3e d2 65 ce bd
       -0.120885484 0.13103923 0.27750275 -0.100780144
000070 75 a9 d5 bc a5 f9 f1 bd 14 51 17 be 13 da a6 bd
       -0.02608178 -0.11815194 -0.14777023 -0.08147063
000080 eb af a2 bc ef 4b 7d 3d 5d 54 c2 3c 51 6f 0d 3d
       -0.019859275 0.061839994 0.023721868 0.034529988
000090 3e f0 c6 bc ba 62 d5 3c 4e 33 92 3e e7 40 1d be
       -0.024284478 0.026048053 0.28554767 -0.1535679
0000a0 ab ec 9d 3c c6 de 29 3d bd 3e 05 3e de 64 24 3e
       0.019277891 0.04147222 0.13012214 0.16054103
0000b0 86 f7 af 3e 88 44 69 bd f5 6a cd 3e e6 3f 8b be
       0.34368533 -0.056950122 0.40120664 -0.27197188
0000c0 5d 67 9b 3c 53 da aa be 7a dc 47 3e f0 9f b3 bd
       0.018970186 -0.33369693 0.19517699 -0.0877074
0000d0 f3 bf 13 be 65 ae 10 be e9 4e 14 bd 09 21 5d be
       -0.14428692 -0.14129026 -0.036208067 -0.21594633
0000e0 71 68 29 3d 5f ff e2 3b 0f 39 a5 3d 16 19 a0 be
       0.04135937 0.0069274153 0.08067524 -0.3126914
0000f0 4d da 90 3e c7 83 2c 3e 2e 28 28 3e 54 37 93 3e
       0.2829155 0.16847144 0.16421577 0.2875315

encoder.encoder.0.1.running_var f4 [64]
000000 3f dd e2 39 07 09 85 3b 99 26 0b 3b ae cd b3 3a
       0.0004327092 0.004059914 0.0021232723 0.0013717914
000010 a3 51 5f 3b 2b b5 20 3a 23 64 d9 3a 4c 98 f3 39
       0.003407576 0.0006130512 0.0016585629 0.00046462042
000020 18 21 03 3b fe 00 0f 3a 13 d9 89 3a 69 e2 db 3b
       0.002000874 0.0005455165 0.0010516964 0.00671034
000030 ac 59 7d 3a 38 ff 23 3b 8c 83 e1 3a 4c fa 9e 3a
       0.0009664546 0.0025023948 0.0017205342 0.0012129038
000040 ee 5e 96 3b f0 eb f1 3a f7 c7 71 3b dc d5 27 3c
       0.004588953 0.0018457156 0.003689287 0.010243859
000050 a7 64 0a 3c 0c d6 77 3a 3f e1 64 3b 24 b4 49 3b
       0.008446849 0.0009454198 0.0034924296 0.0030777538
000060 75 0d 7d 3a 5a ff ba 3a f4 8a 73 3b e5 ec c6 3b
       0.00096531893 0.0014266775 0.003716168 0.0060707205
000070 be 11 4f 3b fc d0 2a 3a c1 35 15 3a 4c 7c 3a 3a
       0.0031596269 0.00065161265 0.0005691909 0.00071138586
000080 b5 e4 96 3a 93 d8 d3 39 f5 d5 89 3b 49 44 0c 3a
       0.0011512252 0.00040406417 0.004206414 0.00053507515
000090 34 76 8d 3a 47 e4 04 3a 4d 6d b6 3b a5 89 83 39
       0.0010792674 0.00050694164 0.005567229 0.0002508882
0000a0 f9 7f 8e 3a bd c8 6f 3a c7 38 c3 39 8e 8e ac 3b
       0.0010871879 0.0009147039 0.000372356 0.0052660173
0000b0 8a 72 9d 3b f8 a5 49 3b 5e 2e 9f 3b b6 c4 8e 3b
       0.004804914 0.003076909 0.0048578223 0.004356946
0000c0 11 f3 b2 3a 66 60 81 3c b0 cc 9a 3a 74 5b 7f 3a
       0.0013652762 0.015793037 0.0011810269 0.00097411056
0000d0 2f 00 53 3a aa 86 76 3a ae a3 67 3a 97 fb e1 3a
       0.00080490386 0.0009404222 0.0008836341 0.0017241117
0000e0 55 58 34 3a 22 f2 bb 3a 7f cf e7 3a 88 56 a2 3b
       0.00068796176 0.0014339129 0.001768574 0.004954163
0000f0 df c3 4a 3b 42 3a 28 3a 0c 5b 06 3a f4 13 75 3b
       0.0030939502 0.00064173725 0.00051252614 0.0037395926

encoder.encoder.1.0.weight f4 [64, 64, 3, 3]
000000 d8 1e 64 bc dc 02 40 bd 80 82 9e 3c 6d e8 16 3c
       -0.013923369 -0.046877727 0.019349337 0.009210688
000010 0e 06 d0 bc f3 c2 05 3d 8c 3f 11 3d e4 e9 7d 3d
       -0.025393512 0.03265662 0.035460994 0.061990634
000020 80 0e 57 bc 14 82 09 bc 9c 53 4a bc 34 d8 07 bc
       -0.013126016 -0.008392829 -0.012349036 -0.008291293
000030 9d e3 7a bc 42 72 3f 3b 8e b6 a8 bb 42 ee 03 3c
       -0.015313056 0.002921239 -0.0051487153 0.008052411
000040 81 fb 1a bb 16 ad 46 bc b3 cd 14 bc 32 00 9c 3c
       -0.0023648443 -0.012126228 -0.009082246 0.019043062
000050 5b 88 89 3c ad 6a 8c bc f1 e5 a8 bc d9 ac d3 3b
       0.016788652 -0.01714071 -0.020617457 0.006459814
000060 97 69 8b 3a 45 0a 4b 3b 1d 54 99 bc ca f9 d8 bc
       0.0010636327 0.0030981463 -0.018716866 -0.026486296
000070 f4 79 f2 bc f2 06 ad bc a7 b9 78 3c c0 72 26 bd
       -0.029599167 -0.021121476 0.015180982 -0.040636778
000080 76 b9 c9 bc 79 c2 00 3d ad 17 05 3d 6d 22 ad ba
       -0.024624567 0.031435464 0.032493282 -0.0013209112
000090 42 d0 d7 bb a7 19 d7 bb da e6 17 3c fb 16 99 3c
       -0.0065861056 -0.0065643373 0.009271348 0.018687716
0000a0 e7 f7 90 3c 4a 7b 1d 3c 6a 81 15 bc b8 77 5b 3c
       0.017696334 0.009611914 -0.009125093 0.013395242
0000b0 43 17 3d bc 8f 00 21 3c 1f 08 87 3a 3f df f4 3c
       -0.011541191 0.009826793 0.0010302103 0.029891608
0000c0 6e f5 85 3c 36 3f 57 bd 1d 1c 85 bc 6a 9b 0a 3d
       0.016352382 -0.052550517 -0.016248757 0.03383962
0000d0 75 3b 7d 3d 68 c9 07 3c 96 2d a1 bc 65 ae 8b 3c
       0.06182428 0.008287765 -0.019675057 0.017050931
0000e0 5e a2 01 bc 70 18 fc bc ec 79 01 ba a2 d6 30 3c
       -0.0079122465 -0.030773371 -0.0004939127 0.01079336
0000f0 54 0e a9 3c 12 c3 59 bc a1 24 a8 bc 45 17 9c 3c
       0.020636715 -0.013291137 -0.020525279 0.019054065
000100 97 6d 91 ba 9c cf 52 3a cd eb 52 3a fa 31 0b bd
       -0.0011095282 0.00080418005 0.00080460013 -0.03398321
000110 29 fe 00 bd 76 f4 00 3d 6b 8d 8b 3c 5f bc f0 3c
       -0.031492386 0.031483136 0.017035207 0.029386697
000120 42 db 65 3c 02 4c 44 3c 40 81 a4 3c 00 dd f2 3c
       0.014029326 0.011981012 0.020081162 0.029646397
000130 02 27 09 3c 4e 59 8e 3c 9b d0 9e 3b 18 39 f6 ba
       0.008371117 0.017376568 0.004846645 -0.0018785326
000140 3d 1b 90 3c 42 e1 89 b9 85 4d a8 3b 9b a4 3b 3b
       0.017591113 -0.00026298506 0.005136194 0.0028632048
000150 4c 6b 34 bc bd ad 1a bd 32 e0 19 bc 55 43 b0 3c
       -0.01101191 -0.037763346 -0.009391831 0.021516481
000160 9a ce 12 3c 30 87 19 3d f2 18 73 bc 94 e7 16 3b
       0.00896039 0.03748244 -0.01483749 0.0023026215
000170 2d 5b ad 3c 39 8c 9a bb fa b4 81 3c 0e 8c b9 3b
       0.02116164 -0.004716423 0.015833367 0.005662448
000180 92 37 63 3c 64 e9 a5 bc 22 cd 58 3c 0d ce 05 bc
       0.013868229 -0.02025289 0.013232501 -0.008166802
000190 d3 51 90 bc 9d 76 00 bd 05 f7 06 bd 3b b0 6d bb
       -0.017617142 -0.03136312 -0.03295042 -0.0036268372
0001a0 ad bc ea b9 96 ad 1d bd 74 93 83 bc 5b b2 d1 3a
       -0.00044772532 -0.038495623 -0.016061522 0.0015998589
0001b0 b0 1c a4 3b 35 b8 c4 bb 3f 0e 1b 3c 81 e7 a1 3b
       0.0050083026 -0.0060034045 0.009463846 0.0049409275
0001c0 27 33 d9 3b 03 49 13 bc c8 55 88 bc cd d2 95 bc
       0.0066284123 -0.008989575 -0.016642466 -0.018288994
0001d0 54 2f e6 bc f8 c3 2f 3c 79 41 17 bd 11 55 01 3b
       -0.02809874 0.010727875 -0.036927674 0.0019734541
0001e0 a1 df 82 3c 7a f3 21 3c d0 b6 8b bc 10 cb ba 3c
       0.015975775 0.0098847095 -0.017054945 0.022801906
0001f0 7b c3 89 bc ce 7c 24 3c 04 d9 82 bc 0a 60 8c bc
       -0.016816845 0.010039521 -0.015972622 -0.017135639
000200 e9 ab 0e bc a6 83 c6 bb c4 4e 57 3a 83 39 01 bb
       -0.008707979 -0.006058174 0.0008213336 -0.0019718118
000210 04 74 b4 3b c6 b9 83 bb 5f 15 c3 bc 86 d5 2c bb
       0.005506994 -0.0040199487 -0.023813901 -0.0026372387
000220 d9 88 10 bd 65 0d e4 3c ab 57 e0 bc 9e 7a 6a bd
       -0.035286758 0.027838418 -0.027385553 -0.057245843
000230 d3 4f 99 bc ea 0d 20 bc 56 f6 76 3d d9 60 4f 3d
       -0.018714821 -0.009768942 0.060293518 0.05062947
000240 38 44 b5 bb 34 4f 33 bc 70 8a c0 ba 97 ae e1 bb
       -0.005531814 -0.010944176 -0.0014689695 -0.006887268
000250 b6 e3 ba bc a1 e5 35 bb 17 2d 9d bc 33 7d ea bc
       -0.02281366 -0.0027755278 -0.01918654 -0.028624153
000260 0c 32 d4 3a 4a 63 cf 3c fb d7 1d 3c 2c f6 52 3d
       0.0016189232 0.0253159 0.009634013 0.0515043
000270 56 bc ea bc f0 2a 7a bd 9e be 8a bc 2a 14 4e 3d
       -0.028654259 -0.061076105 -0.016936596 0.0503122
000280 09 99 a1 3d 21 e7 3a 3d cf 65 bd 3b a1 bf 40 3c
       0.07890517 0.045630578 0.005779959 0.011764438
000290 cc cd ad ba 09 db b9 bb 91 b2 a6 bc 74 a3 85 3b
       -0.0013260185 -0.005671863 -0.020348819 0.004078323
0002a0 9a 63 d8 3a df 53 2c bc df 2b cf bc 63 e9 bc 3c
       0.0016509176 -0.010518043 -0.025289474 0.023060506
0002b0 3e 2a b2 3c d2 f9 83 bb 6f a8 b4 3c c0 06 90 3c
       0.021748658 -0.0040275836 0.022052972 0.017581344
0002c0 8e d1 6b ba 26 fb b8 bc e4 6f 8e bc 64 dc 21 bc
       -0.00089957647 -0.022580694 -0.017387338 -0.009879205
0002d0 73 78 c8 bc 2e 64 87 bc 0f f9 fc 3b c2 d0 a0 3b
       -0.024471497 -0.016527262 0.00772012 0.0049076984
0002e0 b8 e8 b6 bc b9 b7 dd bb 21 17 00 bd 59 56 ce bc
       -0.022327766 -0.006766286 -0.031272057 -0.025187658
0002f0 0c 94 c2 bc 17 41 a1 bc 11 ee 3d bc ef a5 90 3a
       -0.023752235 -0.019684358 -0.011592404 0.001103578
000300 04 cd ae bb 82 da f4 bc 28 3e a9 bc 92 44 80 3c
       -0.0053344984 -0.029889349 -0.020659521 0.015657697
000310 3b 84 75 3b 8c e4 a2 bc 45 73 40 bc 27 04 c1 bc
       0.0037462849 -0.01988437 -0.011746232 -0.02356155
000320 41 f0 50 bc ed 85 c1 bc 8a 4f fa bb e3 9e d3 bc
       -0.0127525935 -0.023623431 -0.0076388763 -0.025832599
000330 7d 13 a7 3c 86 46 8c bc 5f 2b 70 3c 4b 97 10 3c
       0.020395035 -0.017123472 0.014658778 0.008825134
000340 39 4b 84 3c cb 94 37 bb b9 80 09 bb a9 8e 28 3c
       0.01614915 -0.0028012272 -0.0020981266 0.010287919
000350 72 ab a7 bc c2 69 53 bc 02 f8 9f 3c 49 55 f8 3c
       -0.020467494 -0.012903633 0.019527439 0.030314105
000360 ca bb ce bc 7a f5 f6 bc a4 1d e4 3c 2d da 18 bd
       -0.02523603 -0.03014635 0.027846165 -0.037317444
000370 ef 2d a2 3a d4 3d b7 bc 60 99 3d 3d f0 94 f0 3c
       0.0012373308 -0.02236835 0.046288848 0.029367894
000380 b1 f1 ed 3c f0 41 63 bc bd 80 95 bc e2 ed a7 bc
       0.029045912 -0.013870701 -0.018249864 -0.020499174
000390 6d b3 33 bc 66 2e 80 bc fe 81 fa ba 57 6c 16 3d
       -0.010968071 -0.015647124 -0.0019112227 0.036724415
0003a0 d9 6b 8d 3b 20 00 ce 3c 92 0e ba bc 2d ac 99 3b
       0.004315835 0.025146544 -0.022712026 0.0046897144
0003b0 aa 02 a4 bc a3 5c e4 3b 1a 6e 10 3b 7a 8a 2d bb
       -0.020020802 0.006969051 0.0022038282 -0.0026480244
0003c0 c3 cc 8d bc 2d d9 95 3c 41 89 a8 bc 1b 18 cc bc
       -0.017309552 0.018292034 -0.02057326 -0.024913838
0003d0 fe 9e c5 3c 72 d5 de 3b c4 59 66 3c 10 91 ed bc
       0.024123665 0.006800347 0.014059488 -0.028999835
0003e0 d0 95 af bc d9 e3 36 bc c8 e5 72 3c 45 66 e3 3a
       -0.02143374 -0.011162722 0.014825292 0.0017349204
0003f0 56 f9 27 bc 1d ec d0 3c 27 3b 83 3c e9 fb 5a bc
       -0.010252317 0.025503213 0.016019417 -0.013365724

encoder.encoder.1.0.bias f4 [64]
000000 6a 07 ad bc bb 1f 60 3c a8 a0 cd 3a 5a 5e 66 ba
       -0.0211217 0.01367944 0.0015688138 -0.0008787863
000010 79 5d 96 3b 58 ce 91 3b d5 58 c7 3c 7f a3 dd 3b
       0.0045887795 0.004449647 0.02433435 0.006763875
000020 b3 cb 8c bc 06 4d b9 3c f4 c4 41 3c a1 56 bb 3c
       -0.017186975 0.022619735 0.011826742 0.022868456
000030 9f 25 b7 b9 3d cf 03 bc 6e 8c d4 bc 67 f8 4d 3c
       -0.0003493251 -0.008045015 -0.025945868 0.012571431
000040 a6 37 cd bb d7 d0 83 3c d9 ce 7b bc fa 6d 14 3c
       -0.0062627373 0.016090794 -0.015369141 0.009059424
000050 88 86 c3 bc c1 0c c4 bc 61 5a b6 bc a4 6d 3c 3c
       -0.02386786 -0.023931863 -0.022259893 0.01150075
000060 fa 0e d3 3c 8b 17 c0 3c a6 63 a5 bc 29 37 16 3c
       0.025763977 0.023448726 -0.020189118 0.009168425
000070 48 fe 74 3c b8 81 6d bc f9 f7 14 3b 4b 9c 96 bb
       0.0149532035 -0.014496259 0.002273081 -0.0045962683
000080 e9 4d 2f 3c b6 aa 80 3b 39 72 7b bc 98 76 b3 3c
       0.010699728 0.0039266003 -0.015347057 0.021907136
000090 3e 5c 9f bc 03 22 84 3c 1f 66 d2 bc a3 1c 85 3c
       -0.019453164 0.0161295 -0.02568346 0.016249007
0000a0 26 73 75 bc 37 92 56 3c 55 bf b4 bc 94 7d 7f b9
       -0.014981067 0.013096384 -0.02206389 -0.00024365477
0000b0 ab f5 6c bc bd 1a 83 3c 5d 08 cb 3c c8 fc aa 3b
       -0.014462869 0.01600396 0.024784261 0.005218122
0000c0 d2 a8 e3 bb b7 ce 1c 3c c1 6e 14 bc b7 6d 63 3a
       -0.006947615 0.009570769 -0.009059609 0.00086757116
0000d0 8a e1 31 bc 6c 3e 10 bc 31 ec 19 bb 83 43 ba 3c
       -0.010856995 -0.008803945 -0.0023486728 0.02273727
0000e0 0c ab b9 bc 5e 56 e2 bb e9 15 90 3c fd 9b 78 3c
       -0.02266457 -0.0069072684 0.017588573 0.015173909
0000f0 67 e6 23 bc ff ff 8e bb 05 48 f5 ba 0a f6 bb 3c
       -0.010003663 -0.004364013 -0.001871348 0.022944469

encoder.encoder.1.1.weight f4 [64]
000000 54 a5 06 3f 94 8c 80 3e ca 27 cf 3c 63 ed 3c 3e
       0.5259602 0.25107253 0.025287528 0.18449931
000010 37 ca b8 3e e4 c0 e8 3a 00 47 6d 3e 6d 6c 18 3f
       0.36091778 0.0017757681 0.23171616 0.59540445
000020 93 4a 90 3e 00 d5 22 3f 59 31 13 3e e5 27 05 3e
       0.28181896 0.6360626 0.14374293 0.130035
000030 c3 6b bb 3e 53 8b e9 3e 97 5d f5 3d 2d c3 98 3e
       0.36605653 0.45614108 0.119807415 0.29836407
000040 9d c6 d6 3e 63 4f 08 3f 2e 7b 1e 3f 54 4e 09 3f
       0.41948405 0.53246135 0.6190671 0.53635144
000050 2d f7 d7 3e ef 42 f3 3e 81 80 00 3c be d1 ee 3e
       0.42180768 0.47512004 0.007843138 0.46644396
000060 87 6a 60 3e 9c 0f 1b 3f c3 29 f6 3e e6 0e a9 3e
       0.21915637 0.60570693 0.48078737 0.3301918
000070 79 6d 2a 3e 08 21 8d 3e 93 1b 0f 3f d9 55 3c 3e
       0.16643323 0.27564263 0.5590145 0.18392123
000080 58 bc 20 3f 99 00 9d 3e 9b eb fe 3e e7 cd ed 3d
       0.6278739 0.30664518 0.49789128 0.116115384
000090 80 89 1d 3f c1 b9 08 3f 76 3b 10 3f b3 49 0e 3f
       0.61537933 0.5340844 0.5634073 0.55581206
0000a0 03 24 03 3f 95 09 97 3e fd 79 0e 3f 33 83 5b 3e
       0.51226825 0.29499498 0.5565489 0.21436767
0000b0 8a 95 05 3f 0b a7 f7 3e 3c de ad 3d 30 ed 0f 3f
       0.52181304 0.4836963 0.084896535 0.56221294
0000c0 6f f6 ee 3c 0f 01 db 3e ed d0 3b 3d ec d9 f4 3d
       0.029170243 0.42774245 0.045853544 0.11955628
0000d0 91 a3 06 3f bf a1 7f 3e 7b 9b 34 3e 8a a4 15 3f
       0.5259333 0.24964045 0.17637436 0.5845419
0000e0 cd d8 a1 3d 0e a7 ec 3e b2 33 c8 3e a5 16 82 3e
       0.079026796 0.46221203 0.3910194 0.254079
0000f0 6a 09 f3 3e 0b bf be 3e 35 8b 10 3d 03 57 04 3f
       0.4746812 0.3725513 0.03528901 0.5169527

encoder.encoder.1.1.bias f4 [64]
000000 cc 22 39 bc 27 20 84 bb 1c 83 81 bb d8 c3 54 3b
       -0.0112998 -0.004032153 -0.003952397 0.0032465365
000010 c0 16 d7 ba 97 84 79 bb dc 59 91 bb 3f ac ca bb
       -0.0016409978 -0.0038073414 -0.004435761 -0.006185084
000020 7d 16 39 bc 4c f9 e1 ba 59 e4 26 3c 1e f2 ae bb
       -0.0112968655 -0.0017240434 0.010186278 -0.005338921
000030 3b ae dd bb 84 c6 99 bb 6a ea b3 bb 13 6d 23 bc
       -0.0067651547 -0.0046928544 -0.005490591 -0.009974736
000040 60 e1 64 3b 4b 00 b1 bb b6 a1 c9 3c fa 2e 45 bc
       0.0034924373 -0.0054016463 0.024613243 -0.012035126
000050 19 7e d4 bb 1c 3a 77 bb d7 4f 8f bb b2 89 e0 3b
       -0.0064847586 -0.0037723845 -0.0043735313 0.006852352
000060 2a c7 ae b9 90 97 57 bb 09 c8 50 bc 16 d7 ef bb
       -0.00033336255 -0.0032896735 -0.012743005 -0.0073193414
000070 0a fa 67 3b b1 6a c8 bb 21 98 31 3c bf c3 44 bb
       0.0035396838 -0.006116234 0.010839493 -0.00300239
000080 ff 0b 6b bc 79 95 60 bc 74 c3 eb bb 8a 5c eb 39
       -0.014346122 -0.013707512 -0.0071949307 0.0004489164
000090 2d bf b6 b9 d6 0a 87 3c 36 ae 2c bc ea 74 b0 bb
       -0.00034856182 0.01648466 -0.010539582 -0.005385031
0000a0 ea 50 33 ba 51 fe 72 bc 74 d0 69 3c 7b c7 af bb
       -0.0006840365 -0.014831142 0.0142708905 -0.005364356
0000b0 75 5e 9f bb 55 f1 dd 3b 12 b4 6e bb e8 9f d9 38
       -0.004863555 0.006773154 -0.0036423248 0.00010377151
0000c0 8b c9 06 3c 35 fe 48 3b a4 08 a5 ba 22 8c 2e bc
       0.0082267625 0.0030669097 -0.0012591076 -0.010653527
0000d0 e6 34 02 bc 24 56 e8 bb 21 e0 bb bc 3f 1c a4 3c
       -0.007947182 -0.007090347 -0.022934021 0.020033
0000e0 fd 4f bf bb 13 30 fc 3c 3e e2 45 3c b3 2b 2e 39
       -0.005838393 0.030784642 0.012077866 0.00016610212
0000f0 a5 81 8f bc a3 76 8a 39 9e 6a 1c 3c 39 e6 d6 bb
       -0.017517874 0.00026409802 0.009546904 -0.0065582064

encoder.encoder.1.1.running_mean f4 [64]
000000 35 7e 4c bd 92 c1 69 be 14 8f f9 3c c0 21 33 bc
       -0.049925048 -0.22827747 0.030463733 -0.01093334
000010 17 82 db bd af b6 bd 3c a6 6e 2e be 27 ba 1a bf
       -0.10718172 0.0231584 -0.17034397 -0.60440296
000020 a7 c6 d5 bd ac 56 2c be c3 26 eb bd 64 8c 84 3e
       -0.104382806 -0.16829938 -0.114820026 0.2588836
000030 56 96 6f be 74 85 8e be b3 ad 2a bd d4 ec f6 bd
       -0.23397192 -0.27836192 -0.04166956 -0.1205689
000040 2b 86 90 bd 80 33 30 be 91 7c 70 bd 4b f1 21 3f
       -0.070568405 -0.17207146 -0.058712546 0.6325881
000050 92 69 32 be 81 44 79 3e 47 55 8e 3d 16 d9 32 bd
       -0.17423084 0.24342538 0.06949859 -0.04366406
000060 f5 01 44 bb 43 46 82 be df 42 3b bd ee 6e 7b be
       -0.0029908393 -0.2544423 -0.04571807 -0.24554035
000070 30 b8 b0 bc ac 3c 0a be fa 26 35 be 71 73 d3 bd
       -0.021572202 -0.13499707 -0.1769065 -0.10324753
000080 13 a4 18 be c2 cf e6 3d d1 c1 e1 be 9e 8d 90 bd
       -0.1490634 0.112700954 -0.44093183 -0.07058261
000090 16 19 14 be ff b5 85 be 23 de c3 be ba f0 77 bd
       -0.14462695 -0.26115415 -0.38255414 -0.06053231
0000a0 d2 77 82 be 18 0b cb 3e 87 28 32 be f0 73 d0 bd
       -0.2548204 0.396569 -0.17398272 -0.10178363
0000b0 98 41 68 bd 37 2c 01 be 2f 73 db 3b bf 62 b2 bd
       -0.05670318 -0.12614523 0.0066970806 -0.087102406
0000c0 0c 30 48 bd ba 0c 2f bd 11 41 cd bd 20 35 d4 3d
       -0.048873946 -0.042736746 -0.10022176 0.10361695
0000d0 7e 65 88 bd 25 bc 83 be 3b e8 b5 3c c3 ec 56 bd
       -0.06659983 -0.2572948 0.022205463 -0.052471887
0000e0 f4 79 96 bd 4e a5 4b bd a2 b3 18 3d 8a b7 51 bd
       -0.073474795 -0.049718194 0.037280686 -0.051200427
0000f0 65 0b e6 bc 25 96 00 be 0c d5 a4 bb 2c d6 67 bd
       -0.028081605 -0.12557276 -0.00503028 -0.056600735

encoder.encoder.1.1.running_var f4 [64]
000000 c7 39 95 3d 24 72 00 3d 22 75 48 3c dd 82 01 3c
       0.07286411 0.031358853 0.012234958 0.007904735
000010 60 31 20 3d cb a4 35 3c 25 71 9f 3c 33 14 1e 3e
       0.039109588 0.011086653 0.019463131 0.15437393
000020 86 ca d1 3c e5 44 0e 3e 65 44 81 3c 03 ff 0e 3d
       0.025609266 0.13893469 0.015779683 0.034911167
000030 71 d9 14 3d 61 4e 45 3d 13 97 b6 3c d6 4c a7 3c
       0.03634018 0.04817045 0.022288835 0.02042238
000040 87 a3 e1 3c cd 0b 6f 3d a9 f2 5b 3d ef 16 1a 3e
       0.027543796 0.058360863 0.053698216 0.15047811
000050 16 8b 9d 3d 47 5d 9f 3d 05 33 41 3c d4 3e c1 3d
       0.07692544 0.07781463 0.011791949 0.09435812
000060 9a 47 66 3c 35 b3 c6 3d 9c 61 8a 3c a8 7c 21 3d
       0.014055157 0.0970215 0.016892247 0.039425522
000070 10 a4 74 3c 30 29 cf 3c 7b 78 98 3d c9 91 88 3c
       0.014931694 0.025288194 0.07444855 0.016671078
000080 d8 ee eb 3d 27 c2 cf 3c b6 a1 be 3d 51 24 48 3c
       0.11520165 0.025361134 0.09308188 0.01221569
000090 41 1a 79 3d ba 43 99 3d bd f3 7d 3d 12 8f 1c 3d
       0.060816053 0.07483621 0.062000025 0.03822238
0000a0 e1 5f 65 3d 4e 8e 85 3d b3 c4 7f 3d d0 74 1d 3d
       0.05599964 0.06521283 0.062443446 0.03844148
0000b0 e8 ea 99 3d de d4 6e 3d 31 e9 18 3c ee b9 07 3d
       0.07515508 0.058308475 0.009332941 0.0331363
0000c0 cb bb 77 3c 35 f3 0e 3d 0d 11 8b 3c c9 48 83 3c
       0.015120457 0.03489991 0.016975904 0.016025918
0000d0 bf 68 9b 3d 62 88 f5 3c 35 ba 69 3d 12 8b 6d 3d
       0.07588338 0.029972259 0.057062346 0.057993956
0000e0 0c 1a 8a 3c 7a fa 4e 3d a9 5d fe 3c 33 b2 c6 3c
       0.016858123 0.05053184 0.03105052 0.024254894
0000f0 3d 21 54 3d 3d 73 43 3d 8c a1 6f 3c 7b 66 1e 3d
       0.05178951 0.04771732 0.014625918 0.03867195

encoder.encoder.2.0.weight f4 [64, 64, 3, 3]
000000 f8 24 3f 3b 51 73 55 bc 00 6b 91 bc a0 a7 82 bc
       0.0029166322 -0.013027982 -0.017751217 -0.01594907
000010 eb 10 8f ba 81 72 08 bc f1 44 cd bc f1 cb 47 3c
       -0.0010915076 -0.008328081 -0.025057288 0.0121946195
000020 88 30 2f 3c ea 7d b7 bc 7e 88 23 3b e9 e4 06 bc
       0.010692723 -0.022398908 0.0024953182 -0.008233287
000030 27 be 9d ba 34 fc 61 3b 39 26 2a 3c 12 23 bf 3b
       -0.0012034819 0.00344826 0.01038509 0.005833038
000040 30 bc db 3c 74 66 a3 bc e6 e5 82 3b b8 83 d6 bc
       0.026823133 -0.019946314 0.003994691 -0.026185855
000050 06 cc 4f 3c 7c 56 44 bc 33 7c be 3c 15 6d 97 3c
       0.01268292 -0.01198351 0.023252582 0.018484632
000060 0e 41 be 3c b1 e4 e8 bb 4f cc 5e bb af 37 24 bb
       0.02322438 -0.0071073403 -0.003399629 -0.0025057604
000070 61 70 ad 3c 85 7e d5 bc dc 74 be bb 7d 6d da 3b
       0.02117175 -0.026061306 -0.0058122706 0.006665884
000080 a0 19 bf 39 8e 0c 34 3c 5a 6c 94 3c 8c c1 dc bc
       0.0003644945 0.010989321 0.018118072 -0.02694776
000090 15 01 53 bb 57 b5 c6 bc f1 67 15 3c aa 49 68 bc
       -0.003219669 -0.024256391 0.00911902 -0.014177719
0000a0 8c 8d 25 bb be 2e 8e bc 91 20 be 3c 1c 6f 2f ba
       -0.002526137 -0.017356273 0.023208888 -0.0006692277
0000b0 70 6a aa bc 75 7c b9 3b d7 d4 c6 3c 35 4f bd 3b
       -0.020802706 0.0056605884 0.024271412 0.0057772645
0000c0 b6 68 e5 3a 47 d3 ec 3b 51 65 1f b7 22 49 99 3c
       0.001750252 0.0072273347 -9.500728e-06 0.01871163
0000d0 95 a2 fe ba f3 d2 90 3b a4 1d 9e 3c 69 74 8d bc
       -0.0019427115 0.0044196784 0.019301243 -0.017267423
0000e0 85 41 58 bc 2b 7a 71 3c 73 88 b3 bc 45 46 8c 3c
       -0.013199215 0.0147386 -0.02191565 0.01712335
0000f0 9f 0e 3b 3c 49 83 52 39 ea b5 7a 3c a3 68 de 3b
       0.01141706 0.00020076068 0.015302161 0.006787376
000100 de 46 9c 38 d0 09 d4 bc 45 34 e0 3b 62 29 dd bb
       7.45186e-05 -0.025883585 0.0068421685 -0.006749318
000110 a8 e3 ba bc 29 b5 75 bc 05 05 8a bc 6e 46 ad 3c
       -0.022813633 -0.014996805 -0.016848097 0.021151748
000120 82 7e 9a 3c 77 a1 8d bc 02 9a ae bc 39 8b ce 3c
       0.018859152 -0.017288906 -0.021313671 0.02521287
000130 aa 0b fb 3b ef a3 98 bb 51 16 78 3c b3 c1 bc 3c
       0.0076613026 -0.0046582143 0.015142039 0.023041582
000140 a1 8b a6 bc 70 66 59 3c 27 42 32 bc 90 03 57 bc
       -0.020330252 0.013269052 -0.01088003 -0.013123408
000150 fd 55 80 3b 4c 10 fb 3b 1e 31 a3 3c c1 cc 1c 3c
       0.0039165006 0.007661855 0.019920882 0.0095703015
000160 15 00 49 3c f5 e4 ac bc f5 98 d6 bc 53 68 63 3c
       0.012268086 -0.021105269 -0.026195982 0.013879853
000170 b0 4c 4d bc e0 79 cd bc b7 69 b0 3c 13 dc 7a 3b
       -0.012530491 -0.025082529 0.021534784 0.0038278147
000180 14 ff c6 bc 20 2f eb 3b 5d 99 ad 3b 30 de 91 ba
       -0.024291553 0.0071772486 0.0052978233 -0.0011128839
000190 f7 34 9e bc 28 ce c1 bb 88 87 bb 3a b3 69 74 bc
       -0.019312365 -0.0059144683 0.0014307359 -0.014917779
0001a0 9d 5a 17 bc 62 a1 bc bc 27 05 a5 3c 09 09 cc 39
       -0.0092379125 -0.023026172 0.020144058 0.00038916644
0001b0 32 8a 59 3c 62 c7 af 3c 47 1a bf bc d4 7b be bc
       0.013277577 0.021457378 -0.02332796 -0.023252405
0001c0 5f d6 00 bc 35 15 dc 3c 7a 2c 10 3c 4e 07 9b 3c
       -0.00786361 0.026865581 0.008799667 0.018924382
0001d0 a9 c2 a5 3c 30 3d d7 3c 46 62 0c bc c9 94 0a bc
       0.020234423 0.026274294 -0.008568352 -0.008458325
0001e0 ac 25 81 bc 0f 05 62 3c 83 a1 ca 3b 7a 94 c7 ba
       -0.015765034 0.013795151 0.0061838045 -0.0015226745
0001f0 5a 9a 63 3c 64 27 28 bc b7 53 0d bc 5e fd a6 3c
       0.013891781 -0.010263298 -0.008625916 0.020384487
000200 86 63 09 3a 90 9e db 3c af c7 56 bc d6 28 e4 ba
       0.00052409654 0.026809007 -0.013109132 -0.001740719
000210 7a f4 c1 bc f2 a6 cc 3c c5 48 5c 3c a0 60 85 bc
       -0.023676146 0.02498195 0.013445084 -0.016281426
000220 95 49 71 bc e5 8a 2f bc 89 a3 d3 3c 53 a9 3e 3c
       -0.014727016 -0.010714267 0.025834816 0.01163705
000230 68 23 4d 3c 1a dd 8c bc e3 db a9 bc 02 6d 27 3a
       0.012520649 -0.017195273 -0.020734733 0.0006386788
000240 48 63 90 3c 98 0f 8d bc 8e 76 d8 3c 68 a1 87 3c
       0.017625466 -0.01721935 0.026423719 0.016556457
000250 71 2c 78 3c a2 cf a1 bc a7 a9 9e ba 22 9d 3c bb
       0.015147314 -0.019752327 -0.0012105004 -0.0028780182
000260 53 19 19 bc 1a e9 a0 ba f1 b1 83 3c da 9c f0 3b
       -0.009344417 -0.0012276501 0.01607606 0.007342917
000270 fc 11 c6 ba a8 ea 5b 3b a0 9c ce bc 66 4e d8 bb
       -0.0015111561 0.0033556614 -0.025221169 -0.0066011427
000280 fb 16 f1 3b 65 1a c5 3c f0 01 92 bc 5f e9 c5 bc
       0.007357476 0.024060437 -0.01782319 -0.024159132
000290 7c 75 3d 3c 2a 96 41 3c a4 ed e5 3c 11 7b 20 bc
       0.011563655 0.011815587 0.028067417 -0.009794966
0002a0 07 28 8a 3c 80 3c ac bb e3 b1 cf 3c b4 ac 86 3c
       0.01686479 -0.0052562356 0.025353378 0.016439773
0002b0 55 73 c8 3c e8 6c 88 3c b8 a1 92 3c 73 21 c4 bc
       0.024469057 0.016653493 0.01789938 -0.023941731
0002c0 e2 21 ca bc 9e 12 a2 bc 67 e2 cd 3c 5e 0a a3 bc
       -0.02467436 -0.019784268 0.025132371 -0.019902404
0002d0 dd d4 93 3c 6b 2e ab bb d8 24 26 bc 76 af 00 bc
       0.018045837 -0.0052240393 -0.01014062 -0.007854333
0002e0 68 e0 d1 bc 4b 5a 20 3c 3f 0e a0 bc 1e 77 02 bc
       -0.0256197 0.0097871525 -0.019538043 -0.00796297
0002f0 0b cf b4 bb e0 0a a6 3c 69 8a 9c 3c a7 6f 29 3c
       -0.0055178455 0.020268857 0.019108968 0.010341561
000300 11 af a1 3c 09 1a 9d bb 0d d7 31 bc 84 89 06 bc
       0.019736798 -0.0047943634 -0.010854495 -0.008211497
000310 99 03 74 bc 98 44 42 bc 0f c4 fe bb bc e8 cc 3c
       -0.014893436 -0.011857174 -0.007774837 0.02501332
000320 05 4a 68 bc 33 94 51 3c b7 15 c8 bc 50 99 83 3b
       -0.014177804 0.012791681 -0.024424417 0.004016079
000330 fc c0 da bc c5 9d 72 3c c4 4c ba bb b8 23 32 ba
       -0.02670335 0.014808123 -0.0056854207 -0.00067954836
000340 84 eb bc bc 49 bf b0 3a 20 8c a9 bc ed 52 6e bb
       -0.023061521 0.0013484742 -0.0206967 -0.0036365346
000350 40 6c 01 3a ef 71 4a bb 10 4d ba bc 00 96 9c ba
       0.000493709 -0.0030890664 -0.022741824 -0.0011946559
000360 09 dd 34 bc 6c e3 a1 3b 94 77 8d 3c 6a a0 c8 3c
       -0.011039027 0.004940441 0.017268933 0.024490554
000370 c5 15 95 3b 01 37 2d 3c e9 b9 1f bc 97 fc bf 3c
       0.0045497143 0.010572196 -0.009748914 0.023435874
000380 8c 83 b7 3c 3f a5 6e 3c 5d 4d 96 bc 14 13 b1 bc
       0.022401594 0.014565765 -0.018347437 -0.021615542
000390 e7 5b 19 39 17 8a a2 bc 77 0f 87 bc 2c 4a 4d bb
       0.00014625453 -0.019841237 -0.016486866 -0.0031324727
0003a0 ff 6a aa bc cf 86 05 3c e2 e7 5a bc 01 96 4f 3c
       -0.020802973 0.008149817 -0.013360949 0.012670041
0003b0 de 8c 11 bb 8e a9 01 bc 81 db 6f bc 87 33 dc 3c
       -0.0022209208 -0.00791396 -0.014639736 0.026880039
0003c0 ea bc c9 bc bc e6 a3 3c 57 62 6b 3c 6c 71 ce bc
       -0.024626214 0.020007484 0.014366708 -0.025200568
0003d0 b1 c2 c9 3c 45 62 e9 39 67 f7 97 bc de b5 c5 3c
       0.024628969 0.0004451444 -0.018550588 0.024134573
0003e0 91 7b 91 3c db cb ac bc 77 59 00 bb 3e 65 21 3c
       0.017759116 -0.0210933 -0.0019584575 0.009850798
0003f0 c9 24 cc bc 4c f7 dd 3a a9 04 8f bc 8d 51 14 bc
       -0.024919884 0.0016934662 -0.017458277 -0.009052646

encoder.encoder.2.0.bias f4 [64]
000000 45 50 9b bc 21 31 c8 3c ef 09 1c 3c 29 fe ac 3c
       -0.018959174 0.024437489 0.009523853 0.021117287
000010 bd 73 bc bc 1b 6e de 3b 0e 34 ca ba b5 eb ab 3c
       -0.023004407 0.006788028 -0.001542689 0.020986417
000020 50 19 01 bc fe 69 db 3c 6c 09 bc ba 15 b4 8f bb
       -0.00787957 0.02678394 -0.001434607 -0.004385481
000030 ed fe d1 bc 1a 06 a3 3b 9b 25 25 bc dd 75 dc bc
       -0.025634253 0.0049750926 -0.010079767 -0.02691167
000040 7e 76 f8 3b 38 6d c2 bc f6 d7 bf 3c fb cf 40 3c
       0.0075824847 -0.02373372 0.023418408 0.011768336
000050 e8 e8 8b bc f1 17 74 bc ff 76 74 3c 64 d6 04 ba
       -0.017078832 -0.014898286 0.014920949 -0.0005067347
000060 c3 1e 7e 3b 80 18 f6 bb 15 18 98 3c 1f 96 25 ba
       0.003877566 -0.007510245 0.01856617 -0.000631662
000070 31 ea 07 bb 06 ae 8a 3c 6b a1 97 3c 9e 6d 15 bc
       -0.0020738954 0.016928684 0.018509587 -0.009120373
000080 c3 1f 87 bc ee 80 f8 bb 33 b3 c9 3c fb 5f 7a bc
       -0.016494637 -0.007583729 0.024621582 -0.015281673
000090 2f 59 d0 3c 75 16 b3 bc 08 7e 30 bc 08 b6 e5 ba
       0.025433151 -0.021861294 -0.010772236 -0.0017525563
0000a0 10 e3 c2 3c a4 0a 6e bc 7e d1 61 3c 7e 67 d1 3c
       0.023789912 -0.014528904 0.013782857 0.025562044
0000b0 a7 19 a3 3c 93 5b cb 3c 39 6b f1 3b 60 66 b3 3c
       0.019909693 0.02482394 0.0073675183 0.021899402
0000c0 d0 51 7f 3c dd 5e ca 3c 5e ec 9b 3c 60 a6 bf bb
       0.01558347 0.024703437 0.019033607 -0.005848691
0000d0 fc a9 40 3c 03 b4 95 3c a9 f8 5e 3c 89 2f c6 ba
       0.011759277 0.018274313 0.01360909 -0.0015120368
0000e0 cb 32 c0 bc 1d 33 ea 3b ac ef b1 bc 38 92 cb bc
       -0.02346172 0.0071472065 -0.02172073 -0.024849996
0000f0 fb 1a a5 bc a9 59 4b bc 12 9c c6 bb 7c 3b 9a 3b
       -0.020154467 -0.012411513 -0.0060610855 0.004706798

encoder.encoder.2.1.weight f4 [64]
000000 14 b9 33 3d 7b 45 9e 3e 9f 7d a9 3d 95 f1 46 3e
       0.043877676 0.30912384 0.082759134 0.19428094
000010 2d 40 3e 3e ce 39 0b 3f 3b 77 90 3e 44 b7 f6 3e
       0.18579169 0.5438508 0.28215966 0.48186696
000020 0d f1 36 3e b7 97 e7 3d a1 b9 d2 3e f2 a1 c1 3d
       0.17865391 0.11308234 0.4115725 0.09454717
000030 cd 7c de 3e 87 76 90 3e 08 3f 92 3e e2 93 1f 3f
       0.4345459 0.2821543 0.28563714 0.62335026
000040 11 4e 1d 3f 73 eb 25 3e 39 74 55 3e 53 25 03 3f
       0.61447245 0.16203098 0.20845117 0.5122883
000050 0c 96 e4 3e a2 93 f1 3e f6 6b 40 3e 33 b1 e3 3d
       0.44645727 0.47182947 0.18791184 0.111177824
000060 d7 15 cc 3e c8 94 d0 3e a4 68 0f 3f 81 22 93 3e
       0.39860412 0.4073851 0.56019044 0.28737262
000070 c1 ab 4b 3e 33 f8 9d 3e a9 31 31 3c 67 76 ce 3c
       0.19889738 0.30853423 0.010815063 0.025202943
000080 c2 59 d1 3e f2 58 8b 3e 62 03 c5 3e aa 2d c6 3e
       0.40888792 0.27216297 0.38479143 0.38706714
000090 d7 84 eb 3e 99 6c 9a 3d 61 e2 30 3e de a4 f7 3e
       0.45999786 0.075402446 0.17273857 0.4836797
0000a0 b7 8f 14 3f 36 08 81 3d c6 b9 f0 3e a3 01 0d 3f
       0.5803179 0.06300394 0.47016734 0.5508062
0000b0 02 ee d3 3e 3f 45 8f 3e 9f 97 14 3f 73 e5 50 3e
       0.41392523 0.27982518 0.58043855 0.20400028
0000c0 df 14 36 3e 75 7e b7 3b af c7 32 3e 68 e3 6d 3e
       0.17781399 0.0055997916 0.17458986 0.2323128
0000d0 58 c7 dc 3e 25 26 25 3f fc 13 12 3f 05 d1 82 3b
       0.43120837 0.6451133 0.57061744 0.003992202
0000e0 69 7e 0f 3f d4 b3 79 3e 31 0e 98 3e ec 6a 81 3e
       0.5605226 0.24385005 0.29698327 0.25276887
0000f0 77 f0 0d 3e e9 a7 07 3f 69 e0 8c 3e 2d f3 0f 3f
       0.13861261 0.52990586 0.2751496 0.5623043

encoder.encoder.2.1.bias f4 [64]
000000 27 63 30 3b 54 83 9c 3b 1b a8 ba 39 ed 93 12 bb
       0.0026914568 0.0047763977 0.00035601933 -0.0022366003
000010 17 a0 cc ba e3 35 44 bc 24 fb 29 39 2d 7b a5 bb
       -0.0015611675 -0.011975738 0.00016210653 -0.005050084
000020 64 35 cf ba d2 71 29 39 ac 9d 8a 3b 22 47 4b 3b
       -0.0015808758 0.00016159497 0.0042302217 0.003101774
000030 2f aa 59 bb 7b b7 40 3b f9 b5 f5 ba 00 88 b8 bb
       -0.003321301 0.0029406238 -0.0018746249 -0.005631447
000040 0b a9 48 bc 70 68 32 3b 1b da 3a bb 78 e0 33 bc
       -0.012247334 0.0027222894 -0.0028511349 -0.0109788105
000050 b2 e3 1c bc 5f 30 6d ba 64 f1 a7 ba 11 e1 30 bb
       -0.009575771 -0.00090480404 -0.0012813029 -0.0026989619
000060 61 ec c2 bb 38 4a 3f bc 2b d2 c1 bb a3 d6 5a bb
       -0.0059485887 -0.01167541 -0.0059149466 -0.0033392094
000070 96 65 f4 b9 7e 30 fb bb d6 61 1f 3b ee 6a 19 3a
       -0.00046614994 -0.007665693 0.002431979 0.00058524206
000080 da 0b d9 bb 57 f1 62 bb 78 e1 1c 3b 98 42 78 bb
       -0.0066237273 -0.0034628713 0.00239381 -0.003788149
000090 54 72 91 bb 28 b0 c8 ba 2b 23 a1 3b 39 92 cb 3b
       -0.004438678 -0.0015311288 0.0049175224 0.0062124995
0000a0 59 e5 27 bc e2 7a a0 ba df 65 92 bb 11 47 72 bb
       -0.010247552 -0.0012243653 -0.0044677104 -0.0036968628
0000b0 50 86 07 bc ec f8 0d bb 39 b8 89 bb ee aa 86 b9
       -0.008271769 -0.0021663262 -0.0042028693 -0.00025685824
0000c0 d0 92 0a bc 69 e9 5f bb ae 15 b8 39 dd 87 08 bc
       -0.008457854 -0.0034166223 0.00035111367 -0.008333174
0000d0 77 f1 18 ba cf 48 ce bb c4 42 51 3c 63 ee 01 3b
       -0.0005834321 -0.0062953006 0.012772266 0.0019825927
0000e0 cd c2 03 bc 47 94 2b bc b8 86 b5 bb f8 c0 fa bb
       -0.00804205 -0.010472364 -0.0055397414 -0.007652398
0000f0 db e8 6f ba 7b f1 9b bc 20 5a 19 bb 21 b1 f7 bb
       -0.00091518246 -0.019036045 -0.0023399666 -0.007558957

encoder.encoder.2.1.running_mean f4 [64]
000000 f3 00 88 bd f7 5a ee 3e db 78 10 3e ca 7b e0 bc
       -0.06640806 0.46553776 0.14108603 -0.027402777
000010 f0 9e 1f bd bf 6a 25 be c2 d9 d1 3e 64 61 40 bc
       -0.038969934 -0.16154002 0.4098645 -0.01174197
000020 17 58 2d be 28 bc 12 3d 7c 38 b6 be 71 39 1c 3e
       -0.16928135 0.03582397 -0.3558997 0.15256287
000030 36 21 e4 bd f7 d5 09 be a8 ae bc bd d3 a3 b8 be
       -0.11139147 -0.13460527 -0.092130005 -0.36062488
000040 d5 79 34 bf af c6 99 3d b7 20 09 be f8 65 a2 bd
       -0.704984 0.07508599 -0.13391386 -0.07929605
000050 20 55 54 be 2a c7 ec bc f5 13 a2 bc b0 6f dd bc
       -0.20735598 -0.028903563 -0.019784907 -0.027030796
000060 ed d5 85 be 30 d6 c4 3e 3e 6e 1c bf 38 ad 3e be
       -0.26139775 0.38444662 -0.61105716 -0.18620765
000070 84 ac 59 bd c4 2f 21 3d 56 66 39 3c 7c 6b 6e bd
       -0.05314304 0.039352193 0.011315903 -0.058207974
000080 bf df db 3e 3f 47 87 be 36 69 fa bd 22 0f e2 be
       0.42944142 -0.26421544 -0.12227099 -0.4415217
000090 46 62 c9 3d d1 d1 83 be f2 84 70 3e 9e a0 02 3f
       0.09833197 -0.25746015 0.23488215 0.5102633
0000a0 50 1d 21 3f 97 91 97 3d c4 7f 89 bd d8 fb 7d be
       0.6293535 0.07400816 -0.067138225 -0.24803102
0000b0 c8 c4 fa be 2d 23 2b 3e 80 51 f8 be b5 36 58 3e
       -0.48978257 0.16712637 -0.4849968 0.21114619
0000c0 99 a4 58 bd d7 53 da bd 16 29 39 bd 35 f3 8d be
       -0.052891348 -0.106605224 -0.0452052 -0.27724615
0000d0 f1 38 83 be 06 aa 0c be 1b a1 dc 3c 4c 20 1f bd
       -0.2562938 -0.13736734 0.02693229 -0.03884916
0000e0 9a 68 4f be a4 e2 4a be 1a f3 0e 3e 4f e4 e8 bd
       -0.20254746 -0.19813019 0.13959923 -0.113716714
0000f0 24 5f 97 3d f8 84 81 be 17 5c d4 bb b4 83 a6 3c
       0.073911935 -0.2529676 -0.0064807045 0.020326473

encoder.encoder.2.1.running_var f4 [64]
000000 02 b0 e3 3b 9e a4 23 3d e5 e5 45 3c 10 fc 5b 3c
       0.006948472 0.039951913 0.012078737 0.013426796
000010 52 2d 1d 3c b8 56 87 3d 9f 5c d1 3c c9 ce 0e 3d
       0.009593325 0.06608337 0.02555686 0.034865174
000020 93 e8 a8 3c 9b fc fc 3b b7 ff d1 3c 01 69 0d 3c
       0.020618713 0.0077205426 0.02563463 0.008630992
000030 08 e6 10 3d dc 3f 90 3c 0f 3a 1a 3c 50 f8 59 3d
       0.035375625 0.017608576 0.009413256 0.053215325
000040 fd f6 df 3d 4c 80 29 3c 89 9c 4a 3c 6b 70 90 3d
       0.10935781 0.01034553 0.012366422 0.07052692
000050 22 8c 76 3d 0e 69 1b 3d e2 2e 10 3c 20 98 f4 3b
       0.060192235 0.037941985 0.00880024 0.007464424
000060 09 5b c9 3c e8 7e 1b 3d 55 fa c0 3d af 7e 93 3c
       0.024579542 0.037962824 0.09422747 0.018004743
000070 75 8c 0b 3c 79 3c d9 3c ce 83 88 3c f0 9b e6 3b
       0.008517374 0.026518093 0.016664412 0.007037632
000080 37 42 fc 3c 1c 34 df 3c 96 d2 d5 3c 31 47 22 3d
       0.030793292 0.027246527 0.026101392 0.039618675
000090 50 b8 da 3c 5a a2 3d 3c 68 83 4b 3c 94 1e 53 3d
       0.026699215 0.011574352 0.012421466 0.051542833
0000a0 bc 3c dd 3d b5 6e 24 3c f7 95 84 3c 2f 57 5f 3d
       0.108026 0.01003616 0.01618479 0.054526504
0000b0 84 bd 93 3d 2e f4 9f 3c ac 21 17 3d 4d 8e 74 3c
       0.072138816 0.019525614 0.036897346 0.014926505
0000c0 43 5e 7f 3c 0e ec 96 3c 42 69 15 3c 48 87 24 3d
       0.015586439 0.018423107 0.009119334 0.040168077
0000d0 05 3c a6 3c 16 fc 4c 3d b5 55 fc 3c 50 68 b1 3b
       0.020292291 0.050045095 0.030802587 0.0054140463
0000e0 61 2b ed 3c 1c 7e 1c 3d c2 a7 a1 3c e5 23 ce 3c
       0.028951349 0.038206205 0.019733313 0.0251636
0000f0 14 49 ee 3b a8 c5 a7 3d 1b fa 7a 3c 2d bd 81 3d
       0.007271895 0.08191997 0.015318419 0.063349105
