saves_concept/pacs/sketch/max_acc.pth (torch_old, 526838 bytes, 28 tensors)

encoder.encoder.0.0.weight f4 [64, 3, 3, 3]
0	0x3e1d5e80	0.1536808
1	0xbddc37f0	-0.10752857
2	0xbe009f3e	-0.12560746
3	0xbe107dc2	-0.14110473
4	0x3e3039db	0.1720957
5	0x3dabea79	0.083943315
6	0xbc8a8130	-0.016907305
7	0x3d01a134	0.031647876
8	0xbe35bc8b	-0.17747705
9	0x3e385f39	0.18005075
10	0x3d992e99	0.07479591
11	0x3d943749	0.07237107
12	0xbdfbe4d4	-0.12299505
13	0x3e7f29b1	0.24918248
14	0x3da9cfb8	0.08291572
15	0xbe3e741e	-0.18598983
16	0xbdead33b	-0.1146607
17	0x3cc2aa6a	0.0237629
18	0xbe16d040	-0.14727879
19	0x3d934723	0.071913026
20	0x3e17cd6d	0.14824457
21	0xbe4ce4dc	-0.20009178
22	0x3dd6ebfa	0.10494228
23	0xbe05701b	-0.13031046
24	0xbd7371e6	-0.059434794
25	0x3e135362	0.14387277
26	0xbdf13bbe	-0.11778973
27	0xbe1fe8ff	-0.15616225
28	0xbe095dd8	-0.13414705
29	0x3d1b7cc2	0.037960775
30	0x3ce4719c	0.027886204
31	0xbe03283d	-0.12808318
32	0xbc47a036	-0.012184193
33	0xbdfd1646	-0.12357764
34	0x3d1f19e9	0.03884307
35	0x3bbf58ce	0.0058394438
36	0x3d1a6491	0.037693564
37	0xbd544ece	-0.051832967
38	0xbce0ddcd	-0.027449513
39	0x3da825c9	0.08210332
40	0x3e21b2f2	0.15790918
41	0xbd4cfc4a	-0.05004529
42	0x3de46d16	0.11153619
43	0x3d9f5f3c	0.077818364
44	0xbc1e504e	-0.009662701
45	0xbdb93062	-0.090424314
46	0xbc87f90b	-0.016598245
47	0xbce3595f	-0.027752576
48	0x3d9766ad	0.07392631
49	0x3d90fb03	0.07079127
50	0x3ddbc13e	0.107302174
51	0xbdb94464	-0.090462476
52	0x3b9315cb	0.004488682
53	0x3cd85061	0.026405515
54	0x3c136dda	0.008998359
55	0x3deb148c	0.114785284
56	0xbd6cf506	-0.05785086
57	0xbde51cc9	-0.11187131
58	0x3dfee539	0.124460645
59	0x3d9dc24f	0.07703077
60	0x3c77e142	0.015129389
61	0x3d22361b	0.03960238
62	0x3d0b99df	0.03408229
63	0xbd27f8ed	-0.04100888
64	0xbdc4bc38	-0.096062124
65	0x3e15319b	0.14569704
66	0xbc5bce5a	-0.013415897
67	0xbc6edf91	-0.01457967
68	0x3e2a007f	0.16601752
69	0x3c8fefca	0.017570395
70	0x3da7ccc4	0.08193353
71	0xbd974e72	-0.07388009
72	0xbe1ec4c4	-0.15504748
73	0x3d849f12	0.06475653
74	0xbdee9179	-0.116488405
75	0x3c234093	0.009964126
76	0xbe05b044	-0.13055521
77	0x3e2917c7	0.16512977
78	0x3dd99798	0.10624617
79	0x3da939c2	0.082629696
80	0xbda48cd7	-0.080346756
81	0x3d9c3a41	0.076282986
82	0x3cb5ac44	0.02217687
83	0xbe154313	-0.14576368
84	0xbc531930	-0.012884423
85	0x3de911d6	0.11380355
86	0x3d59d2e2	0.05317963
87	0x3e2c0362	0.16798165
88	0x3e17784d	0.14791985
89	0x3e251445	0.16121013
90	0x3b3850b0	0.0028124265
91	0xbd6dfb3f	-0.058100935
92	0xbd38ff96	-0.04516562
93	0xbd906b8c	-0.07051763
94	0x3e2928b6	0.16519436
95	0x3d443ec0	0.047911406
96	0x3e2de51f	0.16981934
97	0x3e28216a	0.16418996
98	0x3d8502ae	0.06494652
99	0x3c668ae1	0.014071197
100	0xbd8e0412	-0.0693437
101	0x3db23dce	0.087031946
102	0xbd54b92d	-0.05193441
103	0x3c8df9df	0.017331062
104	0xbdc2492d	-0.094866134
105	0xbe222aa9	-0.15836586
106	0xbdefc327	-0.11707144
107	0x3d08cd54	0.03339894
108	0xbe9b1b32	-0.30294186
109	0xbd6b4a86	-0.057444118
110	0x3e6a8aea	0.22904554
111	0xbe800279	-0.25001886
112	0xbc043ba7	-0.008070863
113	0x3c4637dd	0.01209828
114	0xbe6692ea	-0.22516981
115	0x3d1508f7	0.036385503
116	0x3e281c32	0.16417006
117	0x3d85f021	0.065399416
118	0xbc37e98a	-0.011225114
119	0x3be56ee1	0.007001743
120	0x3dbeb8ff	0.09312629
121	0x3e222df5	0.15837844
122	0x3e3fb9e2	0.18723252
123	0x3d543d78	0.051816434
124	0x3e5a9bbd	0.21348472
125	0x3d37b7c9	0.044853006
126	0xbdeaad49	-0.11458833
127	0x3bee53b0	0.00727316
128	0xbd949d63	-0.07256582
129	0xbcbb5048	-0.02286543
130	0xbb9f67c7	-0.004864666
131	0xbdf2e02f	-0.11859166
132	0x3cc8af79	0.024497734
133	0x3de543e8	0.11194593
134	0xbe56d591	-0.20979907
135	0xbd1be73b	-0.038062315
136	0x3e32d238	0.17463005
137	0x3da9bbd0	0.082877755
138	0x3e401b94	0.1876052
139	0x3e319672	0.17342547
140	0xbd8b4147	-0.0679956
141	0x3cd74381	0.026277306
142	0x3e2ea675	0.17055686
143	0x3e10fd16	0.14159045
144	0x3d1485d2	0.036260433
145	0xbe14b56a	-0.14522329
146	0xbdad6dd5	-0.084682144
147	0xbdf10fe5	-0.1177061
148	0x3e0bb631	0.1364372
149	0x3dd2be1c	0.10290167
150	0xbdca58d8	-0.09880227
151	0xbdde90ea	-0.10867484
152	0x3deab8f7	0.114610605
153	0xbdaee23e	-0.08539246
154	0xbe10d403	-0.14143376
155	0xbcc0621f	-0.023484288
156	0xbe09221e	-0.13391921
157	0x3df7aeee	0.12093912
158	0x3dfea550	0.124338746
159	0x3e0a5b5c	0.13511413
160	0xbde400e5	-0.11132983
161	0xbd4ae970	-0.04953903
162	0xbc2323ae	-0.009957237
163	0x3df47803	0.11936953
164	0x3d832a47	0.06404548
165	0xbdab3b6a	-0.08360942
166	0xbaf8d56d	-0.0018984504
167	0x3d2cad9c	0.042157754
168	0xbc788e67	-0.01517067
169	0x3cdf9cac	0.027296387
170	0x3de55a43	0.11198857
171	0xbe224041	-0.15844823
172	0xbd6f6709	-0.05844787
173	0xbd55bf1c	-0.05218421
174	0xbda15fb4	-0.07879582
175	0x3c8156fd	0.01578855
176	0x3ac8d712	0.0015322885
177	0xbe26f200	-0.16303253
178	0xbd1366d4	-0.035986736
179	0xbd5dcce6	-0.054150485
180	0xbcc51593	-0.024058139
181	0xbd4062f0	-0.046969354
182	0xbd9ce803	-0.0766144
183	0x3d97deb0	0.07415521
184	0xbdb05e6c	-0.086117595
185	0xbe21051b	-0.15724604
186	0x3da9998c	0.0828124
187	0x3e0a675c	0.13515991
188	0xbdf31506	-0.11869244
189	0xbdd864fa	-0.10566135
190	0x3d0998d1	0.033593003
191	0x3e2391b3	0.15973549
192	0xbd158a44	-0.036508814
193	0xbc55587b	-0.013021584
194	0x3d8994bd	0.06717823
195	0xbd03c285	-0.03216793
196	0x3e211dd0	0.15734029
197	0x3df3b3e0	0.11899543
198	0x3d509db8	0.050931662
199	0x3d39061f	0.045171853
200	0x3e123ecd	0.14281769
201	0xbe197f5a	-0.14989987
202	0xbd7767c8	-0.060401708
203	0x3ddfb7ba	0.10923715
204	0xbd216b66	-0.039409064
205	0x3de0f9de	0.109851584
206	0xbe129958	-0.14316308
207	0x3e015ce1	0.12633087
208	0x3db5f4ee	0.08884607
209	0xbdc83ad4	-0.097768456
210	0xbdc00edb	-0.093778335
211	0x3cc73a56	0.024319809
212	0x3d2b9088	0.041885883
213	0xbce006b4	-0.027346946
214	0x3dd6b7aa	0.1048425
215	0x3d6bd011	0.057571474
216	0x3c91a3e1	0.017778339
217	0xbc38a3d2	-0.011269527
218	0xbdc7a491	-0.097481854
219	0xbdcd3973	-0.10020723
220	0xbe303f52	-0.17211655
221	0x3db1229b	0.086491786
222	0xbda6ea54	-0.08150163
223	0x3e1ddd18	0.15416372
224	0x3d5146e1	0.051092986
225	0xbdd13e5b	-0.102169715
226	0x3d6845d8	0.056707233
227	0x3ccaff8e	0.024780061
228	0x3e2debce	0.16984484
229	0x3e0e70cb	0.13910215
230	0xbcb18353	-0.021669066
231	0x3ab87bd4	0.001407499
232	0x3d1be84a	0.038063325
233	0x3e023957	0.12717186
234	0x3d6a62c4	0.057223096
235	0xbe08465f	-0.13308094
236	0xbd80a8ad	-0.06282172
237	0xbe1a3dd7	-0.15062653
238	0x3d13b0a9	0.036057148
239	0x3de3caa7	0.11122637
240	0xbcb96d95	-0.02263526
241	0xbd3caae1	-0.0460614
242	0xbbfbb898	-0.0076819174
243	0x3d4d8357	0.050174084
244	0x3e14642b	0.14491336
245	0x3d95af47	0.07308822
246	0xbd98a394	-0.07453075
247	0x3e154b80	0.14579582
248	0x3dc4c1c0	0.096072674
249	0xbdd469bd	-0.103717305
250	0xbd9f4224	-0.07776287
251	0x3e0e918e	0.13922712
252	0xbd185b98	-0.037196726
253	0xbdb33b86	-0.087515876
254	0x3b8579ba	0.004073349
255	0xbdb5d967	-0.08879357

encoder.encoder.0.0.bias f4 [64]
0	0xbc68a724	-0.014200006
1	0x3c89a6a9	0.016803103
2	0xbd495385	-0.049151916
3	0x3d17a75e	0.03702485
4	0x3de9adcc	0.11410102
5	0xbdb0dd1d	-0.08635924
6	0x3d4c14fa	0.049824692
7	0xbd890299	-0.066899486
8	0xbde066fa	-0.10957141
9	0xbde73a38	-0.11290401
10	0xbdaddbfc	-0.08489224
11	0x3d6fc550	0.05853778
12	0xbe126f1d	-0.14300199
13	0xbe1841b1	-0.1486881
14	0xbd204305	-0.039126415
15	0xbdefecbb	-0.11715075
16	0x3d22d97a	0.039758183
17	0x3c640072	0.013916122
18	0x3d0418c3	0.032250177
19	0x3d93acd1	0.072106965
20	0x3e13516b	0.14386527
21	0xbd21a821	-0.03946698
22	0x3df1b198	0.118014514
23	0xbd638767	-0.05554905
24	0xbdbecedc	-0.09316799
25	0xbd28343a	-0.041065432
26	0x3d88f95f	0.06688189
27	0xbd2194f9	-0.039448712
28	0x3d617cbb	0.055050593
29	0x3cc19213	0.023629224
30	0x3d093f56	0.033507667
31	0x3cff0112	0.03112844
32	0xbde1391f	-0.10997223
33	0xbcfd0eae	-0.030890789
34	0xbd4b5700	-0.049643517
35	0x3e02b9de	0.12766215
36	0x3ddefbd9	0.1088788
37	0xbd290ffc	-0.04127501
38	0xbde72476	-0.11286251
39	0xbc547c87	-0.012969143
40	0x3d99668b	0.07490262
41	0x3ca184c4	0.019716628
42	0xbc906690	-0.01762703
43	0xbc3cef70	-0.011531696
44	0xba86ca23	-0.001028363
45	0xbd8e8c5a	-0.06960364
46	0x3e21b1b4	0.15790445
47	0xbdb5cf1c	-0.088773936
48	0xbe0ab85e	-0.13546893
49	0x3e18a6cd	0.1490738
50	0xbe21f322	-0.15815404
51	0x3d42d5fd	0.047567356
52	0x3a459d39	0.00075383816
53	0x3d1a9654	0.03774102
54	0x3cf1a1aa	0.029496033
55	0x3d2e0bf0	0.042491853
56	0x3bf85395	0.007578323
57	0x3cbf34ad	0.023340547
58	0x3d82dd14	0.063898236
59	0xbdc27484	-0.0949488
60	0xbc9194c2	-0.017771129
61	0xbac7a0f6	-0.0015230465
62	0xbd89d643	-0.0673032
63	0x3ac13224	0.0014739675

encoder.encoder.0.1.weight f4 [64]
0	0x3ed3a629	0.41337708
1	0x3e188b59	0.14896907
2	0x3ea33666	0.3187744
3	0x3f0d0dd8	0.5509925
4	0x3eaf686a	0.3425935
5	0x3eb5ad76	0.35483903
6	0x3d65ebf8	0.05613324
7	0x3d3d82d0	0.04626733
8	0x3dc1df5b	0.0946643
9	0x3d5e7fe4	0.054321185
10	0x3e34c09b	0.17651598
11	0x3e800dcb	0.25010523
12	0x3f234828	0.63781977
13	0x3f20eb9b	0.62859505
14	0x3f24bc9f	0.6435031
15	0x3f2676a6	0.65024793
16	0x3f6cb354	0.92461133
17	0x3d0b0d92	0.03394849
18	0x3e0aab0b	0.1354181
19	0x3f25cbdf	0.6476421
20	0x3eedf0e1	0.4647284
21	0x3e15c3f4	0.14625531
22	0x3f1d4719	0.6143661
23	0x3f0664c9	0.52497536
24	0x3e95f976	0.29291886
25	0x3e43f62b	0.19136874
26	0x3f126e7f	0.57199854
27	0x3e9d244d	0.30691758
28	0x3d94a396	0.07257764
29	0x3ec9eda7	0.39439127
30	0x3f0f5b0c	0.559983
31	0x3f2ea05f	0.68213457
32	0x3e91de78	0.28490043
33	0x3ec81b17	0.39083168
34	0x3e3b2d34	0.18278962
35	0x3ec5d998	0.38642573
36	0x3e2937af	0.16525148
37	0x3ec86d73	0.39146003
38	0x3ede53db	0.43423352
39	0x3ecf85d8	0.40531802
40	0x3dc35657	0.095379524
41	0x3f053e03	0.5204775
42	0x3f502904	0.81312585
43	0x3ec34377	0.3813741
44	0x3ee951fb	0.4557036
45	0x3d1bc70b	0.03803162
46	0x3eb28568	0.34867406
47	0x3e043157	0.12909447
48	0x3eb235c4	0.34806645
49	0x3f4e5323	0.80595607
50	0x3ec7273f	0.3889713
51	0x3eddb83c	0.43304622
52	0x3ed29254	0.41127264
53	0x3de421ef	0.11139285
54	0x3af716b4	0.001885137
55	0x3e1adb82	0.15122798
56	0x3f24fcc7	0.6444821
57	0x3dc7353e	0.09726952
58	0x3bef65aa	0.0073058205
59	0x3eeb22b4	0.45924914
60	0x3eec3d7c	0.4614066
61	0x3f0c3bef	0.5477895
62	0x3ee2bfe4	0.44287026
63	0x3f0c5d35	0.5482972

encoder.encoder.0.1.bias f4 [64]
0	0xbd0e6fcc	-0.034774587
1	0xbd2773b5	-0.04088183
2	0xbd503d3e	-0.050839655
3	0xbda1f76f	-0.07908522
4	0x3e481d99	0.1954254
5	0xbe6b2834	-0.22964555
6	0xbc39fd21	-0.011351855
7	0xbd0998af	-0.033592876
8	0x3d8bfd69	0.068354435
9	0xbc19fd6f	-0.009398802
10	0xbd1a514e	-0.037675194
11	0xbd572bbd	-0.052531946
12	0x3debad09	0.11507613
13	0xbd74b531	-0.05974311
14	0x3db4e6c6	0.08833079
15	0xbe0a462a	-0.13503328
16	0x3e26fe47	0.16307937
17	0x3d0e37c3	0.034721147
18	0xbd7f03d0	-0.062259495
19	0xbdc71a24	-0.09721783
20	0xbe6c2c75	-0.23063834
21	0x3d545399	0.051837537
22	0x3dc4499e	0.09584354
23	0xbda58a81	-0.08083058
24	0xbdcd11f5	-0.10013191
25	0xbd39c702	-0.045355804
26	0xbdf9b559	-0.121927924
27	0x3d0f219e	0.03494417
28	0x3ca94e29	0.020667152
29	0xbd848d21	-0.06472231
30	0xbe26714d	-0.16254158
31	0xbe0fa981	-0.14029504
32	0x3d8ad73f	0.06779336
33	0x3d427d33	0.04748268
34	0x3acf4436	0.0015813175
35	0xbe084a2e	-0.13309547
36	0x3b0a9806	0.0021147742
37	0xbdbee418	-0.09320849
38	0xbdc5978e	-0.096480474
39	0xbe232239	-0.15931024
40	0xbb8b10e8	-0.0042439587
41	0x3de47349	0.111548014
42	0x3d2e2d3c	0.042523608
43	0xbe06d6dd	-0.13167901
44	0x3cabdfda	0.020980764
45	0xbcce189c	-0.025158219
46	0xbd72481c	-0.0591508
47	0xbd669ebf	-0.056303736
48	0xbdbfbec6	-0.09362559
49	0x3e4336af	0.19063829
50	0x3cf7f178	0.030266508
51	0xbe0e179d	-0.13876195
52	0xbdce3537	-0.10068744
53	0xbd492c22	-0.049114354
54	0xbbabd727	-0.005244154
55	0xbb90eeec	-0.004423013
56	0xbc9932b3	-0.018700933
57	0xbc8fc6e6	-0.017550897
58	0xbc6b5210	-0.014362827
59	0xbd0f1fde	-0.0349425
60	0xbd2b6655	-0.04184564
61	0x3e20bf4b	0.15697972
62	0xbd0c3889	-0.034233604
63	0x3db71b55	0.0894076

encoder.encoder.0.1.running_mean f4 [64]
0	0xbd579a57	-0.052637424
1	0xbc965f26	-0.018355917
2	0x3e457779	0.19283856
3	0x3ef8eaa2	0.4861651
4	0x3de04824	0.1095126
5	0x3e844255	0.25831857
6	0xbea3b132	-0.31971127
7	0x3eba5065	0.3638946
8	0xbd90ebfb	-0.0707626
9	0xbe78e9ea	-0.24307981
10	0xbed9369c	-0.42424476
11	0xbe68e9ba	-0.2274541
12	0xbe41c4c0	-0.1892271
13	0xbd8dd708	-0.069257796
14	0xbd4a5c68	-0.04940453
15	0x3e3ca175	0.18420966
16	0x3db90d38	0.090357244
17	0xbede9fa7	-0.4348118
18	0xbdcdf256	-0.100559875
19	0x3c51b7a9	0.012800136
20	0xbe17bcfc	-0.14818186
21	0x3ba2d3a5	0.0049690777
22	0x3da0c1ad	0.07849441
23	0xbed832f0	-0.42226362
24	0x3eb820cf	0.3596253
25	0xbe89239c	-0.2678498
26	0xbe86d3ea	-0.26333553
27	0xbec82c20	-0.39096165
28	0x3e920814	0.28521788
29	0x3eb14317	0.34621498
30	0xbdc8eca6	-0.09810762
31	0x3ee897ec	0.45428407
32	0xbde449c2	-0.11146881
33	0xbe9c7ec6	-0.3056547
34	0x3ccfe745	0.025378833
35	0x3f3c6dd2	0.7360507
36	0x3d343aeb	0.0440015
37	0x3eb28c47	0.34872648
38	0x3d3b6f5d	0.0457605
39	0xbf52fd75	-0.82417995
40	0x3e16c10f	0.14722084
41	0x3dadb70d	0.0848218
42	0xbcf0a64c	-0.029376172
43	0x3e4b3ec9	0.1984817
44	0x3d203b31	0.03911895
45	0x3e916bca	0.2840255
46	0x3dd5e037	0.10443156
47	0x3e835dc8	0.25657487
48	0x3e3b2892	0.18277195
49	0x3e30c80f	0.17263816
50	0x3d78ea13	0.060770106
51	0x3e9333be	0.28750414
52	0x3eeb1bac	0.4591955
53	0x3e8c07d2	0.27349716
54	0x3f16994a	0.5882765
55	0x3dcbbdc4	0.09948304
56	0xbde7cb9f	-0.113181345
57	0x3e8d2c74	0.27572978
58	0x3e57466c	0.21022958
59	0xbdb71fd3	-0.08941617
60	0xbeb40339	-0.3515871
61	0xbd44cff1	-0.04804987
62	0xbe14d5cf	-0.14534687
63	0x3daa1d3d	0.08306358

encoder.encoder.0.1.running_var f4 [64]
0	0x3d8a4055	0.067505516
1	0x3dc5c92a	0.096575096
2	0x3e78a3d8	0.24281251
3	0x3f649a93	0.8929836
4	0x3e33f5c3	0.1757422
5	0x3f212542	0.62947476
6	0x3f26f012	0.6521007
7	0x3f32b037	0.6980013
8	0x3d6b7658	0.05748591
9	0x3e5c0192	0.21484974
10	0x3f008d23	0.5021536
11	0x3ec1f960	0.3788557
12	0x3e848a0c	0.2588657
13	0x3e51e61b	0.20497935
14	0x3e8c0e68	0.2735474
15	0x3ec917f5	0.3927609
16	0x3f2f7b29	0.685473
17	0x3f44ca26	0.76870954
18	0x3da438cd	0.080186464
19	0x3efe0753	0.49614963
20	0x3ea77be7	0.32711717
21	0x3cab3341	0.020898463
22	0x3e38d9ee	0.18051884
23	0x3f324ff0	0.69653225
24	0x3f6d96e9	0.92808396
25	0x3e9e53e8	0.3092339
26	0x3ef5b7ea	0.47991878
27	0x3f7485de	0.95516765
28	0x3e531ed3	0.20617227
29	0x3ef79ced	0.48361912
30	0x3e1de59d	0.15419622
31	0x3f5575a6	0.8338264
32	0x3dbb0fee	0.09133898
33	0x3f2df821	0.6795674
34	0x3e868691	0.2627454
35	0x3fb99bce	1.4500673
36	0x3d1ce47c	0.038303837
37	0x3f62c175	0.8857644
38	0x3e0abc7b	0.13548462
39	0x401e20f8	2.4707623
40	0x3d82a9d3	0.06380048
41	0x3ebd4166	0.36963958
42	0x3f34ddf2	0.7065116
43	0x3ec89cfd	0.39182273
44	0x3f412d36	0.7545961
45	0x3f34dcb9	0.70649296
46	0x3d8c08f8	0.06837648
47	0x3efac4e7	0.4897835
48	0x3f01242a	0.50445807
49	0x3e69be9c	0.22826618
50	0x3e57e70f	0.21084236
51	0x3f13cd1b	0.5773484
52	0x3f48fa9a	0.7850739
53	0x3e58cc77	0.21171747
54	0x3f95c2ea	1.1700108
55	0x3e5cb4cb	0.21553342
56	0x3e005b20	0.12534761
57	0x3eab48ba	0.33453923
58	0x3dfa75a7	0.12229472
59	0x3d87f8da	0.066392615
60	0x3f356785	0.70861083
61	0x3e0a2fa2	0.13494733
62	0x3e22819b	0.15869753
63	0x3ea67a69	0.32515267

encoder.encoder.1.0.weight f4 [64, 64, 3, 3]
0	0x3c45dec6	0.012077039
1	0x3c2d19ce	0.010565234
2	0x3b99f7b7	0.0046987194
3	0x3d31f8b8	0.043450087
4	0x3cb8c0a6	0.0225528
5	0x3cde2409	0.027116792
6	0x3ca4e506	0.020128738
7	0x3a9a1539	0.0011755592
8	0x3d4ddb7c	0.050258145
9	0xbd02db06	-0.03194716
10	0xbcdb2c0c	-0.026754402
11	0xbc33c9c5	-0.010973399
12	0xbcfb0fd2	-0.030647192
13	0xbd2605dd	-0.040532935
14	0x3c3fbda0	0.011702925
15	0x3c815370	0.015786856
16	0xbd0d5ddd	-0.034513343
17	0x3c430e7b	0.011905308
18	0xbd08e5da	-0.03342233
19	0xb9d62984	-0.00040848192
20	0x3c57730b	0.013149987
21	0x3c3bcf40	0.0114629865
22	0x3d1e5f02	0.038664825
23	0xbb2d2d0a	-0.002642455
24	0xbcfbc157	-0.03073184
25	0x3bc0b839	0.005881336
26	0xbb333fb6	-0.0027351207
27	0xbc205289	-0.009785303
28	0x3ca8f7e5	0.020626018
29	0xbc4cd7c3	-0.0125026135
30	0xbcc82d29	-0.024435597
31	0xbbd51446	-0.006502661
32	0xbc11b9b8	-0.008894376
33	0xbc404b3e	-0.011736689
34	0xbc63049b	-0.0138560785
35	0x3c2805fa	0.010255331
36	0x3c8bf557	0.01708476
37	0x3bb85ff7	0.0056266743
38	0x3cb06dc6	0.021536719
39	0x3d19d12b	0.037552994
40	0xbb8ed4b1	-0.004358851
41	0x3ba9bcb5	0.0051799663
42	0x3c974bab	0.018468698
43	0x3d7cd2e3	0.061724555
44	0x3b9bb844	0.004752191
45	0x3cb325ea	0.021868665
46	0x3d4c35ac	0.049855873
47	0x3bdbb560	0.006704971
48	0x3d28387f	0.041069504
49	0x3d450c39	0.04810736
50	0x3d09ba02	0.033624656
51	0xbcaf9523	-0.021433419
52	0x3c3a2035	0.011360218
53	0x3bf34f2f	0.007425211
54	0xbc82cb29	-0.015966015
55	0xbcc2b02e	-0.02376565
56	0xbcd43e5d	-0.025908643
57	0xbc3e1ad0	-0.011603072
58	0x3d29c50d	0.041447688
59	0xbc87d3fd	-0.016580576
60	0xbb80b3ec	-0.0039276984
61	0xbc67173c	-0.014104661
62	0x3c9b312d	0.018944347
63	0x3cc2e1b6	0.023789268
64	0x3c23db3e	0.010001002
65	0x3cafe383	0.02147079
66	0xbceec595	-0.029146949
67	0xbc9801fe	-0.018555637
68	0x3a1385db	0.0005627551
69	0xb953f45a	-0.00020213556
70	0x3b95c23d	0.004570274
71	0xbbfbf539	-0.007689145
72	0xbce51c9d	-0.027967745
73	0xbc55e801	-0.013055802
74	0xbd1a33ac	-0.037646934
75	0xbd11d752	-0.035605736
76	0xbd1008ef	-0.03516477
77	0xbc8089cd	-0.015690709
78	0x3d050ce4	0.032482997
79	0x3c53c8c2	0.012926282
80	0x3ca03252	0.019555245
81	0x3c11f09a	0.008907462
82	0x3cdf1e42	0.027236108
83	0xbc8a39ed	-0.016873324
84	0x3ca20d31	0.01978168
85	0x3c5c4126	0.013443267
86	0x3c719609	0.014745244
87	0xbbecde4e	-0.007228649
88	0xbcd5fc77	-0.026121361
89	0x3cd86f76	0.026420336
90	0xb9c95282	-0.0003839918
91	0x3cd9d593	0.026591098
92	0x3bc4a48e	0.0060010618
93	0x3cda4091	0.026642116
94	0x3c0d15cb	0.008611153
95	0x3c352615	0.011056443
96	0x3cbaef50	0.022819191
97	0x3d6679e4	0.056268588
98	0x3c1c18cb	0.0095273955
99	0x3d2ad0b9	0.04170296
100	0x3c1f4ee8	0.009723403
101	0x3d0c2ab3	0.03422041
102	0x3d4532b9	0.048144076
103	0x3d7ce410	0.061740935
104	0x3cb0cc2c	0.021581732
105	0x3d051232	0.032488056
106	0x3d9a7e41	0.07543612
107	0x3d429330	0.04750365
108	0xbda2a4bd	-0.079415776
109	0xbd3c6551	-0.04599506
110	0xbdae0080	-0.08496189
111	0xbda42be1	-0.08016182
112	0xbb6fbbb6	-0.003658039
113	0xbd906946	-0.07051329
114	0xbbdcf26a	-0.006742765
115	0xbc874912	-0.016514335
116	0xbdd7b367	-0.10532265
117	0xbcd24ce1	-0.025671424
118	0x3c3174f5	0.010831107
119	0xbd04d02d	-0.032425094
120	0xbc9e555a	-0.019327808
121	0x3d4ede0a	0.05050472
122	0x3d169968	0.036767393
123	0x3c3f1365	0.011662339
124	0x3d832502	0.06403543
125	0x3cfe2c68	0.031027034
126	0xbc730762	-0.014833303
127	0x3d1b03dd	0.03784548
128	0xbcdedf0a	-0.027205963
129	0xbd4527aa	-0.04813353
130	0x3d222ab8	0.03959152
131	0xbc87aed7	-0.016562862
132	0xbd9113c0	-0.07083845
133	0xbc20fec2	-0.009826364
134	0xbcb13e62	-0.021636192
135	0xbc9c7cca	-0.019102473
136	0x3d0b9148	0.034074098
137	0xbd46c905	-0.04853155
138	0xbc9d06da	-0.019168306
139	0x3cbb15d6	0.02283756
140	0xbcbbe2a0	-0.022935212
141	0xbaecc8ca	-0.0018065211
142	0xbc1759ef	-0.00923775
143	0x3c67c6a5	0.014146482
144	0x3c3c8dd0	0.01150842
145	0xbc62ba74	-0.013838399
146	0xbd62a7bc	-0.055335745
147	0x3c810c4d	0.015752936
148	0xbabc133b	-0.0014348993
149	0x3cd3e3b1	0.025865408
150	0xbca774ce	-0.020441439
151	0x3c915851	0.017742308
152	0xbbd86150	-0.0066033974
153	0x3c0fbc8c	0.00877298
154	0xbc499eeb	-0.012305955
155	0xbccd21ca	-0.025040526
156	0x3cdb8b78	0.026799902
157	0xbc6d60f1	-0.014488445
158	0x3b9158c0	0.0044356287
159	0x3ce5e800	0.028064728
160	0x3c26e84d	0.010187221
161	0x3d116186	0.035493396
162	0x3d2f882f	0.042854484
163	0xbc9de1c8	-0.0192727
164	0xb72c3775	-1.0264911e-05
165	0x3c1d9d48	0.009620018
166	0x3d287188	0.041123897
167	0x3c5914d2	0.013249593
168	0x3ccd4059	0.025055097
169	0x3ce649d1	0.02811137
170	0x3d0dcb14	0.0346175
171	0x3c047bd6	0.008086165
172	0xbca26fdc	-0.01982873
173	0xbd646903	-0.05576421
174	0x3d0f9dae	0.035062484
175	0x3c8d5256	0.017251175
176	0x3be4ca9b	0.0069821603
177	0x3d151d0c	0.036404654
178	0x3d33b948	0.04387787
179	0x3c51e790	0.012811556
180	0x3d911c14	0.070854336
181	0x3d090804	0.03345491
182	0x3cb1074c	0.021609925
183	0x3d648311	0.055789057
184	0x3dc6fbe7	0.09716015
185	0x3d9bdfb6	0.07611029
186	0x3d31bc51	0.043392483
187	0x3da5b737	0.08091586
188	0x3c9514fc	0.018198483
189	0xbc9f350d	-0.019434476
190	0xbc152db6	-0.009105137
191	0xbab0e691	-0.0013496449
192	0xbc15817d	-0.009125111
193	0xbc468598	-0.012116812
194	0x3c82ea68	0.015980914
195	0xbcb5a55b	-0.022173574
196	0xbc4db373	-0.012554991
197	0x3d1d6a43	0.038431417
198	0xbcf2174c	-0.029552124
199	0xbcfc730e	-0.030816581
200	0xbc9b9982	-0.018994097
201	0xbc689ccc	-0.01419754
202	0xbbe054c4	-0.0068460423
203	0xbc9f5faa	-0.019454796
204	0xbc995336	-0.018716436
205	0xbd3912cf	-0.045183953
206	0xbcc07d18	-0.02349715
207	0x3d450701	0.048102383
208	0x3d8c9409	0.06864173
209	0x3cf18743	0.029483443
210	0x3c967796	0.01836757
211	0x3d44a2db	0.048006874
212	0x3c27cf47	0.01024229
213	0x3c2c4230	0.010513827
214	0x3dd4e0be	0.10394429
215	0x3db1b9c6	0.086780116
216	0x3c169411	0.009190575
217	0x3959343f	0.00020714196
218	0x3ab0a4d0	0.0013476852
219	0xbc8225f3	-0.015887236
220	0xbabba2fe	-0.0014315543
221	0xbd02d3aa	-0.03194014
222	0x3cfc3885	0.03078867
223	0x3cc068fd	0.023487562
224	0x3bae13e3	0.0053124293
225	0x3c289537	0.010289482
226	0x3d1b92d4	0.037981823
227	0x3c9d1232	0.019173715
228	0x3b861e0e	0.0040929383
229	0xbae84df4	-0.0017723427
230	0xbc8eb978	-0.017422423
231	0x3d1061d5	0.03524955
232	0xbc1eefaf	-0.0097007
233	0x3bfed576	0.0077769114
234	0x3c507a77	0.01272451
235	0x3d561aac	0.05227153
236	0x3be8fb0b	0.007110005
237	0x3d4865e6	0.048925303
238	0x3d5a39e4	0.053277865
239	0xbb7a28e2	-0.003817134
240	0x3c925d82	0.017866854
241	0x3d91b041	0.07113696
242	0x3d4ca952	0.049966164
243	0xbc656739	-0.014001661
244	0x3c931169	0.017952638
245	0x3c8d381e	0.017238673
246	0xbce3e510	-0.027819186
247	0x3c60fd50	0.013732269
248	0xbc788d25	-0.01517037
249	0xbca5d3a3	-0.020242518
250	0x3c923942	0.017849568
251	0x3d7fc402	0.062442787
252	0x3ca4f34c	0.020135544
253	0x3bb5233e	0.005527883
254	0xbb8f3efc	-0.004371522
255	0x3d07cd5e	0.033154838

encoder.encoder.1.0.bias f4 [64]
0	0xbb571306	-0.0032817735
1	0x3c98e66f	0.018664567
2	0xbd0cce1b	-0.034376245
3	0x3bf58204	0.0074923057
4	0x3c926188	0.017868772
5	0xbcd4834a	-0.02594151
6	0x3d01f710	0.031729758
7	0x3b119167	0.002221191
8	0xbcb856e5	-0.022502372
9	0xbc869524	-0.016428538
10	0xbc2e06d0	-0.010621741
11	0x3c9c6019	0.019088792
12	0xbcf8276e	-0.030292239
13	0x3cbea30f	0.023271112
14	0x3ce1d60b	0.027567884
15	0xbb1702ec	-0.0023042513
16	0xbc93e9c5	-0.018055806
17	0x3c98d4b3	0.01865611
18	0x3c50e865	0.01275072
19	0xbc55732e	-0.013027949
20	0xbc9bc774	-0.019016005
21	0x3bbcf3f5	0.0057663866
22	0xbd0e534b	-0.034747403
23	0x3c447e85	0.011993055
24	0xbce8fc87	-0.028440727
25	0xbc9a4a30	-0.018834203
26	0xbcf12675	-0.029437283
27	0xbcff4a19	-0.031163262
28	0xbcfe4d7b	-0.031042805
29	0xbac82ffa	-0.0015273087
30	0xbce6692f	-0.028126327
31	0x3add4202	0.0016880634
32	0xbb79d162	-0.0038119187
33	0x3cb367d2	0.021900091
34	0x3cb94a2c	0.022618376
35	0xbc8749cd	-0.016514683
36	0xbc610723	-0.013734612
37	0xbb845828	-0.0040388294
38	0x3c3143ad	0.010819358
39	0x3c0bf553	0.008542377
40	0xbd0b8944	-0.034066454
41	0x3b0f29bc	0.0021844944
42	0xbc854953	-0.016270315
43	0xbccfde86	-0.025374662
44	0x3cc046b3	0.023471212
45	0xbcc0bdb3	-0.023527956
46	0xbcb301ed	-0.021851504
47	0x3c79170c	0.015203249
48	0x3c90767b	0.01763462
49	0xbd012d5c	-0.0315374
50	0xbc2821f1	-0.0102619985
51	0x3b8027c5	0.003910991
52	0xbcface29	-0.030615883
53	0xbca27f80	-0.019836187
54	0xbcd49527	-0.025950028
55	0x3bb47cd6	0.0055080457
56	0x3c2eb1d5	0.010662516
57	0x3cd401f9	0.025879847
58	0x3be46bac	0.0069708433
59	0xbc1fddc5	-0.009757464
60	0x3ca5e67d	0.020251507
61	0xbc32dac4	-0.010916416
62	0xbb42188c	-0.0029616682
63	0x3ce810c7	0.028328313

encoder.encoder.1.1.weight f4 [64]
0	0x3f0ddc6c	0.5541446
1	0x3db88c6b	0.090111576
2	0x3e6a8a3a	0.22904292
3	0x3ef5376c	0.47893846
4	0x3f21561d	0.63022023
5	0x3eb26940	0.34845924
6	0x3f011bf1	0.5043326
7	0x3ef8aa91	0.48567632
8	0x3f5c1bea	0.85980093
9	0x3decd1f5	0.115634836
10	0x3f0ccfff	0.55004877
11	0x3f0b7d1c	0.54487777
12	0x3f2d7310	0.67753696
13	0x3edb1787	0.42791387
14	0x3e403618	0.18770635
15	0x3ecbcb50	0.39803553
16	0x3ee61309	0.44936398
17	0x3cebd4a1	0.028787913
18	0x3f0cf7c4	0.5506556
19	0x3ed2a1fa	0.41139203
20	0x3ee13dfd	0.43992606
21	0x3e8c5711	0.27410176
22	0x3f0dc79a	0.5538269
23	0x3f56e45d	0.83942205
24	0x3d7eabca	0.06217555
25	0x3f0c42f4	0.5478966
26	0x3f55b1e9	0.83474594
27	0x3e93edc7	0.28892347
28	0x3ef3d0a5	0.4762012
29	0x3f2d83db	0.6777932
30	0x3e993638	0.29924178
31	0x3e39a5b3	0.18129615
32	0x3f6232bf	0.8835868
33	0x3e9fde5a	0.31224328
34	0x3d9be84e	0.07612668
35	0x3ec51f6f	0.38500544
36	0x3e33171f	0.17489289
37	0x3df82265	0.12115935
38	0x3ea1731b	0.3153313
39	0x3e0037e6	0.12521324
40	0x3ed3d0e5	0.4137031
41	0x3c7b136c	0.015324455
42	0x3f06b430	0.52618694
43	0x3f4d655c	0.8023279
44	0x3e85b0ee	0.2611155
45	0x3f3300b4	0.6992295
46	0x3d42ee7b	0.047590714
47	0x3f016699	0.50547177
48	0x3f17eff7	0.5935053
49	0x3d0d4bb1	0.034496013
50	0x3ea0e602	0.31425482
51	0x3e73fb33	0.23826294
52	0x3f2048fa	0.62611353
53	0x3f0f1ec9	0.5590635
54	0x3f282051	0.6567431
55	0x3f0ba15c	0.5454309
56	0x3e8ede1c	0.2790383
57	0x3f4fd547	0.8118481
58	0x3e5f3d8f	0.21800826
59	0x3f0bb4a2	0.545725
60	0x3f041adb	0.5160348
61	0x3eb21a59	0.34785727
62	0x3e45befc	0.19311136
63	0x3f19a3fe	0.6001586

encoder.encoder.1.1.bias f4 [64]
0	0xbe318f2f	-0.17339776
1	0xbc90f493	-0.017694747
2	0xbcf3055d	-0.029665643
3	0xbced92e1	-0.029000701
4	0xbe4abdf6	-0.19799027
5	0xbcf58283	-0.02996946
6	0xbe0e4f55	-0.1389745
7	0xbdd06e6b	-0.101773106
8	0x3b7b1724	0.0038313353
9	0x3d00f09d	0.031479467
10	0xbdda9f5e	-0.10674928
11	0xbe32bf29	-0.17455734
12	0xbdd4be4c	-0.10387859
13	0xbe135408	-0.14387524
14	0xbd85709f	-0.065156214
15	0xbe0ec3e3	-0.13941912
16	0xbd2cdf42	-0.042205103
17	0xbabf0d93	-0.0014576189
18	0x3d14dadc	0.036341533
19	0xbe0a8aa3	-0.13529448
20	0xbd87a602	-0.0662346
21	0xbca31aa8	-0.019910172
22	0xbe4f9f59	-0.2027563
23	0x3c72a9d2	0.014810996
24	0xbbd8e5bc	-0.0066191833
25	0xbd877ac2	-0.06615211
26	0xbd8b1633	-0.067913435
27	0x3d27a604	0.04092981
28	0xbda400e0	-0.080079794
29	0x3ad386d9	0.001613821
30	0xbd678e67	-0.05653229
31	0xbd8c44f2	-0.06849088
32	0xbdc9e2d4	-0.09857717
33	0xbd9f97d3	-0.0779263
34	0xbb3f07cd	-0.0029148937
35	0xbe33b848	-0.17550766
36	0xba45f139	-0.00075508986
37	0x3b9bd1fd	0.004755257
38	0xbcc8a4a5	-0.024492571
39	0xbcfaadb5	-0.030600408
40	0xbdebd711	-0.1151563
41	0x3c3b074b	0.011415313
42	0xbdde0953	-0.10841622
43	0xbdf141b6	-0.117801115
44	0xbd36a349	-0.044589315
45	0xbe25564b	-0.161462
46	0x3ba34611	0.004982718
47	0xbd4c469d	-0.04987203
48	0xbe241f9a	-0.1602768
49	0x3c453cb0	0.012038395
50	0xbccdb2b8	-0.025109634
51	0xbdb76919	-0.08955593
52	0xbb4785e1	-0.0030444788
53	0xbdf55427	-0.119789414
54	0xbe564bd3	-0.20927362
55	0xbd6c355d	-0.05766808
56	0xbd3f98fd	-0.04677676
57	0xbdeab591	-0.11460412
58	0xbc8002db	-0.015626362
59	0xbdda5b08	-0.10661894
60	0xbe139dcd	-0.14415665
61	0xbd4515f2	-0.04811663
62	0x3c0b1988	0.008489974
63	0x3d2170d5	0.039414246

encoder.encoder.1.1.running_mean f4 [64]
0	0x3e5f8156	0.21826681
1	0x3dc9d534	0.098551184
2	0xbe544a59	-0.20731486
3	0xbef2a7e1	-0.47393706
4	0x3f842177	1.0322713
5	0xbe449a1b	-0.19199412
6	0xbd35670d	-0.04428773
7	0xbe4215a5	-0.18953569
8	0xbefe84a3	-0.4971057
9	0xbe075846	-0.13217267
10	0xbf009bed	-0.50237924
11	0x3f278994	0.654443
12	0xbf092e80	-0.5358658
13	0x3d6d5bb5	0.057948787
14	0x3df1bc0b	0.118034445
15	0x3f4ab458	0.7918143
16	0xbe2336a5	-0.15938814
17	0x3dac0a32	0.08400382
18	0xbeac9f57	-0.33715317
19	0xbe23be53	-0.15990572
20	0xbdf83629	-0.12119705
21	0xbe0a8ab8	-0.1352948
22	0x3f2dacfe	0.6784209
23	0xbedcebd1	-0.43148664
24	0xbd6f5cfd	-0.05843829
25	0xbe1ecfb1	-0.15508915
26	0xbf0c7785	-0.5486987
27	0xbeae343e	-0.34024233
28	0xbea365d7	-0.31913635
29	0xbf3a4c23	-0.72772425
30	0xbe4ae278	-0.19812953
31	0x3d911272	0.07083596
32	0xbfd08bd5	-1.6292673
33	0xbd97fb98	-0.074210346
34	0xbd8f67a8	-0.07002193
35	0x3f6f11ae	0.9338635
36	0xbe79cad0	-0.24393773
37	0xbce3c3cf	-0.02780333
38	0xbe3e7c33	-0.18602066
39	0xbd4b8813	-0.049690317
40	0xbe1fdee3	-0.15612368
41	0x3e0f06ae	0.13967392
42	0xbe52588c	-0.2054159
43	0xbf317aed	-0.69328195
44	0xbe7e19eb	-0.24814574
45	0xbeffe827	-0.49981806
46	0x3dea41a6	0.11438303
47	0xbf24dc38	-0.6439853
48	0x3e36bb83	0.17844968
49	0x3d904b93	0.07045665
50	0xbe575302	-0.21027759
51	0x3ec9fc49	0.3945029
52	0xbed3280a	-0.41241485
53	0xbe634eb6	-0.22197995
54	0x3eac9214	0.337052
55	0xbf3c81f5	-0.736358
56	0xbe8befc1	-0.27331355
57	0xbfb70b21	-1.4300271
58	0xbdb23354	-0.08701196
59	0xbe8e1d70	-0.27756834
60	0x3f132fdb	0.57494897
61	0xbe90e495	-0.28299394
62	0xbdee1416	-0.11624925
63	0xbf013807	-0.50476116

encoder.encoder.1.1.running_var f4 [64]
0	0x3e75eb31	0.240155
1	0x3ca85bce	0.020551588
2	0x3d571545	0.05251052
3	0x3ec0c0a0	0.3764696
4	0x3f075a92	0.52872574
5	0x3e14b2c0	0.14521313
6	0x3eb3616f	0.35035273
7	0x3e547207	0.20746623
8	0x3ef6b12f	0.48182055
9	0x3d449bd9	0.04800019
10	0x3ed985c3	0.42484865
11	0x3f47d0ad	0.7805279
12	0x3eb8f127	0.36121485
13	0x3eba30b4	0.36365283
14	0x3d36d86b	0.044639986
15	0x3e515431	0.20442273
16	0x3ec55abd	0.3854579
17	0x3c5f0b39	0.0136135155
18	0x3e8318cd	0.2560486
19	0x3eb30a8e	0.3496899
20	0x3e259219	0.16169013
21	0x3d8c65a3	0.06855323
22	0x3ec01af0	0.37520552
23	0x3e6ca827	0.2311102
24	0x3ce35821	0.027751984
25	0x3e695b90	0.22788835
26	0x3f0d7606	0.55258214
27	0x3dc3d887	0.09562784
28	0x3e46f432	0.1942909
29	0x3ecb0a01	0.3965607
30	0x3e49afe7	0.19696008
31	0x3d89b942	0.06724788
32	0x3fdd2b89	1.7278911
33	0x3e097b66	0.13425979
34	0x3d69b3bc	0.057056174
35	0x3e734be8	0.23759425
36	0x3d733270	0.059374273
37	0x3d00a64d	0.031408597
38	0x3de39c5a	0.11113806
39	0x3c695104	0.014240507
40	0x3dd2f7ba	0.10301156
41	0x3ce86b99	0.028371619
42	0x3ec83510	0.39102983
43	0x3ed8a8db	0.42316326
44	0x3e1307d6	0.14358458
45	0x3f5442d0	0.8291445
46	0x3ca64330	0.02029571
47	0x3e7f0eb8	0.24907959
48	0x3e8e9d90	0.27854586
49	0x3c1b98f6	0.009496918
50	0x3dd47420	0.103737116
51	0x3da9a4dd	0.08283398
52	0x3e78df37	0.243039
53	0x3ef9a14a	0.48755866
54	0x3eef0e2a	0.46690494
55	0x3f443e8f	0.76657957
56	0x3e0cab76	0.13737282
57	0x3fc23459	1.5172225
58	0x3d54d819	0.0519639
59	0x3f8eb06e	1.1147592
60	0x3f6199e1	0.88125426
61	0x3e7e631b	0.24842493
62	0x3dbd6299	0.09247322
63	0x3f3459b8	0.704494

encoder.encoder.2.0.weight f4 [64, 64, 3, 3]
0	0x3bda9c56	0.0066714687
1	0xbcfe15e0	-0.03101629
2	0xbc7bcc80	-0.015368581
3	0x3bb36657	0.0054748463
4	0x3c25e6cc	0.010125827
5	0x3a9e57f5	0.0012080657
6	0x3c057e56	0.008147797
7	0x3cb2c3c3	0.021821862
8	0x3cad13b8	0.021127567
9	0xbc1b9e05	-0.009498124
10	0xbc6b71c0	-0.014370382
11	0xbcdfbd62	-0.027311984
12	0x3cb48996	0.022038262
13	0x3c9c21f9	0.019059168
14	0xbcd51651	-0.026011618
15	0xbd088ad0	-0.033335507
16	0x3c9ab590	0.018885404
17	0xbb85bff8	-0.0040817223
18	0x3c86fd71	0.016478272
19	0xbc50a1b4	-0.0127338655
20	0xbcbb093a	-0.022831548
21	0xbc97a485	-0.018511066
22	0xbceae608	-0.02867414
23	0x3cd7b40e	0.026330974
24	0xbd094dc8	-0.033521444
25	0xbc168d90	-0.009189025
26	0x39d40393	0.00040438454
27	0xbd00d4cd	-0.031452943
28	0xbcc688a5	-0.024235079
29	0x3cf314cb	0.029673
30	0xbc2c07b0	-0.01049988
31	0xbcf3e6ef	-0.029773204
32	0x3ceedb68	0.029157355
33	0xba57e40d	-0.00082355813
34	0x3b351f3c	0.0027637025
35	0xbca4b206	-0.02010442
36	0xbcda447c	-0.026643984
37	0x3b519bc7	0.003198372
38	0x3d397a58	0.04528269
39	0x3cae5085	0.02127863
40	0x3ca0f626	0.019648623
41	0xbc8b4a3b	-0.01700317
42	0x3b47ad97	0.0030468458
43	0x3c5fb618	0.013654254
44	0x3d49feed	0.04931538
45	0xbc85ac4b	-0.016317507
46	0xbcf46b5d	-0.029836351
47	0x3b9b69e7	0.004742849
48	0x3cb28e4e	0.021796372
49	0x3cbd9eb7	0.02314697
50	0xbd0f994e	-0.035058312
51	0xbd00a2b9	-0.031405184
52	0xbad4c2fe	-0.0016232429
53	0xbd126ea6	-0.035750054
54	0xbcda9511	-0.026682409
55	0xbc1e5791	-0.009664432
56	0x3c0b95f1	0.008519636
57	0xbce81ea9	-0.028334932
58	0xbcd60400	-0.026124954
59	0x3cc9fec8	0.024657622
60	0x3acd151f	0.0015646553
61	0x3caea2ae	0.021317806
62	0xbcba5d90	-0.022749692
63	0xbc0f1093	-0.008731979
64	0xbd1fcba8	-0.03901258
65	0xb8e0296b	-0.00010688867
66	0xbd0700b9	-0.032959674
67	0xbbc777cd	-0.0060872794
68	0x3cee1974	0.029064871
69	0x3cabb204	0.020958908
70	0xbd1e9f12	-0.03872592
71	0x3c6e4c4f	0.014544561
72	0x3ca7966e	0.020457473
73	0xbd035a4c	-0.032068536
74	0x3c01082f	0.007875486
75	0xbc9421df	-0.018082557
76	0xbcb2b32b	-0.02181395
77	0x3a3e185c	0.00072515546
78	0x3c9fb6d9	0.019496368
79	0x3d29aacb	0.041422646
80	0xbd0c977d	-0.034324158
81	0x3cad7f71	0.021178933
82	0x3c6ffe3b	0.014648016
83	0x3ab107e2	0.0013506378
84	0xbcdff0ec	-0.02733656
85	0x3c80d130	0.015724748
86	0x3d02b34a	0.031909265
87	0x3bd678d7	0.006545167
88	0xbc316a0b	-0.010828505
89	0xbcdc05b1	-0.026858183
90	0x3d0866c9	0.03330115
91	0xbc85ac19	-0.016317414
92	0xbd1a9104	-0.037735954
93	0xbc573d26	-0.0131371375
94	0xbd10ff06	-0.03539946
95	0xbcd1a966	-0.02559347
96	0x3c15fb30	0.009154126
97	0xba50d9e0	-0.0007967036
98	0x3d26d145	0.04072692
99	0xbc36d0a0	-0.0111581385
100	0xbc8ceb0d	-0.017201925
101	0x3c44300f	0.011974349
102	0xbd01d158	-0.031693786
103	0xbd030a6e	-0.03199237
104	0xbc6c9205	-0.014439111
105	0xbbf3d17a	-0.007440743
106	0xbcfe4a05	-0.031041155
107	0xbd065759	-0.032798145
108	0x3d3139b7	0.04326793
109	0x3d4788de	0.04871451
110	0xbce8eaa7	-0.028432203
111	0x3bbb8b6e	0.0057234084
112	0x3d018ffe	0.031631462
113	0x3ba57361	0.0050491546
114	0xbc8329ec	-0.0160112
115	0xbcd35dac	-0.025801502
116	0xbd08eb7d	-0.033427704
117	0x3c9a51aa	0.018837769
118	0xbd022275	-0.031771142
119	0xbbd76696	-0.0065735085
120	0xbc93c340	-0.018037438
121	0xbd0a3dd8	-0.033750385
122	0x3c7c7e12	0.015410917
123	0xbc97998c	-0.018505834
124	0xbcb53158	-0.022118255
125	0x3c227dfb	0.009917731
126	0x3cb7a42c	0.02241715
127	0x3c32c238	0.010910563
128	0xbbe84de3	-0.007089363
129	0x3ccf8ae2	0.02533478
130	0xbcf8efca	-0.030387778
131	0x3cd879f7	0.026425345
132	0xbce0d3d3	-0.027444756
133	0xbcce96fe	-0.025218483
134	0xbbba40fe	-0.005684017
135	0x3c3521b5	0.0110554
136	0xbc6ab717	-0.014325879
137	0x3bea2344	0.0071453173
138	0x3c5aac21	0.013346703
139	0x3c3e9ec6	0.011634534
140	0x3c9a7afc	0.018857472
141	0x3bd0b825	0.006369608
142	0xbc14682b	-0.009058039
143	0x3d29c1df	0.041444656
144	0xbc8d2bf3	-0.01723287
145	0xbd11d8e4	-0.035607234
146	0x3c34fa0c	0.011045944
147	0xbce1a79e	-0.027545746
148	0x3c0e923d	0.008701858
149	0x3cbd9fb4	0.023147441
150	0xbd187561	-0.037221316
151	0xbcd58406	-0.02606393
152	0x3c6541b9	0.01399272
153	0x3cb7e29f	0.022446929
154	0xbcf2f9ef	-0.029660193
155	0x3cc9b4d8	0.024622366
156	0x3c52c391	0.0128640095
157	0xbc1842c0	-0.009293258
158	0xbba39555	-0.004992167
159	0x3ce41938	0.027844056
160	0xbcb43b0a	-0.022000808
161	0xbc6ddf95	-0.014518638
162	0x3d098af5	0.033579785
163	0x3cf1bb46	0.029508244
164	0x3d3cc84d	0.04608946
165	0xbc19be49	-0.009383746
166	0xbc2cf910	-0.010557428
167	0xbc9bcf5f	-0.01901978
168	0x3d081e8e	0.033232264
169	0x3c979fa8	0.018508747
170	0x3ca53804	0.020168312
171	0x3b3733c2	0.0027954434
172	0xbc376847	-0.011194295
173	0x3c05dc64	0.008170221
174	0x3c47a556	0.012185415
175	0xbd14f6b5	-0.03636809
176	0xbcfbed3e	-0.030752774
177	0x3c713efd	0.01472449
178	0xbc88f943	-0.01672042
179	0xbcfdd290	-0.030984193
180	0x3c7d1798	0.01544752
181	0xbb50c8a1	-0.0031857865
182	0xbd268f41	-0.04066396
183	0x3ca2ceff	0.019874094
184	0xbc2be5ce	-0.010491801
185	0xbc7af86a	-0.015318016
186	0x3c15e401	0.009148599
187	0xbccadd5c	-0.024763756
188	0x3cdd3758	0.027003929
189	0x3b838adf	0.0040143575
190	0x3cf72dcb	0.030173203
191	0x3cdb07b8	0.026737079
192	0x3c039c30	0.0080328435
193	0xbbbcccec	-0.0057617333
194	0x3cab19df	0.02088636
195	0xbc62a787	-0.013833887
196	0x3c912d67	0.017721845
197	0x3bdee879	0.0068026152
198	0x3cc201ac	0.023682438
199	0xbce6839c	-0.028138928
200	0x3d1018b6	0.035179816
201	0xbc232a8a	-0.009958873
202	0xbc23e17a	-0.010002488
203	0x3ca74c95	0.02042226
204	0x3b0d1257	0.0021525824
205	0x3ba436f7	0.005011435
206	0x3b9e6b00	0.0048345327
207	0x3d34e03a	0.04415915
208	0xbbaeb20c	-0.0053312834
209	0xbccb34dc	-0.024805479
210	0x3c47e0f1	0.012199626
211	0xbd4a5941	-0.049401525
212	0xbcc16211	-0.023606332
213	0xbd047b06	-0.032343887
214	0xbb480398	-0.003051972
215	0x3ca1eded	0.019766772
216	0x3d0b0dbc	0.033948645
217	0x3c80ad45	0.015707621
218	0xbbaf20b4	-0.0053444747
219	0xbc80c226	-0.015717577
220	0xbba5ce5e	-0.0050600013
221	0xbcdff45f	-0.027338205
222	0x3bede110	0.0072594956
223	0xbcf86b58	-0.030324623
224	0x3c89d6dc	0.016826086
225	0xbb27092d	-0.0025487647
226	0xbc24c1a6	-0.010055935
227	0xbcbe2dca	-0.023215193
228	0xbc8a4aaa	-0.016881306
229	0xbc990feb	-0.018684348
230	0xbc3c749d	-0.011502412
231	0xbc2d49e2	-0.010576697
232	0xbbbd3035	-0.005773569
233	0x3ca3630b	0.019944688
234	0xba19ea7f	-0.00058714295
235	0xbc854ea1	-0.016272845
236	0x3c248bbf	0.010043084
237	0xbca52000	-0.02015686
238	0x3cdb47ef	0.026767699
239	0x3d0d9e64	0.03457488
240	0xbc82c72d	-0.015964115
241	0xbcae6863	-0.02129001
242	0x3c935b72	0.01798794
243	0x3cde96de	0.027171548
244	0xbcb91740	-0.022594094
245	0x3baa27bd	0.0051927255
246	0xbd01485e	-0.031563155
247	0xbb0aa430	-0.0021154992
248	0xbc57dff8	-0.013175957
249	0xbc8ed530	-0.01743564
250	0x3c2ecf28	0.010669507
251	0x3c82246d	0.01588651
252	0x39d50b03	0.0004063473
253	0xbbacddf4	-0.0052754823
254	0x3b92d70a	0.004481201
255	0x3b21343e	0.002459779

encoder.encoder.2.0.bias f4 [64]
0	0xbcdf16f6	-0.027232628
1	0x3c455b56	0.012045702
2	0xbcdc18d3	-0.026867306
3	0x3bed99ee	0.007251016
4	0xbc6e743b	-0.014554079
5	0x3d00aed5	0.031416733
6	0x3c75e6af	0.015008613
7	0xbcada010	-0.021194488
8	0x3c18277e	0.009286759
9	0xbc552d3c	-0.013011273
10	0xbc7e8b1e	-0.015536098
11	0xbd0ab90b	-0.033867877
12	0xbc5c0033	-0.013427782
13	0x3cf35d2b	0.029707512
14	0xbc44573c	-0.011983689
15	0xbcca9f15	-0.02473406
16	0xbc9ede31	-0.019393058
17	0xbc1c9d71	-0.009559021
18	0x3c646e37	0.013942293
19	0x3c505732	0.0127161015
20	0x3cff9138	0.031197175
21	0x3ce5afe3	0.02803797
22	0x3c40a9a1	0.011759193
23	0xbcec261a	-0.028826762
24	0x3d00aefe	0.031416886
25	0x3c34b73c	0.011030015
26	0xbd0d20ac	-0.034454986
27	0xbc569dcb	-0.013099144
28	0xbcdf2390	-0.027238637
29	0xbcc0c98f	-0.02353361
30	0x3cd10145	0.0255133
31	0x3c743537	0.0149052655
32	0x3cc690c8	0.024238959
33	0xbbe100b7	-0.0068665403
34	0x3c7942b8	0.015213661
35	0xbc1fa369	-0.00974355
36	0xbbc6abca	-0.0060629593
37	0xbcaaac48	-0.020834103
38	0xbcb8f4db	-0.022577694
39	0xbb7685f5	-0.0037616466
40	0xbc2048bf	-0.009782969
41	0x3d039678	0.03212592
42	0xbce2bbaf	-0.027677385
43	0x3a4df79d	0.00078570266
44	0x3cd7de51	0.026351126
45	0x3cce836e	0.025209155
46	0x3cead79c	0.028667264
47	0xbcff3454	-0.031152882
48	0xbc64105e	-0.013919918
49	0xbb544633	-0.0032390475
50	0xbc6c1db7	-0.014411381
51	0x3d09f8df	0.033684608
52	0xbb98f9f2	-0.0046684677
53	0x3c4c42cc	0.0124670975
54	0x3cf11f5e	0.029433902
55	0xbcb1b8f9	-0.021694647
56	0xbcc97169	-0.024590211
57	0xbcaf540f	-0.021402387
58	0x3c9b3402	0.018945698
59	0xbd06727d	-0.03282403
60	0x3bc9c573	0.006157571
61	0xbbdf3f48	-0.0068129636
62	0xbcec7086	-0.02886225
63	0xbceeb96f	-0.029141156

encoder.encoder.2.1.weight f4 [64]
0	0x3e3677b6	0.17819104
1	0x3f1fc86c	0.62415195
2	0x3ed23d2f	0.41062304
3	0x3edc0078	0.42969108
4	0x3f37b62d	0.71762353
5	0x3ea8ad7e	0.32944864
6	0x3f3879cf	0.72060865
7	0x3f2b31b8	0.6687274
8	0x3e44b160	0.19208288
9	0x3e850cdc	0.25986373
10	0x3e4a9575	0.19783576
11	0x3eafed21	0.34360602
12	0x3e1e9180	0.15485191
13	0x3dd05fa8	0.10174495
14	0x3eaa2243	0.33229265
15	0x3f2a87ec	0.6661365
16	0x3e593c77	0.21214472
17	0x3f17854d	0.59187776
18	0x3f061c5b	0.52387017
19	0x3efa5927	0.48896143
20	0x3d676b75	0.056498963
21	0x3ec0a50b	0.37625918
22	0x3ef3952f	0.47574756
23	0x3ec7bf73	0.39013252
24	0x3f352cc8	0.70771456
25	0x3ebd2a2c	0.36946237
26	0x3ecbd2db	0.39809307
27	0x3f1156f6	0.56773317
28	0x3ea5eff6	0.32409638
29	0x3e775b19	0.24155845
30	0x3f3a0869	0.7266908
31	0x3f2c0743	0.6719858
32	0x3f2a0028	0.6640649
33	0x3eea16a5	0.457204
34	0x3f12c553	0.5733234
35	0x3f4e4f0f	0.80589384
36	0x3efee456	0.49783581
37	0x3ea082ea	0.3134988
38	0x3eeb83fa	0.45999128
39	0x3f3d5f1b	0.73973244
40	0x3ec30158	0.38086963
41	0x3f0ebb28	0.5575433
42	0x3f23aba2	0.63933766
43	0x3f3b9ac0	0.73283005
44	0x3ee88002	0.45410162
45	0x3f0bca43	0.546055
46	0x3ead04f6	0.33792847
47	0x3ee009ea	0.43757564
48	0x3d183707	0.037161853
49	0x3eb74c0a	0.358002
50	0x3f2fa604	0.68612695
51	0x3de05393	0.109534405
52	0x3f35a99a	0.70961916
53	0x3ef7bacc	0.48384702
54	0x3dd51931	0.104051955
55	0x3f192857	0.5982718
56	0x3f410492	0.753976
57	0x3d76149f	0.06007826
58	0x3e930265	0.28712764
59	0x3ee3981e	0.44451994
60	0x3ecedaa6	0.4040119
61	0x3f14e4cf	0.58161634
62	0x3e939680	0.2882576
63	0x3eccc3e8	0.39993215

encoder.encoder.2.1.bias f4 [64]
0	0xbcda59fe	-0.02665424
1	0xbe16808f	-0.14697479
2	0xbd6109c1	-0.054940943
3	0xbda43cf4	-0.080194384
4	0xbe65ff3b	-0.22460644
5	0xbd8a5914	-0.067552716
6	0xbe9e3f8a	-0.3090785
7	0xbeaf3191	-0.34217504
8	0xbd09f8fd	-0.03368472
9	0xbdb09a9a	-0.08623238
10	0xbd3443a2	-0.044009812
11	0xbb076094	-0.002065693
12	0xbced408c	-0.028961442
13	0xbd121124	-0.035660878
14	0xbdd6d4b2	-0.10489787
15	0xbe327559	-0.17427577
16	0xbc946f2e	-0.01811942
17	0xbe495271	-0.19660355
18	0xbe01212f	-0.12610315
19	0xbc8932f9	-0.016747938
20	0xbc52ec4e	-0.012873722
21	0xbdb9ea6e	-0.09077917
22	0xbe06b0d6	-0.13153395
23	0xbda1868b	-0.0788699
24	0xbe31a728	-0.17348921
25	0xbdc64f8d	-0.09683142
26	0xbe46b63d	-0.19405456
27	0xbe568d1a	-0.20952263
28	0xbddba5c4	-0.10724977
29	0xbde3696d	-0.11104093
30	0xbe5ea6cc	-0.21743315
31	0xbea6ebc7	-0.3260176
32	0xbe081329	-0.13288559
33	0xbded386d	-0.11583028
34	0xbe57091c	-0.20999569
35	0xbe7a48f0	-0.24441886
36	0xbdc64f10	-0.09683049
37	0xbd69eb78	-0.057109326
38	0xbdbdf3b6	-0.09275
39	0xbe7b6648	-0.24550736
40	0xbdcfce56	-0.10146777
41	0xbe38c359	-0.18043269
42	0xbe789406	-0.24275216
43	0xbe2ff79f	-0.17184304
44	0xbd87f360	-0.06638217
45	0xbe35b5dd	-0.17745157
46	0xbd6a06f8	-0.057135552
47	0xbcf05ab3	-0.029340124
48	0xbc2ffc18	-0.010741256
49	0xbd714801	-0.05890656
50	0xbde40c01	-0.11135102
51	0xbd45bd54	-0.04827626
52	0xbd92f260	-0.071751356
53	0xbd7a716c	-0.061143324
54	0xbca7e0c5	-0.02049292
55	0xbe3f2628	-0.18666899
56	0xbe201da6	-0.1563631
57	0xbc17af1a	-0.009258056
58	0xbde648df	-0.11244368
59	0xbdac92ef	-0.08426463
60	0xbe40159f	-0.18758248
61	0xbe390b61	-0.18070747
62	0xbca5846b	-0.020204743
63	0xbe1feee6	-0.15618476

encoder.encoder.2.1.running_mean f4 [64]
0	0xbdfa793c	-0.12230155
1	0xbf39180d	-0.72302324
2	0xbcf5fd37	-0.030027969
3	0xbed630b4	-0.41834033
4	0xbe1f8134	-0.15576631
5	0x3d8092b4	0.062779814
6	0xbfa8d5e7	-1.3190278
7	0x3e5f15f0	0.21785712
8	0xbd6c8301	-0.057742123
9	0x3dcb4133	0.09924545
10	0x3cdae922	0.026722495
11	0xbe855592	-0.26041847
12	0xbea38d97	-0.31943962
13	0x3e87e137	0.26539013
14	0xbe6f3efb	-0.23363869
15	0xbeb52f56	-0.35387677
16	0xbdf0cc85	-0.11757759
17	0xbece0833	-0.4024063
18	0xbed0219b	-0.4065064
19	0xbe6726e5	-0.22573431
20	0x3d65aa6c	0.05607073
21	0xbb2ce08f	-0.0026378965
22	0xbefad1e8	-0.4898827
23	0xbebc60fb	-0.3679274
24	0xbc91e0c2	-0.017807368
25	0xbd606f8c	-0.05479388
26	0xbf02caff	-0.51091
27	0x3f23b12e	0.6394223
28	0x3dc3e9c8	0.095660746
29	0x3ce798f9	0.028271185
30	0xbf320c32	-0.6954986
31	0xbf976fbd	-1.1830975
32	0xbf6eabcf	-0.9323091
33	0xbe9d0d09	-0.30674008
34	0xbda17236	-0.07883112
35	0xbf9fcede	-1.2485006
36	0xbd127b24	-0.035761967
37	0xbd5ee004	-0.054412857
38	0xbce9905e	-0.028511222
39	0xbe8430b0	-0.25818396
40	0xbe134678	-0.1438235
41	0x3cb1b3f6	0.021692257
42	0xbf2e076b	-0.6798007
43	0xbdebe94b	-0.115191065
44	0xbe42a1c7	-0.19007026
45	0xbec5dc01	-0.38644412
46	0xbe881de7	-0.26585314
47	0xbd48b571	-0.04900116
48	0xbac95a85	-0.001536206
49	0xbe2ee3db	-0.17079107
50	0xbe026cab	-0.12736766
51	0x3dbc60a3	0.091981195
52	0xbe764509	-0.24049772
53	0xbef568e7	-0.47931597
54	0x3da82677	0.082104616
55	0xbec77ef5	-0.38964048
56	0xbe963884	-0.29339993
57	0x3cdce9a7	0.026966883
58	0xbcd9772b	-0.026546082
59	0xbe20565d	-0.15657945
60	0xbd6ed5d2	-0.058309384
61	0x3e1243ff	0.14283751
62	0xbe0f4546	-0.1399127
63	0xbe190824	-0.14944512

encoder.encoder.2.1.running_var f4 [64]
0	0x3cc72b4a	0.024312634
1	0x3e79a4b8	0.24379241
2	0x3d91182e	0.0708469
3	0x3dc2112b	0.09475931
4	0x3e87628d	0.26442376
5	0x3d33ea1c	0.043924436
6	0x3ef55e77	0.47923633
7	0x3e9e3ffd	0.30908194
8	0x3cce14aa	0.025156338
9	0x3d97e147	0.07416015
10	0x3cda6995	0.026661674
11	0x3d0e2bbe	0.034709685
12	0x3d0597cd	0.03261547
13	0x3d0e6eda	0.034773685
14	0x3da33608	0.0796929
15	0x3e340672	0.17580584
16	0x3cd498ae	0.02595171
17	0x3ec5f7e7	0.38665697
18	0x3e2df2e8	0.16987193
19	0x3da73408	0.08164221
20	0x3c55a39f	0.013039499
21	0x3d5743cc	0.05255489
22	0x3e8f0a60	0.27937603
23	0x3db4fa69	0.088368244
24	0x3f072073	0.5278389
25	0x3d53eaab	0.05173747
26	0x3dea7bd3	0.11449399
27	0x3e4ddda1	0.20104076
28	0x3d87bfbb	0.066283666
29	0x3d838dca	0.064235285
30	0x3eced59e	0.40397352
31	0x3ed8c3e7	0.42336962
32	0x3ebf6a1d	0.37385646
33	0x3db87bb2	0.09007968
34	0x3ded0972	0.11574067
35	0x3eca7a31	0.3954635
36	0x3ddb7239	0.107151456
37	0x3de099c7	0.10966831
38	0x3e01828f	0.1264746
39	0x3ea9cc78	0.3316381
40	0x3d643d16	0.05572232
41	0x3e76599f	0.24057625
42	0x3e5ca2d2	0.21546486
43	0x3e5454db	0.20735495
44	0x3db8aee3	0.09017732
45	0x3e3dc548	0.18532288
46	0x3d1ba268	0.03799668
47	0x3d90e590	0.070750356
48	0x3cd1a743	0.025592452
49	0x3d8f253d	0.069895245
50	0x3e5d6b07	0.21622859
51	0x3d0e547f	0.03474855
52	0x3e203306	0.15644464
53	0x3db58141	0.08862544
54	0x3ca06b81	0.019582512
55	0x3e383fb7	0.17993055
56	0x3e75617b	0.23962967
57	0x3cb795c4	0.022410281
58	0x3dd35a31	0.10319937
59	0x3da6c24a	0.081425264
60	0x3df5346d	0.1197289
61	0x3e7f4113	0.24927168
62	0x3cec451e	0.028841551
63	0x3de47cd5	0.11156622
