saves_concept/finger/domain_5/max_acc.pth (torch_old, 606194 bytes, 28 tensors)

encoder.encoder.0.0.weight f4 [64, 2, 3, 3]
00000000: cebc 54be d4a9 3d3e 8b77 82bc fce5 083e
00000010: 76c6 2a3c 0a2d 74be 3b50 0ebe a9df f83d
00000020: 5aa4 243e 845f c03d 159a 9abd afcf 37be
00000030: 36ef cf3d 148e 1fbe 1b63 463e 8168 ecbd
00000040: 91de c43d 84de ba3c 9f43 3c3e 81af 1bbe
00000050: 922e 2e3b 88bd cebd 3ee9 e6bd 66d8 223e
00000060: 6f83 5c3e 7186 f5bd e9f0 af3d 8405 39be
00000070: c001 f7bd ac06 ab3b 1911 83bd fea6 02bd
00000080: 72d6 263d ef8f d7bc 0e02 29be 464a 5fbd
00000090: c7b4 1b3e 60c7 dc3d 02bc 953c a047 253e
000000a0: cee8 2cbe ed37 06bd 2130 35be 79b9 e7bd
000000b0: ab95 c13d c3b2 383e 194a 693d 6026 703d
000000c0: a29e 0b3d e1ea 933b 60c9 a83d d969 a93d
000000d0: 2018 b2bd 01a5 333d a4b8 82bc 2d46 013d
000000e0: f0b4 5c3e 8170 113d 6cfa 1dbe 80a8 05be
000000f0: 0e8e 043e 3cfb 1fbe 2470 073d 8546 81be
00000100: fad0 02bd f7b4 013e 2bc6 373e 4f02 c93d
00000110: b67d 4c3d 65c0 033e 72d6 fabd 1eb0 42be
00000120: 511c 123e 1572 4fbd 79c0 2fbe 78c2 173e
00000130: e046 aa3d 3a96 d13d bfa6 ea3d a67d 20be
00000140: 3d31 2cbe 2d01 123e 13b6 2abe 4d00 413e
00000150: 4e65 9a3d 451b f3ba 66b7 d23d fb78 94bd
00000160: f8cf dfbd de41 143d 5da6 1d3c e7c0 023d
00000170: b768 bb3d 420f 44be 7629 973d c0fb e0bd
00000180: 902f 4dbd 1e14 323e c952 2ebd 84ef 03be
00000190: 2f5e 08be c0a6 9b3d 540b 323d 628c 1bbe
000001a0: 4a4d 8a3d c99e 253e ce50 74bd 8e06 c33d
000001b0: 3c56 a1bd 0918 273e f93d 61be b20f f33b
000001c0: a9ec 9c3c b4bb 753b dfd7 9dbb a68e 463e
000001d0: af9c 09be 50de 9aba d310 133e dd93 08be
000001e0: 2f8a 2fbe c8c2 52bd feeb ecbd 484c 5f3e
000001f0: 2cb2 453e 0d66 bcbd 50ca 9fbd 83ea 953d
00000200: 740e a13d 8ca7 9fbc 6f8b 753d 2193 293e
00000210: f252 23be ad47 09be 7e20 bf3d 8009 963d
00000220: 7305 43bd 53ee c0bd 2723 083e 27ee 4f3e
00000230: 39d7 57bd df55 893d 67a8 d4bd e2d9 ebbd
00000240: 7db9 26bd 63ff 9cbd e441 62bd 82b6 303d
00000250: ca2c 1cbd 759f 3cbe c4b0 d1bd f650 1c3c
00000260: 6d0c 073d c430 1f3e 90a8 26be 4e05 d53d
00000270: 312a cfbd 590e b3bd c091 3d3d 8911 d93d
00000280: 3d1b b43d 95ed 32be 2001 29be 541a 023e
00000290: 919e 96bd 78db 823d 8f1b 113c 8ee8 e53c
000002a0: a602 13be 88b7 efbd 7319 47bd a2a0 6b3d
000002b0: c19e 923d ec8e 353e 3a6e 313e 5888 e9bc
000002c0: c171 02be 60f8 3abe f859 fbbb 3e74 5abd
000002d0: 95c7 273e 262c 4b3d 24b0 033e 0e5c fc3d
000002e0: fb82 24be 1150 393d 7893 953d 1e6d 30bd
000002f0: ae40 9f3d 4fc6 73bd 9ff3 423d 68b5 6bbd
00000300: 60d7 4abc 6fee 783d 4967 113e be5c af3d
00000310: c05e 26bd 0e8a a8bd 9449 1f3e caef 3e3d
00000320: 3838 5a3e 873d 18be 50cf e03d 5c57 81bd
00000330: 8039 7cbe ad92 57bd 4dcd ccbb 37bc 173d
00000340: 565a 0fbe 979b 8cbc 78bd 04be d981 f73d
00000350: b7ee 673c 13af e1bd ca89 f93d 4b4c b43d
00000360: 827e bfbd 1cad 0ebe e416 23be 8f00 153e
00000370: 0f33 f63d 5525 a7bd 10b4 33be 6ce3 3abe
00000380: bc1f 1e3e bbb4 b7bd 3aa2 31be ddf6 b3bc
00000390: b58a 433e 584e 143e d04d da3d bcce 7fbd
000003a0: 60e9 e5b9 2e14 e3ba 9c43 673d 4a4a 5d3d
000003b0: b92a 353e 747d f83d c493 6d3a c191 923c
000003c0: d14b 063c c731 8c3d 7067 1c3a bba0 a93d
000003d0: dabf 36be b9fd 8c3d 8cb0 41be 09d7 473d
000003e0: 9f56 39be b593 98bd aa00 443d b58b 473d
000003f0: 7d33 313d f706 cc3d 3971 82bd 7394 4abe
-0.20775148 0.18521816 -0.015926143 0.13368982 0.010423293 -0.23845306 -0.13897793 0.12152035
0.1607832 0.09393218 -0.0754892 -0.17950319 0.10153048 -0.15581542 0.19373743 -0.1154337
0.09612764 0.022811182 0.1838517 -0.15203668 0.002657805 -0.10094744 -0.11274956 0.15902862
0.21534513 -0.11988533 0.08590872 -0.1806851 -0.12060881 0.005219301 -0.063997455 -0.031897537
0.040731855 -0.02631375 -0.1650469 -0.054514192 0.1520568 0.10780215 0.018278126 0.16140604
-0.16885683 -0.03276818 -0.17694141 -0.11314673 0.09452375 0.18036942 0.05695543 0.058630347
0.03408683 0.0045140837 0.08241534 0.08272142 -0.08696008 0.04385853 -0.015957184 0.031561065
0.21553397 0.035507683 -0.1542756 -0.13052559 0.12944815 -0.15623182 0.03306593 -0.25249115
-0.031937577 0.12666689 0.17946689 0.098148935 0.049924575 0.12866361 -0.122479334 -0.19012496
0.14268614 -0.050645906 -0.17163266 0.14820278 0.083142996 0.102337316 0.114575855 -0.15672931
-0.16815658 0.14258261 -0.16671018 0.18847771 0.075388536 -0.0018547556 0.10288887 -0.07249638
-0.10928339 0.03619563 0.009622184 0.031922247 0.09150832 -0.19146445 0.07380955 -0.109855175
-0.050094187 0.17390487 -0.04255942 -0.12884337 -0.13317178 0.076001644 0.043467835 -0.1519027
0.06753023 0.16173853 -0.059647374 0.095227346 -0.07877776 0.16317762 -0.21996297 0.0074176425
0.019155817 0.0037495913 -0.0048169936 0.19390354 -0.13438676 -0.0011815522 0.14361887 -0.13337655
-0.17142557 -0.05145529 -0.115684494 0.21806443 0.19306248 -0.09199152 -0.0780226 0.0732012
0.07864085 -0.019489072 0.059947427 0.16560031 -0.1594961 -0.13406248 0.09332369 0.07326031
-0.04761262 -0.09420457 0.1329466 0.20305692 -0.052695487 0.06705832 -0.10383683 -0.11516167
-0.04070424 -0.07665899 -0.05523862 0.043142803 -0.03812865 -0.18420203 -0.102387935 0.009540787
0.032970835 0.15545946 -0.16275239 0.104014024 -0.10115469 -0.08742971 0.046281576 0.10599048
0.08794258 -0.17473443 -0.16504335 0.12705356 -0.07354463 0.063895166 0.008856668 0.028064992
-0.14356479 -0.11704928 -0.048608255 0.05752624 0.07159186 0.17730302 0.17327204 -0.028507397
-0.12738706 -0.1825881 -0.007670637 -0.053333513 0.16384728 0.04960265 0.12860161 0.123222455
-0.1606559 0.045242373 0.07303518 -0.043072812 0.077760085 -0.059515294 0.047595616 -0.05754605
-0.012380451 0.060774263 0.14199556 0.08562611 -0.040617704 -0.08229457 0.15555412 0.0466154
0.21310508 -0.14867221 0.10977042 -0.063154906 -0.2463131 -0.052630115 -0.0062500597 0.03704473
-0.13999304 -0.017164035 -0.12962902 0.12085313 0.014156035 -0.11019721 0.12184484 0.08803614
-0.09350301 -0.13933223 -0.15926701 0.14550994 0.120214574 -0.081614174 -0.17549157 -0.18250817
0.15441793 -0.089700185 -0.17347041 -0.0219683 0.19095881 0.14483011 0.10659373 -0.062453017
-0.00043852162 -0.001732474 0.05646096 0.054025926 0.17692079 0.12133303 0.00090628513 0.017891767
0.008196787 0.06845432 0.0005966341 0.0828261 -0.17846623 0.06884331 -0.18915004 0.048789058
-0.1809945 -0.07450048 0.047852196 0.04871722 0.043261994 0.09962266 -0.06369252 -0.19783191

encoder.encoder.0.0.bias f4 [64]
00000000: 3071 d53c 1945 afbc ae54 b83d bf12 b43d
00000010: 5add 3bbe 792c 973c 939a 353e 8c80 f93d
00000020: f7c8 e4bd 34f8 293e cab6 d43d 2a48 9e3d
00000030: b660 3d3e 2022 603d 5b32 313e 08e3 143e
00000040: ad4c d33d 1323 fcbc 145c 1b3e 0b1a 2cbe
00000050: b35f 0e3e e4ab 3bbe a3c6 0abe 6101 91bd
00000060: fa17 85bd 9902 d9bd 0a7c e4bd 4f3e 32be
00000070: fc66 ba3d b69d 3ebe 37f1 193e 050b 8a3d
00000080: acf1 96bd 7991 f9bc b2d2 b6bb 3113 a63d
00000090: b30c fcbd b37a c5bc 71ed 24be cba2 43bd
000000a0: 10fa 623d 36a9 23be 1ad7 823c abe7 0fbd
000000b0: 8c54 863d 38c6 12be 8d5f a13d fe8f 9b3d
000000c0: f86e 88bd a0ff f8bc b25d 1c3d e31e a93d
000000d0: 2c9a 07be 3eb9 50bd 997b a73d e850 acbd
000000e0: 0a10 be3d 12ab 953d b6b5 a7bd d36c 2ebe
000000f0: f4f3 313e 5ca8 403d b7ee 87bd b44a b43d
0.026054949 -0.021395253 0.09000526 0.08792638 -0.18346158 0.018453823 0.17734747 0.121827215
-0.111711435 0.16598588 0.10386427 0.07728608 0.18493924 0.054720044 0.17304365 0.1453973
0.10317359 -0.030778443 0.15171844 -0.1680681 0.13903694 -0.1832729 -0.13552336 -0.07080341
-0.06498714 -0.105961986 -0.11156471 -0.17406581 0.09101674 -0.1861485 0.15033422 0.06740383
-0.07370314 -0.030464875 -0.005579316 0.08109129 -0.1230711 -0.02410636 -0.16106202 -0.047762673
0.05541426 -0.15982518 0.015971709 -0.035133045 0.06559095 -0.14333427 0.07879553 0.07595824
-0.066617906 -0.030395329 0.038175292 0.08257844 -0.13242406 -0.05095791 0.08177871 -0.08413869
0.09280403 0.0730802 -0.081889555 -0.170337 0.17378217 0.04703556 -0.06637328 0.08803311

encoder.encoder.0.1.weight f4 [64]
00000000: 246b 583f 533c fb3e 5303 073f b759 563f
00000010: 3e97 a03d 96e5 093f c9c8 3a3f e06b 6d3e
00000020: 65c2 8f3e 8ff2 f23d b377 c13d 7cb3 2f3f
00000030: ac54 663e ea6b ce3e 58ea 803e 8d41 e73e
00000040: acc1 943e 9e58 433e f69d 383f 922c 8d3e
00000050: 0a20 373e 872f 1d3f 2350 143d 58ab fb3e
00000060: c0e9 4c3f e5c2 743e 36a9 193f 4fe1 8b3e
00000070: 13ec 4d3f 286e a63e 0b5b 353f 077c ad3e
00000080: ac44 f53c 7eda e63e 9af3 263f 077d f33e
00000090: cc77 8d3e 2547 883e 0e15 f13e 8886 553f
000000a0: a28f 513f a9bb 463f 3f65 353f c741 473e
000000b0: dacc f53d 2420 3d3f b09e 8e3e 2c54 263f
000000c0: 747e c33e a0f0 313f bc01 363f dbf6 d73e
000000d0: 3582 023f 66da 573e 4f25 663e 5920 453f
000000e0: 4722 0d3f 1180 3d3f 4867 3e3f 5282 2f3d
000000f0: 75f3 103d e659 e63e 02dd b33e 8edc e23e
0.84538484 0.4906946 0.5273945 0.83730644 0.07841347 0.53865945 0.72962624 0.23185682
0.28078 0.11862671 0.09446659 0.68633246 0.22493237 0.40316707 0.2517879 0.451672
0.2905401 0.19076774 0.7211603 0.27573067 0.17883316 0.61400646 0.036209237 0.49154162
0.80044174 0.23902471 0.6002382 0.27320334 0.80438346 0.32505918 0.70842046 0.33883688
0.029939972 0.4508857 0.65215456 0.47556326 0.2763046 0.2661678 0.47086376 0.83408403
0.8185979 0.77630097 0.70857614 0.19458686 0.12001963 0.7387717 0.27855444 0.64972186
0.38182414 0.6950779 0.71096396 0.42180523 0.5097993 0.21079406 0.2247517 0.77002484
0.5513043 0.7402354 0.74376345 0.042848893 0.03538843 0.44990462 0.35129553 0.44308895

encoder.encoder.0.1.bias f4 [64]
00000000: 57d8 193d ebab 44bc 4973 0bbb 77d0 ba3c
00000010: c899 be3c 428e 043d 709e d23b 2d49 44bc
00000020: 1ee6 c7bc 6c9c 97bb c524 17bc 9b6d 213c
00000030: 9031 15bc 06fc 38bc dab3 9c3b f755 213c
00000040: 743c 103b 2b75 4f3c 96bc 9a3c 2336 46ba
00000050: de98 67bc 0e3b a53c c4a6 a4bb 091c 123d
00000060: d6ff bd3b 5bf8 c13b 8c61 8abc b3ed 83bc
00000070: 2ef7 61bc 3713 a7bb 4798 8a3c b285 00bb
00000080: 0041 a23b f18d 753c cb44 00bc 0504 273b
00000090: 8193 0ebb 7e3e 15ba 82b4 20bd 0e87 4d3c
000000a0: 5665 913c f79c 9ebb 8965 713b 082d c23b
000000b0: af8c 38bc 547a 793a 9750 0d3b a95f 353c
000000c0: 9893 9dbb ff24 813b 1306 433b 0836 4c3c
000000d0: a439 033d 5f4f 61bb 2f59 f2bb c320 7fbb
000000e0: 584b a13c 072a 8a3b 20b4 bfbc 2c28 7e3c
000000f0: 4afc b63a ae90 0ebc 3261 10bc d298 d93c
0.037559833 -0.012003879 -0.0021278432 0.022804482 0.023266688 0.03236223 0.0064275786 -0.011980337
-0.02440172 -0.0046268012 -0.009225075 0.009852792 -0.009106055 -0.011290556 0.004782182 0.009847156
0.002200869 0.012662212 0.018888753 -0.00075611676 -0.0141355675 0.020169761 -0.005024763 0.035671268
0.0057983203 0.005919499 -0.016892217 -0.016104555 -0.013791842 -0.005098726 0.016918315 -0.0019610939
0.0049515963 0.014987455 -0.0078289015 0.0025484574 -0.00217554 -0.0005693211 -0.039234646 0.012544407
0.017748516 -0.004840489 0.0036834201 0.0059257783 -0.01126401 0.00095168245 0.0021562928 0.01107017
-0.0048088543 0.003941178 0.002975826 0.012464054 0.032037392 -0.0034379584 -0.0073958854 -0.003892944
0.019689247 0.004216436 -0.02340132 0.015512507 0.0013960686 -0.0087014865 -0.008812236 0.026562128

encoder.encoder.0.1.running_mean f4 [64]
00000000: ac86 b43c 53fe 79be ba45 a93e 74a3 9a3d
00000010: 5b24 8ebd 76e2 11bb a2da 1a3e dd56 403e
00000020: 5551 9bbe 3fe2 893d 2252 af3e f4e8 963d
00000030: 50e8 593d 971a e83d 6900 fe3d 5bf4 da3d
00000040: dd3d e43c 8ba7 3cbd ffdb 173e 0eb9 aa3d
00000050: f887 aa3e a7ed 62be b52e 40be 9257 90bd
00000060: d124 ca3c 8d06 babd 9c57 38be 7d99 1bbe
00000070: 5db1 45bc 493a 97bd c2f8 3a3f c147 d63e
00000080: 350e 5f3d de91 f43d e05e f5bc 9e6d 343e
00000090: 2462 35be f3e3 8ebb 3936 c9be dd42 43bd
000000a0: b1f3 0d3d 7665 be3c 7bad 0abd 9d0f 613e
000000b0: 8093 d2be dc0d c63e 7bbf da3e 7501 513e
000000c0: 54bd b2bc 2e4b aabd 5c68 263d 13e9 b13d
000000d0: e698 0fbe dbe8 1dbe 3d08 093f fcde 99bb
000000e0: 4e8c ad3d d895 643d fcce ecbd c2f5 09be
000000f0: a935 cb3d 8c2d a7bd 332b ec3d daa5 a43d
0.022036873 -0.24413423 0.3306101 0.075507075 -0.06940528 -0.0022260225 0.15122464 0.18783136
-0.3033549 0.06732606 0.3424235 0.07368651 0.053200066 0.113331966 0.12402422 0.10691138
0.02786153 -0.04605822 0.14830016 0.08336078 0.3330686 -0.2216097 -0.18767817 -0.07047953
0.024675759 -0.09083281 -0.1800217 -0.1519527 -0.0120662125 -0.07384164 0.73035824 0.4185162
0.05445691 0.119418845 -0.029952466 0.1761994 -0.17713219 -0.0043606698 -0.3929918 -0.047671188
0.03465623 0.02324174 -0.03385685 0.21978612 -0.4112816 0.3868245 0.42724213 0.20410712
-0.021818794 -0.08315121 0.04062687 0.086870335 -0.1402317 -0.15420859 0.53528196 -0.0046957713
0.084740266 0.055806965 -0.11562917 -0.13472655 0.09922344 -0.08162984 0.11531677 0.08039446

encoder.encoder.0.1.running_var f4 [64]
00000000: 8699 0c3a c5d9 e53b b14c a53b d59c 363a
00000010: 1a24 093b f088 3e3a 432e c23a 5532 d23a
00000020: 6b8f 543b ce66 263b d745 843b 117f cb3a
00000030: 791a 623b fb5f b13b 589a 023b 2661 953a
00000040: 0f9e 4c3a 4645 d039 4355 393b 5aa6 af3b
00000050: 5cb4 3d3b fea4 a03a 1ea2 723b b1c6 da39
00000060: 3dfc 0c3b 578c 093b 7eff d63a 9561 053b
00000070: 8fb4 263b 720e ac3b d1ed ad3c 952b de3b
00000080: ed85 353b 0c12 bf3b 1f04 713a b744 973c
00000090: cdb3 fa3a a593 e13b 95cb 203c 041e c23a
000000a0: 5e9f 073b 53ee 473b 8841 a63b def3 a73b
000000b0: 55d8 523c c255 7e3c 8d41 dd3b 1a6a c23b
000000c0: dd24 903b 3027 023b 75f9 bf3a 7a17 b63a
000000d0: 7b1d 4c3a de77 953a 5297 403c feca f13a
000000e0: 9c0e b43a d479 663a fd08 953a 44b0 b33a
000000f0: 1cf4 f63a bd55 bd3b 5995 613b fbbb 1e3a
0.0005363453 0.0070144855 0.0050445427 0.0006966119 0.002092606 0.000726833 0.0014814812 0.0016036729
0.0032434117 0.0025390866 0.004036646 0.001552554 0.0034500642 0.005413053 0.0019928422 0.001139675
0.0007805535 0.00039724464 0.002827958 0.005360407 0.0028946614 0.0012256203 0.00370229 0.00041728237
0.002151265 0.002098819 0.0016403047 0.0020352353 0.002543721 0.0052507455 0.021231564 0.0067800977
0.0027698234 0.005831009 0.00091940345 0.018465383 0.0019127071 0.0068840557 0.009814163 0.0014809971
0.0020694355 0.0030507043 0.00507373 0.005125507 0.01286896 0.015523376 0.006752199 0.0059330584
0.0043989257 0.0019859783 0.0014646488 0.0013892495 0.00077863754 0.0011403521 0.011754828 0.0018447337
0.0013737264 0.00087919575 0.0011370477 0.0013709147 0.0018841061 0.005778043 0.0034421294 0.0006055233

encoder.encoder.1.0.weight f4 [64, 64, 3, 3]
00000000: 7f75 b8bc 1f75 f5bc c50d b4bc dbaa a13c
00000010: abf5 923c 0b49 d63c 958c b8bc 8f1c 7f3c
00000020: 70b0 433c eff9 85bc 3c19 3ebc d652 84bc
00000030: 9b30 90bc a204 4dbc 24ad 8fbc 15f8 983c
00000040: 7678 26bb e8e2 cd3c 6dbc d23c c624 d93c
00000050: ccb6 cc3c 25ef 5abc 9e8f cabc 6e65 77bc
00000060: 8e24 0c3c 8bb5 0ebc ce10 b53c 636a 0a3d
00000070: 6f17 60bc 9a80 8abc b8d9 313b db0c 0c3c
00000080: 61b0 8dbc a147 9b3c 8c30 a5bc dc77 c6bc
00000090: e2c8 71bc d84c adbc b621 a23c 641a 173c
000000a0: 66a8 ee3c 5ff3 91bc 9b32 69b9 e627 02bd
000000b0: 5779 963a 2ef0 dc3b 5039 603b 7911 f13c
000000c0: 9aab 483c fcba 4fbc 9bde e63c 1bd2 68bc
000000d0: 7139 bd3c 3e6d ae3c c9f9 133c 1285 833a
000000e0: 110c 22bc feda fcbc 5f14 db3c 1b60 4f3c
000000f0: 904f b2bb 5654 b33c 9a64 693c 6e96 c1bc
00000100: 9c32 2d3c 678c 7e3c df91 42bc 5a32 1ebb
00000110: e95a c9bc f18e 7dbb 2cf3 e7bc 7707 91bc
00000120: ea2f a63c 7de2 fcbc 7d7a e83c ae64 e5bc
00000130: 3450 63b9 f591 0b3d 87e9 643c 26ba 333c
00000140: 1aa0 a4bc 8fa1 863c 624b f7bc b3e8 74bc
00000150: abe0 ed3c a384 cb3c 631e 00bd c9f5 303c
00000160: 78c0 e93c 0499 c63c 3974 f53c 166f a23c
00000170: 2c42 b9bb eb7b 933c 0eb3 803c 0ce5 cd3c
00000180: cb94 b8ba acd5 253c afb7 8e3b b5c9 7bbc
00000190: 2564 8bbc 1024 9a3c 61c6 f2ba 5ae4 d4bc
000001a0: ae6d d03c b55c 7dbc 7040 13bc 74cc 06bd
000001b0: 206e cfbc 9ef3 aabb c524 3ebc d588 083d
000001c0: 9d3b b83c 3d48 43bc 40c2 cebc 5eee f6bb
000001d0: 84a2 99bc 3113 cdbc db1c 8739 d4ff 293c
000001e0: 470f f73c 1e47 2ebc 31a4 ec3c 23fb a93c
000001f0: de2b 98bc c665 c63c 78b2 2c3b ebe0 86bc
00000200: b273 cb3c 9954 a6bc 1af9 0a3b 1d6b d33c
00000210: 7957 a5bc ed39 98bc b4aa ed3c 5984 41ba
00000220: 1672 05bb 2055 053d ad49 04bd 6410 d1bb
00000230: 3f26 583c d0e6 bbbc f623 edbc 7c74 88bb
00000240: d787 02bc ae2a babc f767 97bc 51d9 7e3c
00000250: 230e e6bb 5b57 1a3c bf5f 913b 1499 71bc
00000260: 0443 033c 9fbf 49bc d64f 8fbc 8ef3 823c
00000270: fb59 243c 52c4 96bc 283c af3c b387 773b
00000280: bb5f cfbc 079b 9e3c bd34 63bc 402a 22bc
00000290: a95d c5bc 07d6 03bc 4a8c ddbc 0d8f d5bc
000002a0: 6f6f 0bbd d859 08bd f537 d23c b6b2 b83a
000002b0: 01fa a0bc 86f3 983c 2167 98bc a61f 253c
000002c0: 749b 043d cc76 74bc c9cc c9bc 0518 d4bc
000002d0: 1052 9f3b 6bf7 a5bc 875e 6abc add1 a03c
000002e0: 4ace 883c b801 7dbb bd46 10bc 6040 453c
000002f0: e88d 953c 6f6d 963c 61ac a53c 3a9a 803c
00000300: f461 8bbb 012e ecbb e21f 80bc 2737 97bc
00000310: 2c22 793b 1437 3c3c 6c46 e73c 0346 db3c
00000320: 6eda e63c 6649 8ebc 151c a13c 0d98 8bbc
00000330: e541 b5bc 2b46 bb3c 852b ee3c 7051 933c
00000340: 5e3a 80bc 28df cf3c 7772 7c3c d92d 8dba
00000350: c0da cb3c 261e e13c 3b0e 963c f6ae 843a
00000360: 4516 c5bc c416 37bc 4f86 0ebd 52ad 173c
00000370: f987 ddbb 28b6 173c 9ae3 ca3c 7484 81bc
00000380: 89b0 adbc 7353 bb3c 6a1d a9bc b35e 9cbc
00000390: 4009 6d3c 1278 07bd 4777 9dbc 985d 98bb
000003a0: 7c72 0dbc 3fcd ea3c b49d 163a 2da0 3ebc
000003b0: 1203 cabc 1d2e fc3b ca26 21bb ebe4 f43b
000003c0: 1700 053d 4389 b33b 7ce5 b63b b7ee 053d
000003d0: 37cb 9bbc 1c52 82bb 9ef1 d23b 2177 f53c
000003e0: a8ae 323c 99ed 6e3c 899d 8a3b eab8 4f3c
000003f0: 40f5 e2bc a730 713c 5fdd b83c 4f54 573b
-0.022516964 -0.029963074 -0.021979222 0.01973479 0.01793941 0.026157876 -0.022527972 0.015570774
0.011943921 -0.01635453 -0.011602696 -0.01615278 -0.017601302 -0.012513312 -0.017538615 0.018672982
-0.002540139 0.025132611 0.025724614 0.026506793 0.024989508 -0.013362681 -0.024726685 -0.015099866
0.008553637 -0.008710275 0.02210274 0.033792865 -0.013677462 -0.016907025 0.0027137827 0.008547987
-0.017296018 0.018955054 -0.02016475 -0.024227075 -0.014757367 -0.021154806 0.019791465 0.009222601
0.029133033 -0.017816244 -0.00022239464 -0.03177633 0.0011480254 0.006742499 0.0034213848 0.029427277
0.012247944 -0.012678858 0.028182318 -0.014210249 0.02309868 0.021292325 0.009031721 0.0010034165
-0.009890572 -0.030866142 0.026743112 0.012657191 -0.0054416135 0.0218908 0.014245177 -0.0236313
0.010571148 0.015536404 -0.011875599 -0.0024138899 -0.024579482 -0.0038689936 -0.028314196 -0.017703755
0.02028652 -0.030869717 0.02837872 -0.02800211 -0.00021678285 0.034074742 0.013971693 0.010969674
-0.020095874 0.016434459 -0.030187313 -0.014948058 0.029037794 0.02484352 -0.03127898 0.010800787
0.028534159 0.024242885 0.029962646 0.01982836 -0.0056536403 0.018003425 0.01571038 0.025133632
-0.001408243 0.010121744 0.004355393 -0.015367915 -0.017015526 0.018816024 -0.0018522256 -0.025987793
0.025442924 -0.015463998 -0.008987531 -0.032909825 -0.025321066 -0.0052170297 -0.011605446 0.03333362
0.022489363 -0.011919078 -0.02523911 -0.00753574 -0.018754251 -0.025033565 0.00025770706 0.010375936
0.030158652 -0.010637073 0.028886886 0.020749634 -0.018575605 0.024218451 0.0026351493 -0.016464671
0.024835441 -0.020304011 0.0021205605 0.025807912 -0.020183312 -0.018582309 0.029012062 -0.0007382087
-0.002036219 0.032551885 -0.032296825 -0.0063801277 0.013192712 -0.022937208 -0.028947812 -0.0041642766
-0.007966957 -0.02272543 -0.018482191 0.015554742 -0.007020728 0.009420241 0.0044364627 -0.014745969
0.008011583 -0.012313752 -0.017494123 0.015985277 0.010031219 -0.01840416 0.02139099 0.0037770092
-0.025314203 0.019361032 -0.013867554 -0.0098977685 -0.024092512 -0.008046634 -0.027044434 -0.026069188
-0.03404182 -0.033288807 0.025661448 0.0014091346 -0.019650461 0.018670809 -0.018603863 0.010078346
0.032374814 -0.0149209015 -0.024633782 -0.02589036 0.0048620775 -0.02025958 -0.014304764 0.019631231
0.016699929 -0.003860576 -0.008805928 0.012039274 0.018256143 0.018362729 0.020223798 0.015698541
-0.0042536203 -0.0072076325 -0.015640203 -0.018458916 0.0038014753 0.011487741 0.028231822 0.026766783
0.028180327 -0.017368983 0.01966671 -0.017040277 -0.022126148 0.022860607 0.029073486 0.017983168
-0.015652832 0.025374964 0.01540815 -0.001077111 0.024884582 0.027480196 0.018317332 0.0010122943
-0.02405847 -0.011174861 -0.034796055 0.009257631 -0.006760594 0.009259738 0.024766732 -0.015810229
-0.021202343 0.02286694 -0.020643909 -0.019088125 0.014467537 -0.033073492 -0.019221915 -0.004649829
-0.008633252 0.028662322 0.00057455455 -0.011634869 -0.024659667 0.007695927 -0.002458977 0.007473578
0.03247079 0.0054790094 0.005581556 0.03269836 -0.019017799 -0.0039770734 0.0064374944 0.029964032
0.010905899 0.014583015 0.0042302054 0.012678364 -0.027704835 0.014721072 0.022566495 0.0032856648

encoder.encoder.1.0.bias f4 [64]
00000000: 380c 393c cb37 b5bc eb4a e63c bd87 533c
00000010: d085 d5bc 34f4 393c 286d b83c b023 493c
00000020: b5ab ebbc 7f91 f13a d779 993a 3a90 923c
00000030: 5a07 05bd 15f7 d5bc 5b8a 29bc c348 06bd
00000040: 8ddb 813c 0d81 b33c 3e5e ea3c 85de 063c
00000050: c3a8 413c 7638 203b 679c d53b 60bf ae3c
00000060: 1915 8d3c d047 283c 6941 f33c 23a8 59bc
00000070: a7d0 ab3c 698b a03c edc3 38bc 8ba4 a83b
00000080: 3078 e4bc bbc5 c73c a4f1 01bc e213 db3c
00000090: 1a0c e13c b5b2 edbb df09 6d3c 8dae 55bb
000000a0: cffa 533b 32ce adbc 90f3 903c 9cb7 56bc
000000b0: 8e54 263c 4773 f9bc f39b f8ba 8ded 09bd
000000c0: a0b6 083d 3fdb d23c e354 e93c ce02 673b
000000d0: 8280 4f3b 01ea 77b8 ad80 eabc 81b1 92bc
000000e0: 2bb6 d9bc 9e2f 8fbc 3927 f5bc 5494 ee3c
000000f0: feb2 f13c 2616 d23b 377b 903c ed22 bebc
0.011294417 -0.02212133 0.028111896 0.0129107805 -0.026064783 0.0113497265 0.022512987 0.012276575
-0.0287684 0.0018430202 0.0011709285 0.017891038 -0.032477714 -0.026118794 -0.010347928 -0.032784235
0.01585176 0.021912122 0.028609391 0.008231764 0.011820021 0.0024447716 0.0065188888 0.02133149
0.017221974 0.010271028 0.029694276 -0.013284716 0.020973517 0.019597726 -0.011277181 0.005146568
-0.027889341 0.024386277 -0.007931147 0.02674288 0.02747159 -0.0072539696 0.0144676855 -0.003260526
0.0032345538 -0.021216486 0.017694265 -0.013105299 0.010151995 -0.030450476 -0.0018967375 -0.03367381
0.03337729 0.02573931 0.02848286 0.0035249474 0.003166229 -5.9107322e-05 -0.02862581 -0.017906906
-0.026576122 -0.01747876 -0.02992593 0.029123463 0.029504295 0.0064113317 0.017636878 -0.023210013

encoder.encoder.1.1.weight f4 [64]
00000000: 940d 7d3c 8073 473f 77fa 433f 0c28 2c3f
00000010: 9a81 fe3e 826c 3a3e 53c7 883e df45 363f
00000020: de7e 283e 6aa2 7c3d a65f 223f ea59 c13e
00000030: 5f73 b23e d7ec 933e a3ee 413f 23f1 163f
00000040: ab46 f63e f39b 3f3f 3bf3 523f f1b8 113f
00000050: fa84 2c3f bf7a 393f 559a c43d 74cc e23e
00000060: 39ce c73e e60b a63e 74f2 533f 39bf cb3e
00000070: 4f99 463e eb8f 2f3f ad8c 473f 8d29 193f
00000080: 0d3b 303f c905 4a3f 4f0a b93e e3fa 3c3d
00000090: 597d 1c3f c743 f43c cb89 2c3e 8c5d 823e
000000a0: b25b b33e 602d 373f b11c 873e 36e6 003f
000000b0: c40e 6c3e 6320 363f 96bb 403f ca3a e73e
000000c0: 7155 a13e 308b 783e 2656 453f 29f2 193f
000000d0: b114 2d3f 64e1 fc3e 2ba3 133f 11e1 353f
000000e0: 4c2d 463f 940f 1a3f c882 153f b366 453e
000000f0: 5451 8c3d 6ba7 463f 4688 473f 341d 5c3e
0.015445132 0.77910614 0.76554054 0.67248607 0.49708253 0.18205455 0.26714572 0.71200365
0.16454646 0.061678328 0.634272 0.3776391 0.34853646 0.28891632 0.75754756 0.58961695
0.4810079 0.74847335 0.8240239 0.56922823 0.67390406 0.7245292 0.09599749 0.4429661
0.39024523 0.32430953 0.8279183 0.3979433 0.1939442 0.68578976 0.7794903 0.59829026
0.68840104 0.7891508 0.36140677 0.0461377 0.61128765 0.029817475 0.16849439 0.25461996
0.35030895 0.7155361 0.26389077 0.50351274 0.23052508 0.7114317 0.75286233 0.4516204
0.315105 0.24271846 0.7708458 0.6013513 0.676097 0.4939071 0.5767085 0.7104655
0.7741287 0.6018002 0.5840268 0.19277458 0.068514496 0.7759921 0.7794231 0.21495515

encoder.encoder.1.1.bias f4 [64]
00000000: 974e 0e3b 950e 833c 83aa a1bc 265b 46bb
00000010: a459 5c3b 1a81 ebb9 41bc 593c 4870 c0bb
00000020: 65f7 053c 6649 a7bb f3c2 603c 155b 813c
00000030: 00ce 8b3b 73a1 1a3c da3c 28bc 36ed 4f3b
00000040: ae09 0abb e72f d13b 3fd8 8a3c 66cd eebb
00000050: c847 adbb 2ccf 003b ed16 d03b 2b57 7b3b
00000060: bcd2 afbb d4aa 3b3b aa99 01bd ae15 a9bb
00000070: c004 533a 5915 6bbc 0f23 ddbb c4c6 a4bb
00000080: 9afd 35bc 3af9 0bbc 1d2e 1ebc d4ed b5bb
00000090: cde7 5bbb 99d8 ac3b e849 d0bb d432 5dbb
000000a0: 9286 27ba d946 2cbc e96e 093b 1aae 74bc
000000b0: efbe 2b3b 1aac 4ebb 7eea 8dbc bb82 9aba
000000c0: e1d4 95ba f6a9 16b9 9cc7 31bc b859 a0bb
000000d0: 60d8 9ebc e9af 93bb c4bd 803a f0e6 d1bc
000000e0: 37a4 edbb 2c9a dcbb 5eb7 3eba eee4 a83b
000000f0: cadc 52bb 2430 d1bb 04b4 863b f53e af3a
0.0021714324 0.015998164 -0.019734627 -0.003026673 0.0033622766 -0.0004491888 0.013289512 -0.00587276
0.008176659 -0.0051051853 0.0137183545 0.015790502 0.0042665005 0.009437907 -0.010268414 0.0031727082
-0.0021062898 0.006383884 0.016948817 -0.007287669 -0.005288098 0.0019654734 0.006350389 0.0038351517
-0.0053656977 0.0028635757 -0.031640686 -0.005160055 0.0008049719 -0.014348351 -0.006748564 -0.0050285775
-0.011107827 -0.008543307 -0.009654549 -0.005552033 -0.0033554912 0.005274844 -0.0063564666 -0.003375222
-0.0006390597 -0.010514938 0.0020970649 -0.014934087 0.0026206335 -0.0031535686 -0.017323729 -0.0011788228
-0.0011431241 -0.0001436843 -0.010850813 -0.004893508 -0.019390285 -0.004507054 0.000982218 -0.025622815
-0.007252242 -0.006732246 -0.00072752486 0.0051542437 -0.0032175058 -0.0063839126 0.004110815 0.0013370203

encoder.encoder.1.1.running_mean f4 [64]
00000000: ff3a 623d 0a05 c4be 14eb d9be 4b7d 14be
00000010: 2397 a7be c897 b8bb 889e 0ebe 92ba dbbe
00000020: 723a 5ebd 5167 9bbc 025c 5dbe 10ac 03be
00000030: 668e a1bc a66c e5bd 6b18 76be 9350 adbe
00000040: ab7d 2dbe 318a 34bc 546f fcba 9fff 173f
00000050: 7ff4 e0be 194e 6dbe 6ff9 2c3e 9659 73be
00000060: 0127 3dbe 47a7 cdbd ee1c f8bd 8086 34bb
00000070: ddd0 4fbe 3b26 8abb e5cc 8ebe cf49 9c3e
00000080: dabe 1cbf a2d9 fcbe afb0 58be 46fb 55bd
00000090: 5889 0abe 9f82 053e 980c f8bd 11f7 90be
000000a0: dd30 963e 338d 2fbf e938 b9bc f858 353f
000000b0: e886 a5bd ab60 a2be de80 523f 7e0e 72be
000000c0: 131f 963e 4c02 6d3e 8276 153f 0db3 92be
000000d0: 0272 08bf df32 a3be 509b 69be 9815 eabd
000000e0: 56b6 233e f15c cb3e f4f4 0cbc 1e6e 36bc
000000f0: 17df f1bd 656d d0be cb9f 89be f454 fdbd
0.055232044 -0.38285094 -0.42562163 -0.1450092 -0.32732496 -0.005633328 -0.13927662 -0.4291578
-0.054254957 -0.018970164 -0.2161713 -0.12858605 -0.019721221 -0.11202364 -0.24032752 -0.33850536
-0.1694247 -0.0110192755 -0.0019259253 0.5937442 -0.43936536 -0.23174323 0.16892026 -0.23764643
-0.1847191 -0.10041671 -0.12114893 -0.0027545989 -0.20294519 -0.004215983 -0.27890697 0.3052506
-0.61228716 -0.4938479 -0.2116115 -0.052241586 -0.13528955 0.13038109 -0.12111777 -0.28313497
0.29334155 -0.6857483 -0.022610145 0.7083888 -0.08082372 -0.31714377 0.82227886 -0.23638341
0.29320583 0.23145407 0.58383954 -0.2865223 -0.5329896 -0.3187475 -0.22813153 -0.114299
0.15987524 0.39719346 -0.008603323 -0.011134652 -0.11810129 -0.4070846 -0.26879725 -0.12369719

encoder.encoder.1.1.running_var f4 [64]
00000000: 1d0c a83c 6c63 e23e d15a a53e 7f62 5d3d
00000010: 321b 3b3e 30bf 263d 25b4 973d 4068 f03d
00000020: 186e 2d3d 8100 433d a7a2 ed3d 8ace 1b3e
00000030: 1acd d83d 87a0 2c3d 7e4f 263e 031e cc3d
00000040: d10f c73d 1c4a b13d 791c 943d e3b1 173e
00000050: 5565 2c3e fb08 fa3d 8a84 7e3d 8d66 c23d
00000060: 63fe d33d 1ad9 7e3d daa3 973e a5f0 623d
00000070: 223b 3d3d 6b6f 3a3e 5ca0 1e3e a8bd 1f3e
00000080: b1a4 953e c953 2d3e d751 ba3d c056 f33c
00000090: 285d 513e 69cf 253d 6f86 253d ef16 d73d
000000a0: 87b2 bc3d f2ee 5a3e 5533 073d bc46 923e
000000b0: 74ce 2a3d ff24 1a3e 7ca6 ac3e 848b 913d
000000c0: 673f d83d 3167 6e3d 3dcf 483e 0f0c d33d
000000d0: 96d1 793e d6c7 ea3d 6048 1c3e c8d4 ab3e
000000e0: ef28 c93d 986b be3d 066d 1b3e 1767 e83c
000000f0: 4000 383d f140 8a3e 8d1a 2d3e faf6 263d
0.020513589 0.44216478 0.3229585 0.05404901 0.18272093 0.040709674 0.07407407 0.11738634
0.04234132 0.047607902 0.11603289 0.15215507 0.10585995 0.04214528 0.16241261 0.09966662
0.097198136 0.08656713 0.07231993 0.14813952 0.1683553 0.12208744 0.062138118 0.09492216
0.10351255 0.062218763 0.29617196 0.055405278 0.04619897 0.18206565 0.1549086 0.15599692
0.29227212 0.16926493 0.09097641 0.029704452 0.20445693 0.040481005 0.04041141 0.10502421
0.09213739 0.21380213 0.03300794 0.2856959 0.041700795 0.15053175 0.33720767 0.071066886
0.10558968 0.05820388 0.19610305 0.10305034 0.24396357 0.11463897 0.15261984 0.33560777
0.098222606 0.09297866 0.15178308 0.02836947 0.044922113 0.2700267 0.1690466 0.04076288

encoder.encoder.2.0.weight f4 [64, 64, 3, 3]
00000000: c98d 55bc 13fc 47bc 2623 e6bc 8f30 a23c
00000010: e16b e0bc 4d13 7c3c a592 e83c fb43 0c3d
00000020: d9df 17bb 0618 3b3c 1a77 163c 3e4f 673c
00000030: 746d ce3a 88a3 e83c 122c 87bc b010 0d3c
00000040: de05 be3c a641 7d3c 0615 e4bc e5b6 f4bc
00000050: fd7b 6bbc d37c 00b9 8f5a e3bc 107c 523c
00000060: a6b5 f53b 519f 15bd 85b5 81bc de38 69bc
00000070: 58ba 13bd 6de7 6bbc 0ee5 80bb a355 253b
00000080: 49b6 febc e1b5 dd3c 5094 e33c 0399 593c
00000090: 358e 213d 87a5 bc3c 620c 0fbd 6145 cb3c
000000a0: c907 193c de0e 06bd d6b3 59bc e824 853c
000000b0: 6ddc 7c3b 371e bd3c 18ab fa3b 49d8 dfbc
000000c0: 15ed 913c 4cac 403c d177 c43c bc36 c33c
000000d0: 9a86 8b3c 2f38 bf3c 377e 01bd a5fd c13c
000000e0: 4ff2 553c 3491 a73b 2cbb e03c 7d88 17bc
000000f0: b6df 033d 06a5 493b 32c1 00bd 839c 9c3c
00000100: e3ef bcbc 1514 01bd 9333 933c 169a f03b
00000110: 91ea f13c 45df fb3c edb5 6fbc 1ae0 8abb
00000120: 33a2 0c3d 48ab 8b3c 5d93 b23c 462c 1c3d
00000130: 1450 ee3c 4480 62bc 918a dabc 42dd a5bc
00000140: 0130 a43c 6188 ab39 0f9c 8bbb ac89 833c
00000150: a1c8 a1bc e99b 21bc 0beb 8f3c 210b eb3c
00000160: fe62 3c3c ce7e 263c 5444 943c ca2e d0bc
00000170: 9fd8 15bd 3983 a7bc 0fd3 60bb 4565 3f3c
00000180: 03d8 b5bc 45a8 b93c 9980 dcbb 84a6 95bc
00000190: 87b2 013d 2e55 bf3c 5b16 753c f007 083d
000001a0: 7d71 853b cb0e fbbc a5df 003d 98aa 8c3a
000001b0: 10d8 70ba 384b 2c3c 25b6 a13c 4e44 89bb
000001c0: 1882 a6bb 94cc 143c b5a5 42bc 0f51 033d
000001d0: f6fc 053d 4f15 5b3c 4b5c b3bc 9f23 573c
000001e0: b27f 04bd 9523 8c3c 4283 a3bc 07b4 36bc
000001f0: 9490 573c 22c4 abbb e283 2a3c 3ae0 ab3c
00000200: 0dad fc3c dd73 13bd f614 f8bc dec3 84bc
00000210: c705 0d3c 8c7d 883c ae11 e6bc 40a3 1b3d
00000220: 8884 f5bc 9f00 0ebc c18d d4bc 47be d53c
00000230: c360 cdbc cfd6 b9bc 6e51 be3c 55cb 43bc
00000240: 0f33 273c 3a8d 56bc 19a0 e4bc 94e5 7dbb
00000250: 811d b6ba cb24 5f3a 972e a83c 2428 d63c
00000260: db40 f33c 42a9 d4bc 4a19 9bbc 4685 b2bc
00000270: 8916 ddbc 6772 043d 8825 283d 5e33 b0bc
00000280: b748 8e3c a054 0bbc a58e 2c3b 3276 a33c
00000290: 0ef2 26bc 13fa 2e3c 5210 29ba e1a4 ef3c
000002a0: d66f 0a3c 011d 1ebd a9fb 493c d00b 843c
000002b0: e9a7 0f3c 6a2c 12bd 7972 a6bc 315a ad3c
000002c0: 11a1 5abc 5748 03bd 60e7 f03a f317 14bc
000002d0: a9fa c93c de21 4ebc e8b8 8b3c 3577 343c
000002e0: cb0c 9f3b 7651 b53c e7d8 74ba 3444 95ba
000002f0: 3c59 303c 7cd1 9eb9 607c dcbb f3e0 193c
00000300: c03a ebbb e3c6 cabc 8b05 f83a 4b97 bdbb
00000310: f22d c7bc 6b25 1fbd 53d4 f83b 01af 9fbc
00000320: ba63 423a b151 2eb7 4b41 8c3b af01 a4ba
00000330: c9d6 c2bc 5d9a 26bb 0c14 893c fbaa a13c
00000340: f328 463b 83f6 0d3d af50 d23c efb1 ca3c
00000350: d72d 86bc a20d 8f3c 9feb e83b 750e 0d3d
00000360: bfb4 c1bc 6793 86bc c583 08bd ee6a a6bb
00000370: bf02 08bd efde dc3c 2ac4 a23c c211 89bc
00000380: a962 cd3c c4bb 0fbd 8b54 17bd 4215 063d
00000390: b860 a0bc 9746 9e3c 1bf4 e43c ce71 b0bc
000003a0: 712b 0c3d e9f0 0fbc 029e 02bd 4a61 87bc
000003b0: 2117 ecbc 7184 0dbd 0ade 28bb 0995 40bc
000003c0: b5b0 1fbd 4914 aabc 8684 78bc 20b3 ffbc
000003d0: 8d73 733c 815f 77bc 7abe eebc f955 193c
000003e0: 926c 84bc f5e5 9abc dad4 72bc b98a 82bc
000003f0: 96b3 01bd 8d43 013d 527b 06bd 033c 733c
-0.0130342925 -0.012206095 -0.028092932 0.019798545 -0.02739519 0.015385461 0.028390238 0.03424452
-0.0023174195 0.011419302 0.009183669 0.014118014 0.0015749172 0.02839829 -0.016500507 0.008609936
0.023196157 0.015457546 -0.027842056 -0.029872367 -0.014372823 -0.00012253532 -0.027753143 0.012846962
0.007498461 -0.03652889 -0.015833626 -0.01423475 -0.036066383 -0.014398438 -0.0039335554 0.0025228045
-0.03109278 0.027064266 0.027780682 0.01328111 0.03944226 0.023028148 -0.03492392 0.024813356
0.009340235 -0.032729022 -0.013287505 0.01625295 0.0038583532 0.023085697 0.0076497905 -0.027324812
0.017813245 0.011759829 0.023982914 0.02382981 0.017031956 0.02334222 -0.03161451 0.023680517
0.013058259 0.005113745 0.027433 -0.00924885 0.03219577 0.0030768528 -0.031434245 0.0191176
-0.023063606 -0.031513292 0.017968928 0.007342587 0.029530795 0.030746112 -0.014630777 -0.004238141
0.034334373 0.017049447 0.021798784 0.03812816 0.029090919 -0.013824526 -0.026677402 -0.020247106
0.020042421 0.00032717272 -0.004260547 0.016056858 -0.019748988 -0.009863832 0.017568132 0.02869183
0.011498211 0.0101620685 0.018098988 -0.025412936 -0.03658354 -0.020448314 -0.0034305488 0.011681859
-0.022197729 0.022663245 -0.006729197 -0.018267877 0.031664398 0.023356047 0.014958943 0.033210695
0.0040723667 -0.030646702 0.031463284 0.0010731993 -0.0009187469 0.01051598 0.019740174 -0.0041890508
-0.0050814264 0.009081978 -0.011880328 0.032059725 0.032711945 0.01337178 -0.021894595 0.013131051
-0.032348342 0.01710681 -0.01996005 -0.01115132 0.013157029 -0.0052418867 0.01040742 0.020980943
0.030844236 -0.035999168 -0.030283432 -0.016206678 0.008607334 0.016661428 -0.028084602 0.037997484
-0.029970422 -0.00866714 -0.0259465 0.026091708 -0.025070554 -0.022685437 0.023232188 -0.011950334
0.010205044 -0.0130951945 -0.027908372 -0.0038741576 -0.0013894291 0.00085122575 0.020530028 0.026142187
0.029694011 -0.025959615 -0.018932957 -0.021792065 -0.026988285 0.032335665 0.041051418 -0.021508869
0.017368658 -0.008504063 0.002633014 0.01995382 -0.010189546 0.0106797395 -0.00064492703 0.029253425
0.008449515 -0.03860188 0.012328067 0.016118914 0.00876806 -0.035686888 -0.020318257 0.02116117
-0.013344065 -0.03205141 0.0018379502 -0.009038913 0.024655657 -0.012581317 0.017055944 0.011014749
0.00485382 0.02213357 -0.00093401823 -0.0011388124 0.010763463 -0.00030292186 -0.006728694 0.009392011
-0.0071786344 -0.02475304 0.001892255 -0.005785858 -0.0243139 -0.038854044 0.0075936704 -0.019492628
0.0007415373 -1.0390228e-05 0.0042802445 -0.0012512709 -0.023784058 -0.0025421598 0.016733192 0.01973485
0.003023681 0.03465892 0.025673239 0.024743048 -0.01637928 0.017462555 0.0071081663 0.034437615
-0.023645757 -0.016427709 -0.03332879 -0.005078665 -0.033205744 0.026961772 0.019868929 -0.0167321
0.025071459 -0.035091177 -0.03694586 0.032735117 -0.01957737 0.01932077 0.02794843 -0.021538641
0.034221116 -0.008785465 -0.03188897 -0.016525883 -0.028819622 -0.034550134 -0.0025767111 -0.011754283
-0.03898688 -0.020761626 -0.015168315 -0.031213343 0.014859092 -0.0150984535 -0.02914356 0.009358876
-0.016165052 -0.01890848 -0.014821256 -0.015935289 -0.031665407 0.031558562 -0.03283245 0.014845851

encoder.encoder.2.0.bias f4 [64]
00000000: fb0c b63b b53a 213b 5a16 003d 5067 a3bc
00000010: bde0 8c3c dc2a abbb 9e9b ef38 6fb5 97bc
00000020: 0b5a 8e3b af1c 09bd 1643 803c 0d16 3abc
00000030: 6d9e d1bc 6dab ad3c f806 a43a e738 303c
00000040: e793 683c a9de f63b 1bd9 a83c d655 c03c
00000050: 95fb aebc 412b 933c 3f16 d4bb 8cc6 043b
00000060: 49c9 513c 755f 773c 4df2 d3b8 5553 e03b
00000070: a352 03bd a79e de3c c4e9 5dbc e3aa 423c
00000080: 461e dbbc e4ef dabc 53d3 613c 2198 c2bb
00000090: a090 e73c 5f19 18bc 3ad0 f1ba 027d e0bb
000000a0: f513 32bc 50c8 d1bc d281 bbbc f43e 883c
000000b0: d620 183c 9fea d13c 2aed c2b9 3f05 f83c
000000c0: 15ca 203c bc97 c1bb c976 e2bc 6e9c c3bc
000000d0: 4d8d 773c ca88 163c a4c7 1d3c b07c 373c
000000e0: 819c 47bc 9cae fb3c f08f b93c fb08 7bbc
000000f0: b64a 3c3c d1ed f1bc e028 973c 667d f63a
0.0055557466 0.0024601643 0.031271316 -0.019946724 0.017197007 -0.005223615 0.00011425394 -0.018519131
0.00434423 -0.03347462 0.015656989 -0.011357796 -0.025588239 0.021199906 0.0012514284 0.010755754
0.014195419 0.0075338674 0.020611336 0.02347843 -0.021360198 0.017964961 -0.0064723785 0.0020259945
0.012804338 0.015098442 -0.00010106396 0.0068458715 -0.03206123 0.02717526 -0.013544504 0.011881563
-0.026747834 -0.026725717 0.013783294 -0.0059385453 0.028267205 -0.009283393 -0.0018448897 -0.0068508396
-0.010869016 -0.025608212 -0.022889052 0.01663158 0.009285172 0.025624571 -0.00037179264 0.030275939
0.009813805 -0.0059079807 -0.027644532 -0.023878302 0.015109372 0.0091878865 0.009630118 0.011199161
-0.0121833095 0.030722909 0.022651643 -0.015321965 0.011492422 -0.029532345 0.018452108 0.0018805682

encoder.encoder.2.1.weight f4 [64]
00000000: 75b0 1a3f 5edd e23e 8856 8a3b 626a ea3d
00000010: dcd4 c53d c897 c03e 23a0 ed3d 0580 0f3f
00000020: d5b1 9d3e ff43 253f e4aa 173e 6aa1 823e
00000030: 8ac2 993e 4ca2 cb3e cbdb e23e 3145 9e3e
00000040: 3421 e23e 9f82 1b3f 254c 0e3f a168 293e
00000050: d8a1 923e 1c19 053f 2976 dd3e e1cc fe3d
00000060: bc74 0f3f ecff ae3d 2eb7 053f 15e5 ff3d
00000070: 945a e83e 0472 553e c2b0 183f dacb 2a3e
00000080: 1d77 a03d 2ae4 923e eb87 993e b05a 813d
00000090: ae05 6b3e e1d8 ca3d c37b 443f 3387 393f
000000a0: e732 133e 05c5 e53e 1a8f 433d 0352 433f
000000b0: dfc9 2b3d 8c84 b53e 85af f13e 9ff2 573d
000000c0: edf1 8f3e c271 ff3e 6da0 da3e e62a 4a3e
000000d0: 1ecc f93e fa72 723d 548c 1d3f 0831 503f
000000e0: 0b6c 693e cf75 3d3f 85d6 523f 9cf8 ef3e
000000f0: 7d49 2a3f 50b7 9b3e d29a e83e cf89 573e
0.604255 0.44309515 0.004221741 0.11446072 0.0965974 0.376158 0.11602809 0.5605472
0.30799738 0.6455688 0.14811283 0.25513774 0.30031234 0.3977226 0.44308314 0.30912164
0.44165957 0.60746187 0.5558494 0.16543819 0.28639102 0.5199144 0.43254212 0.12441421
0.560375 0.08544907 0.52232635 0.12494866 0.45381606 0.20844275 0.5964471 0.16679326
0.07835219 0.286897 0.2998651 0.063161254 0.22951385 0.099046476 0.76751345 0.7247192
0.14374886 0.44876876 0.047743894 0.76297015 0.041940566 0.35452688 0.47204223 0.052721616
0.28114262 0.49891478 0.4270052 0.19742927 0.48788542 0.05919168 0.6154225 0.81324816
0.22795121 0.74007887 0.8235858 0.4686936 0.66518384 0.30413294 0.4543062 0.21048664

encoder.encoder.2.1.bias f4 [64]
00000000: 9774 c23b 33e4 5dba 4c8c b0bb d56e 223b
00000010: cd3c 64bb ba19 19bb 43df feb7 24b5 e5b9
00000020: c6b0 23bb 8936 e6bb e808 173b 5b4c 8abb
00000030: fc61 7b3b b823 92ba 5bff 50bb 1823 37bb
00000040: 0080 953a 255f 70b9 be47 63bb 6474 95ba
00000050: 3f38 3239 80da 00bc 23ef b4bb 31df 19ba
00000060: 618e a2b8 7b97 7f3b 7c5b 03bb 4a0b 5f3a
00000070: e73a dfbb 50dd b3bb 53c8 43bb a316 43bb
00000080: 30dc 0cbb 3174 01ba bdcc 4c3b e76a 213b
00000090: 1dc1 43bb 5353 f83a cbf2 11bb 70a6 9eba
000000a0: 4950 9e3b 9004 bdbb b043 8abb c131 e73c
000000b0: ad2f f139 b17e adba 61aa a5b9 9561 fe3a
000000c0: 8c3b 4cbb 895f 38bb 519b 70bb b784 9bbb
000000d0: 1bbe acba f741 5939 8f05 a4bb 04ba 253c
000000e0: 7800 52bb ae1c f93b 5c72 afbb 2174 13bc
000000f0: 634f 90bb 9a55 273c 4bb4 beba 355f 8abb
0.0059343087 -0.0008464485 -0.0053878184 0.00247853 -0.003482628 -0.0023361281 -3.0383124e-05 -0.00043813244
-0.0024977191 -0.007025544 0.002304608 -0.004220528 0.0038357964 -0.0011149561 -0.0031890485 -0.0027944501
0.0011405945 -0.00022923628 -0.0034680213 -0.0011402485 0.00016996356 -0.007864594 -0.0055216714 -0.0005869745
-7.751282e-05 0.0039000202 -0.0020043543 0.0008508457 -0.0068124416 -0.005489029 -0.0029874041 -0.0029768131
-0.0021493547 -0.00049382733 0.0031249963 0.002463037 -0.0029869743 0.0018945731 -0.002226996 -0.0012104046
0.004831348 -0.005768366 -0.0042194948 0.028221967 0.00046002623 -0.001323661 -0.00031598195 0.0019407744
-0.0031163422 -0.0028133115 -0.003671367 -0.0047460455 -0.0013179214 0.00020719306 -0.0050055454 0.01011515
-0.0032043736 0.007602296 -0.005354209 -0.008999855 -0.004403995 0.01021328 -0.0014549581 -0.0042227753

encoder.encoder.2.1.running_mean f4 [64]
00000000: 6447 babe cea0 be3e ee6e 023e 3965 4bbd
00000010: 9685 ae3d 66a2 153e 050a 70bd 6686 0e3f
00000020: 1a78 acbd 81d2 49bf 419f 5bbe 7f58 2ebe
00000030: 5071 da3e a79c 413e bb92 bb3e 3826 5abd
00000040: 9090 2fbd 0a1d e73d 3c0a a5bd a535 f8bd
00000050: f7f5 d8bc adbd 823e 8bf2 78be 3ed0 20be
00000060: 1621 51be e93f 01be d934 4b3d 932f 4c3e
00000070: 0ac0 e4be 29b7 053f 380c 2f3e b671 e6bd
00000080: 4398 d63d e106 4f3e 902b 2d3e 1abe c0bd
00000090: b616 88be bfb1 ca3c 835b 0cbd 2c55 a5bd
000000a0: aaad 073d 3f21 94bd dffb 873d d60a d03e
000000b0: fe43 e9bd 3d38 1ebe 99b9 1d3e ffbc 23be
000000c0: 4378 10be 793c 02bf 9613 c0bd cdbd 9b3e
000000d0: c3ba a73e 804e 10be f67a 9bbe 3baa fe3b
000000e0: 0197 89be 57d7 cf3e ebd2 773e 9c0d 4c3e
000000f0: e613 9cbd 8297 7dbd 2b02 9ebd d7ee 303e
-0.36382592 0.3723206 0.12737629 -0.04965708 0.08521573 0.14612731 -0.058603305 0.55673826
-0.08421345 -0.7883683 -0.2144747 -0.17025946 0.42664576 0.18907414 0.36635384 -0.053259104
-0.042862475 0.11284836 -0.08058593 -0.12119607 -0.026484473 0.25535336 -0.24311273 -0.15704438
-0.20422778 -0.12622036 0.049610946 0.19940023 -0.44677764 0.52232605 0.17094505 -0.112521574
0.1047826 0.20217468 0.16911149 -0.09411259 -0.26579827 0.024742959 -0.03426696 -0.08072886
0.033124603 -0.07232904 0.066398375 0.40633267 -0.113899216 -0.1545114 0.15402831 -0.15990065
-0.14108376 -0.50873524 -0.09378736 0.30418244 0.32759675 -0.14092445 -0.3036725 0.007771758
-0.2687302 0.4059398 0.24201553 0.19927067 -0.07620983 -0.061912067 -0.07715257 0.1727861

encoder.encoder.2.1.running_var f4 [64]
00000000: 4a9a 8f3d 2fe3 5d3d 7255 c43c 9bff 863c
00000010: 5a8f 9c3c 2447 a03d 338a cc3c 232c 8b3d
00000020: a346 683d 936f de3d 5e47 053d da45 873d
00000030: b1d2 dc3d 7a83 a03d 1578 943d ec5d 963d
00000040: 0d72 e73c a12d 293d c05d 123d d601 073d
00000050: 6ac9 8a3d bc17 a83d ed3d 1f3e 635d 8e3c
00000060: 23e3 f73d 9091 c93c 0ada 0c3d 5895 c43c
00000070: 085d 383e 6899 313d 47a0 ef3d 97d5 093d
00000080: b638 c53c 7982 bf3c 7c08 033d d1f1 923c
00000090: 9d53 3d3d 85c6 963c 8836 0f3e ff57 3b3e
000000a0: 68cb 203d 1c20 f73d 09ce aa3c dc51 413e
000000b0: 2ef7 a23c f872 413d 2307 f93c 90ff 5a3d
000000c0: 0b62 893d e7fd b63d f4e6 b03d 97a2 973d
000000d0: 310d 643d a785 063d e8e8 073e 56ee 9e3e
000000e0: c74f e83c 20e0 1c3e 537f 903d c1d4 143e
000000f0: 7e2f f43d be92 5a3d de84 5f3d 61d5 783d
0.0701185 0.054171737 0.023966525 0.016479304 0.019111324 0.07826069 0.024968242 0.06795528
0.05670799 0.10861125 0.032538764 0.0660512 0.10782374 0.07837577 0.07249466 0.07342133
0.028252626 0.04130328 0.03573394 0.032960735 0.06776698 0.08207652 0.15550967 0.017378515
0.1210387 0.024605542 0.034387626 0.023996994 0.18004239 0.04335919 0.11700492 0.03365096
0.024074893 0.023377644 0.031990513 0.017937573 0.046222318 0.018405208 0.13985646 0.18295287
0.039256483 0.12066671 0.020850198 0.18878883 0.019893255 0.047228783 0.03039891 0.05346638
0.06708153 0.08935147 0.08637801 0.074040584 0.055676643 0.032842305 0.1327244 0.3104121
0.028358353 0.15319872 0.07055535 0.14534284 0.11923121 0.0533626 0.05457007 0.06075037

encoder.encoder.3.0.weight f4 [64, 64, 3, 3]
00000000: 35bc 023d b440 7a3b 9ef6 943c 9b33 233c
00000010: 7501 8fbc 1fcb e03c 7084 a3bc 5d77 a53c
00000020: 1383 863c 2875 d23c 5924 7cbc 3ae8 123b
00000030: 21d1 9abc 273f 80bc dc2a 0f3d 6ef7 ffbc
00000040: 9c92 233c 10ce c4bc 9038 87bc a8a0 b43b
00000050: c952 07bd 6fa8 7c39 3b77 54bc 0623 c6bc
00000060: 3b52 65bc c45f 003d b783 0ebc dbdd e7bc
00000070: 203c 203c 0cca fa39 1dde 873b e31b 23bc
00000080: 5325 0e3d 5e2f 853c 5864 0b3d 706f 9939
00000090: abae b33c 0c06 743b bce6 fb3c 9463 c3bc
000000a0: 0f7c d1bb 37f3 7bbc 4d4f ef3c 9f79 7c3c
000000b0: 5929 b73b fe2d 64bc b8ef 0e3c 46c0 8a3c
000000c0: 9177 f03c f580 b23b 8e39 5a3b 6bf1 03bd
000000d0: 79ef f03c 1c8f fc3c 8ce4 9d3c dfbf d23b
000000e0: 029d 1bbc a0ad abbc f22e a4bc e91d 2b3c
000000f0: d779 e8bb 6a84 153b 701c afbb 86a4 163d
00000100: 0c1a c43c 8653 a6bc 2a6e c4bc 77bf 5bbc
00000110: b024 ce3c 19ea 183d 962a a1bc 6930 203d
00000120: ddae eb3c 2369 30bc 45b3 adbc 3bb0 d13c
00000130: e5e0 b43c 0cf8 e3bc d67d 92bc e618 01bd
00000140: 962d a0bc 568a 723b d77d e3bc 84f7 ca3c
00000150: 5523 a03c d124 553b 6cd0 113c 173f 343c
00000160: dcb4 5a3a 3c22 c7bc 1f7e 8f3c 5ecc b73c
00000170: 0c6e fe3c 926d bc3b c1a7 3b3c 707e da3c
00000180: 1588 13bc f87f ce3c 7468 de3c 09c6 7cbc
00000190: 0111 863b a370 d83c dae4 0dbd d4c9 aa3c
000001a0: 1b82 d1bc 3130 d7bb 826c 18bc 1256 c1bb
000001b0: efdd 453c 9417 03bc 7eec b23c 24af 843c
000001c0: e88e cfbc bc63 4ebc 4e38 e33b fd05 afbc
000001d0: 7779 f9bc d40f 713c eecb e73c df6d 34bc
000001e0: fdbb e13c 2d0e d33c d447 a33c d9a5 b13c
000001f0: d32f 483c 539d d43c 0213 953c f818 45bc
00000200: 3d0e fe3c d9f0 e53c 6faa 5abc 43eb b4bc
00000210: cd1d 56bc 5979 97bc 3268 bdbc 3d7f 503c
00000220: 13ec 833c e223 faba ccac 033d 5914 9fbc
00000230: a454 d5ba 2761 96bc 04d4 69ba 569f cd3c
00000240: 8e38 443c 904c 6fbb 2888 59bb 53d2 eebc
00000250: 9cdc b43c 270b 5fbc 3e1e a9bb 443d e33c
00000260: cf74 623c 876b c53c f362 313a 6bb2 cebc
00000270: e021 de3c d999 e43c 597c 0c3c 68c2 b1bb
00000280: 56dd 9a3b ff02 073c 39ab 65bc 7b2f c239
00000290: ba34 93bc bb68 dcbc 7a20 183c ab63 023d
000002a0: 1378 c0bc e1f6 19bc c080 4ebc f628 053d
000002b0: df34 8839 0382 83bc 0f89 d63c 8961 abbc
000002c0: 29cb e5bc d94e 47bc e90a e53c 4c72 8a3c
000002d0: 5829 023d 42f8 593b 943a 01bd 1732 cbbc
000002e0: a9d3 273c eba0 793c 046d 8b3c 4049 42bb
000002f0: b999 873b 11a8 c73c 0344 343c 1b6d b2bc
00000300: 4276 87bc 155a ecbc 0955 f4bb b1c8 ef3c
00000310: 840d 8abc 0f3a c63c 8204 f33c 7a35 81bc
00000320: e01a efbc 3020 c73c 5300 033d 7559 b0bc
00000330: 6fe7 d2bc bb5e 01bc 9dc3 86bc df42 97bc
00000340: 6472 f8bc 910e efbc 77ce 133c 6e0e 81bb
00000350: fe43 dfbc 6bd4 cf3c 8e4d 063d b7f4 543a
00000360: 52f2 17bb b4f1 d1bc 3d5c cdbc 9cb2 e83c
00000370: 4217 6b3c d964 633c 2cbb cdbc 0796 ab3c
00000380: 08b4 7c3c 6936 bf3c 336f 7cbc 06ab 84bc
00000390: 9987 c13a ab8d c5bc ce6d feba a654 d3bc
000003a0: f3f5 6ebc 6a02 943c bb82 9b3c f5b8 7fbc
000003b0: 446b 863c 1127 bd39 3a10 b6bb 4fa8 bfbb
000003c0: 9d7c b8bb 48bb 823c 4c6e dabc 8387 5a3c
000003d0: b7ae 8a3c ca8e 3cbb 1796 063d 9c7c 9b3c
000003e0: 602e 9a3c f931 013d 655b 6abc e77d 6d3c
000003f0: a2e0 043d 0f25 ac3a 2a0c c63c 734b 00bd
0.03191777 0.0038185539 0.018184002 0.009961034 -0.01745675 0.027440606 -0.019960612 0.020198518
0.016419923 0.02569063 -0.015389525 0.002241625 -0.018898549 -0.015655113 0.034952983 -0.031245913
0.009983685 -0.02402404 -0.016506463 0.005512316 -0.033037934 0.00024095339 -0.01296788 -0.024186622
-0.013996656 0.03134133 -0.008698395 -0.028304031 0.00977996 0.00047834252 0.004146351 -0.009955379
0.034703564 0.016257938 0.034031242 0.00029265461 0.021933874 0.003723505 0.030749671 -0.023851193
-0.0063929628 -0.015377811 0.029212618 0.015409856 0.005589646 -0.013926981 0.008724146 0.016937386
0.029353889 0.005447502 0.0033298465 -0.032212656 0.029411064 0.030829959 0.019274019 0.006431564
-0.009497883 -0.020956814 -0.020041917 0.010444143 -0.0070946026 0.002281452 -0.005343966 0.036777996
0.023938201 -0.020303499 -0.023978312 -0.013412348 0.025163978 0.037332628 -0.019673627 0.039108668
0.028769905 -0.010767254 -0.021203646 0.025596729 0.022079894 -0.027828239 -0.017882269 -0.031517886
-0.019552987 0.0037008724 -0.027769966 0.024776228 0.019548098 0.0032523165 0.008899789 0.01100137
0.000834299 -0.024308316 0.017516194 0.022436317 0.031058334 0.0057503665 0.01145357 0.026671618
-0.009004612 0.025207505 0.027149417 -0.015428075 0.0040913825 0.026420897 -0.034642078 0.020848192
-0.025574734 -0.006567024 -0.009303214 -0.005900153 0.012076839 -0.008001227 0.021841284 0.016196795
-0.025336698 -0.012597021 0.0069342023 -0.02136516 -0.030453427 0.014713246 0.028295483 -0.011012523
0.02755546 0.025763595 0.019931711 0.021685528 0.012218433 0.025953924 0.01819754 -0.012029879
0.031012649 0.028068947 -0.013346299 -0.022084838 -0.0130686285 -0.01849048 -0.023120973 0.0127256485
0.01610378 -0.001908418 0.032147214 -0.019418882 -0.0016275835 -0.018356873 -0.00089198374 0.025100391
0.011976374 -0.003651414 -0.0033192728 -0.029153025 0.022077851 -0.013613499 -0.005161076 0.027739175
0.013821795 0.024099125 0.0006766759 -0.02523156 0.027115762 0.027905392 0.008574569 -0.0054247864
0.0047260923 0.00824046 -0.014017873 0.0003703794 -0.017969478 -0.026905408 0.009285087 0.031833332
-0.023494756 -0.009397239 -0.012603939 0.032509767 0.00025979333 -0.016053205 0.026188402 -0.020920532
-0.028050976 -0.012164795 0.027959304 0.016900204 0.03177771 0.0033259545 -0.031550005 -0.024804158
0.010243335 0.01523612 0.017019756 -0.0029645711 0.004138198 0.024372132 0.011002543 -0.021780541
-0.016535882 -0.028851548 -0.007456426 0.029270502 -0.016852148 0.024197606 0.029665235 -0.01577257
-0.02918762 0.02430734 0.03198273 -0.021527031 -0.025745122 -0.007896121 -0.016450698 -0.018464504
-0.030327983 -0.02918175 0.009021393 -0.0039384877 -0.0272541 0.025369843 0.032788806 0.00081236236
-0.0023185206 -0.025627948 -0.025068397 0.02840548 0.014348807 0.013879024 -0.025113665 0.020945562
0.015423782 0.023341374 -0.015407371 -0.016194832 0.0014765143 -0.024115404 -0.0019411386 -0.0257972
-0.014585006 0.018067557 0.018983236 -0.015608062 0.01640857 0.00036077996 -0.0055561336 -0.0058489214
-0.0056300894 0.015958443 -0.026663922 0.013337973 0.016929014 -0.0028771632 0.03285798 0.018980317
0.018820941 0.0315418 -0.014304017 0.0144953495 0.03244079 0.0013133603 0.024175722 -0.031321954
