saves_category/pacs/art_painting/max_acc.pth (torch_old, 527876 bytes, 28 tensors)

encoder.encoder.0.0.weight f4 [64, 3, 3, 3]
-0.030525267 0.12964748 -0.076176204 0.016783478 -0.0420819 -0.075924724 -0.0016790841 0.007546201
-0.080523655 0.046851583 0.09389665 0.08882161 0.17186362 0.09644351 -0.113406524 0.13787486
-0.12501796 -0.21391928 -0.13277167 0.060045216 0.10035151 0.055349354 0.1053625 -0.076098576
0.1733494 -0.03748229 -0.12296516 0.027305476 -0.039106317 0.058724392 0.13608631 0.05668764
-0.123461634 0.022498788 0.05178846 -0.016892234 -0.08695668 0.10561781 0.05161958 0.11092375
-0.05435885 -0.02989948 0.08208419 -0.17129424 -0.12411134 0.14444472 0.09176659 0.08824158
-0.11627011 0.13578376 -0.08836997 -0.02444633 0.0796972 0.020229205 0.046124823 -0.07164263
-0.020334015 0.042022396 -0.05436606 0.18769959 0.12073202 0.16169111 0.03182906 0.10835011
0.06802238 -0.05590167 0.023684392 -0.0024617468 -0.018600887 -0.17823891 0.12523529 -0.04061309
0.089032404 -0.17922834 0.058570568 -0.15394986 0.036301307 -0.0108565735 -0.19403724 0.064741544
-0.12276387 0.10255721 0.0452215 0.08286822 -0.010587907 -0.0007692205 0.04207002 -0.12557246
-0.08283014 -0.08542843 0.14282885 0.0023817047 0.14012098 -0.12296569 -0.14122607 -0.047893073
0.046412308 0.12891024 0.03396627 -0.13560736 -0.10642288 0.09086631 0.024460178 0.060660604
0.09361294 -0.036071032 0.083203256 -0.07352813 -0.05241289 0.14566366 0.10627252 -0.09361582
0.07040793 -0.015658407 -0.07003237 -0.012320786 -0.08433894 -0.19849528 0.040341984 0.1533587
-0.108855374 -0.12522884 0.102432095 0.05929017 0.0025169554 0.11368868 0.026351182 0.09238425
-0.010045326 -0.09512136 -0.08536758 -0.03255811 -0.1471189 -0.09091543 -0.06488282 -0.10533427
0.031248728 -0.018337306 0.03824099 -0.114906445 -0.011909608 -0.11749453 0.06757029 -0.00807583
0.13013001 0.113643505 -0.1404433 0.09358563 0.052891687 0.14064263 -0.12290316 -0.003959284
0.092700385 0.14092086 -0.08958123 -0.1887937 0.13490923 -0.048310757 0.12090371 0.032519467
-0.028515916 0.13371272 0.047099587 0.029076671 0.12907694 0.010132351 -0.03759969 0.059207197
0.08947084 -0.042610712 0.08544811 0.012356763 0.073607676 0.078004226 -0.07597012 0.12409521
-0.0073695737 0.119473524 -0.12346405 0.0057039526 0.0187859 -0.108535625 -0.08167571 0.08349797
0.06739437 0.08102254 -0.013813396 -0.042486254 0.09622366 0.084209196 0.0037115687 -0.13788176
0.096317105 -0.058539014 -0.06227622 -0.0031219423 0.052982192 -0.13913816 0.04004753 -0.014421477
0.086517535 0.0019125091 0.0136346 -0.08837129 -0.078115456 0.18001449 0.037361663 -0.054378994
0.1352432 0.041706104 0.107915096 0.021334141 0.0865871 -0.024744354 0.09567411 -0.096044764
0.022247272 -0.09147465 -0.16427189 0.032458033 -0.11488825 0.18227766 -0.025918126 -0.15073395
0.22227126 0.22329181 0.005104453 -0.20785044 0.15184706 -0.19029692 0.107542895 -0.2358903
-0.0927012 0.23804182 0.18149559 0.02135042 -0.17139316 0.05585112 -0.103397466 0.050623376
-0.16612436 -0.07019394 0.19518167 -0.14086556 -0.09886485 -0.07039432 0.08179839 0.09673459
0.07900456 0.021538643 0.01993424 0.08226832 0.09071003 -0.16485417 0.026920715 0.07804517
00000000: 2010 fabc 4fc2 043e 4502 9cbd 817d 893c
00000010: 125e 2cbd 6c7e 9bbd b714 dcba 1f46 f73b
00000020: 96e9 a4bd 72e7 3f3d e34c c03d 1be8 b53d
00000030: 04fd 2f3e 2d84 c53d ae41 e8bd 112f 0d3e
00000040: b504 00be a80d 5bbe 4cf5 07be f9f1 753d
00000050: 1885 cd3d 01b6 623d 4bc8 d73d 92d9 9bbd
00000060: 8182 313e 0887 19bd 28d5 fbbd bcaf df3c
00000070: f22d 20bd fd88 703d 365a 0b3e 4c31 683d
00000080: 74d9 fcbd 614f b83c 2320 543d 9561 8abc
00000090: 5816 b2bd 264e d83d 0d6f 533d fe2b e33d
000000a0: 63a7 5ebd c1ef f4bc c11b a83d c267 2fbe
000000b0: 162e febd 51e9 133e 1ff0 bb3d 00b8 b43d
000000c0: 061f eebd e60a 0b3e 51fb b4bd ab43 c8bc
000000d0: 4938 a33d b8b7 a53c 62ed 3c3d 5fb9 92bd
000000e0: 8593 a6bc ad1f 2c3d f2ae 5ebd 5234 403e
000000f0: 5942 f73d 5b92 253e 305f 023d aae6 dd3d
00000100: 514f 8b3d 26f9 64bd c505 c23c 4255 21bb
00000110: e360 98bc 4384 36be ae3d 003e e959 26bd
00000120: 9f56 b63d a287 37be b1e7 6f3d 08a5 1dbe
00000130: aeb0 143d c5df 31bc b3b1 46be 3797 843d
00000140: a06b fbbd 8409 d23d 2e3a 393d d0b6 a93d
00000150: e778 2dbc 84a5 49ba 9d51 2c3d 1196 00be
00000160: d9a2 a9bd 1af5 aebd ba41 123e 6016 1c3b
00000170: e07b 0f3e 70d5 fbbd 919d 10be 872b 44bd
00000180: d51a 3e3d 0c01 043e 3720 0b3d a8dc 0abe
00000190: 3df4 d9bd 1e18 ba3d b660 c83c 4177 783d
000001a0: 24b8 bf3d 38bf 13bd 7866 aa3d eb95 96bd
000001b0: e6ae 56bd db28 153e 68a5 d93d a7b9 bfbd
000001c0: 0832 903d 0f46 80bc 226d 8fbd 1fdd 49bc
000001d0: e5b9 acbd 5942 4bbe a33d 253d 100a 1d3e
000001e0: 91ef debd fd3b 00be ebc7 d13d 40da 723d
000001f0: 81f3 243b 9cd5 e83d 6fde d73c f433 bd3d
00000200: 2795 24bc fdce c2bd 33d5 aebd a75b 05bd
00000210: 56a6 16be de31 babd 49e1 84bd 7eb9 d7bd
00000220: 55fd ff3c 1e38 96bc 96a2 1c3d 1254 ebbd
00000230: 8420 43bc f9a0 f0bd 4b62 8a3d 7c50 04bc
00000240: cd40 053e edbd e83d 5ed0 0fbe d3a9 bf3d
00000250: f4a4 583d 9f04 103e a7b4 fbbd e2bc 81bb
00000260: b3d9 bd3d 8f4d 103e 5d76 b7bd 2353 41be
00000270: a525 0a3e 80e1 45bd 5d9c f73d 2233 053d
00000280: 369a e9bc fdeb 083e 7feb 403d 3332 ee3c
00000290: bf2c 043e 2902 263c 2202 1abd 3f83 723d
000002a0: 7d3c b73d 9288 2ebd 6bff ae3d 0574 4a3c
000002b0: 9fbf 963d aec0 9f3d 3996 9bbd a125 fe3d
000002c0: 777c f1bb 89ae f43d b8da fcbd 39e8 ba3b
000002d0: e3e4 993c ed47 debd 9845 a7bd fc00 ab3d
000002e0: 0f06 8a3d 25ef a53d 9551 62bc 1106 2ebd
000002f0: e910 c53d df75 ac3d ca3d 733b e030 0dbe
00000300: e741 c53d 9bc6 6fbd 5a15 7fbd 8099 4cbb
00000310: db03 593d 3c7a 0ebe e108 243d 0f48 6cbc
00000320: 1b30 b13d 28ad fa3a a863 5f3c 02fc b4bd
00000330: fffa 9fbd b855 383e 8b08 193d 82bc 5ebd
00000340: 327d 0a3e 05d4 2a3d 9702 dd3d f0c4 ae3c
00000350: 9454 b13d acb4 cabc caf0 c33d 1eb3 c4bd
00000360: e93f b63c 1057 bbbd e436 28be b7f2 043d
00000370: 884a ebbd ffa6 3a3e 4052 d4bc 005a 1abe
00000380: 149b 633e 9ca6 643e 4143 a73b bfd6 54be
00000390: cc7d 1b3e 32dd 42be 733f dc3d 3a8d 71be
000003a0: 20da bdbd 3cc1 733e fbd9 393e 13e7 ae3c
000003b0: b081 2fbe 25c4 643d 0dc2 d3bd 755a 4f3d
000003c0: 811c 2abe d7c1 8fbd b4dd 473e 103f 10be
000003d0: a879 cabd e62a 90bd ea85 a73d c91c c63d
000003e0: 25cd a13d cf71 b03c 224d a33c 4b7c a83d
000003f0: 2ec6 b93d 88cf 28be d588 dc3c 25d6 9f3d

encoder.encoder.0.0.bias f4 [64]
0.06188027 0.053762015 0.07155565 -0.12942773 0.012239138 0.07532424 -0.016176919 0.13601243
-0.08877681 -0.13588749 -0.0893173 0.053230945 -0.09201125 0.03318484 -0.03943827 -0.091973834
0.0860854 0.13736646 -0.11232221 -0.013240144 0.0059050913 0.027611684 0.07896313 0.040849686
-0.06436859 0.12904195 -0.065308735 0.018065793 -0.085159436 0.10960898 0.06719035 0.10170502
0.065755144 -0.044029992 -0.016114613 0.060667194 0.08520074 -0.034879684 0.013551836 0.14037079
-0.12137535 -0.043891177 0.057026308 -0.05193053 -0.09437742 0.04668462 -0.12738538 -0.011582284
0.07343269 0.029387454 -0.12763837 0.02223605 -0.09637895 -0.12418293 0.07678208 0.1258557
-0.032024283 -0.13278104 -0.08514059 -0.0632669 -0.018566705 -0.07132684 -0.13604486 -0.029206533
00000000: 2a76 7d3d 8f35 5c3d c58b 923d b488 04be
00000010: aa86 483c 9843 9a3d 7585 84bc d846 0b3e
00000020: 9ed0 b5bd 1726 0bbe fdeb b6bd b108 5a3d
00000030: 6570 bcbd d4ec 073d 068a 21bd c75c bcbd
00000040: 8b4d b03d cba9 0c3e 3009 e6bd 30ed 58bc
00000050: 7f7f c13b e631 e23c 6cb7 a13d 0052 273d
00000060: aed3 83bd 9323 043e 96c0 85bd b7fe 933c
00000070: 1268 aebd ac7a e03d 189b 893d b94a d03d
00000080: a2aa 863d cb58 34bd cb02 84bc 2a7e 783d
00000090: ba7d ae3d 00de 0ebd 8508 5e3c 5cbd 0f3e
000000a0: a493 f8bd 3cc7 33bd 6b94 693d 1cb5 54bd
000000b0: f348 c1bd 5f38 3f3d 5071 02be 9fc3 3dbc
000000c0: e163 963d f5bd f03c a2b3 02be 6028 b63c
000000d0: 5462 c5bd 9f53 febd ec3f 9d3d 51e0 003e
000000e0: e52b 03bd c1f7 07be 315e aebd 1492 81bd
000000f0: 3419 98bc ce13 92bd 584f 0bbe 8a42 efbc

encoder.encoder.0.1.weight f4 [64]
0.557086 0.6223816 0.18603864 0.021941857 0.37057406 0.6600474 0.10504841 0.67483246
0.5238065 0.46111426 0.5926093 0.6127313 0.43119624 0.23387359 0.11746811 0.56319857
0.63274336 0.6316168 0.42173004 0.13502762 0.500682 0.5879357 0.5811136 0.5298504
0.23412526 0.63420033 0.21430108 0.31917638 0.6777213 0.3274991 0.18208228 0.3299199
0.36741593 0.49259922 0.0127257565 0.36162886 0.8240265 0.85965616 0.38160196 0.013111598
0.09941603 0.2602791 0.24943575 0.4626085 0.66695535 0.49719208 0.16552097 0.66869086
0.41635078 0.539669 0.29967275 0.62644213 0.23311882 0.67486906 0.44143862 0.43801495
0.33992213 0.24354734 0.39673683 0.12064375 0.73930573 0.8266648 0.64755493 0.3484266
00000000: 309d 0e3f 6754 1f3f ea80 3e3e 69bf b33c
00000010: e2bb bd3e def8 283f 9f23 d73d d2c1 2c3f
00000020: 2f18 063f 2b17 ec3e 3eb5 173f f5db 1c3f
00000030: c1c5 dc3e 8f7c 6f3e 1f93 f03d c82d 103f
00000040: 78fb 213f a3b1 213f 00ed d73e ae44 0a3e
00000050: b22c 003f f482 163f dcc3 143f 47a4 073f
00000060: 88be 6f3e f45a 223f be71 5b3e 166b a33e
00000070: 257f 2d3f f6ad a73e c773 3a3e 43eb a83e
00000080: f11d bc3e f735 fc3e b17f 503c 6b27 b93e
00000090: 67f3 523f 6d12 5c3f 5561 c33e 07d2 563c
000000a0: a29a cb3d 4d43 853e 166c 7f3e 05db ec3e
000000b0: 96bd 2a3f f68f fe3e 547e 293e 532f 2b3f
000000c0: ee2b d53e bf27 0a3f b56e 993e 835e 203f
000000d0: b3b6 6e3e 38c4 2c3f 3e04 e23e 7f43 e03e
000000e0: 460a ae3e 7964 793e 1721 cb3e 1214 f73d
000000f0: 2443 3d3f 4ea0 533f 29c6 253f f964 b23e

encoder.encoder.0.1.bias f4 [64]
-0.05858531 -0.0774631 -0.047639873 0.0074371346 -0.2654461 -0.07366404 0.011729838 -0.054093808
-0.07792601 -0.05803887 -0.033416994 -0.07448111 -0.038180005 0.06609752 -0.04041486 -0.11103752
-0.16744255 -0.008774834 -0.002487074 -0.067739405 -0.055010375 -0.10464435 -0.053664166 -0.110098645
-0.1565674 -0.12842347 -0.101605445 0.04435419 -0.077284954 -0.0065579764 0.023886748 -0.066641904
-0.23280063 -0.033072747 -0.023113776 -0.196213 -0.08734561 -0.0051734988 -0.065766856 0.0022654512
0.023309367 -0.075311996 -0.07774267 0.004703455 -0.048255555 -0.013353401 0.0021220273 -0.011221571
-0.035040293 -0.033800326 -0.06252572 -0.060611013 -0.09423568 0.006759071 -0.048456952 -0.050409354
-0.15702859 -0.07294952 -0.1994391 0.003997371 -0.087436624 0.012647393 -0.035564035 -0.19960822
00000000: 26f7 6fbd f9a4 9ebd 0722 43bd 35b3 f33b
00000010: 8de8 87be 2cdd 96bd 822e 403c 7891 5dbd
00000020: ac97 9fbd 2bba 6dbd 42e0 08bd 8d89 98bd
00000030: a362 1cbd 235e 873d 0d8a 25bd a467 e3bd
00000040: 0f76 2bbe 52c4 0fbc 2dfe 22bb f5ba 8abd
00000050: 8f52 61bd c74f d6bd f5ce 5bbd 667b e1bd
00000060: 3453 20be 7181 03be 8416 d0bd bdac 353d
00000070: 9347 9ebd 4be4 d6bb 24ae c33c 8d7b 88bd
00000080: 4a63 6ebe 4a77 07bd 1a59 bdbc 10ec 48be
00000090: 41e2 b2bd 7486 a9bb c6b0 86bd f777 143b
000000a0: 49f3 be3c 2d3d 9abd 8d37 9fbd 711f 9a3b
000000b0: 9ea7 45bd 39c8 5abc b611 0b3b aeda 37bc
000000c0: 6986 0fbd 3672 0abd 7c0d 80bd 4143 78bd
000000d0: a3fe c0bd 327b dd3b cc7a 46bd 0a7a 4ebd
000000e0: 1acc 20be 8f66 95bd c339 4cbe 61fc 823b
000000f0: f911 b3bd 0337 4f3c 98ab 11bd 1966 4cbe

encoder.encoder.0.1.running_mean f4 [64]
0.3896113 0.78364915 0.07085322 0.14415424 -0.7152428 0.71837586 1.16148 0.791943
-0.2070517 0.5365536 0.122817576 -0.093713835 1.0943384 0.41517103 -0.4843509 -0.14568986
-0.361051 1.2509815 -0.6544511 -0.20671079 0.8066029 0.73801804 -0.06561337 -0.29131782
-0.565576 0.5539844 -0.5186971 0.017186332 0.37764567 2.4419727 0.00654381 -0.122410715
-0.5250611 -0.3472425 -1.007925 -0.852707 -0.06305773 -0.1282906 -0.09245849 -0.040662374
1.200146 -0.13308722 0.047922757 -0.17492616 -0.27519083 0.928068 -0.19379376 -0.26008654
-0.5189826 -0.17288339 0.20200662 1.2114128 -0.54343396 0.27103034 -0.27312005 -0.050061334
-0.7871519 -0.09538745 -0.843043 0.33375776 -0.36852887 -0.38730198 1.0031843 -0.4571266
00000000: 227b c73e 3b9d 483f 7e1b 913d 2b9d 133e
00000010: 271a 37bf 7be7 373f 60ab 943f c7bc 4a3f
00000020: 5c05 54be 945b 093f c887 fb3d 0aed bfbd
00000030: 4813 8c3f 4c91 d43e d7fc f7be b92f 15be
00000040: addb b8be 2920 a03f 1b8a 27bf feab 53be
00000050: 877d 4e3f c0ee 3c3f 4d60 86bd 9c27 95be
00000060: 97c9 10bf ecd1 0d3f 55c9 04bf 5aca 8c3c
00000070: c65a c13e 4849 1c40 756d d63b 78b2 fabd
00000080: 676a 06bf c5c9 b1be b003 81bf 024b 5abf
00000090: 6924 81bd 9c5e 03be e05a bdbd 978d 26bd
000000a0: 629e 993f 0448 08be a74a 443d d81f 33be
000000b0: d0e5 8cbe dd95 6d3f df71 46be 102a 85be
000000c0: 0bdc 04bf 5808 31be d3da 4e3e 930f 9b3f
000000d0: 7d1e 0bbf 7dc4 8a3e 64d6 8bbe 1d0d 4dbd
000000e0: c982 49bf 7f5a c3bd abd1 57bf 4ce2 aa3e
000000f0: d1af bcbe 724c c6be 5868 803f 7f0c eabe

encoder.encoder.0.1.running_var f4 [64]
0.20684774 0.25916392 0.060582656 0.060876444 0.3396817 0.20019662 0.54479146 0.21449392
0.13631792 0.21182324 0.28051373 0.43296313 0.5653809 0.14956775 0.10362326 0.17794418
0.633407 0.6674405 0.38317218 0.034292147 0.28029546 0.31114256 0.60492754 0.4353606
0.13559385 0.087640606 0.14174205 0.19452177 0.30530205 2.1214826 0.119224794 0.09115651
0.24101046 0.47636783 0.4131973 0.36494198 0.7299941 0.7271096 0.16355228 0.029832136
0.74990755 0.057628077 0.02805652 0.35748938 0.26783788 0.3741218 0.059496608 0.5565393
0.32706106 0.41589767 0.17560093 0.6857577 0.17400637 0.43208888 0.2316896 0.17164582
0.2938298 0.044477057 0.2881641 0.07807132 0.5925583 0.91035134 0.7605999 0.10233525
00000000: e5cf 533e 22b1 843e 8525 783d 9459 793d
00000010: c3ea ad3e 5800 4d3e 7477 0b3f 4ba4 5b3e
00000020: ed96 0b3e 31e8 583e 7f9f 8f3e 58ad dd3e
00000030: cdbc 103f 4a28 193e 6f38 d43d 0037 363e
00000040: f626 223f 61dd 2a3f 252f c43e ec75 0c3d
00000050: e382 8f3e 144e 9f3e 88dc 1a3f 96e7 de3e
00000060: 1dd9 0a3e eb7c b33d d424 113e b730 473e
00000070: 8d50 9c3e 5fc6 0740 212c f43d 44b0 ba3d
00000080: 72cb 763e 7ce6 f33e 998e d33e add9 ba3e
00000090: e5e0 3a3f db23 3a3f 407a 273e 8662 f43c
000000a0: f1f9 3f3f 6b0b 6c3d c9d6 e53c d908 b73e
000000b0: 0c22 893e e48c bf3e b7b2 733d 5c79 0e3f
000000c0: 8c74 a73e 8af0 d43e bbd0 333e d18d 2f3f
000000d0: ba2e 323e c13a dd3e 0a40 6d3e ecc3 2f3e
000000e0: dc70 963e 932d 363d 3f8a 933e dbe3 9f3d
000000f0: e7b1 173f c90c 693f adb6 423f 2595 d13d

encoder.encoder.1.0.weight f4 [64, 64, 3, 3]
-0.0020846622 -0.02952362 -0.001355006 0.015831945 -0.021098347 0.015327186 0.003890297 -0.05073306
0.026015243 0.032984823 -0.017851751 0.023490299 -0.009728996 0.02177495 0.010744124 -0.012444347
-0.032453857 -0.022310495 -0.043996714 -0.046109766 0.004473634 -0.048865873 -0.013710936 -0.034318224
-0.047062766 0.011217624 1.6669477e-05 -0.0016970292 -0.020769136 -0.007955951 -0.023723992 0.015509731
0.023092685 -0.007644423 0.02631891 0.021817654 -0.009414666 0.00371967 -0.03183468 -0.047688216
-0.02030055 -0.019243982 0.008546262 -0.013198966 -0.004230712 -0.0032820136 0.02768191 -0.009317984
-0.019922014 -0.01828634 0.02870113 -0.019966412 -0.02189988 -0.018874997 0.01652217 0.0060227904
-0.012819672 0.011458233 -0.026630903 -0.005317003 -0.018662676 0.01698648 0.008597831 -0.018583043
-0.04335373 -0.005903175 0.008017391 -0.011743721 0.028159989 -0.035516594 -0.041771237 -0.021606596
0.022694387 -0.018794516 -0.011834435 0.08864344 -0.04381724 0.014331173 0.05829318 0.009263894
0.028347021 -0.01830319 0.017155027 -0.0027338348 0.0040234546 -0.022586053 -0.0050450643 -0.01241895
-0.035296794 -0.009733026 0.04876486 -0.010206967 0.049913332 -0.025129614 -0.034618676 -0.010400853
-0.03769302 0.0056774435 -0.043210592 -0.03519483 0.051950406 0.02145108 -0.01659888 0.0049129585
0.028405964 0.027544007 -0.008368896 -0.02238861 -0.024833474 0.0077488585 0.0333565 0.014255308
-0.0087323645 0.01735154 0.017772099 0.014211194 0.014572726 -0.004353906 -0.019902097 -0.017147219
-0.0065938733 -0.02994723 -0.01066467 -0.028198985 -0.041232534 -0.036658164 -0.007723634 0.01699598
0.021242566 -0.0018738258 0.016734336 -0.0029805107 0.009857192 0.017209247 0.0012366304 -0.03497496
0.0059709717 0.019023983 0.01882665 -0.027837805 -0.00656473 -0.009973851 -0.016102884 0.0039164037
0.0085845785 0.018147027 -0.035563007 -0.03493332 -0.04506292 -0.031648193 -0.039801978 0.039191667
0.0010456332 -0.030588869 0.00082055817 -0.0051713167 -0.046913397 -0.00019114587 0.016805965 -0.011672276
-0.04518296 0.001903632 -0.029461289 0.028212732 -0.026412548 0.0050609503 -0.02152459 -0.012978881
0.016760798 0.0021277687 -0.007732861 -0.019621624 0.014252659 -0.0074134753 -0.0033968173 -0.008914091
-0.022781834 0.03725936 0.006766076 0.026591206 0.01044192 0.010449597 -0.024510732 0.034323554
0.0064855367 0.006162857 -0.008126064 -0.008751938 0.0065242657 -0.022887196 -0.015497111 -0.009819825
0.023375843 0.023733195 0.013218667 0.025652492 -0.017605225 0.011392399 -0.004626255 -0.017618936
0.021794517 -0.030596 -0.029696181 -0.014567052 -0.055809963 -0.060031697 -0.018863032 -0.009088405
0.009138675 -0.04312288 -0.04635536 0.019379392 -0.01143572 -0.05307983 0.037165694 -0.015663175
0.029807722 -0.0036375918 -0.045546692 -0.0038134966 -0.012009227 -0.03935784 0.032735728 -0.022247253
0.022077449 -0.0012854508 -0.015897868 0.007918498 -0.01677138 -0.021950511 -0.0029655793 0.018315565
-0.028200654 -0.008753884 0.021677332 -0.016328039 -0.0072592515 -0.005777477 0.00932169 0.003890589
-0.02400217 0.013316437 0.007903719 0.022268388 0.026364585 0.006598721 0.0068226294 0.010498776
0.0092977015 0.01150025 0.021158936 -0.028306916 -0.01650144 -0.02160077 0.058194187 0.017499408
00000000: d49e 08bb 85db f1bc 759a b1ba ffb1 813c
00000010: 71d6 acbc e11e 7b3c 5af4 7e3b 78cd 4fbd
00000020: eb1d d53c 181b 073d d63d 92bc ba6e c03c
00000030: 5e66 1fbc 6161 b23c 1f08 303c 60e3 4bbc
00000040: 56ee 04bd 80c4 b6bc e635 34bd 98dd 3cbd
00000050: 9097 923b 9527 48bd d5a3 60bc 4491 0cbd
00000060: e3c4 40bd 20ca 373c 6ed5 8b37 da6e deba
00000070: 0924 aabc ad59 02bc d158 c2bc 871c 7e3c
00000080: df2c bd3c 117e fabb c19a d73c f0ba b23c
00000090: f93f 1abc b5c5 733b 1565 02bd b854 43bd
000000a0: 574d a6bc 8ea5 9dbc 9f05 0c3c 7a40 58bc
000000b0: c9a1 8abb 0d17 57bb 2cc5 e23c 75aa 18bc
000000c0: 7e33 a3bc 3ccd 95bc a21e eb3c 9a90 a3bc
000000d0: 6167 b3bc bd9f 9abc 8059 873c d45a c53b
000000e0: 9a09 52bc 50bb 3b3c 0d29 dabc 413a aebb
000000f0: 78e2 98bc 3b27 8b3c ebdd 0c3c 773b 98bc
00000100: ae93 31bd 6c6f c1bb 605b 033c bc68 40bc
00000110: c7af e63c d979 11bd 5118 2bbd 5100 b1bc
00000120: 94e9 b93c f5f6 99bc 38e5 41bc b18a b53d
00000130: b579 33bd 4ccd 6a3c d4c4 6e3d 96c7 173c
00000140: 0338 e83c 92f0 95bc b388 8c3c 232a 33bb
00000150: 2fd7 833b 6306 b9bc 1151 a5bb da78 4bbc
00000160: 5f93 10bd 4577 1fbc a9bd 473d 1f3b 27bc
00000170: ec71 4c3d 9fdc cdbc 50cc 0dbd 5768 2abc
00000180: ff63 1abd d909 ba3b 97fd 30bd 7428 10bd
00000190: f3c9 543d 2dba af3c 60fa 87bc e2fc a03b
000001a0: a0b3 e83c f8a3 e13c b21d 09bc 5168 b7bc
000001b0: 926f cbbc 23ea fd3b d3a0 083d 188f 693c
000001c0: 3112 0fbc d124 8e3c cb96 913c 11d6 683c
000001d0: 71c2 6e3c 36ab 8ebb b909 a3bc 5378 8cbc
000001e0: 6b11 d8bb e553 f5bc deba 2ebc 8f01 e7bc
000001f0: 72e3 28bd df26 16bd 8a16 fdbb 273b 8b3c
00000200: e404 ae3c 299b f5ba 7216 893c ac54 43bb
00000210: 0f80 213c 68fa 8c3c 6e16 a23a e741 0fbd
00000220: 24a8 c33b 2fd8 9b3c 593a 9a3c 1c0c e4bc
00000230: f21c d7bb 5d69 23bc 32ea 83bc 2d55 803b
00000240: 55a6 0c3c 13a9 943c 84aa 11bd 3e16 0fbd
00000250: e593 38bd 89a1 01bd 6607 23bd 7187 203d
00000260: a10d 893a 8295 fabc ba1a 573a 2674 a9bb
00000270: 4328 40bd 546e 48b9 aaac 893c 133d 3fbc
00000280: c411 39bd 4a83 f93a cd58 f1bc 631e e73c
00000290: 215f d8bc 54d6 a53b 5654 b0bc 5fa5 54bc
000002a0: f14d 893c 0972 0b3b f163 fdbb 87bd a0bc
000002b0: fc83 693c bdec f2bb 239d 5ebb 680c 12bc
000002c0: f8a0 babc 459d 183d f6b5 dd3b cdd5 d93c
000002d0: 9614 2b3c c934 2b3c bbca c8bc db96 0c3d
000002e0: a084 d43b cbf1 c93b 2f23 05bc 4a64 0fbc
000002f0: 82c9 d53b ee7d bbbc 98e7 7dbc 55e3 20bc
00000300: b27e bf3c 1e6c c23c 1c93 583c 2d25 d23c
00000310: d538 90bc 2fa7 3a3c d797 97bb 9655 90bc
00000320: 6a8a b23c 76a4 fabc 6845 f3bc a5aa 6ebc
00000330: fd98 64bd cce3 75bd a586 9abc 89e7 14bc
00000340: 62ba 153c 9ea1 30bd 1edf 3dbd 88c1 9e3c
00000350: e35c 3bbc 3c6a 59bd 0e3b 183d 0f50 80bc
00000360: 532f f43c aa64 6ebb 2b8f 3abd dbeb 79bb
00000370: 59c2 44bc b035 21bd e615 063d df3f b6bc
00000380: c4db b43c 927c a8ba 3f3c 82bc 96bc 013c
00000390: 2264 89bc 8fd1 b3bc 2a5a 42bb 860a 963c
000003a0: 0f05 e7bc 736c 0fbc a994 b13c 61c2 85bc
000003b0: 04df edbb fd50 bdbb 00ba 183c 41f9 7e3b
000003c0: 33a0 c4bc 2f2d 5a3c 9a7e 013c 326c b63c
000003d0: 8bfa d73c 153a d83b 5d90 df3b 0f03 2c3c
000003e0: 6355 183c 8b6b 3c3c 8155 ad3c e8e3 e7bc
000003f0: 072e 87bc 19f4 b0bc 075d 6e3d eb5a 8f3c

encoder.encoder.1.0.bias f4 [64]
0.022089275 0.003133499 0.004658927 -0.019468337 -0.0015239984 0.029507613 -0.018122094 -0.029428558
-0.008440016 -0.00034491046 0.01834506 0.022035269 0.0072149495 -0.004247527 0.008710471 0.025273696
-0.004633999 0.015826825 -0.01525989 -0.026694315 0.0034884193 -0.0055738683 0.013565777 -0.021665942
0.0278348 -0.014546461 0.022469008 0.021570744 -0.014639162 0.030682152 0.0209609 0.014950846
0.0035812326 -0.0102919815 0.005223482 -0.01965355 -0.009256923 0.0024857535 -0.019038538 -0.015356923
0.020871716 0.016371682 -0.029426731 0.011276406 0.022472411 -0.00335663 -0.0301388 0.020133976
-0.0071483185 -0.010139566 0.027544128 0.021597968 -0.015757103 -0.024050059 -0.014487112 0.01569868
-0.030647768 -0.030127779 0.0014172836 -0.024602704 0.0072849058 0.014190852 -0.025639521 -0.015761172
00000000: 91f4 b43c 645b 4d3b eaa9 983b 107c 9fbc
00000010: e7c0 c7ba f3b9 f13c c974 94bc 2914 f1bc
00000020: fe47 0abc 19d5 b4b9 6148 963c 4f83 b43c
00000030: 626b ec3b d72e 8bbb 5db6 0e3c c80a cf3c
00000040: cdd8 97bb 42a7 813c 9e04 7abc 09ae dabc
00000050: f79d 643b ffa4 b6bb fe42 5e3c c67c b1bc
00000060: ce05 e43c 4854 6ebc ed10 b83c 21b5 b03c
00000070: 19d9 6fbc 2359 fb3c 31b6 ab3c 65f4 743c
00000080: 1db3 6a3b b39f 28bc be29 ab3b 7b00 a1bc
00000090: 59aa 17bc 06e8 223b b5f6 9bbc 9b9b 7bbc
000000a0: 29fb aa3c e81d 863c 5410 f1bc adc0 383c
000000b0: 1018 b83c e8fa 5bbb a5e5 f6bc 02f0 a43c
000000c0: 713c eabb 6c20 26bc 39a4 e13c 39ee b03c
000000d0: 0a15 81bc a104 c5bc 5a5b 6dbc 859a 803c
000000e0: 0711 fbbc 88ce f6bc 25c4 b93a 9c8b c9bc
000000f0: 38b6 ee3b bf80 683c f909 d2bc 931d 81bc

encoder.encoder.1.1.weight f4 [64]
0.291237 0.17500086 0.15609685 0.4385246 0.7817259 0.5249597 0.9347686 0.26401228
0.47398782 0.58612007 0.31980622 0.2912035 0.6293412 0.4004674 0.38165087 0.6057168
0.46001852 0.35891354 0.43473962 0.0928567 0.23900463 0.7451851 0.54712087 0.24319744
0.63014144 0.65531164 0.6048246 0.37112987 0.55414003 0.23279469 0.3081412 0.47204694
0.48034364 0.47336182 0.06682134 0.71639276 0.3830533 0.7228806 0.628074 0.51247716
0.09300098 0.7500762 0.05884481 0.22395688 0.5370822 0.39463696 0.66427094 0.5427309
0.43181905 0.24447593 0.67434675 0.3969056 0.37746343 0.39446267 0.48728487 0.55581236
0.38524595 0.50796646 0.07736666 0.3713056 0.48691922 0.19346412 0.26779023 0.33649376
00000000: 041d 953e 6d33 333e dad7 1f3e 4c86 e03e
00000010: 301f 483f c263 063f ff4c 6f3f 9e2c 873e
00000020: 88ae f23e f70b 163f a4bd a33e a018 953e
00000030: 811c 213f 100a cd3e be67 c33e 4210 1b3f
00000040: 8c87 eb3e 84c3 b73e 3196 de3e a72b be3d
00000050: a1bd 743e 73c4 3e3f 1d10 0c3f c008 793e
00000060: f350 213f 81c2 273f c9d5 1a3f bc04 be3e
00000070: 1fdc 0d3f bb61 6e3e afc4 9d3e 23b0 f13e
00000080: 9aef f53e 7b5c f23e a0d9 883d 8465 373f
00000090: 901f c43e b40e 393f 75c9 203f b431 033f
000000a0: 4c77 be3d fe04 403f 4107 713d f454 653e
000000b0: 387e 093f db0d ca3e a90d 2a3f 6af0 0a3f
000000c0: 6317 dd3e e657 7a3e fda1 2c3f 3637 cb3e
000000d0: e342 c13e 03f7 c93e 677d f93e b849 0e3f
000000e0: f53e c53e 170a 023f 6972 9e3d c51b be3e
000000f0: 7a4d f93e 751b 463e cd1b 893e e948 ac3e

encoder.encoder.1.1.bias f4 [64]
-0.15691264 -0.01581958 0.02562584 -0.13749981 -0.14476171 -0.1147908 0.024400882 -0.09641141
-0.13499832 -0.14962158 -0.0754972 -0.1952884 -0.091017924 -0.18276687 -0.1717226 0.0062339497
-0.12790905 -0.19688897 -0.12738997 0.0091547845 -0.091954514 -0.09567586 -0.31324643 0.0066282046
-0.14607608 -0.12636651 -0.25312868 -0.11394484 -0.11386161 -0.062021233 -0.049491983 -0.08804983
-0.1084881 -0.055296205 -0.021677064 0.09234006 -0.4280096 -0.1451069 -0.2400954 -0.1654177
-0.027572554 -0.04154709 -0.011374488 -0.10697874 -0.11869826 -0.0317374 0.032416876 0.030987784
-0.069822 -0.22838959 -0.162434 -0.09941179 -0.29263243 -0.11777502 -0.21742257 -0.17735463
-0.04462782 -0.18650824 0.04242696 -0.24609344 0.014459604 -0.06715344 -0.16262278 -0.090342365
00000000: b5ad 20be 1098 81bc 48ed d13c c0cc 0cbe
00000010: 6a3c 14be 7017 ebbd 5ce4 c73c 5873 c5bd
00000020: 003d 0abe 6636 19be 479e 9abd aff9 47be
00000030: 9b67 babd 3d27 3bbe 0dd8 2fbe 2946 cc3b
00000040: 97fa 02be 439d 49be 8472 02be f3fd 153c
00000050: a652 bcbd b5f1 c3bd d661 a0be 6931 d93b
00000060: f894 15be 3966 01be 159a 81be ea5b e9bd
00000070: 4730 e9bd fa09 7ebd 1bb8 4abd 7853 b4bd
00000080: 022f debd 467e 62bd 1994 b1bc c91c bd3d
00000090: 1324 dbbe e796 14be 92db 75be 4263 29be
000000a0: d6df e1bc 482d 2abd 0f5c 3abc ab17 dbbd
000000b0: 1318 f3bd 13ff 01bd 8fc7 043d 18da fd3c
000000c0: d6fe 8ebd f6de 69be 1955 26be 6998 cbbd
000000d0: ebd3 95be 0834 f1bd 06a4 5ebe 749c 35be
000000e0: a9cb 36bd 04fc 3ebe e4c7 2d3d ebff 7bbe
000000f0: fae7 6c3c be87 89bd 9686 26be 6b05 b9bd

encoder.encoder.1.1.running_mean f4 [64]
-0.23994935 0.0026404879 -0.1253905 -0.11041502 -0.48590228 -0.3985273 -0.7920482 -0.15652737
-0.10673244 -0.5223919 0.005693726 0.09535813 -0.3910868 -0.11750961 0.464275 -0.49701455
-0.13354923 0.2024134 -0.21502721 -0.018701514 -0.31785685 -0.59546334 -0.29077962 0.20284504
0.07596383 -0.33782592 -0.23026858 -0.043450803 -0.12881653 -0.36712855 0.05082182 -0.35193372
-0.4308537 -0.15046875 -0.062202755 -1.0324566 0.7738312 -0.40551955 -0.4956778 -0.19752072
-0.04693193 -0.53375274 -0.078835934 0.04792069 -0.16503093 -0.32830447 -0.43323264 -0.7882339
-0.264725 0.21851136 -0.44041973 -0.28075844 0.6849617 -0.25755706 -0.43335712 -0.38993415
-0.48484915 -0.38540268 -0.115634315 -0.56509924 -0.5555783 -0.05288714 0.2767353 0.05631396
00000000: 48b5 75be 090c 2d3b 5e66 00be 4521 e2bd
00000010: 2fc8 f8be c50b ccbe acc3 4abf b648 20be
00000020: 8a96 dabd 7abb 05bf 6f92 ba3b 204b c33d
00000030: 873c c8be e1a8 f0bd 74b5 ed3e b178 febe
00000040: 21c1 08be 7545 4f3e 1830 5cbe eb33 99bc
00000050: 22be a2be 4970 18bf 11e1 94be 9cb6 4f3e
00000060: ed92 9b3d 85f7 acbe 87cb 6bbe 78f9 31bd
00000070: 7be8 03be 46f8 bbbe 8a2a 503d a830 b4be
00000080: db98 dcbe 7b14 1abe 51c8 7ebd 8a27 84bf
00000090: cd19 463f 42a0 cfbe 7bc9 fdbe df42 4abe
000000a0: b23b 40bd 05a4 08bf bc74 a1bd 7c48 443d
000000b0: defd 28be 8617 a8be abd0 ddbe b2c9 49bf
000000c0: 098a 87be 71c1 5f3e b27e e1be 92bf 8fbe
000000d0: a659 2f3f 85de 83be fce0 ddbe 73a5 c7be
000000e0: 263e f8be 8053 c5be afd1 ecbd 58aa 10bf
000000f0: 613a 0ebf 30a0 58bd 40b0 8d3e 78a9 663d

encoder.encoder.1.1.running_var f4 [64]
0.14886627 0.105489045 0.06412502 0.2861793 0.9932281 0.78436935 1.7576867 0.12494276
0.80901074 1.678151 0.2310849 0.19682059 1.1002442 0.3394337 0.70350045 0.8839418
0.40845254 0.7681249 0.43731585 0.029573932 0.15580292 0.5988436 0.71201926 0.24177739
0.8744293 1.34358 1.3382722 0.44897154 0.6542851 0.08759719 0.22591794 0.64664894
0.65796447 0.35527048 0.016809622 1.6786302 0.8095615 1.4321028 1.4133617 0.64201283
0.014836421 1.0133479 0.08233077 0.09305951 0.8934887 0.3150017 0.8771358 1.2352558
0.5600739 0.28298387 2.0626132 0.40952733 0.7193198 0.65930414 0.6659246 0.70875037
0.6853875 0.82152355 0.030967843 0.55171525 0.6014674 0.09663843 0.21940647 0.23315041
00000000: 6670 183e a40a d83d fa53 833d 1886 923e
00000010: 3244 7e3f 6ecc 483f e1fb e03f fde1 ff3d
00000020: 541b 4f3f a7cd d63f 85a1 6c3e 568b 493e
00000030: cdd4 8c3f 41ca ad3e 9b18 343f 034a 623f
00000040: b120 d13e d5a3 443f dde7 df3e 0845 f23c
00000050: cd8a 1f3e d04d 193f e546 363f 7e94 773e
00000060: 99da 5f3f 6efa ab3f 814c ab3f 99df e53e
00000070: 3a7f 273f 2866 b33d 0857 673e c98a 253f
00000080: 5c70 283f 03e6 b53e 55b4 893c 5bdd d63f
00000090: 6c3f 4f3f 254f b73f 09e9 b43f f45a 243f
000000a0: 7614 733c 62b5 813f 099d a83d fc95 be3d
000000b0: adbb 643f e747 a13e f98b 603f dd1c 9e3f
000000c0: 0161 0f3f 43e3 903e db01 0440 91ad d13e
000000d0: 5825 383f 28c8 283f 097a 2a3f aa70 353f
000000e0: 8e75 2f3f 5e4f 523f 46b0 fd3c 363d 0d3f
000000f0: c4f9 193f 5fea c53d 17ac 603e fbbe 6e3e

encoder.encoder.2.0.weight f4 [64, 64, 3, 3]
0.024400627 0.0092543755 0.0032542425 0.03448409 -0.010765328 0.045131207 -0.0035621754 0.013924825
0.06416135 0.010234947 -0.01178624 -0.03303708 -0.011380794 0.01602996 0.00679347 0.02041896
-0.009277349 0.009180033 -0.007098768 -0.014912467 0.010945577 -0.02498563 -0.019836597 -0.027460245
-0.002379809 0.028439568 -0.020669376 0.023024075 -0.0044310507 -0.0026776232 -0.03951352 -0.009792238
-0.03895094 0.048491176 0.021841088 -0.053263128 0.0041426 -0.020655219 -0.053956907 0.012050838
0.068659574 0.09156503 -0.020470034 -0.009923216 -0.028696423 -0.006855488 -0.006584113 0.0045354823
0.01002025 0.025955481 0.020444723 0.026522053 -0.025436958 0.033156216 -0.0047889315 -0.0013370086
0.07444566 0.020421825 0.045863867 0.06558001 0.05929719 0.030710163 -0.014065771 -0.009243843
0.061721627 0.057258755 -0.039518982 -0.024255428 -0.035666827 -0.027395032 -0.017107716 -0.04719368
-0.06777832 -0.06422266 -0.079087086 0.0062515275 -0.019075992 -0.051372845 -0.020948218 -0.022653881
-0.050690956 -0.02767617 -0.0439118 -0.031591356 0.05238086 0.035347313 -0.027784117 -0.040597174
-0.009480323 0.00038526862 -0.035765283 -0.000945441 -0.014842882 -0.04206308 -0.0042812424 0.001271286
-0.004284667 -0.020640979 -0.018208299 -0.00088535895 -0.027030628 0.019774899 -0.008255269 0.017396228
-0.020463595 -0.0012482886 0.035957165 0.024074402 -0.022360317 -0.08669502 -0.038950432 -0.011174523
-0.03961985 -0.04174983 -0.002294943 -0.015667498 -0.016308067 0.016374148 0.004321752 -0.010586375
0.028950062 -0.008719713 0.011902641 -0.045089766 -0.013554291 -0.057660967 0.019416967 -0.0018366141
0.051603377 -0.00448226 -0.030906873 0.0072941366 -0.035462406 -0.072567336 0.018720854 -0.01634686
0.0049933065 0.049136505 -0.025311911 -0.06522523 0.084108055 -0.062464185 -0.06984412 0.054139663
0.0050766943 -0.004165287 0.016143586 -0.05360032 -0.011813445 0.04794106 -0.06834159 0.05707639
0.07688111 -0.037639458 0.02256298 0.035202287 -0.005581432 0.023618713 0.045102794 0.00811679
0.02502941 0.0066712345 -0.055873998 -0.07036032 0.004729295 0.0026076445 -0.028209917 -0.009783502
0.048783053 -0.0031786526 -0.10869444 -0.021953586 0.007511885 0.02739221 -0.018800918 0.0125381965
-0.0020185022 0.032413393 -0.014741519 0.011290576 -0.022676073 -0.04174717 -0.011004055 -0.004486894
-0.016430717 0.009981625 0.019519506 -0.016188867 -0.011073121 0.0074931337 0.031840004 0.016960539
0.025328675 -0.034558658 0.018490575 -0.0002477986 -0.033991273 0.022856642 0.00027729047 0.008460257
-0.0007661732 0.0021333906 0.0050304593 -0.015878111 -0.024842264 -0.0592188 -0.06211711 0.047891065
0.045205172 0.030107796 0.02819832 0.020213459 -0.052059207 0.046852797 0.014284936 -0.017284553
-0.013316166 0.025198085 -0.02818234 -0.024656547 0.0035572299 -0.032486122 -0.025792 -0.023844765
-0.02906671 -0.021796355 -0.02166623 -0.082474306 0.039355822 -0.020447027 -0.021104999 0.023275428
0.002953901 -0.0059116255 0.06962186 0.03776098 -0.017904667 0.08765651 0.052563854 0.021316908
-0.018875713 0.030714732 -0.029042192 -0.06744745 -0.039691184 -0.02984836 -0.063017204 -0.007497842
0.010945171 0.005808531 0.0030693763 0.037514765 -0.039409988 -0.0067112013 -0.017021725 0.0052995766
00000000: d3e3 c73c aa9f 173c 2145 553b 303f 0d3d
00000010: 0f61 30bc 80db 383d 6373 69bb f324 643c
00000020: 0767 833d 7bb0 273c 131b 41bc e451 07bd
00000030: 8376 3abc 4351 833c c29b de3b aa45 a73c
00000040: 0600 18bc d967 163c c89c e8bb 6c53 74bc
00000050: 1455 333c aaae ccbc 5c80 a2bc 4ff4 e0bc
00000060: 92f6 1bbb 19fa e83c d352 a9bc fc9c bc3c
00000070: 5932 91bb 107b 2fbb eed8 21bd 9f6f 20bc
00000080: 058b 1fbd af9e 463d 15ec b23c 702a 5abd
00000090: a6be 873b 2235 a9bc eb01 5dbd e170 453c
000000a0: 649d 8c3d 7286 bb3d c6b0 a7bc fc94 22bc
000000b0: c314 ebbc 00a4 e0bb 8bbf d7bb 629e 943b
000000c0: fa2b 243c 97a0 d43c b17b a73c c744 d93c
000000d0: 2b61 d0bc d0ce 073d 78ec 9cbb 903e afba
000000e0: f776 983d ac4b a73c c0db 3b3d d04e 863d
000000f0: 9ce1 723d e193 fb3c 1f74 66bc 7d73 17bc
00000100: d1cf 7c3d 2888 6a3d a8de 21bd 52b3 c6bc
00000110: 6117 12bd 8c6b e0bc 7b25 8cbc 294e 41bd
00000120: 5ccf 8abd 2c87 83bd 69f8 a1bd 9dd9 cc3b
00000130: 4145 9cbc 556c 52bd 999b abbc a294 b9bc
00000140: 52a1 4fbd 23b9 e2bc dcdc 33bd f065 01bd
00000150: 508d 563d 58c8 103d 849b e3bc 3949 26bd
00000160: 5b53 1bbc e1fd c939 9e7e 12bd 79d7 77ba
00000170: 8f2f 73bc 564a 2cbd aa49 8cbb 48a1 a63a
00000180: 6466 8cbb 4517 a9bc 9229 95bc 6f17 68ba
00000190: 566f ddbc f8fe a13c 1c41 07bc 8982 8e3c
000001a0: 45a3 a7bc 9d9d a3ba d247 133d ae37 c53c
000001b0: fc2c b7bc 298d b1bd 7d8a 1fbd 5915 37bc
000001c0: 6d48 22bd df01 2bbd c166 16bb 2059 80bc
000001d0: 7f98 85bc 1423 863c 7c9d 8d3b 7a72 2dbc
000001e0: ae28 ed3c 21dd 0ebc 4b03 433c 0cb0 38bd
000001f0: d112 5ebc e82d 6cbd 5510 9f3c 8bba f0ba
00000200: 105e 533d ecdf 92bb 6930 fdbc a703 ef3b
00000210: 0741 11bd 2f9e 94bd 7a5c 993c dae9 85bc
00000220: e49e a33b 5c43 493d ed5a cfbc ce94 85bd
00000230: d840 ac3d 72da 7fbd 6f0a 8fbd 8dc1 5d3d
00000240: 665a a63b f67c 88bb 8e3f 843c 028c 5bbd
00000250: 2e8d 41bc d85d 443d adf6 8bbd efc8 693d
00000260: d873 9d3d d52b 1abd 00d6 b83c 4630 103d
00000270: 72e4 b6bb 087c c13c b5bd 383d 49fc 043c
00000280: 7a0a cd3c 5f9a da3b 22dc 64bd 1219 90bd
00000290: 34f8 9a3b 04e5 2a3b 7c18 e7bc fb4a 20bc
000002a0: bdd0 473d f150 50bb 319b debd 02d8 b3bc
000002b0: 4226 f63b a165 e03c 6204 9abc 026d 4d3c
000002c0: d948 04bb e8c3 043d 6986 71bc 1cfc 383c
000002d0: 2cc3 b9bc 15ff 2abd 5a4a 34bc cb06 93bb
000002e0: b699 86bc f889 233c 5fe7 9f3c 849e 84bc
000002f0: 096c 35bc f688 f53b aa6a 023d d4f0 8a3c
00000300: 157e cf3c 618d 0dbd 8c79 973c f7ea 81b9
00000310: 6f3a 0bbd da3d bb3c 4c61 9139 e49c 0a3c
00000320: 03d9 48ba 5bd0 0b3b 8dd6 a43b d012 82bc
00000330: 0182 cbbc 6a8f 72bd 836e 7ebd 6c29 443d
00000340: 0f29 393d a0a4 f63c 2a00 e73c b296 a53c
00000350: 093c 55bd b8e8 3f3d 5d0b 6a3c 5698 8dbc
00000360: 0c2c 5abc 376c ce3c a7de e6bc 87fc c9bc
00000370: 6a20 693b 2b10 05bd bf49 d3bc 1956 c3bc
00000380: 4f1d eebc 458e b2bc 617d b1bc 4ae8 a8bd
00000390: 9233 213d 8680 a7bc 64e4 acbc 1cac be3c
000003a0: 3c96 413b 4fb6 c1bb e895 8e3d 42ab 1a3d
000003b0: cfac 92bc 4285 b33d 324d 573d cca0 ae3c
000003c0: 3da1 9abc 769d fb3c e4e9 edbc e321 8abd
000003d0: 3993 22bd 8c84 f4bc 2a0f 81bd 75b0 f5bb
000003e0: 6053 333c 7d55 be3b 9727 493b 15a9 193d
000003f0: 5e6c 21bd a3e9 dbbb 2571 8bbc 12a8 ad3b

encoder.encoder.2.0.bias f4 [64]
0.009131272 -0.018448424 -0.0058021103 -0.0032208888 -0.008219066 0.027241612 -0.0011612999 -0.023076067
-0.030548448 -0.0019497825 -0.0009446079 -0.020955194 -0.023695482 0.013864752 0.026286984 0.028451392
0.022336977 -0.016001984 -0.010463101 0.020438224 0.01638965 0.022504728 0.0056274408 -0.0002962963
-0.024482973 -0.0073733814 0.015037261 -0.020471944 -0.024430132 0.028570602 0.016121008 0.01129946
0.0059322203 -0.007840894 -0.008683596 -0.007453001 -0.028090244 -0.010125 0.009117661 0.020439673
0.017397625 0.013737451 -0.01467194 -0.025169408 0.030889446 -0.019618344 0.0106302975 0.017196082
0.013137319 -0.02021673 0.020738209 -0.03050894 -0.024758065 0.009377223 0.0015014147 -0.015694648
0.024187751 0.007864142 -0.014973013 -0.0059194304 0.018202115 0.014215792 -0.015907302 -0.018432464
00000000: 559b 153c 2621 97bc a11f bebb 8c15 53bb
00000010: 43a9 06bc cd29 df3c c236 98ba 050a bdbc
00000020: bd40 fabc d88f ffba 909f 77ba 3aaa abbc
00000030: 071d c2bc fc28 633c cd57 d73c e512 e93c
00000040: 09fc b63c 9816 83bc 6d6d 2bbc 106e a73c
00000050: 9643 863c d65b b83c 6566 b83b 3758 9bb9
00000060: 8490 c8bc 689c f1bb d85e 763c c7b4 a7bc
00000070: b321 c8bc e50c ea3c 3410 843c 5f21 393c
00000080: 1263 c23b 1877 00bc a445 0ebc 4e38 f4bb
00000090: 831d e6bc 54e3 25bc 3e62 153c 1a71 a73c
000000a0: 7785 8e3c 0c13 613c 9462 70bc 1330 cebc
000000b0: dd0b fd3c a6b6 a0bc b32a 2e3c ccde 8c3c
000000c0: e93d 573c 8e9d a5bc 2de3 a93c e2ed f9bc
000000d0: 6dd1 cabc eda2 193c 1ecb c43a 1092 80bc
000000e0: 6425 c63c 9ad8 003c 5e51 75bc c8f7 c1bb
000000f0: 9a1c 953c 5ae9 683c 0850 82bc aeff 96bc

encoder.encoder.2.1.weight f4 [64]
0.2833108 0.37439123 0.39176887 0.33343974 0.64354837 0.5517577 0.14642777 0.68603504
0.6587377 0.49352935 0.39635104 0.13971344 0.43172088 0.5252823 0.54495996 0.38446206
0.29452735 0.24984689 0.41026428 0.29796976 0.363534 0.5527976 0.4047405 0.4330847
0.40084758 0.4752091 0.3836464 0.54970396 0.2160269 0.64084023 0.43628493 0.63555783
0.2981447 0.3485501 0.26347062 0.7453376 0.26368907 0.2900939 0.37056988 0.50072753
0.26113245 0.2609988 0.52141887 0.37856784 0.539043 0.0017046286 0.32768643 0.3628927
0.32452443 0.2910886 0.6763628 0.26774123 0.4228716 0.49164417 0.17434138 0.54241073
0.6127658 0.5161567 0.615011 0.6025791 0.54204386 0.41182137 0.47846463 0.2924721
00000000: 1d0e 913e 35b0 bf3e ee95 c83e 9db8 aa3e
00000010: 96bf 243f fe3f 0d3f 29f1 153e fe9f 2f3f
00000020: 09a3 283f e1af fc3e 86ee ca3e 0a11 0f3e
00000030: 850a dd3e e778 063f 7f82 0b3f 36d8 c43e
00000040: 4acc 963e ddd7 7f3e 290e d23e 7e8f 983e
00000050: 2121 ba3e 2584 0d3f 263a cf3e 47bd dd3e
00000060: e53b cd3e 9b4e f33e 4d6d c43e 66b9 0c3f
00000070: 2836 5d3e 1b0e 243f bd60 df3e ebb3 223f
00000080: 6ca6 983e 2975 b23e 9fe5 863e 72ce 3e3f
00000090: 4102 873e 3087 943e 56bb bd3e ae2f 003f
000000a0: 27b3 853e a2a1 853e b57b 053f a5d3 c13e
000000b0: b9fe 093f d86d df3a 84c6 a73e 12cd b93e
000000c0: 1128 a63e 9109 953e 1d26 2d3f 6115 893e
000000d0: a082 d83e c9b8 fb3e 8c86 323e 6edb 0a3f
000000e0: 38de 1c3f d822 043f 5c71 1d3f a042 1a3f
000000f0: 63c3 0a3f 40da d23e 51f9 f43e e7be 953e

encoder.encoder.2.1.bias f4 [64]
-0.13639039 -0.27397007 -0.12989871 -0.22063044 -0.18263274 -0.26981407 -0.046033338 -0.19550507
-0.21423931 -0.1924401 -0.16128573 -0.008873045 -0.22494425 -0.2723165 -0.19957149 -0.13570942
-0.12594053 -0.18045114 -0.16054365 -0.17339556 -0.20676553 -0.24183975 -0.20667231 -0.26226053
-0.17208037 -0.26761973 -0.1836389 -0.15435116 -0.15675497 -0.13368161 -0.19865173 -0.12235138
-0.34400672 0.07388508 -0.21142599 -0.27005932 -0.2245964 -0.37679148 -0.2016976 -0.26876104
0.0155291855 -0.12795107 -0.08681442 -0.10645679 -0.24348167 -0.019209802 -0.40853518 -0.04257161
-0.34917963 -0.11654113 -0.21758771 -0.010902363 -0.057233747 -0.026054528 0.030493056 -0.18455137
-0.16260278 -0.22120711 -0.10557514 -0.20491408 -0.09691859 -0.24318348 -0.21312846 -0.13812791
00000000: eca9 0bbe ce45 8cbe 2b04 05be f2ec 61be
00000010: 1404 3bbe 1225 8abe 748d 3cbd 7b32 48be
00000020: 8d61 5bbe 040f 45be 1628 25be 4060 11bc
00000030: c957 66be 116d 8bbe 785c 4cbe 69f7 0abe
00000040: 8ef6 00be 2fc8 38be 8e65 24be 9b8e 31be
00000050: 58ba 53be d7a4 77be e8a1 53be 0347 86be
00000060: d635 30be 7405 89be d60b 3cbe 3b0e 1ebe
00000070: 6084 20be d5e3 08be 5c6b 4bbe 5c93 fabd
00000080: a621 b0be 1051 973d 0e80 58be 3745 8abe
00000090: 99fc 65be d0ea c0be d189 4ebe 0c9b 89be
000000a0: 206e 7e3c 9b05 03be c2cb b1bd 0406 dabd
000000b0: 4253 79be e05d 9dbc 862b d1be 925f 2ebd
000000c0: acc7 b2be 1ead eebd 50cf 5ebe d39f 32bc
000000d0: ef6d 6abd 4e70 d5bc 93cc f93c 09fb 3cbe
000000e0: 5881 26be 1e84 62be c737 d8bd ffd4 51be
000000f0: 417d c6bd 1705 79be 593e 5abe 6771 0dbe

encoder.encoder.2.1.running_mean f4 [64]
0.0068956 -0.3662496 -0.25764853 -0.25405055 -0.55323714 -0.56191504 -0.08439464 -0.85518503
-0.7398477 -0.33701634 -0.37516838 -0.048078097 -0.2951861 -0.5310582 -0.59568644 -0.1374342
-0.16701521 0.013093546 -0.38394365 -0.33420232 -0.50258195 -0.28335127 -0.437567 -0.37362123
-0.13998854 -0.46823788 -0.35737368 -0.28989637 -0.1165745 -0.6059739 -0.37216887 -0.7587206
0.13761126 -0.39417097 -0.06452264 -0.77111244 -0.20605704 0.95343536 -0.13130249 -0.5157234
-0.2078404 -0.18158072 -0.7185943 -0.21911874 -0.31419623 -0.008671334 0.3865814 -0.107652806
-0.3414242 -0.2988258 -0.62511057 -0.018003583 -0.50441897 -0.78903246 -0.00522274 -0.6369164
-0.82862306 -0.554333 -0.7697402 -0.13330142 -0.6880082 -0.60166156 -0.25678545 0.011660981
00000000: 7cf4 e13b 1185 bbbe 82ea 83be ea12 82be
00000010: f3a0 0dbf aad9 0fbf 19d7 acbd 68ed 5abf
00000020: a966 3dbf 688d acbe 1216 c0be 8aed 44bd
00000030: a222 97be 6ef3 07bf e87e 18bf 8dbb 0cbe
00000040: 0906 2bbe 5086 563c 4394 c4be 911c abbe
00000050: 36a9 00bf 6b13 91be c808 e0be 484b bfbe
00000060: 2859 0fbe e0bc efbe aff9 b6be 4c6d 94be
00000070: 9dbe eebd 1b21 1bbf eb8c bebe 833b 42bf
00000080: f7e9 0c3e c7d0 c9be 7224 84bd a067 45bf
00000090: 9e00 53be 5714 743f 2974 06be 7306 04bf
000000a0: 1dd4 54be 4cf0 39be ccf5 37bf aa60 60be
000000b0: 54de a0be 3612 0ebc ffed c53e 1379 dcbd
000000c0: 27cf aebe b2ff 98be 3f07 20bf 407c 93bc
000000d0: 9a21 01bf 08fe 49bf 8523 abbb f40c 23bf
000000e0: a420 54bf c4e8 0dbf b20d 45bf 2b80 08be
000000f0: 4e21 30bf 7e06 1abf 6279 83be b30d 3f3c

encoder.encoder.2.1.running_var f4 [64]
0.11028984 0.32105076 0.21031097 0.27213618 0.5869421 0.57775277 0.026624149 0.76518464
0.57010996 0.6517685 0.28151232 0.025752364 0.18614337 0.49252197 0.51985407 0.27430046
0.12765059 0.10337242 0.27462295 0.13665777 0.25648198 0.40914536 0.33602273 0.31603968
0.22460146 0.58087766 0.20321947 0.31448516 0.03708008 0.58426666 0.39658353 0.6561171
0.18852733 0.2321403 0.087663986 1.1058282 0.22741511 0.41554937 0.3426944 0.3636654
0.05642473 0.049616955 0.8055957 0.16347234 0.50490427 0.013095894 0.29733363 0.18405083
0.3144065 0.13711405 1.067106 0.059414428 0.3122804 0.4668769 0.019325305 0.686202
0.7647088 0.3341936 1.0024285 0.5165083 0.7110088 0.4000581 0.5439326 0.08098706
00000000: a4df e13d c460 a43e c25b 573e 6f55 8b3e
00000010: d641 163f 9be7 133f e31a da3c 24e3 433f
00000020: baf2 113f 4dda 263f 6222 903e 9ff6 d23c
00000030: 5e9c 3e3e d72b fc3e 2815 053f 1c71 8c3e
00000040: d6b6 023e ebb4 d33d 619b 8c3e 04f0 0b3e
00000050: 9b51 833e 807b d13e 2c0b ac3e f4cf a13e
00000060: edfd 653e 66b4 143f c418 503e 3304 a13e
00000070: 48e1 173d 8092 153f ff0c cb3e 4af7 273f
00000080: 4f0d 413e 30b6 6d3e 2d89 b33d c78b 8d3f
00000090: 82df 683e e3c2 d43e a475 af3e 5a32 ba3e
000000a0: 9e1d 673d 263b 4b3d 853b 4e3f 4b65 273e
000000b0: 6841 013f 2990 563c 1d3c 983e d277 3c3e
000000c0: e4f9 a03e a067 0c3e ee96 883f 8b5c 733d
000000d0: 37e3 9f3e 7d0a ef3e 1a50 9e3c efaa 2f3f
000000e0: f5c3 433f 6c1b ab3e 944f 803f e339 043f
000000f0: ac04 363f 6ad4 cc3e 2b3f 0b3f 8bdc a53d

encoder.encoder.3.0.weight f4 [64, 64, 3, 3]
-0.005387917 -0.054070845 -0.036151197 0.03987395 0.048514016 0.020349076 0.012123102 0.049590744
0.012114926 -0.05759883 -0.07281514 -0.04842226 -0.06152772 0.010520251 0.020729264 -0.08096602
-0.02161684 0.008113908 -0.023528185 -0.018701019 0.013274434 0.018501831 -0.0821159 -0.006884833
-0.0040189577 -0.01322356 -0.019099832 0.059989687 0.039829694 -0.02499218 0.087766945 -0.05394855
-0.066454336 -0.05354608 -0.048743445 0.010381145 0.016196068 0.0064583705 -0.009629969 -0.029909017
-0.011993639 0.06298906 0.046090517 0.00058648206 -0.015465245 0.0005119237 0.07819864 0.050803877
-0.016712202 0.097408704 -0.048683245 -0.07652971 -0.056746386 -0.048016775 0.026080389 -0.008706871
-0.0012419496 -0.038496822 -0.009594629 -0.010457668 -0.032199558 0.02539166 -0.005515633 -0.022096746
-0.008803727 0.07539649 -0.029525427 0.0070280707 0.1104888 -0.045088053 -0.049749307 0.09938881
-0.011837147 -0.038999017 -0.0492582 -0.054795798 -0.043389443 -0.015539194 -0.0977246 -0.06809056
-0.00892289 0.11110877 0.017020054 -0.038794007 -0.07600384 -0.050958447 0.1227102 0.09836238
0.018283036 0.01936165 -0.04032119 -0.028676692 -0.084708266 -0.01909542 -0.010276106 -0.06654914
0.024359407 -0.008625089 0.028451143 0.0015475721 0.0057934728 -0.021290215 0.017947426 -0.03506045
-0.0045063007 -0.017932162 0.015926205 -0.05955094 0.0061286315 -0.045936793 -0.11876252 0.016097618
-0.02877915 -0.14424288 0.00672458 -0.08335591 -0.069628425 0.17924342 0.056958254 0.05614443
0.0009087169 0.028195461 0.04869065 -0.059712075 0.0026103149 0.067183964 0.032592867 0.035396103
-0.13506451 0.18492204 0.13961014 -0.033568162 0.06860833 0.04420039 -0.03643217 -0.074092336
-0.045931198 -0.034470584 0.038916647 -0.0055559813 -0.018387722 -0.0662836 -0.07745524 -0.038137455
0.049439736 0.034617774 -0.08979887 0.10728296 0.04769248 0.013465807 0.08181389 -0.04190618
-0.101552464 0.057710256 0.028327122 -0.0030001665 0.02099399 -0.030875687 -0.035907373 -0.01290743
0.011472195 0.03452954 0.030884977 0.07877878 -0.029271057 0.018538034 -0.028814085 0.005262652
0.023768233 0.052370176 0.052430637 -0.011733279 0.017319102 -0.004725152 0.015123108 0.028308405
0.012399157 0.0017179685 -0.01309882 0.044168975 0.0009445424 0.017395796 0.0425874 0.067156926
0.1077495 0.051479742 -0.15598084 -0.026646862 -0.056178436 -0.036843136 -0.026222685 -0.019046726
0.0190635 0.013872282 -0.12146643 0.0129752075 -0.009282638 -0.03605552 0.06835364 0.05254946
-0.028508546 -0.0026109102 0.0017836973 -0.058770612 0.03692727 0.12404277 0.093093224 0.052626275
0.11172215 -0.01160188 0.0288602 -0.0541208 -0.07575818 0.11147166 0.10050869 -0.026341658
-0.012144886 -0.05744675 -0.016644266 0.027477978 -0.02354053 0.070011444 -0.026635297 -0.039186105
0.09862332 0.0959959 0.046953328 0.043454565 0.007986517 -0.053319428 -0.021316355 0.0049581197
-0.021914471 0.12329966 -0.007213989 0.044712573 -0.084990956 -0.011087372 0.015098247 -0.030186024
0.012463988 0.03364706 0.045632023 0.02333285 -0.009426596 -0.0152444225 -0.019147163 -0.030579733
0.06671164 0.019736728 0.004149562 0.08516831 0.04450337 0.06194874 -0.02174407 -0.022435576
00000000: 208d b0bb 6479 5dbd 4713 14bd de52 233d
00000010: a2b6 463d 1bb3 a63c fa9f 463c aa1f 4b3d
00000020: af7d 463c c0ec 6bbd 1b20 95bd 6b56 46bd
00000030: 7e04 7cbd 215d 2c3c 6bd0 a93c 83d1 a5bd
00000040: cd15 b1bc 32f0 043c 2ebe c0bc e132 99bc
00000050: 037d 593c 2791 973c 622c a8bd 2a9a e1bb
00000060: 76b1 83bb a1a7 58bc 4077 9cbc bfb7 753d
00000070: 7624 233d 66bc ccbc 28bf b33d 28f9 5cbd
00000080: 3619 88bd 2253 5bbd 35a7 47bd ae15 2a3c
00000090: 9ead 843c bda0 d33b 04c7 1dbc c103 f5bc
000000a0: f880 44bc 6900 813d 69c9 3c3d 25be 193a
000000b0: f061 7dbc 9e32 063a 9c26 a03d ba17 503d
000000c0: 07e8 88bc 377e c73d 1568 47bd 9cbb 9cbd
000000d0: e66e 68bd 3dad 44bd 8aa6 d53c 44a7 0ebc
000000e0: eac8 a2ba d8ae 1dbd ca32 1dbc a456 2bbc
000000f0: afe3 03bd 2c02 d03c 7cbc b4bb 3c04 b5bc
00000100: 823d 10bc 7a69 9a3d 4fdf f1bc bb4b e63b
00000110: f447 e23d 40ae 38bd eec5 4bbd 5c8c cb3d
00000120: 98f0 41bc 6fbd 1fbd f7c2 49bd 8f71 60bd
00000130: 21b9 31bd 1b98 7ebc d623 c8bd 1073 8bbd
00000140: 5031 12bc ff8c e33d a46d 8b3c 77e6 1ebd
00000150: e7a7 9bbd ceb9 50bd 7c4f fb3d 3772 c93d
00000160: 4ec6 953c 539c 9e3c d527 25bd 62eb eabc
00000170: 877b adbd 006e 9cbc 1d5d 28bc ea4a 88bd
00000180: 618d c73c 3f50 0dbc 5f12 e93c e7d7 ca3a
00000190: 2cd7 bd3b d168 aebc 7b06 933c 8c9b 0fbd
000001a0: 97a9 93bb 78e6 92bc ac77 823c b0eb 73bd
000001b0: b0d2 c83b 3828 3cbd c439 f3bd 27df 833c
000001c0: 41c2 ebbc 68b4 13be de59 dc3b 81b6 aabd
000001d0: 5999 8ebd 968b 373e 0f4d 693d b4f7 653d
000001e0: f536 6e3a 2bfa e63c d96f 473d a694 74bd
000001f0: d111 2b3b bf97 893d 1980 053d 81fb 103d
00000200: 5a4e 0abe 345c 3d3e f6f5 0e3e c57e 09bd
00000210: 8682 8c3d 780b 353d e639 15bd b9bd 97bd
00000220: 5a22 3cbd 0731 0dbd 1067 1f3d f30e b6bb
00000230: d9a1 96bc b2bf 87bd daa0 9ebd 0536 1cbd
00000240: 5281 4a3d 5ecb 0d3d 78e8 b7bd 2bb7 db3d
00000250: 3159 433d b09f 5c3c 0a8e a73d d1a5 2bbd
00000260: bdfa cfbd 9761 6c3d 480e e83c 719e 44bb
00000270: 97fb ab3c 02ef fcbc 9c13 13bd af79 53bc
00000280: e0f5 3b3c d96e 0d3d 7e02 fd3c c556 a13d
00000290: dbc9 efbc 13dd 973c 840b ecbc 5372 ac3b
000002a0: 99b5 c23c 1c82 563d 82c1 563d f03c 40bc
000002b0: cae0 8d3c 73d5 9abb eac6 773c 07e7 e73c
000002c0: d525 4b3c 752d e13a 6f9c 56bc 87ea 343d
000002d0: 2b9b 773a a181 8e3c 2070 2e3d 9289 893d
000002e0: c5ab dc3d 6cdc 523d 71b9 1fbe 854a dabc
000002f0: 5c1b 66bd d4e8 16bd f5d0 d6bc e107 9cbc
00000300: 0f2b 9c3c 9148 633c 64c3 f8bd f795 543c
00000310: 3516 18bc f4ae 13bd fefc 8b3d 1a3e 573d
00000320: c18a e9bc ce1b 2bbb f3ca e93a 74b9 70bd
00000330: 0d41 173d 230a fe3d a9a7 be3d a68e 573d
00000340: 95ce e43d d015 3ebc 3a6c ec3c c6ad 5dbd
00000350: 1b27 9bbd 414b e43d 80d7 cd3d 76ca d7bc
00000360: 58fb 46bc 494d 6bbd 8e59 88bc 7f19 e13c
00000370: 12d8 c0bc 2962 8f3d 4432 dabc 9c81 20bd
00000380: 06fb c93d 8099 c43d 2252 403d 6afd 313d
00000390: e1d9 023c 7965 5abd a39f aebc b977 a23b
000003a0: fa85 b3bc 8884 fc3d 5363 ecbb 8824 373d
000003b0: bd0f aebd cfa7 35bc a35e 773c ae48 f7bc
000003c0: c135 4c3c 80d1 093d a5e8 3a3d 8824 bf3c
000003d0: 0272 1abc bec3 79bc 83da 9cbc 5982 fabc
000003e0: 1da0 883d ebae a13c 0df9 873b b96c ae3d
000003f0: 2a49 363d f6bd 7d3d 9f20 b2bc d0ca b7bc

encoder.encoder.3.0.bias f4 [64]
-0.0058880765 0.0047922754 0.02520333 0.015055903 -0.0024985785 0.014602818 -0.022954766 -0.0037084797
0.012902546 0.017103978 0.024182858 -0.011276238 0.019322217 0.00200204 -0.029592635 -0.010633621
0.015137015 -0.01288128 0.024743674 0.007768982 0.005362084 0.022595927 0.030396918 -0.021679102
0.023708044 0.026095936 0.028312827 -0.014260941 0.024430888 0.012525774 -0.0040138704 -0.012131291
0.0028098421 -0.020158663 0.029926023 0.02503718 0.018755918 -0.0011822272 0.019759256 0.030529544
-0.024153275 -0.008952729 -0.02836599 0.0048940983 0.027279688 -0.002621978 0.0142959915 0.0058495216
0.022826664 -0.022983154 0.009533546 -0.024832439 0.014672857 0.009254315 -0.006028619 0.010096754
0.011263225 0.02429262 -0.007677635 0.0035269856 0.015312559 -0.008068103 -0.028248893 -0.0055115744
00000000: c4f0 c0bb 8508 9d3b 3777 ce3c 09ad 763c
00000010: 31bf 23bb a840 6f3c a20b bcbc f709 73bb
00000020: 3365 533c a41d 8c3c 211b c63c f8bf 38bc
00000030: a049 9e3c a834 033b 416c f2bc a438 2ebc
00000040: 3e01 783c 010c 53bc 3fb3 ca3c f292 fe3b
00000050: 6cb4 af3b 181b b93c f502 f93c 5f98 b1bc
00000060: 5f37 c23c 25c7 d53c 4df0 e73c b9a6 69bc
00000070: 4923 c83c e738 4d3c c986 83bb 53c2 46bc
00000080: 5425 383b c823 a5bc 6b27 f53c c61a cd3c
00000090: 03a6 993c f6f4 9aba 2ade a13c 1819 fa3c
000000a0: 17dd c5bc 78ae 12bc cb5f e8bc ac5e a03b
000000b0: a779 df3c 7ed5 2bbb bc39 6a3c 58ad bf3b
000000c0: fcfe ba3c 2b47 bcbc 9732 1c3c 666d cbbc
000000d0: 6c66 703c 699f 173c b98b c5bb db6c 253c
000000e0: 6489 383c 5101 c73c ac94 fbbb 0025 673b
000000f0: 87e1 7a3c 1430 04bc 396a e7bc 709a b4bb
