saves_category/nico_animal/max_acc.pth (torch_old, 479502 bytes, 28 tensors)

encoder.encoder.0.0.weight f4 [64, 3, 3, 3]
-0.10053288 -0.038772155 0.28463346 -0.20480907 -0.12342667 0.20720014 -0.13165528 -0.04130823
0.20037682 -0.21527225 -0.049256332 0.2778288 -0.21490921 -0.20387475 0.3513949 -0.15601136
-0.110051736 0.28299272 -0.15083115 -0.09327504 0.09202988 -0.107766606 0.023285627 0.16517393
-0.08483034 -0.07991925 0.21831976 0.008000986 -0.0037647192 0.09819166 -0.15995127 -0.041076936
0.097663686 -0.18769981 -0.30149326 -0.14638941 0.03804948 0.06723595 0.1016711 0.11770345
0.1395908 0.21226393 0.09276424 0.11008579 -0.030730644 0.079242386 0.2593098 -0.0056428392
0.016688699 0.11809205 -0.13227762 -0.11041506 -0.22678423 -0.24171638 -0.0464889 0.046658
-0.13643448 0.07602574 0.049425516 -0.10883265 -0.0044006477 -0.06466299 -0.077131584 0.010848273
0.0005553788 0.044595934 0.035158496 0.11933542 0.12229292 0.076593585 -0.01628065 -0.08758907
-0.06250367 -0.095064335 0.049706694 -0.01953669 -0.013869525 0.0056791003 0.059303593 0.059971523
0.03320091 -0.020287981 -0.1704716 -0.062008753 -0.09713445 -0.06425708 -0.16204272 -0.22318116
0.038125467 -0.19791019 0.056437474 0.14946195 0.03713833 0.14323215 0.1758724 0.10781957
0.051130634 0.19311763 0.046527985 0.14793645 -0.07883718 -0.055819817 0.056368385 0.14084148
-0.04636234 -0.06990836 -0.0020598755 0.06528678 -0.019894809 0.1670153 0.21171838 -0.33487275
0.05857863 0.21242616 -0.35603675 -0.054681413 0.07829917 -0.19572754 -0.21389179 -0.40072095
0.12298163 0.17542991 -0.27639502 0.26467207 0.3593595 0.16473043 0.11708524 0.297718
0.088253506 0.10789923 0.13486089 -0.11206297 -0.1271714 -0.19306073 -0.31726137 0.045663994
0.041898765 0.013409003 -0.009983665 0.11686714 0.16386206 -0.021079937 -0.043532353 0.21495722
-0.1479931 -0.21426722 -0.09274073 -0.24477954 -0.26575968 -0.0822625 -0.2508631 -0.11543548
-0.007569647 -0.08383667 -0.0002965498 0.12612273 0.03215139 -0.032880146 0.012886981 0.048589
0.10812354 -0.023980403 0.22142813 -0.38892302 0.33803606 0.027717272 -0.0096169785 0.23624156
-0.5016097 0.3544283 -0.3181437 0.33869448 -0.5510133 0.1090912 0.16720285 -0.08148498
-0.060695052 -0.02744613 0.56539243 -0.5235655 0.1009488 -0.42298874 0.31817898 -0.20905408
-0.08784306 0.11898622 -0.1344283 0.48257077 -0.11501962 -0.11706967 0.17087294 0.0603915
-0.33335203 0.26240268 0.10629112 -0.23990844 0.1126975 0.0448146 -0.000503998 0.33960652
-0.119047515 -0.15181297 0.2449174 -0.08493159 -0.27206963 -0.06485401 -0.18811634 -0.25383157
0.29956523 0.16050637 -0.3864171 0.31664366 0.2161906 -0.48561776 0.14078437 0.21502902
0.04793968 -0.0075093172 0.0720167 -0.11910903 0.11557129 0.12247596 -0.013493478 -0.09063564
-0.05157981 -0.14633417 0.07979348 -0.0012360635 -0.021279007 -0.14837317 -0.17826168 -0.13291815
0.11413067 0.00822849 0.009486635 0.024511976 0.0043933336 -0.10917862 0.06748898 -0.099760726
0.07024739 0.013121644 0.08071814 0.24291082 -0.04789791 -0.03757966 0.004941058 0.29234385
0.3186443 -0.108016856 -0.30614796 -0.4202831 -0.09637005 -0.056758374 -0.18618405 -0.1202167
00000000: 2fe4 cdbd 8dcf 1ebd 7abb 913e 78b9 51be
00000010: 1fc7 fcbd 462c 543e a4d0 06be d232 29bd
00000020: 952f 4d3e 5470 5cbe 02c1 49bd 943f 8e3e
00000030: 2911 5cbe 8bc4 50be 08ea b33e 71c1 1fbe
00000040: ce62 e1bd 6ce4 903e 7b73 1abe fc06 bfbd
00000050: 297a bc3d bdb4 dcbd 80c1 be3c 5b23 293e
00000060: 88bb adbd b4ac a3bd 378f 5f3e 9116 033c
00000070: 82b9 76bb b618 c93d 44ca 23be 4a40 28bd
00000080: e603 c83d 6134 40be 535d 9abe 1be7 15be
00000090: c6d9 1b3d 00b3 893d f038 d03d 820e f13d
000000a0: e4f0 0e3e b75b 593e 2efb bd3d a974 e13d
000000b0: d5be fbbc d549 a23d 41c4 843e 91e7 b8bb
000000c0: bdb6 883c 3fda f13d c973 07be 4a21 e2bd
000000d0: 203a 68be 8084 77be 256b 3ebd 761c 3f3d
000000e0: 7bb5 0bbe 62b3 9b3d 6972 4a3d a7e3 debd
000000f0: 4f33 90bb 086e 84bd 2af7 9dbd f4bc 313c
00000100: d796 113a 3aaa 363d 5b02 103d 2166 f43d
00000110: b674 fa3d 19dd 9c3d ff5e 85bc e661 b3bd
00000120: ed01 80bd 17b1 c2bd 3f99 4b3d 690b a0bc
00000130: 013d 63bc bf17 ba3b 53e8 723d b3a4 753d
00000140: adfd 073d fb32 a6bc 1b90 2ebe e4fc 7dbd
00000150: 6dee c6bd 3799 83bd 87ee 25be 9a89 64be
00000160: 7329 1c3d f8a8 4abe fb2a 673d 8e0c 193e
00000170: 5d1e 183d 73ab 123e e517 343e 82d0 dc3d
00000180: 5b6e 513d a1c0 453e 2194 3e3d a77c 173e
00000190: 6375 a1bd 52a3 64bd 89e2 663d c038 103e
000001a0: 70e6 3dbd 1d2c 8fbd fafe 06bb 13b5 853d
000001b0: 70fa a2bc 0f06 2b3e b4cc 583e 7174 abbe
000001c0: 25f0 6f3d 3e86 593e 734a b6be 9ef9 5fbd
000001d0: 515b a03d cd6c 48be 7306 5bbe 4c2b cdbe
000001e0: cbdd fb3d e6a3 333e a683 8dbe 1983 873e
000001f0: f8fd b73e 18af 283e 63ca ef3d 7e6e 983e
00000200: 41be b43d 46fa dc3d f918 0a3e 4581 e5bd
00000210: 3839 02be b6b1 45be 1570 a2be 2b0a 3b3d
00000220: 0a9e 2b3d 6fb1 5b3c 8792 23bc 0a58 ef3d
00000230: 75cb 273e d5af acbc fb4e 32bd bf1d 5c3e
00000240: 818b 17be de68 5bbe daee bdbd 7da7 7abe
00000250: a711 88be 3e79 a8bd 2171 80be 7069 ecbd
00000260: cd0a f8bb 8fb2 abbd 3e7a 9bb9 5126 013e
00000270: 2db1 033d 55ad 06bd ea23 533c 4205 473d
00000280: e06f dd3d 8d72 c4bc 0ebe 623e eb20 c7be
00000290: 1013 ad3e 550f e33c 8890 1dbc 4fe9 713e
000002a0: 7e69 00bf a077 b53e bbe3 a2be 5d69 ad3e
000002b0: 350f 0dbf 356b df3d 3937 2b3e 99e1 a6bd
000002c0: 609b 78bd b5d6 e0bc 8fbd 103f 6308 06bf
000002d0: 3fbe ce3d fb91 d8be 5be8 a23e 4612 56be
000002e0: 10e7 b3bd 0caf f33d 93a7 09be 8413 f73e
000002f0: 688f ebbd 39c2 efbd 51f9 2e3e 145d 773d
00000300: 1ead aabe a559 863e 29af d93d 8faa 75be
00000310: f2cd e63d 848f 373d bc1e 04ba e8e0 ad3e
00000320: 2fcf f3bd dc74 1bbe a0cb 7a3e 9df0 adbd
00000330: b64c 8bbe 2ed2 84bd 92a1 40be 36f6 81be
00000340: 9d60 993e c85b 243e 76d8 c5be 1e1f a23e
00000350: 1261 5d3e e4a2 f8be c729 103e 9130 5c3e
00000360: 665c 443d b810 f6bb 7e7d 933d 6fef f3bd
00000370: a4b0 ec3d add4 fa3d c013 5dbc 2e9f b9bd
00000380: 5a45 53bd a0d8 15be c46a a33d 6903 a2ba
00000390: 5051 aebc 23ef 17be 3b8a 36be b21b 08be
000003a0: 57bd e93d cad0 063c d56d 1b3c 57cd c83c
000003b0: f4f5 8f3b 0a99 dfbd aa37 8a3d 5a4f ccbd
000003c0: dddd 8f3d 2afc 563c 8d4f a53d 9dbd 783e
000003d0: 9930 44bd 21ed 19bd 99e8 a13b 18ae 953e
000003e0: 5825 a33e f137 ddbd 6dbf 9cbe 592f d7be
000003f0: a95d c5bd 787b 68bd 08a7 3ebe 2c34 f6bd

encoder.encoder.0.0.bias f4 [64]
-0.054889124 0.055286687 -0.05829464 -0.07545252 0.11838837 -0.030339325 0.039944 0.10269491
-0.038366873 -0.017054351 0.024271121 0.09073594 -0.03794146 0.008667193 0.04314433 -0.09983102
0.09209451 -0.11129232 -0.028857075 0.0083198985 0.10670982 -0.037349463 0.010929 0.014844672
-0.0072803367 -0.0062696068 -0.07759371 -0.049649872 -0.02598802 0.12164951 0.10300263 -0.10650896
-0.06726671 -0.04830546 0.0086459955 0.06567781 -0.09674626 0.104672894 -0.03867157 2.606071e-05
0.050051056 -0.051863592 0.12064637 -0.08317507 -0.11323189 0.026963418 -0.098794 -0.0923018
-0.015248739 0.11417024 0.03884606 0.11737351 -0.025823012 0.08289049 0.080201276 -0.098915495
-0.0030935784 0.11151529 0.008827717 0.08724041 -0.05581758 0.107783966 -0.0076570413 0.037197184
00000000: 6bd3 60bd 4b74 623d 5cc6 6ebd da86 9abd
00000010: 9a75 f23d 2d8a f8bc 529c 233d b551 d23d
00000020: 9526 1dbd 91b5 8bbc 3bd4 c63c c4d3 b93d
00000030: 8168 1bbd d800 0e3c 1cb8 303d 3574 ccbd
00000040: 0c9c bc3d 3aed e3bd ac65 ecbc 2f50 083c
00000050: ae8a da3d c0fb 18bd 8c0f 333c 1137 733c
00000060: e48f eebb 4671 cdbb 73e9 9ebd aa5d 4bbd
00000070: d4e4 d4bc 6123 f93d 0bf3 d23d 5f21 dabd
00000080: 21c3 89bd f2db 45bd efa7 0d3c 1682 863d
00000090: e722 c6bd be5e d63d 1566 1ebd f39c da37
000000a0: 5602 4d3d eb6e 54bd 7215 f73d b157 aabd
000000b0: 1fe6 e7bd 63e2 dc3c 8254 cabd ba08 bdbd
000000c0: d9d5 79bc 16d2 e93d 0c1d 1f3d 8661 f03d
000000d0: c88a d3bc 7dc2 a93d 9140 a43d 3594 cabd
000000e0: a2bd 4abb 2162 e43d 21a2 103c 1aab b23d
000000f0: faa0 64bd d7bd dc3d ebe7 fabb 135c 183d

encoder.encoder.0.1.weight f4 [64]
0.39739332 0.2820982 0.07497629 0.2475085 0.44191438 0.3453757 0.35824305 0.39816177
0.28530595 0.46119407 0.4556938 0.4159928 0.43850145 0.3256909 0.28603345 0.18833928
0.38199332 0.37105146 0.100340925 0.4996991 0.55610317 0.3725542 0.112859234 0.70260847
0.4118971 0.1887899 0.351105 0.17976232 0.45450214 0.4856839 0.15507285 0.8514304
0.3429317 0.41448507 0.3544211 0.5861069 0.41030538 0.42407778 0.5423713 0.4274534
0.040162902 0.3439406 0.38578802 0.36438873 0.32470497 0.3272812 0.40720993 0.41690898
0.3873251 0.04280732 0.42490673 0.22579022 0.3703021 0.35957476 0.6418652 0.3838565
0.22861126 0.037261587 0.26792052 0.45653757 0.48702067 0.5010635 0.3171748 0.35140917
00000000: 2377 cb3e 2d6f 903e 2b8d 993d de72 7d3e
00000010: 9a42 e23e 15d5 b03e a26b b73e dcdb cb3e
00000020: 9f13 923e a121 ec3e b350 e93e 02fd d43e
00000030: 4383 e03e f5c0 a63e fa72 923e 03dc 403e
00000040: a194 c33e 75fa bd3e 8b7f cd3d 8fd8 ff3e
00000050: c75c 0e3f 6dbf be3e be22 e73d 26de 333f
00000060: 2de4 d23e 2452 413e 09c4 b33e 9d13 383e
00000070: 81b4 e83e 8fab f83e 6bcb 1e3e 58f7 593f
00000080: be94 af3e 6337 d43e af76 b53e 1a0b 163f
00000090: 8c13 d23e b920 d93e d8d8 0a3f 2cdb da3e
000000a0: db81 243d fb18 b03e 0286 c53e 2991 ba3e
000000b0: bb3f a63e 6791 a73e d27d d03e 1875 d53e
000000c0: 7a4f c63e ba56 2f3d 608d d93e 8d35 673e
000000d0: 3d98 bd3e 2f1a b83e 4751 243f d788 c43e
000000e0: 1219 6a3e 9b9f 183d e12c 893e 4bbf e93e
000000f0: c65a f93e b345 003f bc64 a23e e7eb b33e

encoder.encoder.0.1.bias f4 [64]
-0.0068670283 0.16741338 0.07349486 0.10263567 0.034154475 -0.11266748 0.0045347507 0.0960779
-0.24070072 -0.006773976 -0.11501778 0.22909455 0.23747486 -0.017767034 0.074964084 0.12280476
0.097220026 -0.05390879 -0.003951433 0.02622211 -0.26801133 0.06764225 0.04020071 -0.04072468
0.086037196 -0.10982404 -0.28290728 -0.122435816 -0.07418943 -0.37949952 -0.08063155 -0.3167797
-0.02869251 -0.031696085 -0.24279194 -0.5164575 -0.036670737 -0.28772852 -0.25031146 0.15428416
-0.034984425 -0.1004462 -0.16679715 0.17454854 0.21231829 -0.11114689 -0.0024099853 -0.08832214
-0.15981425 -0.029865794 0.015897786 0.043428116 0.062219974 0.25952503 -0.18582289 0.10647978
-0.052324068 0.032375623 -0.08481532 -0.18885733 -0.016853765 -0.18948738 -0.033621784 -0.22556707
00000000: cf04 e1bb 6a6e 2b3e 7984 963d a632 d23d
00000010: 90e5 0b3d 35be e6bd 3f98 943b 7dc4 c43d
00000020: 407a 76be 3bf8 ddbb 718e ebbd c397 6a3e
00000030: 9c2c 733e 2c8c 91bc c586 993d 1081 fb3d
00000040: 4b1b c73d 77cf 5cbd 067b 81bb c0cf d63c
00000050: c838 89be 0588 8a3d 80a9 243d ecce 26bd
00000060: 4534 b03d 6deb e0bd 39d9 90be a1bf fabd
00000070: a1f0 97bd c34d c2be 2722 a5bd f330 a2be
00000080: 8e0c ebbc c1d3 01bd 739e 78be 8f36 04bf
00000090: 0e34 16bd 2751 93be d328 80be abfc 1d3e
000000a0: d44b 0fbd bdb6 cdbd dfcc 2abe dabc 323e
000000b0: f769 593e fba0 e3bd d8f0 1dbb 3de2 b4bd
000000c0: 59a6 23be 1ca9 f4bc 133c 823c aee1 313d
000000d0: 5fda 7e3d 77e0 843e 5b48 3ebe 1212 da3d
000000e0: c351 56bd 4d9c 043d a8b3 adbd d163 41be
000000f0: e810 8abc fb08 42be ffb6 09bd 0efb 66be

encoder.encoder.0.1.running_mean f4 [64]
-0.049519096 0.033554945 -0.06980815 -0.17669994 0.099445224 -0.37338886 -0.0071444223 0.04890859
-0.1914121 -0.027187392 -0.08196359 0.14479093 -0.02568834 -0.15386915 0.06921267 -0.113530174
0.11882191 -0.11375344 -0.07877973 -0.024678627 0.27118254 0.023713486 -0.034080535 -0.02751049
0.004847084 -0.2633386 0.30232552 -0.040652726 -0.7329358 0.37716258 0.17654815 -0.35290253
-0.09706006 -0.011209717 -0.33980697 -0.48665297 -0.10497962 -0.03542762 -0.3694355 -0.028153121
0.19055997 -0.15459572 0.0027950548 -0.07990931 -0.09149688 0.18989815 -0.13049582 -0.06861728
-0.2252687 -0.33626005 0.0016334228 0.15977687 -0.13288233 0.39769974 -0.055420484 -0.12697002
-0.034628917 0.23916095 0.06544643 0.13826145 -0.07502889 0.42689893 0.6024436 -0.03151667
00000000: 89d4 4abd e970 093d 93f7 8ebd d4f0 34be
00000010: f0a9 cb3d d32c bfbe c21b eabb 6054 483d
00000020: 8901 44be 18b8 debc 87dc a7bd 1344 143e
00000030: 5b70 d2bc e08f 1dbe 5fbf 8d3d 8282 e8bd
00000040: e758 f33d 90f7 e8bd 4457 a1bd d52a cabc
00000050: 70d8 8a3e c942 c23c 0898 0bbd ae5d e1bc
00000060: 4ad4 9e3b 51d4 86be 69ca 9a3e 7983 26bd
00000070: aea1 3bbf 741b c13e 0ac9 343e a4af b4be
00000080: 6dc7 c6bd f6a8 37bc 2efb adbe 942a f9be
00000090: 8eff d6bd 8d1c 11bd a626 bdbe 60a1 e6bc
000000a0: 2722 433e 574e 1ebe 3d2d 373b 7ea7 a3bd
000000b0: b762 bbbd a974 423e b2a0 05be 3787 8cbd
000000c0: d7ac 66be 472a acbe 9318 d63a 8c9c 233e
000000d0: 4e12 08be 4d9f cb3e 9700 63bd 6e04 02be
000000e0: 0dd7 0dbd 9ce6 743e c708 863d 6994 0d3e
000000f0: bfa8 99bd 7f92 da3e be39 1a3f a017 01bd

encoder.encoder.0.1.running_var f4 [64]
0.8326479 0.3233978 0.04087615 0.3257495 0.06049283 1.0776484 0.14058359 0.7331153
0.16505884 0.24359639 0.27500203 1.3161224 0.94975245 0.3580905 0.1563378 0.2013462
0.2950183 0.18051681 0.034213427 0.14035624 1.9668056 0.9084542 0.10209685 1.3630508
0.9453812 0.63319606 0.51078707 0.051703762 1.6607981 0.7960171 0.052509643 1.3765019
0.13907532 0.1990406 1.3101469 0.76258546 0.06469393 0.5923762 1.2323394 0.9018782
0.31381884 0.23382181 0.1712228 0.43650386 0.47848788 0.2873661 0.44157916 0.16284664
0.6584449 1.7856447 0.16087633 0.0837918 0.9249597 1.1298664 0.95269954 0.16669507
0.23228113 0.1451269 0.14687781 0.48117277 1.0257823 0.61095375 1.3212942 0.112428874
00000000: 6a28 553f 6594 a53e c06d 273d a3c8 a63e
00000010: 54c7 773d 62f0 893f 25f5 0f3e 72ad 3b3f
00000020: 2f05 293e 5571 793e 11cd 8c3e b376 a83f
00000030: fa22 733f a357 b73e 0417 203e b32d 4e3e
00000040: a30c 973e 66d9 383e 6123 0c3d 8cb9 0f3e
00000050: 49c0 fb3f 7490 683f 2718 d13d 7378 ae3f
00000060: 8104 723f 2319 223f f1c2 023f 53c7 533d
00000070: 0895 d43f c7c7 4b3f 5a14 573d 3731 b03f
00000080: c369 0e3e 4dd1 4b3e e5b2 a73f cd38 433f
00000090: 407e 843d f7a5 173f 4cbd 9d3f 7de1 663f
000000a0: ddac a03e fc6e 6f3e 0855 2f3e 6f7d df3e
000000b0: 5dfc f43e a621 933e aa16 e23e 45c1 263e
000000c0: d88f 283f 0190 e43f c4bc 243e 099b ab3d
000000d0: 29ca 6c3f 769f 903f 1ee4 733f 1db2 2a3e
000000e0: 1bdb 6d3e 259c 143e 2367 163e 475c f63e
000000f0: d64c 833f 7767 1c3f 2b20 a93f 1c41 e63d

encoder.encoder.1.0.weight f4 [64, 64, 3, 3]
-0.07046705 -0.055090446 -0.04231545 -0.093169905 -0.08216552 -0.06382977 0.0006833856 -0.021172388
-0.07333159 0.008545988 -0.0016006286 -0.01780531 -0.030464003 -0.050171923 -0.06320531 -0.030921908
-0.06553013 -0.034379914 0.0014606239 0.002687733 -0.0041325404 -0.022852695 -0.002689774 -0.002319484
-0.0062998584 -0.01397992 0.007972168 -0.03898052 -0.023929363 -0.022294378 1.3656684e-05 -0.03655951
-0.021704929 0.07439018 0.055667654 0.013184571 0.09147314 0.0006695537 -0.051286366 0.0195715
-0.009359699 -0.04093491 0.018956386 -0.01647766 -0.03425532 0.10368186 0.08801801 0.08329442
0.032866172 0.03861157 -0.01056032 -0.016995752 -0.03677663 -0.057376277 0.082719415 0.025345508
0.014994439 -0.0014457034 -0.019710734 0.04195943 -0.02623385 0.021702297 0.062183343 0.004938328
-0.07995262 -0.06035795 -0.04778608 -0.09960577 -0.07705648 0.01324989 -0.039127808 -0.06803815
0.0452737 0.0073459707 0.007136475 -0.021638945 0.0016257616 -0.015879687 -0.024427693 -0.04251465
-0.030605182 -0.0020273796 0.0041751503 0.03219873 -0.0375168 -0.044916753 -0.016932547 -0.042655442
-0.022089925 0.003776138 0.044647433 0.00048568918 -0.029660922 0.0693547 -0.030283583 -0.04564684
0.06662027 -0.00392179 -0.04770359 -0.030531334 -0.040532984 -0.032104902 0.005319557 -0.0036773523
-0.005465087 0.090009384 0.09243716 0.04652136 -0.015369177 -0.07039014 -0.071679495 -0.033359494
-0.06862894 -0.06609428 0.027369358 0.0436428 0.03890277 0.018138293 0.038454432 -0.0034008431
-0.0006975089 -0.037342183 -0.030711094 -0.060698815 -0.04831282 -0.027831899 0.030721145 -0.0012657384
0.07021673 0.009653341 -0.0076606483 0.038979873 -0.013544652 -0.003190038 0.0001105032 -0.024390463
-0.007003053 -0.009723386 -0.028423918 -0.04584203 -0.04084933 -0.0384522 -0.06263814 -0.0025622675
0.0472372 0.09040235 0.10574363 -0.034507383 -0.061385114 -0.0005504178 -0.06832767 -0.11219394
-0.06573567 -0.015369518 -0.030210765 0.0029820823 -0.078171 -0.060723133 -0.057043646 -0.0021000651
-0.022590872 -0.05630593 -0.008061003 -0.026206871 -0.0103429165 0.017852195 -0.019589199 -0.022560423
-0.02739457 -0.019253636 0.014817452 -0.014061542 0.062301405 0.09163931 -0.033345196 -0.024632161
0.02630478 -0.050273325 -0.07339963 -0.04721693 0.08134394 0.08457298 0.07278818 0.0038452877
-0.015595959 -0.02678486 -0.093053706 -0.07347009 -0.08712213 -0.029434934 -0.015552839 0.0045084483
-0.102037154 -0.043231405 -0.01897442 -0.040436827 -0.05704967 -0.066508144 0.039321374 0.03843049
0.0023315584 0.009286586 0.008711016 -0.010320491 -0.024663579 -0.022704775 -0.040435597 0.07354441
0.09223093 0.031231588 -0.048892148 -0.05195361 -0.03184581 -0.09511151 -0.067467704 -0.02245242
0.019522844 -0.019394716 -0.09107159 -0.014742269 -0.08701518 -0.097340204 -0.09102171 -0.0601555
0.041517258 0.00097117026 0.027637439 -0.009793344 -0.021589063 0.02261178 -0.008376106 -0.005582307
0.0007130601 -0.036221795 -0.03686955 -0.0103632 -0.047967017 -0.008226605 -0.024048056 -0.04205047
-0.049805693 -0.042073656 -0.01953514 -0.023037499 -0.018594969 0.015221177 0.0013853213 0.0146106165
0.005559796 -0.01662115 -0.014608715 0.012738712 0.023689257 -0.046505403 -0.02271147 0.018022215
00000000: 0751 90bd 85a6 61bd f752 2dbd ddcf bebd
00000010: 6546 a8bd 2fb9 82bd 3b25 333a b771 adbc
00000020: df2e 96bd 7904 0c3c 2fcc d1ba 71dc 91bc
00000030: a58f f9bc 1381 4dbd c971 81bd f14f fdbc
00000040: a934 86bd f4d1 0cbd 6872 bf3a ad24 303b
00000050: 436a 87bb 9335 bbbc eb46 30bb 7c02 18bb
00000060: 0b6f cebb 090c 65bc b29d 023c 0aaa 1fbd
00000070: 8307 c4bc b3a2 b6bc 031f 6537 6dbf 15bd
00000080: 89ce b1bc e159 983d c403 643d 1904 583c
00000090: 4556 bb3d fd84 2f3a a711 52bd 6954 a03c
000000a0: 6c59 19bc 5dab 27bd 6c4a 9b3c 28fc 86bc
000000b0: 4e4f 0cbd 2857 d43d c942 b43d 4496 aa3d
000000c0: ae9e 063d 2a27 1e3d 3105 2dbc ad3a 8bbc
000000d0: 17a3 16bd 6303 6bbd cc68 a93d 62a1 cf3c
000000e0: 3cab 753c c27d bdba 6878 a1bc a7dd 2b3d
000000f0: 5fe8 d6bc 04c9 b13c f6b3 7e3d b3d1 a13b
00000100: 33be a3bd e639 77bd 56bb 43bd 1cfe cbbd
00000110: cacf 9dbd 1116 593c 7b44 20bd 9657 8bbd
00000120: ea70 393d 78b6 f03b 17d9 e93b 2844 b1bc
00000130: 8217 d53a 1e16 82bc 961c c8bc d723 2ebd
00000140: b8b7 fabc c9dd 04bb b3cf 883b d1e2 033d
00000150: 37ab 19bd a1fa 37bd 20b6 8abc 79b7 2ebd
00000160: eef5 b4bc 1579 773b 3ae0 363d 19a4 fe39
00000170: 76fb f2bc d609 8e3d 4715 f8bc 2ef8 3abd
00000180: 3570 883d 5c82 80bb d764 43bd d91c fabc
00000190: ea05 26bd 6e80 03bd ae4f ae3b bcff 70bb
000001a0: 7914 b3bb d756 b83d b24f bd3d 2e8d 3e3d
000001b0: 00cf 7bbc b528 90bd b3cc 92bd f7a3 08bd
000001c0: 548d 8cbd 705c 87bd b435 e03c cbc2 323d
000001d0: 8358 1f3d c296 943c 6582 1d3d aee0 5ebb
000001e0: 08d9 36ba 1ef4 18bd d595 fbbc 529f 78bd
000001f0: aae3 45bd b9ff e3bc e9aa fb3c 22e7 a5ba
00000200: cacd 8f3d 0c29 1e3c 2d06 fbbb 5ca9 1f3d
00000210: 63ea 5dbc f50f 51bb f4bd e738 82ce c7bc
00000220: de79 e5bb d64e 1fbc 47d9 e8bc dac4 3bbd
00000230: a151 27bd 0e80 1dbd 6d48 80bd b7eb 27bb
00000240: cb7b 413d de24 b93d 1e90 d83d 9d57 0dbd
00000250: f56e 7bbd ea49 10ba 61ef 8bbd f0c5 e5bd
00000260: 6ca0 86bd 6ed0 7bbc 917c f7bc 0a6f 433b
00000270: 1e18 a0bd d2b8 78bd 99a6 69bd 3fa1 09bb
00000280: 7e10 b9bc 0ca1 66bd 4c12 04bc cbaf d6bc
00000290: 5675 29bc c43e 923c 8779 a0bc a3d0 b8bc
000002a0: 946a e0bc cdb9 9dbc e6c4 723c 6262 66bc
000002b0: c22f 7f3d 64ad bb3d f994 08bd 63c9 c9bc
000002c0: 1f7d d73c 67eb 4dbd 8c52 96bd 8a66 41bd
000002d0: a797 a63d 9934 ad3d f811 953d 3901 7c3b
000002e0: 3186 7fbc ec6b dbbc f192 bebd 7d77 96bd
000002f0: 166d b2bd 8821 f1bc 56d1 7ebc 9bbb 933b
00000300: dbf8 d0bd 6a13 31bd 3e70 9bbc 16a1 25bd
00000310: eaac 69bd 6c35 88bd 730f 213d 4a69 1d3d
00000320: 0fcd 183b c426 183c a6b8 0e3c 4717 29bc
00000330: 460b cabc 5dff b9bc cc9f 25bd 749e 963d
00000340: 92e3 bc3d 63d9 ff3c 2243 48bd 4fcd 54bd
00000350: c170 02bd d3c9 c2bd 822c 8abd 23ee b7bc
00000360: 5fee 9f3c abe1 9ebc be83 babd 8f89 71bc
00000370: 0435 b2bd 4d5a c7bd 9769 babd 9d65 76bd
00000380: 000e 2a3d 2296 7e3a e967 e23c 4374 20bc
00000390: 8cdb b0bc 573c b93c ef3b 09bc c9eb b6bb
000003a0: a7ec 3a3a 4e5d 14bd 8604 17bd 69ca 29bc
000003b0: 1079 44bd e2c8 06bc 6e00 c5bc 1d3d 2cbd
000003c0: 0e01 4cbd 6d55 2cbd 2808 a0bc 23b9 bcbc
000003d0: 7a54 98bc 3e62 793c ab93 b53a 5e61 6f3c
000003e0: f32e b63b 1429 88bc 6459 6fbc 08b6 503c
000003f0: f90f c23c 737c 3ebd 680d babc 53a3 933c

encoder.encoder.1.0.bias f4 [64]
-0.012889036 -0.02111168 -0.02492401 0.023766434 0.009192624 -0.025436394 0.018665053 -0.0004975437
0.022679431 0.008799085 0.024427673 0.025448935 -0.0073620556 0.014373479 -0.022635726 0.022710757
-0.025206378 0.017158927 0.0120712435 -0.0066195554 0.006283146 -0.0026610862 0.025910823 0.0052669807
0.009926114 -0.025197148 0.02008455 0.02521849 -0.0149634695 -0.005005498 -0.014788971 0.0017158978
-0.0136696985 -0.013597583 -0.016902763 -0.021134008 0.024137076 0.017605165 0.021717306 -0.019717712
0.0003597982 0.009596092 0.018544542 0.015087526 -0.02190656 -0.003798238 -0.012813429 -0.0013951903
-0.022741735 0.019757442 0.021745773 0.019783113 -0.014063344 0.012856212 -0.019493427 0.021882573
-0.01221351 -0.017504541 -0.023341343 -0.004429472 -0.023624863 -0.0006689693 0.019921511 0.021495186
00000000: 892c 53bc 67f2 acbc 702d ccbc d3b1 c23c
00000010: a99c 163c fc5f d0bc 74e7 983c 986d 02ba
00000020: 37ca b93c 0a2a 103c 8b1c c83c 497a d03c
00000030: 663d f1bb be7e 6b3c 8f6e b9bc e90b ba3c
00000040: 9b7d cebc e190 8c3c 77c6 453c dbe8 d8bb
00000050: d9e2 cd3b 9e65 2ebb ef42 d43c a396 ac3b
00000060: 24a1 223c 406a cebc 5b88 a43c 0297 ce3c
00000070: 5729 75bc 2905 a4bb 714d 72bc fae7 e03a
00000080: dff6 5fbc 66c8 5ebc aa77 8abc 3a21 adbc
00000090: 1ebb c53c b538 903c 7ee8 b13c 0a87 a1bc
000000a0: 4ca3 bc39 ed38 1d3c b9ea 973c ac31 773c
000000b0: 6375 b3bc dceb 78bb 6bef 51bc d1de b6ba
000000c0: e04c babc 5cda a13c 3124 b23c 3210 a23c
000000d0: f169 66bc dda2 523c aeb0 9fbc 1543 b33c
000000e0: 2d1b 48bc af65 8fbc 5836 bfbc 1b25 91bb
000000f0: ee88 c1bc c55d 2fba 7032 a33c ac16 b03c

encoder.encoder.1.1.weight f4 [64]
0.53937453 0.4326858 0.46040902 0.44280714 0.3624184 0.5852276 0.0004812204 0.4196117
0.32513705 0.6124618 0.34856635 0.41583085 0.5163108 0.45403615 0.52368724 0.49870092
0.28853592 0.37059498 0.34132087 0.36625156 0.52400964 0.4005829 0.5358543 0.40599364
0.44446552 0.5559381 0.3983937 0.39726618 0.2646478 0.429568 0.42183575 0.67993826
0.32255813 0.45830074 0.5233025 0.40259492 0.35482103 0.4453456 0.5043688 0.39012843
0.46884593 9.75943e-05 0.4297705 0.45338288 0.3062047 0.39647746 0.30943114 0.5139301
0.6165004 0.30210975 0.62580967 0.30400378 0.31408024 0.38716894 0.44907704 0.29359648
0.30216426 0.5601076 0.5273637 0.21635222 0.39599368 0.3922801 0.50422823 0.29946646
00000000: 7314 0a3f fe88 dd3e bbba eb3e 9eb7 e23e
00000010: e88e b93e 7ad1 153f 4f4c fc39 58d7 d63e
00000020: 5d78 a63e 4cca 1c3f 4a77 b23e c8e7 d43e
00000030: f22c 043f 6d77 e83e 5e10 063f ba55 ff3e
00000040: fbba 933e a0be bd3e 9cc1 ae3e 5385 bb3e
00000050: 7f25 063f 3419 cd3e bf2d 093f 66de cf3e
00000060: fc90 e33e f651 0e3f 42fa cb3e 7966 cb3e
00000070: eb7f 873e 56f0 db3e dbfa d73e 6f10 2e3f
00000080: 5726 a53e 65a6 ea3e 27f7 053f ec20 ce3e
00000090: 1aab b53e 5704 e43e 501e 013f eabe c73e
000000a0: 930c f03e 8aab cc38 e10a dc3e cd21 e83e
000000b0: ddc6 9c3e 18ff ca3e c26d 9e3e ec90 033f
000000c0: f8d2 1d3f 21ae 9a3e 1035 203f 62a6 9b3e
000000d0: 20cf a03e 023b c63e 6ded e53e 4752 963e
000000e0: 46b5 9a3e 3663 0f3f 4f01 073f 708b 5d3e
000000f0: afbf ca3e f0d8 c83e 1a15 013f ab53 993e

encoder.encoder.1.1.bias f4 [64]
-0.25056744 -0.28248182 -0.19584836 -0.21833068 -0.08479029 -0.35512903 -0.0059965965 -0.2927676
-0.13401717 -0.32267383 -0.15106529 -0.33388042 -0.33079994 -0.2183115 -0.32583317 -0.13749509
-4.58453e-05 -0.11397475 -0.24306 -0.23852496 -0.2838203 -0.14332277 -0.4382166 -0.2600706
-0.62946653 -0.38997167 -0.21667992 -0.2625531 -0.17413013 -0.32541496 -0.2977423 -0.38968453
-0.17486928 -0.20545961 -0.2908426 -0.14343573 -0.22973889 -0.22869383 -0.3164672 -0.113102995
-0.34930754 -0.0012738442 -0.31092334 -0.28305972 -0.12702592 -0.25919712 -0.16117145 -0.28349793
-0.4500049 -0.2557307 -0.33852223 -0.14866537 -0.25470656 -0.21574435 -0.36069086 -0.16416533
-0.052454777 -0.2599942 -0.29856557 -0.025875704 -0.18374786 -0.26418787 -0.45596665 -0.09093688
00000000: 604a 80be 75a1 90be 798c 48be 1492 5fbe
00000010: 88a6 adbd 79d3 b5be 197f c4bb a3e5 95be
00000020: cc3b 09be 8135 a5be dcb0 1abe 60f2 aabe
00000030: 9c5e a9be 0d8d 5fbe 9bd3 a6be 83cb 0cbe
00000040: 044a 40b8 986b e9bd b8e4 78be e33f 74be
00000050: e550 91be 34c3 12be ed5d e0be f927 85be
00000060: b824 21bf 5eaa c7be 57e1 5dbe 5c6d 86be
00000070: 2b4f 32be ca9c a6be ae71 98be bb84 c7be
00000080: ef10 33be 0164 52be 52e9 94be d1e0 12be
00000090: ac40 6bbe b72e 6abe fd07 a2be 8ba2 e7bd
000000a0: 70d8 b2be 1ef7 a6ba 5831 9fbe 34ed 90be
000000b0: 1513 02be 7cb5 84be 210a 25be a426 91be
000000c0: 0b67 e6be 22ef 82be c952 adbe bc3b 18be
000000d0: e668 82be 16ec 5cbe 79ac b8be f51a 28be
000000e0: d2da 56bd f61d 85be 96dd 98be 49f9 d3bc
000000f0: 6628 3cbe a243 87be 7674 e9be 1d3d babd

encoder.encoder.1.1.running_mean f4 [64]
-1.1598947 -0.24116814 -0.79521024 -0.9267241 -1.001141 -1.6315725 -0.0023016392 -0.22507831
-0.65809107 -1.3027601 -0.6085756 -0.20720232 -0.6875537 -0.4959609 -1.3823066 -0.7704315
-0.7903944 -0.7569243 -0.0875824 0.061255503 -1.1268218 -1.47422 -0.79216987 -1.011466
0.987198 -0.9489884 -0.5610471 -0.35294536 1.0446748 -0.73563766 0.101287365 -2.4899068
0.02453417 -0.69967574 -0.89655733 -1.0618289 -0.28560373 -0.89737844 -1.0662616 -0.6093088
-0.8600496 -0.09712279 -0.34327176 -0.29443008 -0.034381308 -0.62606794 -0.1689679 -1.5743753
-1.158871 0.3326913 -1.1094012 0.011793018 0.40381318 -0.35600793 -0.57189757 -0.2863955
-0.38250673 -0.8049308 -1.3198143 -0.08893189 -0.4964508 -0.4197694 -0.39679745 -0.06871648
00000000: 6e77 94bf c8f4 76be e692 4bbf ca3d 6dbf
00000010: 6325 80bf 5ed7 d0bf 19d7 16bb ee7a 66be
00000020: a878 28bf d8c0 a6bf 9ccb 1bbf d82c 54be
00000030: 8503 30bf 96ee fdbe 6cef b0bf 003b 45bf
00000040: 4a57 4abf cac5 41bf 675e b3bd 0de7 7a3d
00000050: b23b 90bf 3eb3 bcbf a5cb 4abf b877 81bf
00000060: 02b9 7c3f e7f0 72bf c8a0 0fbf 41b5 b4be
00000070: e7b7 853f c052 3cbf c06f cf3d a25a 1fc0
00000080: e2fb c83c f31d 33bf c884 65bf 02ea 87bf
00000090: a73a 92be 98ba 65bf 437b 88bf a9fb 1bbf
000000a0: 362c 5cbf 50e8 c6bd 51c1 afbe 8abf 96be
000000b0: 6ad3 0cbd fd45 20bf ec05 2dbe 2185 c9bf
000000c0: e355 94bf 8456 aa3e dc00 8ebf 8137 413c
000000d0: 9ac0 ce3e ac46 b6be e167 12bf 6ea2 92be
000000e0: ecd7 c3be f20f 4ebf adef a8bf ec21 b6bd
000000f0: cd2e febe 04ec d6be 0929 cbbe 3abb 8cbd

encoder.encoder.1.1.running_var f4 [64]
0.77226263 0.29972246 0.65045893 0.61056244 0.87333435 1.1329125 0.006960666 0.6577362
0.48757344 0.98101014 0.40507925 0.39959285 0.53436255 0.4458029 0.58046126 0.499251
0.5503343 0.9092666 0.2615195 0.41760367 1.0154479 0.855497 0.9339215 0.50102484
0.43622577 0.6217146 0.4527056 0.4607383 0.9130204 0.6813856 0.36430496 2.0227513
0.28858516 0.67482275 0.62857074 0.9225628 0.4672814 0.36803332 0.7387395 0.13968343
0.5666108 0.011636389 0.41244322 0.3195813 0.1354785 0.42187923 0.11700955 1.0409513
1.1319957 0.17044927 1.3415151 0.23311453 0.18647961 0.4044018 0.5585754 0.25512084
0.23790331 1.181881 1.0637295 0.03722415 0.46678 0.50208586 0.3011465 0.45302513
00000000: 01b3 453f 3975 993e 7a84 263f d24d 1c3f
00000010: d792 5f3f 4703 913f 4c16 e43b 6661 283f
00000020: 3aa3 f93e 7b23 7b3f 8c66 cf3e 6f97 cc3e
00000030: fccb 083f 4740 e43e 1c99 143f d49d ff3e
00000040: b5e2 0c3f b2c5 683f e2e5 853e 26d0 d53e
00000050: 32fa 813f da01 5b3f 7b15 6f3f 2a43 003f
00000060: fc58 df3e b028 1f3f 07c9 e73e e4e5 eb3e
00000070: b4bb 693f 496f 2e3f 2e86 ba3e c274 0140
00000080: 6fc1 933e 2fc1 2c3f 03ea 203f 132d 6c3f
00000090: 823f ef3e dd6e bc3e 081e 3d3f 2c09 0f3e
000000a0: 680d 113f 8ea6 3e3c c22b d33e 29a0 a33e
000000b0: e0ba 0a3e 8e00 d83e b4a2 ef3d e43d 853f
000000c0: 3ce5 903f 418a 2e3e c4b6 ab3f 93b5 6e3e
000000d0: 83f4 3e3e c10d cf3e ccfe 0e3f 339f 823e
000000e0: ed9c 733e e047 973f 4a28 883f 5a78 183d
000000f0: cafd ee3e b388 003f e02f 9a3e e9f2 e73e

encoder.encoder.2.0.weight f4 [64, 64, 3, 3]
-0.009238363 0.005372522 0.01834107 -0.0022687477 0.037787806 0.018735785 0.02231014 0.047204047
-0.027053721 -0.04233557 -0.000313044 0.045858376 -0.01716843 0.034903295 0.029844223 -0.00668277
0.037621386 -0.05706991 0.035316654 -0.082510926 -0.10423298 0.06203646 0.011904021 -0.076965645
-0.040658478 0.02200315 0.030413328 0.081400156 0.05878588 0.055576652 0.075896375 0.0539117
-0.019048374 0.041610822 0.0346585 -0.032234743 0.040249016 0.030636454 0.08090091 0.017697431
0.0020364611 0.10160194 0.043034486 0.034253325 0.021912506 0.0021308123 0.0154480655 0.04509714
-0.0031964 -9.825682e-06 0.01711659 0.024220422 0.022092694 -0.012527833 -0.012726744 -0.019543916
-0.004505214 -0.007749384 0.008575699 -0.022674624 0.020202242 -0.010746357 -0.019264597 -0.056421246
0.012246465 0.014015907 -0.008239056 0.018272841 0.025972465 0.03293964 0.049108397 0.039702114
0.039349973 0.015481069 0.032982264 0.020253872 -0.0061863684 -0.0042332173 -0.0011951608 0.0056139696
-0.034733772 -0.037346203 -0.026293237 -0.030207846 -0.06986949 -0.078411594 -0.029639818 0.0041202875
-0.027279397 -0.06903876 0.016294159 -0.004200959 0.016892089 -0.0008414582 -0.029964054 -0.086602375
0.025175175 -0.02638788 -0.04520378 -0.0032578239 -0.07587673 -0.0060266214 0.013324373 0.0013867918
-0.009243194 0.048441783 0.05636616 -0.05391032 0.04200619 -0.0025012377 0.030329106 0.041783698
0.009869634 -0.018462036 -0.021963963 -0.0027531283 -0.051514138 -0.017716488 -0.080855906 -0.07982056
-0.020108776 -0.043274328 -0.037003513 -0.018640898 -0.025727514 -0.02739155 -0.020191727 -0.0036216367
-0.007694581 -0.012129988 0.0027043114 -0.038327847 -0.01056977 -0.051490646 -0.06831384 -0.044668566
-0.09900526 -0.102666914 -0.011698751 -0.07113001 -0.083024964 -0.03644063 -0.058854755 -0.102310054
-0.0023885148 -0.09235072 0.0013924465 0.0004561256 0.024347946 0.010982308 0.05508179 0.034867145
-0.029328551 0.13412099 0.035247725 0.0021754543 0.050978743 0.06879751 -0.013786222 -0.017713765
-0.029599488 -0.02021775 0.050209902 0.06347576 -0.02349036 0.014767496 0.07292563 0.0206642
0.0104538 0.019940717 0.05404348 -0.03232289 -0.027583018 0.008513053 -0.017986728 -0.056775454
0.024580346 0.027501708 -0.007589268 -0.046148013 -0.051746335 -0.033089027 -0.07106195 -0.08671301
-0.10818925 -0.013007611 0.06126833 -0.007268635 -0.0049586794 -0.028887987 -0.018292237 0.07627634
-0.012672409 0.017423363 0.025634434 -0.04391269 -0.031439867 -0.006520946 0.06307287 0.061470024
-0.0046839546 -0.02901296 -0.011404268 -0.06446244 -0.06363394 -0.055411026 -0.086206645 -0.008632007
-0.037750356 -0.025562005 0.013267642 -0.05446455 -0.044351485 -5.0740193e-05 0.002432914 -0.056910787
-0.055783592 -0.060925078 0.012995908 -0.025632387 -0.029234637 -0.013565528 0.028173683 0.0054926714
-0.09972208 -0.018560896 -0.019800033 -0.010989361 0.015862202 0.093264684 0.021442275 0.07490743
0.041281715 0.035374507 -0.029661635 -0.043476395 -0.039055407 0.042888083 0.0621058 -0.023761936
0.11102687 0.010901465 -0.040847603 -0.0232274 -0.047860608 -0.05314783 0.018497268 0.010931865
-0.08153295 0.06364231 -0.002805314 -0.061531466 0.045653578 -0.054685272 -0.084551185 0.03268129
00000000: 815c 17bc fb0b b03b 0340 963c 45af 14bb
00000010: 63c7 1a3d ca7b 993c c1c3 b63c 0859 413d
00000020: c49f ddbc 1068 2dbd 0e20 a4b9 fed5 3b3d
00000030: cfa4 8cbc c2f6 0e3d df7b f43c 23fb dabb
00000040: e218 1a3d 23c2 69bd 32a8 103d 7dfb a8bd
00000050: 1a78 d5bd f119 7e3d 1509 433c 2aa0 9dbd
00000060: 8189 26bd f33f b43c 5f25 f93c 20b5 a63d
00000070: 77c9 703d 58a4 633d 8f6f 9b3d 84d2 5c3d
00000080: 560b 9cbc 1c70 2a3d 12f6 0d3d 9408 04bd
00000090: 27dc 243d 4df9 fa3c 60af a53d 34fa 903c
000000a0: 2676 053b ae14 d03d ee44 303d 374d 0c3d
000000b0: db81 b33c 19a5 0b3b e219 7d3c c7b7 383d
000000c0: b17a 51bb fcd8 24b7 1738 8c3c e869 c63c
000000d0: bdfb b43c 8a41 4dbc d583 50bc 901a a0bc
000000e0: 79a0 93bb 8bee fdbb 1781 0c3c 22c0 b9bc
000000f0: 2c7f a53c 7d11 30bc cad0 9dbc f719 67bd
00000100: 66a5 483c faa2 653c 1bfd 06bc edb0 953c
00000110: 35c4 d43c b7eb 063d e325 493d af9e 223d
00000120: 702d 213d 4fa4 7d3c 6918 073d 73eb a53c
00000130: 05b7 cabb cdb6 8abb f1a6 9cba 64f5 b73b
00000140: 0045 0ebd 55f8 18bd ea64 d7bc 7276 f7bc
00000150: bc17 8fbd 4296 a0bd 34cf f2bc 7a03 873b
00000160: 0b79 dfbc 3264 8dbd 547b 853c 33a8 89bb
00000170: 4761 8a3c 4e95 5cba 2d77 f5bc 965c b1bd
00000180: 2b3c ce3c 652b d8bc 9927 39bd 3781 55bb
00000190: 4265 9bbd f77a c5bb 794e 5a3c 03c5 b53a
000001a0: c470 17bc e46a 463d 34e0 663d 11d1 5cbd
000001b0: af0e 2c3d ceeb 23bb bf74 f83c 6225 2b3d
000001c0: 3fb4 213c b23d 97bc c5ed b3bc d46d 34bb
000001d0: 7d00 53bd 2b22 91bc c897 a5bd f678 a3bd
000001e0: 29bb a4bc 6c40 31bd ff90 17bd ccb4 98bc
000001f0: 82c2 d2bc 3e64 e0bc 1f69 a5bc fb58 6dbb
00000200: d322 fcbb dbbc 46bc d13a 313b a9fd 1cbd
00000210: d42c 2dbc dbe7 52bd 20e8 8bbd 63f6 36bd
00000220: 45c3 cabd 0843 d2bd 1eac 3fbc 9cac 91bd
00000230: fe08 aabd c542 15bd af11 71bd ef87 d1bd
00000240: a188 1cbb 6022 bdbd c082 b63a 2424 ef39
00000250: 5875 c73c 23ef 333c 719d 613d dad0 0e3d
00000260: 6e42 f0bc 0357 093e eb5f 103d 1192 0e3b
00000270: 16cf 503d b5e5 8c3d 9bdf 61bc 751c 91bc
00000280: a07a f2bc b29f a5bc e6a8 4d3d 94ff 813d
00000290: db6e c0bc 5ef3 713c 085a 953d f847 a93c
000002a0: 6a46 2b3c b75a a33c b25c 5d3d 0265 04bd
000002b0: c8f5 e1bc 557a 0b3c e758 93bc 618d 68bd
000002c0: b95c c93c 434b e13c 65af f8bb b305 3dbd
000002d0: f7f3 53bd 5c88 07bd ed88 91bd 9796 b1bd
000002e0: 5392 ddbd e01d 55bc 80f4 7a3d bb2d eebb
000002f0: 6b7c a2bb 80a6 ecbc 9ad9 95bc c536 9c3d
00000300: f09f 4fbc 71bb 8e3c 4eff d13c cbdd 33bd
00000310: 17c7 00bd a9ad d5bb 592c 813d fec7 7b3d
00000320: dc7b 99bb 96ac edbc f8d8 3abc e204 84bd
00000330: 8352 82bd acf6 62bd 1c8d b0bd 436d 0dbc
00000340: 1ea0 1abd 6967 d1bc 8660 593c 3816 5fbd
00000350: e7a9 35bd ded1 54b8 8671 1f3b 491b 69bd
00000360: 567d 64bd 938c 79bd caec 543c 03fb d1bc
00000370: 7a7d efbc f341 5ebc 7fcc e63c defb b33b
00000380: 173b ccbd 050d 98bc ae33 a2bc b90c 34bc
00000390: 73f1 813c 8e01 bf3d b6a7 af3c 1169 993d
000003a0: 0417 293d dce4 103d f5fc f2bc 4e14 32bd
000003b0: 90f8 1fbd 6aab 2f3d a762 7e3d 64a8 c2bc
000003c0: 0e62 e33d 0f9c 323c d14f 27bd 6347 bebc
000003d0: 7c09 44bd 8ab1 59bd 9587 973c 911b 333c
000003e0: bffa a6bd e656 823d 5cd9 37bb 6b08 7cbd
000003f0: 3fff 3a3d aafd 5fbd 2c29 adbd d1dc 053d

encoder.encoder.2.0.bias f4 [64]
-0.021179756 0.026506968 -0.008060785 -0.013290108 -0.011878234 -0.026201308 0.010518726 0.009589759
-0.018606436 -0.025239673 -0.0056501324 -0.019269764 0.010384755 -0.022681784 0.0040787095 0.01666156
-0.020400492 -0.015215391 -0.0019709493 0.009600469 0.022280617 -0.008633453 0.0033044014 -0.02429081
0.008017385 -0.0053570084 0.014375689 0.019402338 0.023336524 0.014739013 -0.010731236 0.004643311
0.013909076 0.0067605698 -0.010495459 0.005242813 0.012129069 -0.025662165 0.008642968 -0.0034927393
0.00014027956 -0.013950237 0.023289617 -0.018205646 -0.007673868 -0.022000862 -0.017485267 0.0017446933
-0.0030907192 0.020716444 0.019472592 -0.011546223 0.016858699 0.026444174 0.016413687 -0.007876513
-0.012825927 -0.023085136 -0.019977173 0.023006108 -0.004389573 0.005770703 0.0019232435 -0.020638656
00000000: 2b81 adbc 2425 d93c 6211 04bc c1be 59bc
00000010: ed9c 42bc 20a4 d6bc bc56 2c3c 5d1e 1d3c
00000020: 866c 98bc 6ec3 cebc bf24 b9bb a0db 9dbc
00000030: d224 2a3c 26cf b9bc b2a6 853b d37d 883c
00000040: ef1e a7bc fa49 79bc 0b2b 01bb 494b 1d3c
00000050: d785 b63c 5473 0dbc a88e 583b 85fd c6bc
00000060: 5a5b 033c d889 afbb 0388 6b3c a7f1 9e3c
00000070: 3d2c bf3c e77b 713c 11d2 2fbc ea26 983b
00000080: e5e2 633c c587 dd3b 25f5 2bbc e7cb ab3b
00000090: 01b9 463c 7639 d2bc 3c9b 0d3c 71e6 64bb
000000a0: 0218 1339 898f 64bc dec9 be3c 0224 95bc
000000b0: 1275 fbbb 273b b4bc 433d 8fbc 31ae e43a
000000c0: aa8d 4abb 88b5 a93c fc84 9f3c 5f2c 3dbc
000000d0: 411b 8a3c 74a1 d83c ff75 863c 7d0c 01bc
000000e0: d623 52bc 0a1d bdbc 2ba7 a3bc 4e77 bc3c
000000f0: 68d6 8fbb 2a18 bd3b 5815 fc3a 6612 a9bc

encoder.encoder.2.1.weight f4 [64]
0.33666092 0.29020098 0.5227427 0.4309732 0.2665165 0.34970322 0.5041923 0.26941693
0.26876977 0.35607836 0.43619058 0.0004889347 0.39816323 0.42322227 0.64370966 0.46573058
0.39363632 0.42447194 0.44411662 0.52657807 0.5927213 0.26073337 0.5932788 0.5486834
0.36061814 0.5349016 0.44621217 0.59461135 0.50861084 0.77576727 0.34487584 0.22213672
0.33141637 0.4236955 0.33325726 0.4522438 0.4893736 0.4049507 0.4884207 0.45119104
0.34856376 0.40380272 0.3721915 0.41134655 0.40131116 0.33755612 0.22689414 0.29248124
0.22634156 0.32666036 0.00038344463 0.41787076 0.21535341 0.47584116 0.39082024 0.4664433
0.38787168 0.3043286 0.41881466 0.38092086 0.44013327 0.37862024 0.29926395 0.38400665
00000000: d25e ac3e 3995 943e 77d2 053f 85a8 dc3e
00000010: da74 883e 4d0c b33e bf12 013f 04f1 893e
00000020: 319c 893e e74f b63e 5f54 df3e da2b 003a
00000030: 0ddc cb3e 97b0 d83e 28ca 243f 3d74 ee3e
00000040: b38a c93e 6354 d93e 4163 e33e d2cd 063f
00000050: 95bc 173f d87e 853e 1fe1 173f 8476 0c3f
00000060: f1a2 b83e 50ef 083f ec75 e43e 7338 183f
00000070: 5234 023f af98 463f 9193 b03e cf77 633e
00000080: 68af a93e 9eee d83e b2a0 aa3e 808c e73e
00000090: 2d8f fa3e b355 cf3e 4712 fa3e 8302 e73e
000000a0: f376 b23e 3bbf ce3e e28f be3e 049c d23e
000000b0: a878 cd3e 28d4 ac3e f056 683e 1ac0 953e
000000c0: 15c6 673e 0740 a73e 1109 c939 28f3 d53e
000000d0: 9b85 5c3e 74a1 f33e 9719 c83e a8d1 ee3e
000000e0: 1e97 c63e f5d0 9b3e e06e d63e 0f08 c33e
000000f0: 2659 e13e 83da c13e 2039 993e 859c c43e

encoder.encoder.2.1.bias f4 [64]
-0.31951335 -0.20549436 -0.5733371 -0.53781486 -0.21929154 -0.24412872 -0.49265027 -0.1639475
-0.19800453 -0.16324402 -0.47522435 -0.009304905 -0.40981516 -0.35404474 -0.694018 -0.47401142
-0.36395565 -0.40238276 -0.38259783 -0.4097145 -0.5841205 -0.14241505 -0.44772133 -0.4878817
-0.35906112 -0.5362372 -0.41488203 -0.68710864 -0.58676213 -1.0110794 -0.33816597 -0.14432842
-0.18333001 -0.34716246 -0.1409445 -0.34509662 -0.55643606 -0.38075945 -0.38317585 -0.34879926
-0.20875211 -0.38135463 -0.28956503 -0.38217297 -0.41109088 -0.35686073 -0.18307161 -0.3626839
-0.18354568 -0.2584872 -0.005584385 -0.2563582 0.023247225 -0.360361 -0.23671882 -0.30681318
-0.2879494 -0.09922536 -0.3454321 -0.2888307 -0.43166852 -0.24763334 -0.20069182 -0.48915562
00000000: 4197 a3be 1d6d 52be 38c6 12bf 3cae 09bf
00000010: f68d 60be e1fc 79be a83c fcbe dae1 27be
00000020: b3c1 4abe 7129 27be 9b50 f3be 9a73 18bc
00000030: 4bd3 d1be 5a45 b5be 2aab 31bf a0b1 f2be
00000040: 6558 babe 1d05 cebe dde3 c3be 19c6 d1be
00000050: ec88 15bf 40d5 11be bb3b e5be a1cb f9be
00000060: dcd6 b7be d746 09bf 6b6b d4be 5ae6 2fbf
00000070: 0b36 16bf 0d6b 81bf 1724 adbe d4ca 13be
00000080: ddba 3bbe 47bf b1be c153 10be 81b0 b0be
00000090: 9872 0ebf e7f2 c2be a02f c4be d195 b2be
000000a0: 1dc3 55be ea40 c3be de41 94be 2dac c3be
000000b0: 817a d2be 73b6 b6be 2077 3bbe b4b1 b9be
000000c0: 66f3 3bbe 6f58 84be 37fd b6bb 6241 83be
000000d0: f770 be3c 3d81 b8be 6b66 72be 9e16 9dbe
000000e0: 1b6e 93be aa36 cbbd 7adc b0be 9ee1 93be
000000f0: a803 ddbe 9893 7dbe 2882 4dbe 9b72 fabe

encoder.encoder.2.1.running_mean f4 [64]
-0.17103697 -0.09123043 -0.41357142 -0.2380155 -0.21881795 -0.11769773 -0.39788717 -0.13228554
0.036167286 -0.48151347 -0.060122922 -0.083629735 -0.23283839 -0.6387538 -0.6235459 -0.4382793
-0.19096592 -0.47487828 -0.070249006 -0.89413875 -0.69004536 -0.14293008 -0.5290973 -0.54798526
-0.12067442 -0.59275174 -0.44635892 -0.44604492 -0.44245958 -0.395908 0.0006779981 0.31817645
-0.409019 -0.31091994 -0.46019027 -0.33074978 -0.32374445 -0.31333327 -0.33314943 -0.53840023
-0.31225073 -0.38922274 -0.48470262 0.24154428 -0.37633738 -0.32111505 0.09230264 0.28351113
-0.168283 -0.1254887 0.02542327 -0.43417627 -0.1597167 -0.5578085 -0.7981858 -0.51588064
-0.4363928 -0.3656649 -0.40256396 -0.32418677 -0.5661599 -0.27898315 0.0060629756 -0.14579867
00000000: 5124 2fbe 05d7 babd a2bf d3be 56ba 73be
00000010: d011 60be 820b f1bd deb7 cbbe dc75 07be
00000020: 2624 143d ef88 f6be 7443 76bd 1146 abbd
00000030: 306d 6ebe 5e85 23bf b4a0 1fbf 2566 e0be
00000040: 928c 43be 3f23 f3be b6de 8fbd 47e6 64bf
00000050: d0a6 30bf 435c 12be ec72 07bf c348 0cbf
00000060: 2624 f7bd 94be 17bf 2889 e4be 0060 e4be
00000070: 108a e2be 74b4 cabe afbb 313a 06e8 a23e
00000080: f06a d1be e630 9fbe 0f9e ebbe 0958 a9be
00000090: d5c1 a5be 386d a0be 9092 aabe 99d4 09bf
000000a0: 54df 9fbe 3448 c7be f12a f8be 6257 773e
000000b0: 4baf c0be 3169 a4be 2b09 bd3d 5f28 913e
000000c0: 6152 2cbe 1c80 00be 7644 d03c 5a4c debe
000000d0: c68c 23be 8acc 0ebf e855 4cbf c110 04bf
000000e0: e16e dfbe 6e38 bbbe dd1c cebe cffb a5be
000000f0: dbef 10bf e1d6 8ebe edab c63b 3f4c 15be

encoder.encoder.2.1.running_var f4 [64]
0.08927437 0.07532838 0.14055082 0.17030717 0.04365983 0.054070562 0.11749934 0.05528541
0.107645825 0.2731647 0.11454803 0.0041087596 0.089643426 0.16894443 0.3647375 0.14244647
0.10544039 0.093990736 0.15936053 0.1953745 0.25510642 0.027833078 0.3005581 0.21710412
0.12117168 0.23888145 0.16251557 0.19453922 0.13131861 0.29587463 0.07466069 0.08801424
0.084238164 0.16718239 0.10955858 0.24940993 0.18041897 0.11632701 0.15993479 0.1362517
0.13264862 0.16728534 0.15081301 0.22397883 0.12273324 0.103502885 0.022820547 0.05089527
0.022428382 0.075148955 0.0036157195 0.11137665 0.02413002 0.25239202 0.206471 0.20876938
0.14941058 0.060439035 0.09939733 0.1324295 0.15834367 0.13059711 0.16808292 0.09916607
00000000: 7bd5 b63d c445 9a3d 8eec 0f3e 0165 2e3e
00000010: a6d4 323d 1879 5d3d 7ea3 f03d f472 623d
00000020: 6a75 dc3d 3edc 8b3e 2898 ea3d c6a2 863b
00000030: f996 b73d c5ff 2c3e e0be ba3e 7ddd 113e
00000040: 22f1 d73d 377e c03d 682f 233e 4110 483e
00000050: 4f9d 823e 3202 e43c c0e2 993e 8b50 5e3e
00000060: dc28 f83d 579d 743e 7b6a 263e 4a35 473e
00000070: 6378 063e e17c 973e b4e7 983d cf40 b43d
00000080: 0f85 ac3d dc31 2b3e 4060 e03d 5165 7f3e
00000090: c0bf 383e db3c ee3d f2c5 233e 9185 0b3e
000000a0: 0ad5 073e d94c 2b3e ba6e 1a3e b55a 653e
000000b0: 915b fb3d 52f9 d33d 28f2 ba3c 8f77 503d
000000c0: babb b73c b2e7 993d b5f5 6c3b 7119 e43d
000000d0: 52ac c53c 8739 813e 226d 533e a4c7 553e
000000e0: 16ff 183e ec8e 773d d490 cb3d 999b 073e
000000f0: d824 223e 40bb 053e ee1d 2c3e 9517 cb3d

encoder.encoder.3.0.weight f4 [64, 64, 3, 3]
-0.009733002 -0.019352881 -0.017260203 -0.005536398 -0.02654741 -0.009346117 -0.013939997 -0.0578281
-0.021876983 0.0072140316 -0.021928005 0.023402538 -0.007459567 -0.027620273 -0.0032292702 0.008192812
-0.026934082 0.025258515 0.023111178 0.04402306 -0.0054804482 -0.004495824 0.008991024 0.01484952
0.026065966 -0.0006533769 0.052994095 -0.009095472 0.055823516 0.046020646 0.027499082 0.023010248
0.017965646 -0.01996337 -0.0008355198 0.027068092 0.0020328863 0.016875682 0.025918048 0.0056860656
-0.030446783 0.04690612 -0.011512148 0.010401261 0.006810289 0.014514776 0.0223579 0.013486264
0.035406165 0.0062613986 -0.0021017434 0.003995476 -0.0010059221 -0.019569475 -0.034248825 0.0027619523
0.017638044 -0.013216693 -0.004740171 0.011282391 -0.030132255 0.00915864 -0.0029672063 -0.0322808
-0.014627537 0.007837351 -0.010899841 -0.02489925 -0.0052301288 0.024386797 0.009160786 -0.019450564
-5.2865023e-05 -0.013077031 -0.037841182 -0.021122793 -0.05362241 -0.0345887 -0.027968843 -0.032821357
-0.042748217 -0.010457446 -0.0020646378 -0.011053354 0.016856069 -0.0016442314 -0.007883726 -0.017025504
0.00052927673 -0.03437136 0.008442988 0.036691338 0.016590532 0.008957171 -0.0007423919 0.017494539
-0.015231904 0.0059654824 0.006238529 0.022829887 0.007640683 -0.020976173 -0.026202602 0.0033643446
0.0152378585 -0.016533362 0.022356847 -0.020199334 0.019332172 0.020018002 0.019716028 0.01785466
0.042385377 -0.0052457512 0.012473182 0.061921652 5.431163e-05 0.022634596 -0.0011343177 -0.0009812469
0.021060511 0.03040746 0.006393412 0.02136072 0.015669085 -0.021643786 0.008235499 0.014357823
-0.0034626143 0.036369547 0.07451449 0.01944793 0.012514285 0.016164597 -0.023248922 0.0019849075
0.00078591396 0.0127122905 0.003184361 -0.0023779606 0.005644319 0.00312648 0.0053073354 -0.0019690567
-0.0041588265 0.022820342 -0.0008524815 0.03687931 0.0265296 0.041177765 0.062385008 0.005033605
0.043070227 0.003052424 -0.032938402 -6.209272e-05 0.023370981 0.01897536 -0.00228234 0.012723816
0.019474473 -0.0132040735 -0.0064323274 -0.0019522131 0.008770745 -0.0054825805 0.0052590747 -0.0052432125
-0.029921371 -0.010049915 -0.013953055 -0.052238386 -0.051472872 -0.04615632 0.042028837 0.012789236
0.009489425 0.051440895 0.058199212 0.03753835 -0.02314297 0.07115398 -0.019582126 -0.00786791
0.065423876 -0.045283824 0.018186843 0.07871386 -0.023060584 -0.00982529 0.003301212 0.0085299695
-0.01701383 0.0051301466 -0.0094307205 -0.004674127 0.010433932 -0.024675263 -0.03781907 -0.012311955
-0.013543087 0.09349671 0.052169744 0.061955336 0.023486458 0.02299757 0.00090345595 0.009402435
0.0195773 0.0066759195 0.020315526 0.009448088 -0.013186297 0.016042845 -0.0050630975 -0.00056334893
0.001371248 -0.03573342 -0.034779493 0.010234735 -0.031324305 -0.038720112 0.01350905 0.03213726
0.00053120725 -0.027815446 -0.0016694289 -0.0082715275 0.02821874 0.032162383 0.015048268 0.030779388
0.014186964 0.00648888 0.0011027454 -0.043300416 -0.0143263955 -0.005072606 0.013647983 0.0056303497
0.05188878 0.110744774 -0.006183109 0.018824194 -0.013294913 0.00073257706 0.035127915 0.0063587907
0.06286166 -0.016227953 -0.00039411875 0.00021322712 -0.02856556 -0.012021571 -0.019105809 0.00095677725
00000000: 2b77 1fbc ef89 9ebc 4565 8dbc ac6a b5bb
00000010: f479 d9bc 7520 19bc 9664 64bc 28dd 6cbd
00000020: 5c37 b3bc af63 ec3b 5ca2 b3bc aeb6 bf3c
00000030: 626f f4bb e943 e2bc 2aa2 53bb 253b 063c
00000040: dda4 dcbc f2ea ce3c a753 bd3c 8651 343d
00000050: 5595 b3bb b551 93bb 174f 133c 674b 733c
00000060: 4b88 d53c 6247 2bba 5610 593d 2d05 15bc
00000070: 33a7 643d 2580 3c3d c145 e13c fd7f bc3c
00000080: b12c 933c 398a a3bc c906 5bba e7bd dd3c
00000090: 2c3a 053b df3e 8a3c 1652 d43c 2d52 ba3b
000000a0: 886b f9bc a220 403d 739d 3cbc 0d6a 2a3c
000000b0: d828 df3b 62cf 6d3c ea27 b73c 7ef5 5c3c
000000c0: 0e06 113d 6b2c cd3b 67bd 09bb 7bec 823b
000000d0: 25d9 83ba 2a50 a0bc 7f48 0cbd df01 353b
000000e0: a97d 903c d48a 58bc 7053 9bbb c7d9 383c
000000f0: ebd7 f6bc 1f0e 163c 7675 42bb df38 04bd
00000100: 56a8 6fbc 3c68 003c 3f95 32bc 83f9 cbbc
00000110: 8061 abbb d2c6 c73c 1f17 163c ca56 9fbc
00000120: 63bb 5db8 0b41 56bc 5bff 1abd b509 adbc
00000130: 2ca3 5bbd e1ac 0dbd ea1e e5bc b06f 06bd
00000140: c118 2fbd b555 2bbc e04e 07bb 2019 35bc
00000150: bd15 8a3c 4083 d7ba be2a 01bc 1279 8bbc
00000160: 29bf 0a3a fcc8 0cbd 7554 0a3c a849 163d
00000170: dee8 873c 19c1 123c 149d 42ba b550 8f3c
00000180: 3c8f 79bc 187a c33b 936c cc3b be05 bb3c
00000190: b25e fa3b 39d6 abbc d7a6 d6bc 567c 5c3b
000001a0: 36a8 793c f970 87bc b525 b73c 1379 a5bc
000001b0: 815e 9e3c cbfc a33c 8283 a13c f043 923c
000001c0: 4a9c 2d3d 8de4 abbb 515c 4c3c 8fa1 7d3d
000001d0: abcc 6338 306c b93c 63ad 94ba 2f9d 80ba
000001e0: 1887 ac3c 1119 f93c d47f d13b adfc ae3c
000001f0: 745c 803c 4f4e b1bc 30ee 063c 133d 6b3c
00000200: 07ed 62bb 3cf8 143d 0e9b 983d 4451 9f3c
00000210: b708 4d3c 9e6b 843c 8674 bebc 3915 023b
00000220: cb05 4e3a 3647 503c b6b0 503b 8fd7 1bbb
00000230: fbf3 b83b a1e5 4c3b 28e9 ad3b 4a0b 01bb
00000240: c446 88bb baf1 ba3c 1179 5fba c20e 173d
00000250: 9b54 d93c 04aa 283d 6c87 7f3d f0f0 a43b
00000260: 686a 303d 2d0b 483b 6bea 06bd c637 82b8
00000270: 8074 bf3c 3772 9b3c 5093 15bb 8d77 503c
00000280: ee88 9f3c e655 58bc 46c6 d2bb 67e1 ffba
00000290: 2cb3 0f3c 38a7 b3bb 5154 ac3b 41cf abbb
000002a0: aa1d f5bc 66a8 24bc 5b9b 64bc ebf7 55bd
000002b0: 38d5 52bd 690e 3dbd 6e26 2c3d f289 513c
000002c0: 8979 1b3c b0b3 523d 4c62 6e3d d0c1 193d
000002d0: 5396 bdbc 2eb9 913d b26a a0bc 68e8 00bc
000002e0: f4fc 853d 887b 39bd 93fc 943c bb34 a13d
000002f0: 8de9 bcbc 41fa 20bc 2659 583b 49c1 0b3c
00000300: 9660 8bbc ca1a a83b 4f83 1abc 6b29 99bb
00000310: 15f3 2a3c c723 cabc 2be8 1abd 15b8 49bc
00000320: d3e3 5dbc 347b bf3d f1af 553d e1c4 7d3d
00000330: ac66 c03c 6665 bc3c e7d5 6c3a ac0c 1a3c
00000340: 9360 a03c acc1 da3b bf6c a63c 27cc 1a3c
00000350: 570b 58bc 496c 833c 57e8 a5bb b5ad 13ba
00000360: 73bb b33a 355d 12bd f174 0ebd 97af 273c
00000370: ea4d 00bd fb98 1ebd 1055 5d3c 5ca2 033d
00000380: b740 0b3a 38dd e3bc bdd0 daba 4d85 07bc
00000390: fd2a e73c b4bc 033d 038d 763c 0e25 fc3c
000003a0: 7170 683c aca0 d43b ff89 903a c75b 31bd
000003b0: 42b9 6abc 1a38 a6bb ca9b 5f3c cc7e b83b
000003c0: 5489 543d 28ce e23d ad9b cabb 3235 9a3c
000003d0: e8d2 59bc 6a0a 403a 4ae2 0f3d 675d d03b
000003e0: 9dbd 803d 7cf0 84bc b9a1 ceb9 b895 5f39
000003f0: 5202 eabc 20f6 44bc c983 9cbc 3cd0 7a3a

encoder.encoder.3.0.bias f4 [64]
-0.019254938 0.026237672 -0.002396124 0.019122513 0.025105594 0.013722831 0.013647931 0.01242635
0.008483575 -0.005510282 0.0020746614 -0.014156204 -0.004092054 -0.0114710815 -0.008063856 -0.00076819205
-0.013597578 -0.012091341 0.024263998 -0.010015045 -0.023706507 0.0134784635 -0.0262409 0.0002912138
0.009869323 -0.0037795396 0.008236973 0.0108471345 0.017832037 -0.014979855 0.022363026 -0.0032737975
0.0017478304 -0.015049783 0.0024222306 0.016989315 -0.016313726 0.013848531 -0.013525596 -0.025796147
0.0063786334 -0.013979371 -0.008733307 0.009090604 -0.005485206 0.0013265043 -0.005669908 -0.014577352
0.009186525 0.017899513 0.007952812 -0.0042213704 -0.008600337 0.016298538 0.003644208 -0.01633168
0.0060449224 0.016319852 0.021461148 0.016048921 0.018185094 -0.009517759 -0.0061418875 -0.008530833
00000000: 88bc 9dbc 63f0 d63c 4a08 1dbb d1a6 9c3c
00000010: 3faa cd3c bad5 603c 929b 5f3c e497 4b3c
00000020: b1fe 0a3c 988f b4bb 0bf7 073b 6cef 67bc
00000030: a316 86bb 34f1 3bbc 431e 04bc 7f60 49ba
00000040: 60c8 5ebc c31a 46bc 4bc5 c63c 2516 24bc
00000050: 2634 c2bc c6d4 5c3c 28f7 d6bc 0eae 9839
00000060: f1b2 213c 27b2 77bb 5ef4 063c 2eb8 313c
00000070: 7e14 923c 116e 75bc aa32 b73c 358d 56bb
00000080: 7517 e53a 5d93 76bc 49be 1e3b 2d2d 8b3c
00000090: 5da4 85bc f3e4 623c 769a 5dbc 7152 d3bc
000000a0: db03 d13b bb09 65bc 2516 0fbc c2f0 143c
000000b0: 3ebd b3bb 19de ad3a a3ca b9bb d9d5 6ebc
000000c0: 1483 163c 00a2 923c 834c 023c 6c53 8abb
000000d0: 6ee8 0cbc 8384 853c aad3 6e3b 04ca 85bc
000000e0: 7c14 c63b 36b1 853c 4acf af3c 0779 833c
000000f0: e8f8 943c 60f0 1bbc e341 c9bb e8c4 0bbc
