saves_category/nico_vehicle/max_acc.pth (torch_old, 479242 bytes, 28 tensors)

encoder.encoder.0.0.weight f4 [64, 3, 3, 3]
0	0x3c3ac799	0.011400127
1	0x3d4be009	0.049774203
2	0xbe1e6dfb	-0.15471642
3	0x3e123471	0.14277817
4	0x3e15127a	0.1455783
5	0xbdd37f3c	-0.103270024
6	0x3d80ce10	0.06289303
7	0x3e42288d	0.18960781
8	0xbe056853	-0.13028078
9	0x3d871e71	0.06597603
10	0xbda70f98	-0.08157271
11	0xbe26e873	-0.1629961
12	0xbde48d91	-0.11159814
13	0x3e271069	0.16314854
14	0xbdc8c411	-0.09803022
15	0x3d643b5b	0.05572067
16	0x3c7133f6	0.014721861
17	0x3dc2cd32	0.09511794
18	0x3d97204b	0.07379206
19	0xbd35cf99	-0.044387434
20	0xbe08059c	-0.1328339
21	0xbd81b36e	-0.063330516
22	0x3e024707	0.12722407
23	0xbe17119f	-0.14752816
24	0x3db7c566	0.08973198
25	0x3d7e2c69	0.06205407
26	0x3cc93cb4	0.024565078
27	0xbe983303	-0.2972642
28	0xbe802341	-0.25026897
29	0xbd41dca3	-0.047329556
30	0xbe928db7	-0.28623745
31	0xbe9257b0	-0.28582525
32	0x3e30d7db	0.17269842
33	0xbdc9ca8e	-0.09853087
34	0x3df621c2	0.120181575
35	0x3caf8385	0.021425018
36	0xbd6536f3	-0.055960607
37	0xbdd1f7f8	-0.102523744
38	0x3da8a8be	0.0823531
39	0xbe13b568	-0.1442467
40	0xbe562bd1	-0.20915152
41	0x3afcf5ad	0.0019299291
42	0xbadc34db	-0.001680042
43	0x3d0144d2	0.031559773
44	0xbe184b32	-0.14872435
45	0x3e82e84a	0.25567847
46	0x3e9d0d79	0.3067434
47	0x3e7e3ebb	0.24828617
48	0x3cf2f22f	0.029656498
49	0x3e8f3ca2	0.27975947
50	0x3e779c28	0.24180663
51	0x3dcd9b6c	0.1003941
52	0x3d89ed31	0.06734694
53	0x3e1f6381	0.15565301
54	0xbe44a3de	-0.19203135
55	0x3e074c26	0.13212642
56	0x3cfa1e59	0.030532049
57	0xbe981004	-0.2969972
58	0x3ee0b9f4	0.4389187
59	0xbcedc151	-0.029022845
60	0xbd93b8d2	-0.07212986
61	0x3e94c787	0.29058477
62	0xbe633c2f	-0.22190927
63	0xbe9fa568	-0.31180882
64	0xbc071ef2	-0.008247124
65	0x3e53a2d9	0.2066759
66	0xbec86ba8	-0.39144635
67	0x3edf6d31	0.43637994
68	0xbd5820b7	-0.052765574
69	0xbeba9f88	-0.36449838
70	0x3ed1fbbb	0.41012368
71	0xbe1c2fd2	-0.15252617
72	0xbe5e456a	-0.21706167
73	0xbc21c164	-0.009872768
74	0x3e27f8b9	0.16403474
75	0xbf116e75	-0.5680917
76	0x3eb5f346	0.35537165
77	0x3e0a1708	0.13485348
78	0xbeb66f30	-0.35631704
79	0x3ef8138a	0.48452407
80	0x3dfa02e5	0.12207583
81	0xbdb8425c	-0.08997032
82	0x3e1738c6	0.14767751
83	0x3cde0b1e	0.02710491
84	0xbcf62686	-0.030047666
85	0xbe28376d	-0.16427393
86	0xbde493eb	-0.111610256
87	0x3e075589	0.13216223
88	0x3d6b5c35	0.057460982
89	0xbdad359e	-0.08457492
90	0x3e1dd127	0.15411817
91	0x3dcea5bb	0.10090204
92	0x3d110d21	0.03541291
93	0xbd915a44	-0.07097295
94	0x3bb726f1	0.005589359
95	0x3c7061e2	0.014671775
96	0x3d1a32a2	0.037645943
97	0x3e38e7e4	0.18057209
98	0xbd0957dd	-0.03353106
99	0xbe292bb8	-0.16520584
100	0xbe49bcda	-0.19700947
101	0xbd641120	-0.055680394
102	0x3cff7dc3	0.031187898
103	0xbe2a614d	-0.1663868
104	0x3ba0745e	0.0048966845
105	0x3e20365a	0.15645733
106	0x3d31ed4e	0.043439202
107	0x3d991021	0.074737795
108	0x3de50ee2	0.11184479
109	0x3d9b9a6e	0.075978145
110	0xbe366e11	-0.17815425
111	0x3e82da19	0.2555702
112	0xbc78d487	-0.015187389
113	0xbec52dcd	-0.38511506
114	0x3d3433e8	0.043994814
115	0xbc2b0d03	-0.010440114
116	0xbce2c0cd	-0.027679825
117	0xbd7e889a	-0.062141992
118	0x3e789d01	0.24278642
119	0xbdeda151	-0.11603034
120	0x3e5b6dcc	0.21428603
121	0x3e2d7db7	0.16942488
122	0xbeb2db06	-0.34932727
123	0x3e1dc884	0.15408522
124	0x3dd66fbd	0.10470531
125	0xbc970b2e	-0.018437948
126	0xbd4ef03c	-0.050522074
127	0x3e7d670b	0.24746339
128	0xbdbdca3d	-0.092670895
129	0x3e169deb	0.14708678
130	0x3e0a9435	0.13533099
131	0xbe588b80	-0.21146965
132	0xbd849f3f	-0.06475686
133	0xbd82a5f0	-0.06379306
134	0xbddf0ee5	-0.10891513
135	0x3ec9e4df	0.39432427
136	0x3eca40f9	0.39502695
137	0x3e47661a	0.19472542
138	0x3d9a9c85	0.07549385
139	0x3df89797	0.121382885
140	0x3db4d7be	0.08830212
141	0xbef0d53e	-0.4703769
142	0xbf165a22	-0.5873128
143	0xbf048977	-0.51772255
144	0xbdf9cb80	-0.12197018
145	0xbe864b31	-0.26229241
146	0xbe99ea41	-0.30061534
147	0x3ec6976f	0.3878741
148	0x3ed02c9a	0.40659028
149	0x3d6aa6c8	0.05728796
150	0x3e8c0bc3	0.27352723
151	0x3e280c73	0.16410999
152	0xbe2cb5c5	-0.16866215
153	0xbf38bfdf	-0.7216777
154	0xbf0fcb00	-0.5616913
155	0xbe15a748	-0.14614594
156	0xbc16f068	-0.009212591
157	0x3e9ad967	0.3024399
158	0x3ebf4d82	0.3736382
159	0x3dd96863	0.10615613
160	0x3e120a4d	0.14261742
161	0x3eae4d4c	0.34043348
162	0x3dd7b518	0.10532588
163	0x3e3c5005	0.183899
164	0xbe6f4368	-0.23365557
165	0x3dc7125b	0.09720298
166	0x3e155b81	0.14585687
167	0xbeb08905	-0.34479538
168	0x3e59aa65	0.21256407
169	0xbc9872cb	-0.018609425
170	0xbdef9ce6	-0.11699848
171	0x3e83e0c6	0.25757426
172	0xbd850508	-0.064951
173	0xbe735d00	-0.23765945
174	0x3ec00f7b	0.3751181
175	0x3d38c23b	0.045107108
176	0xbec24296	-0.37941426
177	0x3e34dac6	0.1766158
178	0x3d96d8ca	0.07365568
179	0xbed40dde	-0.4141683
180	0x3e66c5b6	0.22536358
181	0x3e1fe4fc	0.15614694
182	0xbec61df8	-0.3869474
183	0x3ea6e456	0.32596081
184	0x3d4619ce	0.048364453
185	0xbe8d157a	-0.27555448
186	0x3e912b88	0.28353524
187	0x3dbb8d7d	0.09157846
188	0xbeb6251a	-0.3557518
189	0xbdda91be	-0.10672329
190	0xbe167ede	-0.14696833
191	0x3cfb71b1	0.03069386
192	0xbe6551e3	-0.22394519
193	0xbe6b8152	-0.2299855
194	0xbe6ee14a	-0.23328128
195	0x3dd6c8b7	0.10487502
196	0xbd5b6d3a	-0.053570963
197	0xbc8b2dc8	-0.016989604
198	0x3e1ba1dc	0.15198463
199	0x3e93f05a	0.2889431
200	0x3df0c944	0.11757138
201	0xbd5c890a	-0.053841628
202	0xbda6e21a	-0.08148594
203	0x3e102859	0.14077891
204	0x3e92123e	0.28529543
205	0x3e9da93f	0.30793187
206	0x3e7e7604	0.24849707
207	0x3db4048d	0.087899305
208	0x3ea18cec	0.31552827
209	0x3e481a70	0.19541335
210	0xbeb06349	-0.3445075
211	0xbe2bbd76	-0.16771492
212	0xbe7c5614	-0.24642211
213	0xbe499418	-0.196854
214	0xbe19391a	-0.14963189
215	0xbddbee3c	-0.10738799
216	0xbdcfb59e	-0.101420626
217	0xbe03b540	-0.1286211
218	0xbe97849f	-0.2959337
219	0x3d0d5fb1	0.034515087
220	0x3e6abda8	0.2292391
221	0x3b4939bb	0.0030704576
222	0x3daafebb	0.08349367
223	0x3d036097	0.032074537
224	0x3e245afc	0.16050333
225	0x3d1a365e	0.037649505
226	0xbc8c475e	-0.017123874
227	0xbeabb33a	-0.33535177
228	0x3e64bd76	0.22337899
229	0x3eb2a7a5	0.34893528
230	0x3d5fb44a	0.054615296
231	0xbea8178e	-0.3283047
232	0xbbcfb8ec	-0.006339183
233	0xbd873c53	-0.06603303
234	0xbc94179e	-0.018077668
235	0xbd74e7da	-0.059791423
236	0xbd802df6	-0.06258766
237	0x3ea63998	0.32465816
238	0x3f0c98d1	0.5492068
239	0x3ebd2e1b	0.36949238
240	0xbf112441	-0.56695944
241	0xbebb0a67	-0.36531374
242	0xbe04bbc5	-0.12962253
243	0x3e181f56	0.14855704
244	0x3de6a105	0.11261181
245	0x3da04990	0.07826531
246	0xbed3b3b1	-0.4134803
247	0xbf26cb54	-0.65154004
248	0xbeaa82a3	-0.33302793
249	0x3e558259	0.20850505
250	0x3ecd116e	0.4005236
251	0x3ef8f584	0.48624814
252	0x3e8a5d4f	0.27024314
253	0x3e4f2e2f	0.20232461
254	0x3d0956da	0.033530094
255	0xbe47afdb	-0.19500677

encoder.encoder.0.0.bias f4 [64]
0	0xbd5ab698	-0.05339679
1	0x3d3b1167	0.045670893
2	0xbd4874f5	-0.048939664
3	0xbdfee231	-0.12445486
4	0xbda12870	-0.07869041
5	0xbdfa0f91	-0.1221
6	0xbd9b7822	-0.07591273
7	0xbde1cea2	-0.1102574
8	0xbd7e23ea	-0.06204597
9	0x3c8b0bbe	0.016973373
10	0x3dafd561	0.08585621
11	0x3ceb3739	0.028712856
12	0x3e04b479	0.1295947
13	0x3e03f2b0	0.12885547
14	0xbdfad478	-0.122475564
15	0xbd35cde7	-0.044385817
16	0x3d3490b7	0.044083323
17	0xbdbf8cf4	-0.093530566
18	0x3de0f220	0.10983682
19	0x3d8260eb	0.06366142
20	0xbd340f52	-0.043959923
21	0xbd1fc44a	-0.039005555
22	0x3dac01ee	0.083988056
23	0x3ba9714b	0.0051709763
24	0xbe00d78d	-0.12582226
25	0x3c52e0dd	0.012870994
26	0xbdc8f951	-0.09813178
27	0x3d534cee	0.051587038
28	0xbcaf3eac	-0.021392189
29	0xbe009212	-0.12555721
30	0x3de01902	0.1094227
31	0xbdf735e3	-0.12070825
32	0xbdde1de7	-0.10845547
33	0x3dc46405	0.0958939
34	0x3db90716	0.09034555
35	0xbe047517	-0.12935291
36	0x3de90dcd	0.113795854
37	0x3d83f1f6	0.06442635
38	0x3da0088e	0.07814132
39	0x3d1949a2	0.037423737
40	0x3de395f3	0.11112585
41	0x3da583a5	0.0808175
42	0xbc64dcd4	-0.013968665
43	0xbd92253a	-0.07136007
44	0xbbe9d2f4	-0.0071357433
45	0xbdf610ee	-0.12014948
46	0xbb6ae7e4	-0.0035843784
47	0xbba8b0c4	-0.005148025
48	0x3e01482b	0.12625186
49	0x3dd3143f	0.10306596
50	0xbc9c465b	-0.019076517
51	0x3dde6806	0.10859685
52	0x3df58c9d	0.119897105
53	0x3dbafdd4	0.09130445
54	0x3dc2cf2e	0.09512173
55	0xbd9c5e83	-0.07635214
56	0x3b8a5ed9	0.0042227325
57	0x3de2c318	0.110723674
58	0xbdb78dc2	-0.08962585
59	0xbcd9f922	-0.026608054
60	0xbcae832c	-0.021302782
61	0xbe02356f	-0.12715696
62	0x3c175261	0.009235949
63	0xbc5c264d	-0.013436866

encoder.encoder.0.1.weight f4 [64]
0	0x3e631c61	0.22178794
1	0x3f152ddc	0.582731
2	0x3f34b873	0.7059395
3	0x3e48f24f	0.19623683
4	0x3eca60b7	0.39526913
5	0x3f149426	0.58038557
6	0x3f2ec8a3	0.682749
7	0x3ecde6f8	0.40215278
8	0x3f0ffc6c	0.5624454
9	0x3f097e5c	0.53708434
10	0x3e49e383	0.19715695
11	0x3edeecba	0.43539983
12	0x3e4a0ad7	0.19730698
13	0x3e1465da	0.14491978
14	0x3ee0108d	0.43762627
15	0x3f0429f9	0.51626545
16	0x3d840771	0.06446732
17	0x3e5f603a	0.21814051
18	0x3d84c624	0.06483105
19	0x3f21e091	0.63233286
20	0x3f152660	0.5826168
21	0x3f110af8	0.5665736
22	0x3ea64d0a	0.3248065
23	0x3ef6e28e	0.48219723
24	0x3eea95aa	0.4581731
25	0x3d10b5d6	0.035329662
26	0x3e9c1898	0.30487514
27	0x3eac4426	0.33645743
28	0x3f0c6648	0.5484357
29	0x3e1193a4	0.14216477
30	0x3ee2e588	0.44315743
31	0x3ecdd914	0.4020468
32	0x3f167e93	0.58786887
33	0x3eaadaef	0.33370158
34	0x3e9d9fa8	0.3078587
35	0x3e2eb133	0.17059784
36	0x3f06d831	0.5267363
37	0x3edef84f	0.4354882
38	0x3e8dd400	0.27700806
39	0x3efb3f5b	0.49071774
40	0x3f109bed	0.56487924
41	0x3eba18f0	0.3634715
42	0x3e4b6d49	0.19865908
43	0x3f25edf6	0.64816225
44	0x3eac2f9b	0.3363007
45	0x3e649ee1	0.22326232
46	0x3db0b12f	0.08627545
47	0x3e85b415	0.26113954
48	0x3d43a8d9	0.047768448
49	0x3f4c8a2e	0.79898345
50	0x3dfb8629	0.122814484
51	0x3f104d74	0.56368184
52	0x3e84b90f	0.25922439
53	0x3f05b04b	0.52222127
54	0x3f07b8fe	0.5301665
55	0x3f00f674	0.5037606
56	0x3f08aa71	0.5338507
57	0x3e8e970f	0.27849624
58	0x3ec2561f	0.3795633
59	0x3ecd3f41	0.4008732
60	0x3e980ed3	0.2969881
61	0x3e753414	0.23945647
62	0x3e66f00c	0.22552508
63	0x3e8f9b5f	0.28048226

encoder.encoder.0.1.bias f4 [64]
0	0x3e125ff5	0.14294417
1	0xbe02e2a2	-0.12781766
2	0xbc83ca81	-0.016087772
3	0x3e02f06d	0.12787028
4	0x3e6e5a0e	0.2327654
5	0x3df6b8ef	0.12046992
6	0xbca856ea	-0.020549256
7	0xbcbaf02b	-0.0228196
8	0xbd578461	-0.05261648
9	0xba7bcc85	-0.0009605366
10	0xbe0b3d4e	-0.13597605
11	0xbcee1e90	-0.029067308
12	0x3ce1742d	0.027521217
13	0xbaabb7a0	-0.0013100989
14	0xbe300676	-0.17189965
15	0x3e91bb7b	0.2846335
16	0x3d169f6f	0.03677314
17	0x3d849251	0.0647322
18	0xbc53d428	-0.012929
19	0xbef743ce	-0.48293918
20	0xbd9cbf8a	-0.07653721
21	0xbeb16f53	-0.34655246
22	0xbccae30c	-0.024766468
23	0x3e224dac	0.15849942
24	0xbe603519	-0.21895255
25	0xbcb8e1f6	-0.022568684
26	0xbe410fb2	-0.18853644
27	0xbe2becb9	-0.16789521
28	0xbd8786a7	-0.0661748
29	0xbc5ff887	-0.013670093
30	0xbe6abaa1	-0.22922756
31	0x3cec7416	0.028863948
32	0xbc2fbbc4	-0.010725919
33	0xbe316e03	-0.17327122
34	0xbde84836	-0.11341898
35	0xbe213077	-0.15741144
36	0xbd08d876	-0.03340956
37	0xbe14b088	-0.14520466
38	0xbe5875a8	-0.21138632
39	0xbce7b40a	-0.028284092
40	0xbeaf7ddb	-0.34275708
41	0xbd54ecbc	-0.05198358
42	0xbd8fa5a5	-0.07014016
43	0xbd5ec2cf	-0.054385003
44	0xbd04c120	-0.03241074
45	0xbdd2c104	-0.10290721
46	0x3d1638c1	0.03667522
47	0xbdd4e1dc	-0.10394642
48	0xbd40193e	-0.046899073
49	0xbcc62d91	-0.02419165
50	0x3d8d873d	0.0691056
51	0xbe7beb9f	-0.24601601
52	0xbd012b04	-0.031535164
53	0xbe19f912	-0.15036419
54	0xbe0f9831	-0.140229
55	0x3d3545d8	0.04425606
56	0xbe7906aa	-0.24318948
57	0x3dd65417	0.104652576
58	0xbe6b3b6f	-0.22971891
59	0xbe239a57	-0.15976845
60	0xbdaa40a5	-0.08313111
61	0xbe27bda3	-0.16380934
62	0x3e1c3030	0.15252757
63	0xbe80f2e9	-0.25185326

encoder.encoder.0.1.running_mean f4 [64]
0	0xbe0e6492	-0.13905552
1	0xbde71f52	-0.11285271
2	0xbd700178	-0.05859515
3	0xbdf1e9f0	-0.11812198
4	0xbe13f279	-0.14447965
5	0xbdbb9f82	-0.09161283
6	0xbd9e3ca7	-0.07726412
7	0x3cae9353	0.021310484
8	0xbd7a0ef1	-0.061049405
9	0x3cee1d97	0.029066844
10	0x3e1df985	0.15427215
11	0x3d10f322	0.03538812
12	0x3e60a4eb	0.21937911
13	0x3db643a5	0.08899621
14	0xbc8438a7	-0.016140295
15	0xbe0aa417	-0.13539158
16	0x3e0f8186	0.14014253
17	0xbe61cf1e	-0.22051665
18	0xbdd02b37	-0.101644926
19	0x3ef69a2b	0.48164496
20	0xbe04a3db	-0.12953131
21	0xbd9f507a	-0.077790216
22	0x3e287da4	0.16454178
23	0xbc1612f3	-0.009159791
24	0xbed14978	-0.40876365
25	0x3d8b29dc	0.067950934
26	0x3dc8a2aa	0.09796651
27	0x3eb9f379	0.36318567
28	0xbd1a4652	-0.03766472
29	0xbe41c316	-0.18922076
30	0x3cc9bfbf	0.024627564
31	0x3d479b43	0.048732053
32	0xbde2897a	-0.11061378
33	0x3e2aefb3	0.16693
34	0x3bf536f1	0.007483356
35	0x3d737539	0.059437964
36	0x3dc3b262	0.09555508
37	0x3e98f7b9	0.29876497
38	0x3eb71f14	0.35765898
39	0x3d240f40	0.040053606
40	0x3e9f8d52	0.31162506
41	0xbdd5ee7d	-0.10445879
42	0x3bfc50a4	0.007700043
43	0xbd8425bb	-0.06452509
44	0x3d2bea62	0.04197157
45	0x3e54a600	0.20766449
46	0xbeb426ee	-0.3518595
47	0x3c391059	0.0112954015
48	0x3eed3e21	0.46336463
49	0x3e06af3f	0.13152789
50	0xbd8f2adc	-0.06990597
51	0xbe88cb45	-0.26717582
52	0x3e06b542	0.13155082
53	0x3e41bfed	0.1892087
54	0x3e6a5eb7	0.22887693
55	0xbcadf7ee	-0.021236386
56	0xbdaca418	-0.08429736
57	0x3d16fc0d	0.036861468
58	0xbe917305	-0.28408065
59	0x3c6c8fb3	0.014438557
60	0x3ce7f15e	0.028313335
61	0x3d02174a	0.03176049
62	0x3b8560d1	0.0040703793
63	0x3eb13591	0.3461118

encoder.encoder.0.1.running_var f4 [64]
0	0x3e43ef07	0.1913415
1	0x3ffb742a	1.9644825
2	0x3f5071f5	0.81423885
3	0x3da452a4	0.08023575
4	0x3eccfacd	0.40035096
5	0x3eea0c76	0.45712632
6	0x3faafc58	1.3358259
7	0x3ebad245	0.36488548
8	0x3eb3a036	0.3508317
9	0x3ef62b7d	0.48080054
10	0x3d160bb0	0.03663224
11	0x3f40d3b0	0.7532301
12	0x3e358995	0.17728265
13	0x3e652341	0.2237673
14	0x3e54fad8	0.20798814
15	0x3f9a9f24	1.2079816
16	0x3da07035	0.07833902
17	0x3e1e0ff4	0.15435773
18	0x3e892ad0	0.26790476
19	0x3f8d8176	1.1055133
20	0x3ef697b6	0.4816262
21	0x3f15aabb	0.5846364
22	0x3edb1f72	0.42797428
23	0x3f0e028b	0.5547263
24	0x3ef0e061	0.47046188
25	0x3d01803d	0.03161644
26	0x3ebfce95	0.37462297
27	0x3f41b8b6	0.7567247
28	0x3f063ae6	0.5243362
29	0x3d6bef05	0.057600994
30	0x3e9afdf3	0.30271873
31	0x3f8cbf9e	1.0995977
32	0x3f55f995	0.83583957
33	0x3d89967e	0.06718157
34	0x3df71390	0.12064278
35	0x3e5d49e4	0.21610218
36	0x3f20826d	0.62699014
37	0x3f1eb01d	0.6198748
38	0x3ee5d7e7	0.44891283
39	0x3ea283cc	0.31741178
40	0x3f0bbaae	0.54581726
41	0x3ec03f4c	0.37548292
42	0x3d03a294	0.03213747
43	0x3e40844c	0.18800467
44	0x3f16f094	0.58960843
45	0x3f0edc6c	0.5580509
46	0x3f268bc9	0.65057045
47	0x3e381dc7	0.17980109
48	0x3f0bd8bb	0.5462758
49	0x3f5bac10	0.8580942
50	0x3ce7fd6a	0.02831908
51	0x3f6a8f52	0.9162494
52	0x3d12d2a2	0.035845406
53	0x3f6839c3	0.9071314
54	0x3e977a0d	0.29585305
55	0x3f211ae1	0.6293164
56	0x3ec60f98	0.38683772
57	0x3f5b26e2	0.85606205
58	0x3e726910	0.2367289
59	0x3f5ce6f6	0.8628992
60	0x3d41bf18	0.04730138
61	0x3dfe1eb3	0.12408199
62	0x3d88acb2	0.06673564
63	0x3f39ddcb	0.72604054

encoder.encoder.1.0.weight f4 [64, 64, 3, 3]
0	0xbd2ab90c	-0.04168038
1	0xbbcabcc4	-0.0061870534
2	0xbc9f7916	-0.019466918
3	0xbc3cd640	-0.011525691
4	0xbd1b30ec	-0.037888452
5	0xbc595d0b	-0.013266812
6	0x3bd5d3dc	0.0065254997
7	0xbda7c1ed	-0.08191285
8	0xbcdda335	-0.027055362
9	0xbd8ec0bc	-0.06970355
10	0xbd42e8c1	-0.047585253
11	0x3c00abed	0.00785349
12	0xbcea62c7	-0.028611554
13	0x3d0d1f64	0.034453765
14	0x3d7d20dd	0.06179892
15	0xbdcfb070	-0.10141075
16	0xbd73c7bc	-0.059516653
17	0xbd1c1ddd	-0.038114417
18	0xbd53c150	-0.05169803
19	0xbdb605c6	-0.0888782
20	0xbd29acc8	-0.041424543
21	0xbd4774e4	-0.04869546
22	0x3d983d31	0.07433546
23	0x3e1ac9ea	0.15116087
24	0x3d0d327c	0.034471974
25	0x3e225982	0.15854457
26	0x3d6bdb47	0.057582166
27	0x3ca29ccb	0.019850155
28	0x3c8bd1a9	0.017067747
29	0xbc51453a	-0.012772853
30	0x3c8bd290	0.017068177
31	0x3b74dc7c	0.0037362864
32	0xbd0f70a5	-0.035019536
33	0x3c1779d1	0.009245352
34	0xbdb2fa9c	-0.08739206
35	0xbd3b2825	-0.04569258
36	0xbd93533f	-0.07193612
37	0x3b387947	0.0028148459
38	0x3d05593c	0.032555804
39	0x3cc3d14c	0.023903511
40	0x3e113998	0.14182127
41	0xbd4b179d	-0.049583066
42	0x3dd1ad80	0.102381706
43	0x3d26eeac	0.04075496
44	0xbd7fa6b9	-0.06241486
45	0xbe106e11	-0.14104487
46	0x3dc375f0	0.09543979
47	0x3d96f7cd	0.07371483
48	0x3d77700a	0.060409583
49	0x3e28ab73	0.16471653
50	0xbdd35c0e	-0.103202924
51	0x3e300645	0.17189892
52	0xbe0e88ad	-0.13919325
53	0xbdaa5bc0	-0.08318281
54	0xbd642cf3	-0.05570693
55	0xbcd558db	-0.026043346
56	0x3d2c9861	0.042137507
57	0x3d490c63	0.04908408
58	0x3dc91519	0.09818477
59	0xbd3add7f	-0.04562139
60	0x3dcb0b8d	0.099143125
61	0x3ca69d1a	0.020338584
62	0xbd21dc63	-0.039516818
63	0x3d758faa	0.05995146
64	0x3c1f436f	0.009720667
65	0xba9b683d	-0.0011856627
66	0x3d20ea59	0.03928599
67	0xbd11b63d	-0.035574187
68	0xbd1a548c	-0.037678286
69	0xbce21b5e	-0.02760094
70	0xbdce83dc	-0.10083744
71	0xbdbf4de7	-0.093410306
72	0x3ceb4a6a	0.028722007
73	0xbdbba83d	-0.09162948
74	0xbd90872c	-0.07057032
75	0xbd7ed8ff	-0.062218662
76	0xbe148510	-0.14503884
77	0xbdbaf3c6	-0.09128527
78	0xbdb20e81	-0.08694173
79	0xbdae7164	-0.08517721
80	0xba43062f	-0.0007439581
81	0xbcaccbf7	-0.021093352
82	0x3c5cc8cc	0.013475608
83	0x3de7dd0b	0.113214575
84	0x3c88c145	0.01669372
85	0x3d81e300	0.06342125
86	0x3dc1a05c	0.09454414
87	0xbd4d1b49	-0.05007485
88	0x3dfcc41e	0.12342094
89	0x3ce4a5ac	0.02791103
90	0x3b32a594	0.0027259337
91	0xbce89c22	-0.028394762
92	0x3d39c061	0.045349482
93	0x3ca39bec	0.01997181
94	0x3d9535f5	0.07285682
95	0x3ca66271	0.020310612
96	0x3cc00987	0.023442043
97	0x3d913087	0.07089334
98	0x3d3f1c65	0.04665794
99	0xbd00f07d	-0.031479347
100	0x3d518ce3	0.05115975
101	0x3d1646fb	0.036688786
102	0x3cd744a9	0.026277857
103	0x3da06ca8	0.078332245
104	0x3da4d3cc	0.080482095
105	0x39ecd953	0.00045175347
106	0x3d68f4d5	0.056874115
107	0x3b9dfb45	0.0048212134
108	0xbb2b2c4a	-0.0026118928
109	0x3b4120d7	0.0029469037
110	0x3c6d1679	0.01447069
111	0x3d238fa5	0.039931912
112	0x3dbdfcc7	0.09276729
113	0x3b2aa106	0.002603592
114	0x3db4baba	0.08824678
115	0x3ce6cc09	0.028173463
116	0xbd06de04	-0.032926574
117	0x3c8ba4a0	0.017046273
118	0xbc129541	-0.008946718
119	0xbd1a8f45	-0.03773429
120	0x3beea25e	0.0072825393
121	0xbd181f7d	-0.037139405
122	0xbd6f17a2	-0.058372147
123	0x3b3b0421	0.0028536397
124	0xbd6d03c4	-0.05786492
125	0xbce0ad6c	-0.027426444
126	0x3ce8eb9b	0.028432658
127	0x3c4e2da4	0.012584124
128	0xbc555f5b	-0.013023223
129	0x3d464b72	0.048411794
130	0xbc0557ff	-0.008138656
131	0xbd2133fc	-0.039356217
132	0x3c16b537	0.009198478
133	0xbd34eeae	-0.044172935
134	0xbc3dde42	-0.011588635
135	0x3d4de2e2	0.0502652
136	0x3d208508	0.03918937
137	0xbca6c1f7	-0.020356162
138	0xbb309d62	-0.0026949276
139	0xbd81f70d	-0.06345949
140	0xb9a9e61a	-0.0003240563
141	0xbd329a0b	-0.043603938
142	0xbd5436dc	-0.05181013
143	0x3ba6ca4c	0.0050900336
144	0xbc33220b	-0.010933409
145	0xbc4bcbe5	-0.012438749
146	0x3ce70a72	0.028203223
147	0x3c635f52	0.013877707
148	0x3ce01870	0.027355403
149	0x3d16d320	0.03682244
150	0xbd013137	-0.031541076
151	0x3cd69cd9	0.026197838
152	0x3c871f7f	0.01649451
153	0x3cabadd0	0.020956904
154	0x3cec917e	0.02887797
155	0x3c5a4a12	0.013323324
156	0x3cc9d2d5	0.024636665
157	0x3cb1537b	0.021646252
158	0x3c40b90f	0.011762871
159	0xbba75828	-0.0051069446
160	0xbcdb5332	-0.026773069
161	0xbd1ecc78	-0.038769215
162	0xbc812c30	-0.01576814
163	0x3c2e7fc1	0.010650576
164	0x3c54e1af	0.01299326
165	0x3cb4c0a7	0.02206452
166	0xbc4973c6	-0.012295669
167	0x3cd43010	0.025901824
168	0xbcd84755	-0.026401201
169	0xbb86f8fe	-0.0041190377
170	0x3bba66a0	0.0056885034
171	0xbe03f4c8	-0.12886345
172	0xbd8f935f	-0.07010531
173	0x3cf83fd4	0.030303873
174	0xbdb66d98	-0.08907622
175	0x3d84700f	0.06466686
176	0x3dd95cb2	0.10613383
177	0xbce5a9fe	-0.02803516
178	0x3d41fbe8	0.047359377
179	0x3da91acd	0.08257065
180	0xbd709051	-0.05873138
181	0xbde3b37d	-0.11118219
182	0x3c7fb936	0.015608123
183	0xbdccf747	-0.10008102
184	0xbd97840d	-0.073982336
185	0x3da2c794	0.07948223
186	0xbd804462	-0.06263043
187	0x3d03006d	0.031982828
188	0x3de552ae	0.111974105
189	0xbd05f55c	-0.032704696
190	0xbde41f4e	-0.111387834
191	0xbe653689	-0.22384085
192	0x3bb6e90b	0.00558198
193	0xbdf7692b	-0.12080606
194	0xbe1757d0	-0.14779592
195	0xbc674d32	-0.014117526
196	0xbdc8e6f5	-0.098096766
197	0xbdbde98b	-0.092730604
198	0xbb1264ee	-0.002233799
199	0xbd66e7ca	-0.056373395
200	0xbdf02139	-0.11725087
201	0x3c51f0bb	0.012813742
202	0xbde04c24	-0.10952023
203	0xbdcab761	-0.09898258
204	0xbc21a3aa	-0.009865681
205	0xbd065770	-0.03279823
206	0xbd45f62a	-0.048330463
207	0x3c699365	0.014256333
208	0xbdb8e9ff	-0.09029006
209	0xbd42da42	-0.047571428
210	0xbd309b3b	-0.04311679
211	0xbda0158f	-0.07816612
212	0x3d4dc418	0.050235838
213	0xbd86e5a1	-0.06586767
214	0x3caff8ca	0.021480937
215	0xbb723cb5	-0.0036962454
216	0x3ce89607	0.028391851
217	0x3cb9c5fa	0.02267741
218	0x3c0cc906	0.00859285
219	0x3b963ecb	0.004585122
220	0xba0e4cd9	-0.00054283213
221	0x3c959cba	0.01826321
222	0xbd7dd278	-0.061968297
223	0xbd30bad1	-0.043146912
224	0xbbafc4e2	-0.0053640464
225	0x3bc0db8f	0.0058855484
226	0xbb376e0e	-0.0027989182
227	0x3c219bbf	0.009863793
228	0xbcaa6edc	-0.020804815
229	0xbcb68ccb	-0.022283932
230	0xbc1e4bfd	-0.009661672
231	0x3cc08dce	0.023505118
232	0x3b02de98	0.0019969102
233	0x3c67ab4b	0.0141399605
234	0xbce24544	-0.027620919
235	0xbc578486	-0.013154155
236	0x3d51605f	0.051117297
237	0x3b25a9d8	0.0025278237
238	0x3d7e2f66	0.06205692
239	0x3d7a8ddc	0.061170444
240	0x3c97c536	0.018526655
241	0x3d64f86a	0.05590097
242	0x3cfa4a50	0.030553013
243	0xbd81f658	-0.063458145
244	0xbd878cb7	-0.06618636
245	0xbccfe6e5	-0.025378654
246	0x3b310214	0.0027009295
247	0x3bd01d99	0.0063511846
248	0x3cfcb03f	0.03084576
249	0x3c79ad57	0.015239081
250	0xbb00a4f5	-0.0019629572
251	0x3bfc4605	0.0076987767
252	0xbd26365f	-0.040579196
253	0xbd6fc60b	-0.058538478
254	0x3b990b6c	0.004670551
255	0xbd17a8c3	-0.037026178

encoder.encoder.1.0.bias f4 [64]
0	0xbbcfb8f2	-0.006339186
1	0xbceaa380	-0.028642416
2	0xbb6b39f5	-0.00358927
3	0x3b9e593b	0.0048324144
4	0x3c918c4c	0.017767094
5	0xbc1376ae	-0.009000463
6	0x3c965b44	0.018354066
7	0x3b696306	0.0035612
8	0xbc75a2f1	-0.014992462
9	0xba059fd6	-0.0005097365
10	0x3ba03c32	0.0048899883
11	0x3c9ccd31	0.019140812
12	0xbcc03b30	-0.023465723
13	0x3cda1ec9	0.026626008
14	0xbbb493bd	-0.005510776
15	0xbc6985d7	-0.014253101
16	0xbcc4e6c4	-0.024035819
17	0xbcabdcfe	-0.0209794
18	0xbc238050	-0.009979323
19	0xbb2b81dd	-0.0026169934
20	0x3c65946f	0.01401244
21	0x3c65f9da	0.01403662
22	0x3c6428ab	0.013925712
23	0xbb558b62	-0.00325843
24	0x3ababb9e	0.0014246588
25	0x3b6a2d42	0.0035732542
26	0x3ce214d3	0.02759782
27	0x3b0c8ca8	0.0021446142
28	0xbca97354	-0.020684876
29	0xbc389b18	-0.011267446
30	0xbc88c397	-0.016694827
31	0xbc47dd5d	-0.012198773
32	0x3ce49312	0.02790216
33	0x3cdc5bff	0.026899336
34	0x3bd3bb8b	0.006461566
35	0x3ba225f6	0.004948373
36	0xbbc0f3bc	-0.0058884304
37	0x3c25504e	0.010089947
38	0x3ae2238c	0.0017253025
39	0x3ca123a6	0.019670319
40	0xbcb4ad75	-0.022055367
41	0xbb669677	-0.00351849
42	0x3c6f7861	0.014616103
43	0x395d2ca1	0.00021092828
44	0x3c1891f7	0.0093121445
45	0x3c9c36ba	0.019069064
46	0xba0475d7	-0.000505296
47	0x3ce41213	0.02784065
48	0x3cb8d212	0.022561107
49	0x3b5c20d1	0.0033588896
50	0xbc969fe1	-0.018386783
51	0x3cae388f	0.021267204
52	0xbcab6bc2	-0.020925406
53	0x3b8045e0	0.0039145797
54	0xbcd0e37c	-0.025499098
55	0xbc848af7	-0.016179545
56	0x3c83fc45	0.016111502
57	0xbbdbf428	-0.0067124553
58	0x3cbcb453	0.023035204
59	0x3cbc0b5e	0.022954639
60	0x3c4599d7	0.012060604
61	0xbbcb13c1	-0.006197423
62	0x3cd18cc3	0.025579816
63	0x3cd6907c	0.026191942

encoder.encoder.1.1.weight f4 [64]
0	0x3ec62d5f	0.3870649
1	0x3eaf5f49	0.34252384
2	0xb7be456a	-2.2682088e-05
3	0x3ed55125	0.4166347
4	0x3f2042aa	0.6260172
5	0x3ee56e2c	0.44810617
6	0x3ebd376f	0.36956355
7	0x3ec8dbfa	0.3923033
8	0x3ecb365d	0.39689913
9	0x3e4865cd	0.19570084
10	0x3ec3d2da	0.38246804
11	0x3f24e1e7	0.644072
12	0x3e77a1e5	0.24182852
13	0x3f1b9536	0.6077455
14	0x3e8debea	0.2771905
15	0x3f1a1bef	0.60198873
16	0x3f125321	0.57158095
17	0x3e4577a0	0.19283915
18	0x3eff65c4	0.4988233
19	0x3eb07004	0.3446046
20	0x3f05854e	0.5215653
21	0x3ef33e05	0.47508255
22	0x3ea82da8	0.32847333
23	0x3ed4f7b6	0.41595238
24	0x3f0aadf6	0.54171693
25	0x3f000168	0.50002146
26	0x3ea46612	0.32109123
27	0x3eaff3e5	0.34365764
28	0x3efe7945	0.49701896
29	0x3ec9ac8f	0.39389464
30	0x3ef69aaf	0.4816489
31	0x3f3874d5	0.7205327
32	0x3ecfa0dd	0.40552416
33	0x3e13497f	0.14383505
34	0x3ea4b1f4	0.32167017
35	0x3f025b24	0.5092032
36	0x3ec29101	0.38001254
37	0x3eadcb1a	0.33944017
38	0x3ed00d5d	0.40635195
39	0x3f1b4da8	0.6066537
40	0x3ee0cc5b	0.4390591
41	0x3e70d9c6	0.23520574
42	0xb913cadf	-0.00014094588
43	0x3f07bb93	0.5302059
44	0x3edb02dc	0.4277562
45	0x3f179c73	0.592231
46	0x3e9f9fec	0.31176698
47	0x3d973185	0.07382492
48	0x3ec84b92	0.39120156
49	0x3e942ace	0.28938907
50	0x3f04306c	0.51636386
51	0x3ef961b0	0.48707342
52	0x3e43e39b	0.19129793
53	0x3ec75d3c	0.3893832
54	0x3edbe007	0.42944357
55	0x3e198ffc	0.14996332
56	0x3eac6dd3	0.3367754
57	0x3eb83290	0.35976076
58	0x3eff5512	0.4986959
59	0x3ee3ef34	0.44518435
60	0x3f1cd296	0.6125883
61	0x3eac7bbb	0.3368815
62	0x3eede23a	0.4646166
63	0x3eb552cd	0.35414734

encoder.encoder.1.1.bias f4 [64]
0	0xbdf62d4d	-0.12020359
1	0xbe8226fc	-0.25420368
2	0xba33e47f	-0.00068623567
3	0xbe8b72e7	-0.272361
4	0xbe3ded85	-0.18547638
5	0xbde822e7	-0.11334782
6	0xbe464e4a	-0.19365802
7	0xbe64ee22	-0.22356465
8	0xbe73ca05	-0.23807533
9	0xbdea5360	-0.11441684
10	0xbe3b6f3e	-0.18304154
11	0xbe8fe757	-0.28106186
12	0x3c159a0f	0.009130969
13	0xbe706601	-0.23476411
14	0xbe5fe59c	-0.21864933
15	0xbeb1d803	-0.34735116
16	0xbe9239f1	-0.2855983
17	0xbdd97ae1	-0.106191404
18	0xbe4853df	-0.19563244
19	0xbdc6ef85	-0.097136535
20	0xbe8b6080	-0.2722206
21	0xbeaeb546	-0.34122676
22	0xbddc79ef	-0.107654445
23	0xbe09dc3e	-0.13462922
24	0xbe804758	-0.2505443
25	0xbe910e4a	-0.28331214
26	0x3cb76853	0.022388613
27	0xbe1f9fcf	-0.15588306
28	0xbe84dbae	-0.25948852
29	0xbe4ad0b9	-0.19806184
30	0xbe6d48cf	-0.23172306
31	0xbee68863	-0.4502593
32	0xbe1b5f01	-0.1517296
33	0xbcf04d14	-0.029333629
34	0xbe1524bc	-0.14564794
35	0xbc3e495a	-0.011614168
36	0xbed66c57	-0.41879532
37	0xbeb14889	-0.34625652
38	0xbe4d566e	-0.20052502
39	0xbe91461e	-0.28373808
40	0xbe01f45f	-0.12690876
41	0xbe1c710e	-0.15277502
42	0xbbf0f3fe	-0.007353305
43	0xbe94997a	-0.29023343
44	0xbe73b21c	-0.23798412
45	0xbe62e95c	-0.22159332
46	0xbd6d17a2	-0.057883866
47	0x3b5e5766	0.0033926605
48	0xbe2cb0f3	-0.16864376
49	0xbe1a7887	-0.1508504
50	0xbe73482e	-0.23758003
51	0xbe9fdc3e	-0.3122272
52	0xbcef5555	-0.029215494
53	0xbe4d8011	-0.20068385
54	0xbe69f08f	-0.22845672
55	0xbc669675	-0.014073958
56	0xbdef6897	-0.11689871
57	0xbe31fd24	-0.17381722
58	0xbe8c5e36	-0.27415627
59	0xbde325b5	-0.110911764
60	0xbe74ea23	-0.23917441
61	0xbe4f3786	-0.20236024
62	0xbde7a420	-0.11310601
63	0xbe62b422	-0.22139028

encoder.encoder.1.1.running_mean f4 [64]
0	0xbf26d95f	-0.6517543
1	0xbe20cf69	-0.1570412
2	0xbdbab914	-0.09117332
3	0xbf632fd8	-0.8874488
4	0xbf96eedc	-1.1791644
5	0xbf4d0f11	-0.80101115
6	0xbe82b37d	-0.25527564
7	0xbeffafc3	-0.49938783
8	0xbe67e25c	-0.22644943
9	0xbcb8381d	-0.022487694
10	0xbf01439b	-0.5049378
11	0xbf84eae5	-1.0384184
12	0xbe8d5201	-0.27601627
13	0xbf553d4a	-0.83296645
14	0x3e3ce749	0.18447603
15	0xbf426070	-0.759284
16	0xbfad435f	-1.3536185
17	0x3f004cf4	0.5011742
18	0xbf15fa4a	-0.58585036
19	0xbe9f6c9c	-0.3113755
20	0xbf36f478	-0.7146678
21	0xbf36f498	-0.7146697
22	0xbe9a1ca4	-0.30099976
23	0xbf39f1ee	-0.7263478
24	0xbf81a161	-1.0127374
25	0xbf5fda97	-0.87442917
26	0xbe7001bd	-0.23438163
27	0xbf1fe1f3	-0.62454146
28	0xbede1e79	-0.43382624
29	0xbf256fea	-0.6462389
30	0xbf27c505	-0.65535
31	0xbf878899	-1.0588561
32	0xbe97f337	-0.29677746
33	0x3c9da30c	0.019242786
34	0xbed45c9f	-0.41476914
35	0xbf83793c	-1.0271373
36	0xbe43c5ca	-0.1911842
37	0xbcb55a54	-0.022137798
38	0xbf4d075d	-0.8008936
39	0xbf6ec970	-0.9327612
40	0xbf88a1ad	-1.067434
41	0x3d0c3203	0.034227382
42	0x3dbb5a15	0.09148041
43	0xbf5a1de4	-0.8520186
44	0xbf2ac84b	-0.6671187
45	0xbfd4e3ac	-1.663198
46	0xbee9aa59	-0.45637777
47	0xbdfec443	-0.12439778
48	0xbf668cf9	-0.9005886
49	0xbc7f6573	-0.015588152
50	0xbf623697	-0.8836455
51	0xbf7ca562	-0.98689854
52	0xbe7a1fc7	-0.24426185
53	0xbf453ee2	-0.77049077
54	0xbedfb84d	-0.43695298
55	0xbde18789	-0.110121794
56	0xbefbf372	-0.49209172
57	0xbf0876d8	-0.5330634
58	0xbefc3523	-0.4925929
59	0xbf295c2a	-0.66156256
60	0xbf8df579	-1.1090537
61	0xbe9562be	-0.29176897
62	0xbf789f1c	-0.9711778
63	0xbedf1787	-0.43572637

encoder.encoder.1.1.running_var f4 [64]
0	0x3f17cef4	0.5930016
1	0x3eed697f	0.4636955
2	0x3c30a46b	0.010781388
3	0x3f45a551	0.7720538
4	0x3fa36f8a	1.2768414
5	0x3f28186e	0.65662277
6	0x3f2007b6	0.62511766
7	0x3f1e88ad	0.619273
8	0x3f615e9b	0.8803498
9	0x3d8732c2	0.06601478
10	0x3f00be12	0.50290024
11	0x3fb0c20f	1.3809222
12	0x3e40353d	0.18770309
13	0x3f89a2d3	1.0752815
14	0x3ed70ac0	0.4200039
15	0x3f8477cc	1.0349059
16	0x3f616445	0.88043624
17	0x3e70df7a	0.2352275
18	0x3f3fbfbb	0.7490193
19	0x3f113680	0.56723785
20	0x3f813db6	1.0096958
21	0x3f1aeb9d	0.6051577
22	0x3e4d19f9	0.20029439
23	0x3f08eaed	0.5348347
24	0x3f745d4c	0.9545486
25	0x3f1065c4	0.5640528
26	0x3f7014ae	0.93781555
27	0x3e82dd2c	0.25559366
28	0x3f60a248	0.8774762
29	0x3f286dd1	0.65792567
30	0x3f29bf4e	0.6630753
31	0x3fa80f7b	1.3129724
32	0x3f5a43f3	0.8525993
33	0x3d532b17	0.051554766
34	0x3f120b54	0.57048535
35	0x3fc05137	1.5024785
36	0x3f069570	0.52571774
37	0x3e9cd352	0.30629975
38	0x3eca2da1	0.39487937
39	0x3f859e0a	1.0438855
40	0x3f1ac85b	0.6046197
41	0x3dd1d9c4	0.102466136
42	0x3c5f7110	0.013637796
43	0x3f39556b	0.7239596
44	0x3f786108	0.9702306
45	0x3fa32b36	1.2747562
46	0x3ef40ac8	0.47664475
47	0x3d09e280	0.033663273
48	0x3eefd7d8	0.46844363
49	0x3e21d7d9	0.15804996
50	0x3f22cafb	0.63590974
51	0x3f6886ab	0.90830487
52	0x3d82cbd7	0.063865356
53	0x3f40c61f	0.7530231
54	0x3f2fd379	0.68682057
55	0x3d1d59d3	0.03841574
56	0x3e47479b	0.19460909
57	0x3f30c98d	0.6905754
58	0x3f49a723	0.78770655
59	0x3f2fb41e	0.6863421
60	0x3fd5236d	1.6651436
61	0x3e82441b	0.25442585
62	0x3f9d146e	1.227186
63	0x3e9d9e35	0.30784765

encoder.encoder.2.0.weight f4 [64, 64, 3, 3]
0	0xbcb2bcc4	-0.021818526
1	0xbd1d8cb6	-0.03846427
2	0xbcc05a2b	-0.023480495
3	0xbc1ca6e2	-0.009561272
4	0x3d3463cc	0.044040486
5	0xbbe1db27	-0.00689258
6	0x3c285af1	0.010275588
7	0x3c3269a7	0.010889447
8	0xbd984ca3	-0.07436492
9	0xbc6fa29d	-0.014626172
10	0x3cfc8845	0.030826697
11	0x3d02bd27	0.03191867
12	0xbd5c62ce	-0.053805165
13	0xbd63e029	-0.055633698
14	0xbd6315ba	-0.055440642
15	0xbcf5c069	-0.029998975
16	0xbce10566	-0.027468394
17	0xbd6b50a0	-0.057449937
18	0x3c3a3d11	0.011367098
19	0x3cc9e8bc	0.02464711
20	0x3c1cd30b	0.009571801
21	0x3b708252	0.003669877
22	0x3bb712e7	0.00558697
23	0x3c89be08	0.016814247
24	0x3c1a2eed	0.009410602
25	0x3c93cf8a	0.018043298
26	0x3cad0810	0.021122009
27	0xbd48144c	-0.04884748
28	0xbcc9e79e	-0.024646576
29	0xbc695b35	-0.014242937
30	0xbcd7d87c	-0.026348345
31	0xbd887f1d	-0.0666487
32	0x3c903087	0.017601265
33	0x3d3851e7	0.044999983
34	0x3c56a7be	0.013101516
35	0xbd49dce9	-0.049282942
36	0x3d1d98f2	0.03847594
37	0x3d40cd26	0.047070645
38	0x3cd9cca3	0.026586836
39	0xbcdad94b	-0.026714941
40	0xbcb0c4b8	-0.021578178
41	0xbd5f91d0	-0.054582417
42	0xbc6f1932	-0.014593409
43	0xbbc1d2d7	-0.0059150266
44	0xbbd0d6e3	-0.0063732727
45	0xbd4c52ce	-0.049883656
46	0xbd66b91b	-0.056328874
47	0xbda8a1ee	-0.08234011
48	0xbdc6d019	-0.0970766
49	0xbd06c2af	-0.03290051
50	0xbd1b1813	-0.037864756
51	0xbd167cbb	-0.036740046
52	0x3d0d70e4	0.03453149
53	0x3d339f28	0.043852955
54	0xbd769772	-0.060203023
55	0xbc9882c4	-0.018617041
56	0xbd9a4c26	-0.075340554
57	0xbd2c4aff	-0.04206371
58	0xbd4cc7df	-0.0499953
59	0xbd895848	-0.067062914
60	0xbba51b88	-0.0050386824
61	0xbc68ef26	-0.014217174
62	0xbc5fc50e	-0.013657821
63	0xbc7da39e	-0.015480904
64	0xbd37a547	-0.044835355
65	0xbcba8df6	-0.02277277
66	0xbce80f5c	-0.028327636
67	0xbcf9fa39	-0.030514823
68	0xbbca776a	-0.006178786
69	0xbc28dbdf	-0.010306328
70	0xbd08cb61	-0.033397082
71	0xbbabf238	-0.0052473806
72	0xbcecd3d0	-0.028909594
73	0xbd07b202	-0.033128746
74	0x3d04dd47	0.03243759
75	0xbcd4caf4	-0.025975682
76	0xbb8d6c93	-0.0043159216
77	0x3c12bf55	0.00895675
78	0xbcc84d98	-0.024451062
79	0xbd3a1ee3	-0.045439612
80	0xbcaf6e02	-0.02141476
81	0x3bed3cb6	0.0072399033
82	0xbb31a5ea	-0.002710695
83	0xbbf63d0d	-0.007514602
84	0x3d7d8771	0.061896745
85	0x3d41bdef	0.047300275
86	0x3ccac5e4	0.024752565
87	0x3d03ba57	0.03216013
88	0x3c91576f	0.017741887
89	0x3c941604	0.018076904
90	0xbc02f035	-0.00799184
91	0x3ca1534e	0.019693043
92	0xb9eeda64	-0.0004555761
93	0x3c1063d8	0.008812867
94	0x3bb6b20a	0.005575423
95	0xbc176e47	-0.009242601
96	0x3a9cd313	0.001196476
97	0xbbf476e6	-0.007460463
98	0xbcfd8fa8	-0.03095229
99	0x3dd194bf	0.10233449
100	0x3cfb653d	0.030687923
101	0x3d6465ff	0.055761334
102	0x3d00207c	0.03128098
103	0xbc8d1406	-0.017221462
104	0xbcc0b98d	-0.023525978
105	0xbbbc6792	-0.005749651
106	0xbcc3f08d	-0.023918414
107	0xb8fb9615	-0.000119965676
108	0x3cbcd24b	0.023049494
109	0xbc62806b	-0.013824563
110	0xbc429db8	-0.011878423
111	0x3cab9827	0.020946575
112	0xbb772a50	-0.003771443
113	0xbd3ad3d2	-0.045612164
114	0xbd22b3f0	-0.039722383
115	0xbca189fd	-0.019719118
116	0xbd68054e	-0.056645684
117	0xbd033e52	-0.032041855
118	0xbd5cbbdf	-0.053890105
119	0xbcd1a4cd	-0.025591278
120	0xbb76a0f3	-0.0037632554
121	0xbcd07795	-0.025447646
122	0xbd7d8d6b	-0.061902445
123	0xbd517425	-0.051136155
124	0xbd1a75c5	-0.03770997
125	0xbbf708e4	-0.0075389016
126	0xbdd0b9eb	-0.10191711
127	0xbd65f4d7	-0.0561417
128	0xbd651fb8	-0.055938452
129	0xbdc1f51d	-0.0947058
130	0xbd741009	-0.059585605
131	0xbd35a080	-0.044342518
132	0xbd6e75a5	-0.058217663
133	0xbd24d56e	-0.040242605
134	0xbd0144d0	-0.031559765
135	0x3b0efb05	0.00218171
136	0x3c0207ab	0.0079363985
137	0x3cb687be	0.022281524
138	0xbc6adc9e	-0.014334826
139	0x3d27dccb	0.04098205
140	0x3cd02eac	0.02541288
141	0xbd82b8d3	-0.06382909
142	0xbd87a899	-0.06623954
143	0xbc42c065	-0.011886691
144	0xbc4878a2	-0.012235792
145	0xba1a382a	-0.0005883003
146	0xbb911b3f	-0.004428297
147	0x3d2f2486	0.04275944
148	0x3d86e984	0.06587508
149	0x3d3d6100	0.046235085
150	0x3dac0157	0.08398693
151	0x3e0f5683	0.13997845
152	0x3e060269	0.13086857
153	0x3c10fa20	0.008848697
154	0x3d05d64b	0.03267507
155	0x3cbffdd5	0.023436466
156	0x3d24ffaf	0.0402829
157	0xbc8d539b	-0.01725178
158	0x3c9b16e1	0.018931808
159	0x3d4996b4	0.049215987
160	0x3d03d3ee	0.032184534
161	0x3c519bec	0.012793522
162	0xbc5194ea	-0.012791852
163	0xbc54e08c	-0.012992989
164	0x3d07fbb9	0.033199046
165	0xbc6cd09e	-0.014454035
166	0xbccab4e5	-0.02474446
167	0xb8c22906	-9.258282e-05
168	0xbd3ae14d	-0.04562502
169	0x3d24e877	0.04026076
170	0x3d211492	0.039326258
171	0xbcdb3bf0	-0.026761979
172	0x3c6b867a	0.014375323
173	0xbd2dd2b1	-0.04243726
174	0x3da1448a	0.07874401
175	0x3c539b70	0.012915477
176	0xbc24a331	-0.0100486735
177	0x3d0e3005	0.034713764
178	0xbd2dce6e	-0.042433195
179	0xbca03e70	-0.019561023
180	0xbe0d6fe4	-0.13812214
181	0xbe040969	-0.12894215
182	0xbdfc9455	-0.123329796
183	0xbd466b73	-0.048442315
184	0xbd92c462	-0.07166363
185	0xbe0087b0	-0.1255176
186	0xbd58203f	-0.052765127
187	0xbdb56d15	-0.08858696
188	0xbdde729c	-0.10861704
189	0xbda0d853	-0.078537606
190	0xbd66386a	-0.056206144
191	0xbd5873a1	-0.052844647
192	0x3ca068a9	0.019581156
193	0x3cd1f10a	0.025627632
194	0xbb3a4819	-0.0028424321
195	0x3b671a7a	0.0035263584
196	0xbcafa95a	-0.021443058
197	0xbbeb8d03	-0.0071884408
198	0xbc4e683a	-0.012598092
199	0xbce97f59	-0.028503107
200	0xbd209873	-0.039207887
201	0xbd0b77c0	-0.03404975
202	0xbb97279c	-0.004612876
203	0xbc82e57f	-0.015978573
204	0x3d8c64dc	0.06855175
205	0x3d449a3e	0.04799866
206	0xbbe867ce	-0.0070924526
207	0xbd3d72c8	-0.046252042
208	0xbd6d2666	-0.057897948
209	0xbdbedfba	-0.09320016
210	0xbc110fc1	-0.008853854
211	0xbd168180	-0.036744595
212	0xbd6c3896	-0.057671152
213	0x3d100e5f	0.035169955
214	0xbca83051	-0.020530852
215	0xbcaeb796	-0.021327775
216	0xbd497e2a	-0.049192585
217	0xbcff5b53	-0.031171476
218	0xbd6a1574	-0.057149366
219	0xbd3075e4	-0.04308118
220	0xbd9adb0b	-0.075613104
221	0xbd4c8ffd	-0.049942005
222	0xbd23c574	-0.039983228
223	0xbd54f6f0	-0.05199331
224	0xbd30276f	-0.043006357
225	0x3c4073a2	0.011746319
226	0xbc3cc838	-0.011522345
227	0xbca3ecfd	-0.020010466
228	0x3c1bbca4	0.009505425
229	0x3cb3d75c	0.021953277
230	0xbd04be7b	-0.03240822
231	0xbbaf6167	-0.0053521874
232	0xbbd1f2ff	-0.006407141
233	0xbd8e0beb	-0.06935867
234	0x3c1ae3b5	0.009453704
235	0x3d0a9f1c	0.033843145
236	0x3c2081c6	0.009796565
237	0xbb12a326	-0.0022375076
238	0xbd66f295	-0.056383688
239	0xbd8ac752	-0.067762986
240	0xbd3c3252	-0.045946427
241	0xbb00cedd	-0.001965455
242	0x3c94444c	0.018098973
243	0xbd7a3c00	-0.061092377
244	0xbd03a42b	-0.032138985
245	0xbd02b3b5	-0.031909663
246	0xbb8eb81b	-0.004355443
247	0xbab117a5	-0.0013511075
248	0xbbf180e0	-0.0073700994
249	0x3d20c695	0.039251883
250	0x3d1424b8	0.03616783
251	0x3d149d9a	0.036283113
252	0xbd48db63	-0.04903735
253	0xbcad4aac	-0.02115377
254	0xbc71a86f	-0.01474963
255	0xbac183e5	-0.0014764039

encoder.encoder.2.0.bias f4 [64]
0	0x3c5d1b1d	0.013495234
1	0xbcc9ded9	-0.024642395
2	0xbccde51d	-0.025133664
3	0x3c9f2f2a	0.01943167
4	0xbcd4ab27	-0.025960518
5	0x3cc3ab28	0.023885325
6	0xbcd4f1eb	-0.025994262
7	0x3c4d8286	0.012543326
8	0xbcd809d4	-0.026371874
9	0x3c1ecd63	0.009692523
10	0xb9ff8b79	-0.00048741305
11	0xbb2bc3fb	-0.0026209343
12	0xbc9ae1fa	-0.018906582
13	0xbbd84e5b	-0.0066011376
14	0x3caa8dae	0.020819511
15	0x3c2d47fb	0.0105762435
16	0xb9e25128	-0.00043166545
17	0xbb39d25c	-0.0028354144
18	0x3caa2c54	0.02077309
19	0x3cb84e84	0.022498377
20	0xbc72fc3c	-0.014830645
21	0x3c2cbc1e	0.0105428975
22	0x3b838c2b	0.004014512
23	0xbc303e9c	-0.010757115
24	0xbaa798e4	-0.0012786654
25	0x3c56a648	0.013101168
26	0x3caa43f8	0.020784363
27	0xbba5fddc	-0.005065663
28	0x3ce3b586	0.027796518
29	0xba8c9d5f	-0.0010728053
30	0x3cb844f1	0.022493811
31	0xbc7e28a2	-0.015512617
32	0x3c6c2a5a	0.014414394
33	0xbb5499f8	-0.0032440405
34	0x3c8ad2a1	0.016946139
35	0x3c0c1ecf	0.008552267
36	0xbc8e3b07	-0.01736213
37	0x3cb17df4	0.021666504
38	0xbc048811	-0.008089081
39	0x3c88a682	0.01668096
40	0xbce709df	-0.02820295
41	0xbc95c01e	-0.018280085
42	0x3c0544f5	0.008134116
43	0x3c7fd034	0.015613604
44	0xbc4a5da5	-0.012351428
45	0xbc004cdf	-0.0078308275
46	0xbc1c1cb8	-0.009528331
47	0x3c5140bc	0.0127717815
48	0x3cb3e870	0.02196142
49	0x3b4f02ea	0.003158743
50	0xbc97e701	-0.018542768
51	0x3ba05f4e	0.0048941737
52	0xbb930eaf	-0.0044878344
53	0x3cab830b	0.02093651
54	0x3cdef1b9	0.027214872
55	0xbcbdbed2	-0.02316228
56	0xbc9d8121	-0.019226613
57	0xbbb28f4a	-0.0054492103
58	0xbca4abce	-0.020101454
59	0xbc57e0a4	-0.013176117
60	0x3cb34f91	0.021888526
61	0xbcccd14b	-0.025002142
62	0xbc3c035c	-0.01147541
63	0xbbace7db	-0.0052766628

encoder.encoder.2.1.weight f4 [64]
0	0x3ef15758	0.4713695
1	0x3f06dc84	0.5268023
2	0x3ec00445	0.37503257
3	0x3e990ea9	0.29893997
4	0x3ea65df7	0.32493564
5	0x3ec10683	0.3770028
6	0x37398e8b	1.1060048e-05
7	0x3efca95b	0.49347958
8	0x3e96b02e	0.2943129
9	0x3ec78f63	0.38976583
10	0x3ecfd42a	0.40591556
11	0x3ee32c5f	0.4436979
12	0x3e94c88e	0.2905926
13	0x3ed9ab54	0.42513525
14	0x3ea26116	0.31714696
15	0x3f17cddc	0.5929849
16	0x3eb7d7ba	0.35906774
17	0x3ef515e0	0.47868252
18	0x3ecb28c6	0.39679545
19	0x3e962493	0.2932478
20	0x3f087882	0.5330888
21	0x3ea98003	0.33105478
22	0x3ec97eb3	0.39354476
23	0x3eaedc59	0.34152487
24	0x3eefed9f	0.46860978
25	0x3f2576af	0.6463422
26	0x3f064555	0.5244954
27	0x3ea4a87c	0.32159793
28	0x3f01c7e6	0.50695646
29	0x3ed75899	0.42059782
30	0x3f02b437	0.51056236
31	0x3eb4f795	0.3534514
32	0x3f0283ac	0.50982165
33	0x3ea84d49	0.32871464
34	0x3e9cad62	0.3060103
35	0x3ef21c8d	0.47287408
36	0x3f1a3c27	0.60248035
37	0x3eaa5585	0.3326837
38	0x3f0130d1	0.5046511
39	0x3ee021bb	0.43775734
40	0x3ebdcc8a	0.37070113
41	0x3ef639e9	0.48091057
42	0x3ec7e66e	0.3904299
43	0x3ea85ac2	0.32881743
44	0x3ea2d617	0.31803963
45	0x3ee5848b	0.44827685
46	0x3ec5a226	0.38600272
47	0x3edbbe02	0.42918402
48	0x3eb23f96	0.34814137
49	0x3eac7c9b	0.33688816
50	0x3eac4872	0.3364902
51	0x3ecd7902	0.40131384
52	0x3ed59982	0.4171868
53	0x38e3b0c0	0.00010857126
54	0x3ebcf44d	0.36905137
55	0x3e94b272	0.29042393
56	0x3edccaed	0.4312357
57	0x3eae0f65	0.3399612
58	0x3ef0f24f	0.47059867
59	0x3e374fd1	0.17901541
60	0x3ed34d87	0.41270086
61	0x3ead833e	0.33889192
62	0x3f27e482	0.6558305
63	0x3ec8375b	0.39104733

encoder.encoder.2.1.bias f4 [64]
0	0xbec0ff34	-0.37694705
1	0xbecb3a58	-0.3969295
2	0xbeea1d26	-0.45725363
3	0xbe270c11	-0.16313197
4	0xbe6b3751	-0.2297032
5	0xbe9b243a	-0.30301076
6	0xba73bdb7	-0.0009297984
7	0xbeaaab13	-0.33333644
8	0xbe2a4b02	-0.16630176
9	0xbef263c6	-0.47341746
10	0xbecc8232	-0.3994308
11	0xbee07bbe	-0.43844408
12	0xbe89d434	-0.2691971
13	0xbea3888a	-0.3194011
14	0xbe5fa37e	-0.21839711
15	0xbe863d08	-0.26218438
16	0xbe82c6ba	-0.2554224
17	0xbee172f2	-0.4403301
18	0xbe9390e7	-0.2882149
19	0xbe2f7d1b	-0.17137568
20	0xbed7cccd	-0.42148438
21	0xbe3c6c2d	-0.18400641
22	0xbed17094	-0.40906203
23	0xbe39ca1d	-0.18143506
24	0xbecec1a2	-0.40382105
25	0xbf34c950	-0.7061968
26	0xbe802526	-0.25028342
27	0xbe9ea465	-0.30984798
28	0xbee09b14	-0.43868315
29	0xbe94445f	-0.28958413
30	0xbeb9493f	-0.36188695
31	0xbec1e6a0	-0.37871265
32	0xbedcf772	-0.43157536
33	0xbe87532c	-0.26430643
34	0xbe851e13	-0.25999507
35	0xbed31f46	-0.41234797
36	0xbf20b2d5	-0.62772876
37	0xbe8f58e1	-0.27997497
38	0xbee2b565	-0.44279018
39	0xbece54e2	-0.40299135
40	0xbe912c3e	-0.28354067
41	0xbedb1fb3	-0.42797622
42	0xbebf1ae5	-0.37325206
43	0xbe3fffdb	-0.18749945
44	0xbe9d16f3	-0.3068157
45	0xbf2f6828	-0.68518305
46	0xbe5abb1b	-0.21360438
47	0xbf0875b6	-0.5330461
48	0xbe5e68a8	-0.2171961
49	0xbe6c8cd8	-0.23100603
50	0xbea02040	-0.31274605
51	0xbee15cbf	-0.44016072
52	0xbece8c10	-0.40341234
53	0xbb3bed38	-0.002867533
54	0xbe97b487	-0.2962992
55	0xbe8c17f3	-0.27362022
56	0xbeda13dc	-0.42593277
57	0xbe476c9e	-0.19475028
58	0xbe80576c	-0.25066698
59	0xbddb211a	-0.10699673
60	0xbe939ee2	-0.28832155
61	0xbe9bbf14	-0.3041922
62	0xbee14251	-0.43995908
63	0xbed29bb0	-0.41134405

encoder.encoder.2.1.running_mean f4 [64]
0	0xbf128feb	-0.5725085
1	0xbec00c96	-0.37509602
2	0xbecbdf6f	-0.39818904
3	0xbe678cd9	-0.22612323
4	0xbdae744a	-0.08518274
5	0xbe4def53	-0.20110826
6	0xbd1351e4	-0.03596677
7	0xbf0f9a11	-0.5609446
8	0xbebac022	-0.3647471
9	0xbee307a1	-0.44341758
10	0xbeb44e3c	-0.35215938
11	0xbf020c0c	-0.5079963
12	0x3c6977a0	0.014249712
13	0xbebcd04d	-0.3687767
14	0xbebae1ec	-0.3650049
15	0xbf5258a6	-0.82166517
16	0x3db15a0f	0.086597554
17	0xbe5f1966	-0.21787032
18	0xbe9b2953	-0.30304965
19	0xbe2d052f	-0.16896509
20	0xbf162025	-0.586428
21	0xbe2d57fa	-0.16928092
22	0xbec7a371	-0.38991883
23	0xbd3dc972	-0.04633469
24	0xbed30c8d	-0.41220513
25	0xbf16916f	-0.58815664
26	0xbf8f6f30	-1.1205807
27	0x3cedd8a3	0.029033964
28	0xbf01dc7f	-0.50727075
29	0xbf39cfd7	-0.72582763
30	0xbf3a99cb	-0.7289092
31	0xbef283cb	-0.47366175
32	0xbf29af80	-0.66283417
33	0xbe7ef222	-0.24897054
34	0xbd8110a4	-0.06302002
35	0xbe7b5b48	-0.2454654
36	0xbf1d57cf	-0.6146211
37	0x3d8e94e6	0.06961994
38	0xbeeb95e0	-0.46012783
39	0xbf077884	-0.5291827
40	0xbeafe7f7	-0.34356663
41	0xbf3beb53	-0.7340595
42	0xbed36cdf	-0.41294
43	0xbe6bc06f	-0.23022626
44	0x3ce5b45b	0.028040102
45	0xbedfdc4a	-0.43722755
46	0xbf163a3c	-0.5868261
47	0x3bd64332	0.006538772
48	0xbe13ad98	-0.1442169
49	0xbe25f8e5	-0.16208227
50	0xbda3725f	-0.07980799
51	0xbe755d5f	-0.239614
52	0xbe900ff7	-0.2813718
53	0x3d3ca626	0.04605689
54	0xbe042077	-0.1290301
55	0xbd69a820	-0.057045102
56	0xbeb5ba2d	-0.35493603
57	0xbeb4ae8a	-0.35289413
58	0xbf55aff6	-0.8347162
59	0x3d6a698b	0.05722956
60	0xbf2974c6	-0.6619381
61	0xbe5d266f	-0.21596693
62	0xbf8062c2	-1.0030138
63	0x3f1dffda	0.61718524

encoder.encoder.2.1.running_var f4 [64]
0	0x3e1900ff	0.14941786
1	0x3e6fdf36	0.23424992
2	0x3da10a83	0.07863333
3	0x3d27b850	0.04094726
4	0x3d74f012	0.05979926
5	0x3dc7ee77	0.097622804
6	0x3ba5f99d	0.0050651566
7	0x3e836dec	0.256698
8	0x3d5e803c	0.054321513
9	0x3e0635fd	0.13106532
10	0x3e37d78e	0.17953321
11	0x3e198ee4	0.14995915
12	0x3db57895	0.0886089
13	0x3e01dd68	0.12682116
14	0x3d5b65d3	0.053563904
15	0x3e8a22b3	0.26979598
16	0x3d8bcbb3	0.06825962
17	0x3e48c984	0.19608122
18	0x3e0567e9	0.1302792
19	0x3d475e07	0.048673656
20	0x3e4c8bd5	0.19975217
21	0x3da28265	0.07935027
22	0x3e048a43	0.12943368
23	0x3d97ce5f	0.07412409
24	0x3e28f831	0.16500928
25	0x3e8a27ec	0.26983583
26	0x3e914fe7	0.28381273
27	0x3d713a3a	0.05889342
28	0x3e5558ea	0.208347
29	0x3e053705	0.1300927
30	0x3e5885dc	0.21144813
31	0x3e155500	0.14583206
32	0x3e59db9d	0.21275182
33	0x3db58dee	0.088649616
34	0x3d7052cb	0.058672708
35	0x3dec945c	0.11551735
36	0x3e4d963e	0.20076844
37	0x3d573036	0.052536212
38	0x3e4fb8d7	0.20285355
39	0x3e47ca1b	0.19510691
40	0x3e152031	0.14563061
41	0x3e396933	0.18106537
42	0x3e1e405e	0.15454242
43	0x3da2a75f	0.0794208
44	0x3e4bc771	0.199003
45	0x3e025b88	0.12730229
46	0x3e55251a	0.20814934
47	0x3e52d84e	0.20590326
48	0x3df863ae	0.121283874
49	0x3d82c461	0.063851126
50	0x3dd40e3a	0.10354276
51	0x3db29f0a	0.087217405
52	0x3dc8db47	0.09807449
53	0x3bcf5a8c	0.0063279327
54	0x3df85681	0.12125874
55	0x3d42048d	0.04736762
56	0x3da58e3d	0.080837704
57	0x3de53002	0.111907974
58	0x3e551952	0.2081044
59	0x3c43a9e4	0.011942361
60	0x3e214095	0.15747292
61	0x3dd49ae0	0.103811026
62	0x3e7a05f6	0.24416336
63	0x3e238b7e	0.15971181
