saves_category/pacs/photo/max_acc.pth (torch_old, 527876 bytes, 28 tensors)

encoder.encoder.0.0.weight f4 [64, 3, 3, 3]
00000000: 3e6c be3d 2913 08be 0c3c 7c3d e753 17be
00000010: 82ea 423d 38dc 29bd 9eb1 193e 3faa e93d
00000020: b411 e8bd 20f4 e9bd bccd f8bb d6e1 e4bd
00000030: cc1e edbd e6a7 a13d e0d9 c5bd fc6d 12be
00000040: 54fb 763d be26 b9bd 0aeb f13d 7dcf 17be
00000050: 7c62 12ba e7d2 0b3e 392a 1a3e 6bb3 02be
00000060: 4a29 e1bc b2ed 21bd 0a0f 07be cefb f7bd
00000070: eff6 1cbd 9635 c3bd 023d d33d 06a8 873d
00000080: aeaa 1cbe 6494 373e 1e7a cc3d 9b31 8b3d
00000090: 9caf efbd 449e 56bd 618d b0bd 7bd3 32bc
000000a0: 8224 13bc 29f2 b53c 477a 453d ca14 b9bc
000000b0: 7001 1c3d d3bb ac3d c835 853d 03e5 15be
000000c0: 6e0d 233d 46ab d13d 72e8 2dbe 5f18 e43c
000000d0: ab0f b6ba 86a5 e63d e7eb 7dbd 1bcc 8ebe
000000e0: 2a25 7cbe 0cf4 153d 456b 413e 3a74 b3bd
000000f0: 061d 723e e71d 0a3e 7e78 533d b62a 85bd
00000100: a8db a2be 1343 b6be 53fe 7a3e c419 183e
00000110: 6314 b8bd 33e2 763e e8f4 b43e 03b7 31bd
00000120: 8a42 7ebd 2d13 20be 88ce 74be a1d7 2d3e
00000130: 4400 f0bd cebf 67bb 3151 403d 6f4f 0d3e
00000140: c419 553b 32c0 133d 406f 99bc 5f89 cabc
00000150: 6085 1ebe c5a3 c13d 2b7a 173d e99b 81bd
00000160: 75b0 c13d 129d 443d 56f3 07bd 255d 82bd
00000170: bfa3 efbc cf13 0cbd e5b3 be3d d22d d0bd
00000180: e309 20bb fc2f 1b3d e195 82bc b7a5 10be
00000190: 1cd8 9f3d 1167 023a 2f24 0cbe e162 1c3e
000001a0: 44da 233e cfe3 6739 a0dc 013d df75 c23d
000001b0: bd56 3b3e 0132 29bc 5364 f6bb 26ba c6bd
000001c0: d838 8f3d 8a90 f5bd 8c1c b83d 4a43 c03c
000001d0: 5e20 e6bd 5a5a 123e 07ca 89bc 58fb fd3d
000001e0: 356d 50bd d55e ebbc e31c 06bc feca 35be
000001f0: 21e1 d03d c601 16be a48b 3f3e 366f bebd
00000200: 2b2d 213e b4c5 6b3d d893 17be 6f10 a9bd
00000210: 236d b9bd a740 bf3d 054b 07be cad0 df3d
00000220: f01a c43d 501b 8b3c a604 83bd 3400 f23b
00000230: 704c 833d 96b0 5fbd a7f2 1b3e 482e f0bd
00000240: 9b20 893d d2b3 a3bb 482b 1b3d 9a4f 833d
00000250: 84f8 0dbd 2ff7 1cbe b6fe 0f3e 0cd1 a83c
00000260: 3343 9abd e919 803d f1aa ec3d 7ab4 d53d
00000270: 94fa f5bc 56d9 d7bd 4733 7b3d 3481 d43d
00000280: d551 663d 004e 843d 4411 cebb e5af 4d3e
00000290: 1efa 07bd dc7f 203c f3c0 e7bc 47c1 35bd
000002a0: b610 36bd cf3e 09be 330a 38bd 2b45 0a3e
000002b0: 61cd 893e f290 813e efe6 aebd 4f9f 383e
000002c0: 2873 983d b361 b6bd d268 88be b964 63be
000002d0: 61b9 783d 0fe3 363e 4f17 613e 3176 aa3c
000002e0: e9ea bf3d dc5c 1ebe 4d59 58bd 6602 a1be
000002f0: 3c3d 88be 071a 9a3d fd9b fb3d e746 8d3d
00000300: f342 23bd 99f5 1fbd e633 c73b 582f 2a3d
00000310: 1868 a8bd e6bc b03d d6a8 c1bd 1afe b13d
00000320: ef62 debd 6807 f73c 2e65 e9bd 02a5 1cbd
00000330: 0209 f03d 5c09 913d 4196 b03d 950b 003d
00000340: c790 383d d423 953d c628 00be aa4b 143e
00000350: 62fe 5b3d faea 043e 2f05 ab3d e01a 143e
00000360: 7636 c7bd a983 6c3d 1630 e73d c15a e7bd
00000370: 8b6e 8d3d da6a 05be 5df0 93bd da00 873d
00000380: 1d78 ad3d 84b5 b7bd 6527 30bd 7e21 113d
00000390: fd3c 7bbd f9eb d3bd 3123 05be 1ba1 cebd
000003a0: a1bc a7bd ea30 ef3d 7be8 843d 0c37 183e
000003b0: 28ae 26bd 4776 acbd 4eff 003e dc21 6d3d
000003c0: 9244 eabd 4a59 62bd 76db dabd 77a4 c8bd
000003d0: 8132 fb3d cc11 073e c138 7bbd 7d1d b83c
000003e0: a8d3 293e a9a5 f5bd 9d92 31be 3455 ed3d
000003f0: ae5f f7bd 607d 003e 717a a13e 5771 7ebe
0.09297989 -0.13288559 0.061580703 -0.147781 0.047586925 -0.041469783 0.15009162 0.11409425
-0.113315016 -0.11423516 -0.007592885 -0.11175887 -0.1157814 0.07893352 -0.09660697 -0.14299768
0.06029828 -0.090405926 0.11812408 -0.14825244 -0.00055841333 0.13654672 0.15055169 -0.12763755
-0.027485508 -0.039533325 -0.1318933 -0.12108575 -0.03832143 -0.09531705 0.10314371 0.06623845
-0.15299484 0.179277 0.099842295 0.06796571 -0.11703417 -0.052397028 -0.08620716 -0.010914679
-0.008980872 0.022210198 0.048212316 -0.02259292 0.03808731 0.08434262 0.065043986 -0.14638142
0.03980773 0.10237746 -0.16983202 0.027843652 -0.0013890167 0.1126204 -0.061992552 -0.27890095
-0.24623552 0.036609694 0.18888576 -0.08762403 0.23643884 0.1348797 0.051628582 -0.06502287
-0.3180821 -0.3559805 0.2451108 0.14853579 -0.089882635 0.24109726 0.353431 -0.043387424
-0.062075175 -0.15632315 -0.2390691 0.16976787 -0.11718801 -0.0035362127 0.04695243 0.13799833
0.0032516578 0.036071964 -0.018729806 -0.024723707 -0.15480566 0.09455065 0.036981743 -0.063285656
0.09457485 0.048001356 -0.033191048 -0.06365422 -0.029252885 -0.03419858 0.09311656 -0.101649895
-0.0024419955 0.03788756 -0.015940608 -0.14125715 0.078048915 0.00049744645 -0.13685678 0.15272094
0.1600123 0.00022114742 0.031704545 0.094951384 0.18294807 -0.010326863 -0.007519284 -0.09703474
0.06993264 -0.11990459 0.0898982 0.023469586 -0.11236642 0.14292279 -0.016819967 0.12401456
-0.050885398 -0.028731743 -0.008185598 -0.17753217 0.1019919 -0.14649114 0.18705612 -0.092985556
0.15739886 0.05756159 -0.14802492 -0.082550876 -0.09054019 0.09338503 -0.13212211 0.10928495
0.095754504 0.016980797 -0.06397371 0.007385278 0.06411064 -0.054611765 0.15229283 -0.117275774
0.06695672 -0.0049958015 0.037883073 0.06411667 -0.03466083 -0.15328668 0.14062008 0.020607494
-0.075323485 0.06254942 0.11556042 0.10434814 -0.030026712 -0.105395004 0.0613282 0.10376206
0.056230385 0.0646019 -0.0062886793 0.2008663 -0.033197515 0.009796109 -0.028290248 -0.044373777
-0.04444953 -0.13402866 -0.0449316 0.13502948 0.26914504 0.25305897 -0.08540141 0.18029521
0.07443839 -0.089053534 -0.26642472 -0.22206391 0.060723666 0.17860053 0.21981548 0.020808311
0.093709774 -0.1546511 -0.05281954 -0.31447142 -0.26609218 0.075244956 0.12285612 0.06898289
-0.03985877 -0.03905258 0.006079185 0.041549057 -0.08222979 0.086297795 -0.09456031 0.08691044
-0.10858714 0.030154899 -0.113962516 -0.0382433 0.11720468 0.07081863 0.08622409 0.031261045
0.045059945 0.07282224 -0.12515554 0.14481989 0.053709395 0.12980261 0.08350598 0.14463377
-0.097271845 0.05774275 0.112884685 -0.11296607 0.0690585 -0.13029042 -0.0722358 0.06591959
0.084701754 -0.08970168 -0.04300632 0.03543233 -0.06133746 -0.103477426 -0.13001706 -0.10089322
-0.08190275 0.116792515 0.06489655 0.14864749 -0.040693432 -0.08420997 0.12597391 0.05789362
-0.1143886 -0.055260934 -0.1068639 -0.09796994 0.12265492 0.13190383 -0.06133342 0.022474999
0.16584647 -0.11994488 -0.17341085 0.11588517 -0.12078796 0.12547827 0.31538728 -0.24847923

encoder.encoder.0.0.bias f4 [64]
00000000: f6ff e8bd dc75 993d 079e 953d b293 863c
00000010: 825f 44bb 4b56 d13d 950f d33d 2142 dd3c
00000020: 8088 c6bd 2728 063e 7c29 c3bd 90f2 e63d
00000030: 767f fe3d 28d7 dd3a b21a d1bb aca5 99bd
00000040: 4eca 19be d589 6bbd 5f97 e93c 42ef 683d
00000050: b2d0 893d 50df 25bd 14b4 80bc 19ef 9abd
00000060: 168a ebbd 01d2 1a3d d377 32bd 4e6c 443d
00000070: 7b11 683d f5c3 773d 39f9 b1bd 1925 42bd
00000080: 5534 5d3d baaa e6bd 913a 98bc 49d7 053e
00000090: a86a e8bc 91a1 0fbe 1058 623d 12bf 95bb
000000a0: 1b6a d13c a78d b83d 884f 983d ed67 01be
000000b0: cd00 17bc f7ad 81bd b2a4 04be 3422 883d
000000c0: 3221 4c3c 9061 94bd 3a01 b43d 2085 103d
000000d0: 9027 f13d 5b47 c33d e325 18be 9b36 dabb
000000e0: 2e01 56bd 6633 de3d a191 1ebd 7b73 13be
000000f0: c752 56bd 204d 683d 3aea 8abd 854e c0bd
-0.11376946 0.07493183 0.07305532 0.016427848 -0.0029964154 0.10221537 0.103057064 0.027009072
-0.09694004 0.13101254 -0.09529397 0.11276734 0.12426655 0.0016925083 -0.006381356 -0.075023025
-0.1501858 -0.057504494 0.028514562 0.0568688 0.067292586 -0.04049617 -0.015710868 -0.075651355
-0.11500947 0.03779793 -0.043571305 0.04795485 0.056657296 0.060489614 -0.086901136 -0.04739866
0.054004986 -0.11263032 -0.018582614 0.13070406 -0.02837117 -0.14026476 0.055259764 -0.0045698965
0.02556329 0.09011393 0.074370444 -0.12637301 -0.0092164995 -0.06332009 -0.12953451 0.06647149
0.012459086 -0.07245171 0.087892964 0.035283208 0.11775124 0.09535094 -0.14858203 -0.0066593415
-0.05224722 0.10849647 -0.0387131 -0.14399521 -0.052325036 0.056714177 -0.067829564 -0.093899764

encoder.encoder.0.1.weight f4 [64]
00000000: b8cb 9b3d 3ec4 233e 439b 523f 9dfa fb3e
00000010: 8a3b a53e 86e0 a83c 5b71 0d3f 8c74 f43e
00000020: efde c13c 312a 3a3f a06b 043d 649d 9e3e
00000030: 2b42 183f 5ac6 df3e 1a41 943e 0045 333f
00000040: 0c04 9d3e 0007 223f e9e8 533e a239 193f
00000050: 84bc c43e a070 ff3e d9df ec3e fa4d 803e
00000060: aa54 f13e 5518 6a3e d743 a83e a1d3 0d3e
00000070: 13a7 123e 42b0 803e 26fb 9c3e df7d 3f3f
00000080: 9ff8 3a3f cdf0 383f 91da 0e3f ef4e 173e
00000090: 2cd9 e03d 7a83 963c 3a55 013f a13e 2b3f
000000a0: b12e fb3d cc30 913e c145 ed3e 1d3c 573d
000000b0: 12e7 413e ae3f c93e ed77 b03e 67d3 45b9
000000c0: 6421 e53e 935c eb3e 79ea 2a3f 9ac9 363f
000000d0: 45fe 323f d647 a33e dc6a 5a3f 3730 e83e
000000e0: 657c d43e c7f8 b93e 2f97 063f e87f 2b3f
000000f0: 4f95 e23e 5d78 353f 8970 3a3e d1d5 873e
0.07607216 0.15992829 0.8226816 0.4921464 0.32271987 0.020614874 0.5525109 0.47745168
0.023665873 0.7272063 0.0323292 0.30979455 0.59475964 0.43706018 0.2895592 0.7002716
0.3066715 0.6329193 0.20694317 0.59853566 0.38425076 0.49890614 0.46264532 0.2505949
0.47134906 0.22860844 0.32864258 0.13850261 0.14321546 0.25134474 0.3066036 0.7480144
0.73035616 0.7224243 0.55802256 0.14776205 0.10978922 0.01837324 0.5052067 0.6689244
0.12264765 0.28357542 0.4634228 0.052547563 0.18935803 0.39306396 0.34466496 -0.00018866138
0.44752038 0.45969066 0.66764027 0.7140137 0.69919235 0.31890744 0.85319304 0.45349285
0.41501155 0.36322615 0.5257444 0.66992044 0.44254538 0.70886785 0.18206991 0.26530316

encoder.encoder.0.1.bias f4 [64]
00000000: d22a 7ebd df50 883d a437 9bbb 5719 e5bd
00000010: c89a 3abc 9f29 0d3c 6cd8 06bd ef06 b9bd
00000020: fbb1 953c a175 52be 22e5 b93a 9209 77be
00000030: de5c a6bd c99b 74bd 620c 27be 8e73 a03a
00000040: 4761 d7bd f308 11be 23d8 87bd 5586 acbd
00000050: 056e 39bd 24bd adbc a244 cabd fc44 15be
00000060: decd e8bc 685e 51bb d537 40bc 2565 62bd
00000070: a32d 0ebe 584c b33d d030 d9bd db31 a9bd
00000080: b3e2 9dbc f3cb 77bc c5e7 c2bd b089 cabc
00000090: d72f 0cbd b5c6 98bb b3fc 24bd a416 72bb
000000a0: fd8c 75bd 4f45 e8bd 49a8 08bd d4de 99bc
000000b0: 14ba 063c 6db1 27bd b1fc 20bd 64dd 60bb
000000c0: fc5f 5ebe 5fc1 55bd 64b1 9abc d27e ae3c
000000d0: 12fb e6bd 3a0a 5ebd 1496 47bd d06e 47bd
000000e0: 6e31 ec3b 5fe4 b3bd c707 21be 5894 033d
000000f0: 2a72 9fbd 25d9 193e 6d40 283d e5b3 7c3c
-0.062052555 0.0665605 -0.0047368575 -0.11186474 -0.011389442 0.00861588 -0.03292124 -0.090345256
0.018273344 -0.20552684 0.0014182667 -0.24124745 -0.08123182 -0.05971888 -0.16313317 0.0012241469
-0.10516601 -0.1416357 -0.06633022 -0.08424059 -0.04527094 -0.021208353 -0.09876372 -0.14577097
-0.028418478 -0.003194714 -0.011732061 -0.05527224 -0.13884597 0.08754796 -0.10605013 -0.08261462
-0.019273138 -0.015124309 -0.09516863 -0.024723858 -0.03422531 -0.0046623596 -0.040280055 -0.0036939764
-0.05994891 -0.113413446 -0.033363614 -0.01878301 0.008223075 -0.04094069 -0.039303485 -0.0034311647
-0.21716303 -0.052186366 -0.018883415 0.021300707 -0.112783566 -0.05420897 -0.04872711 -0.048689663
0.007208041 -0.08783793 -0.15725623 0.032123893 -0.07785447 0.1502424 0.041077066 0.01542375

encoder.encoder.0.1.running_mean f4 [64]
00000000: 9917 8ebf 8b4e 0e3e 4278 31be ebb6 913e
00000010: 05a4 29be 472c ab3f 1b69 79bd f4bb c43f
00000020: 638f 6bbf 94ac d1be 8fbb 06c0 b7a0 adbf
00000030: 3109 5d3f 5022 07be 921f c5be 39ab 95be
00000040: 806f cebd 94d1 8bbd 2a39 3abe 457f c9be
00000050: b21b 23bc 318d dbbd aa47 f5bd 9ed3 a9be
00000060: 1008 25be 9e1f a43f 6091 043f cfa1 b13f
00000070: 7441 81bf 2a83 b63e 3c9f 9a3e 1da6 5d3f
00000080: cbeb 8fbe 6821 243f 42a7 54bd c625 7e3e
00000090: b81c e03f 20f0 c53f f862 b2bd f04e 2b3f
000000a0: 918e 24be f1cb 683d c483 05bf 63ca aebe
000000b0: 7a8e e23e b0c0 24be 80c7 bbbe 5022 893b
000000c0: 2902 26bf 18a6 403f eccb 293e aef3 383f
000000d0: b4a1 8a3f eb67 bdbd f310 cabe 98d6 9e3f
000000e0: 8e0c 793f 1227 613f 404a 8fbd f6c0 ea3e
000000f0: 785e 623b 9c18 593f 8a17 5a3d 308e 863e
-1.1100951 0.1389715 -0.17331031 0.28459868 -0.16566475 1.3372887 -0.060891252 1.5369859
-0.92015666 -0.4095198 -2.1051977 -1.3564671 0.8634215 -0.13196683 -0.3850065 -0.29232195
-0.10079861 -0.06827083 -0.18185869 -0.3935491 -0.009955334 -0.107202895 -0.119765595 -0.33169264
-0.16116357 1.2822149 0.51784325 1.3877505 -1.00981 0.35646945 0.3019961 0.86581594
-0.28109583 0.64113474 -0.051917322 0.24819097 1.7508764 1.5463905 -0.08710283 0.66917324
-0.1607001 0.05683512 -0.52154183 -0.34138784 0.44249326 -0.1608913 -0.36675644 0.0041849986
-0.64847046 0.7525344 0.16581696 0.72246826 1.0830598 -0.092483364 -0.39466056 1.2409239
0.9728478 0.8795024 -0.06996584 0.45850343 0.003454117 0.84803176 0.053245105 0.26280355

encoder.encoder.0.1.running_var f4 [64]
00000000: aa80 033f 5c5e f43d c58a 723f cc2f f73d
00000010: 3bed eb3d 5dec 383f d780 093f cd4a 883f
00000020: a945 c33e 2d99 6e3f 199d ec3f 70d4 823f
00000030: 5df9 d33e da90 e83d a167 ef3d 6b54 143f
00000040: 6110 593d aca3 823e ec63 a13d a4db e63e
00000050: 7f26 3e3e cace 043f e4b7 e63e 428b d53d
00000060: 9700 a73e 9bc3 403f d61d 763e 0be3 523f
00000070: 9f32 2e3f cdde fa3d 75aa ab3d 76be 103f
00000080: 0594 283f 7ef8 a03e 66f3 023e b9b6 6e3d
00000090: a3e6 b73f 9fc2 aa3f e7d6 c23e 12c7 b33e
000000a0: 2f5f 203d 0825 503d 69c3 fe3e 8ef5 403d
000000b0: eff6 153e 9e92 573e 6602 283e 8d02 903c
000000c0: 5f4a 003f 76e8 d73e 4c1d 283f b043 e03e
000000d0: 3fd3 043f ca81 353e 5a35 7d3f 1811 3b3f
000000e0: 1726 0b3f 9c68 a43e 8249 933e 87bd 883e
000000f0: 1930 923e d69c fc3e 0625 d23d 73bd 433e
0.513682 0.1193206 0.94742996 0.120696634 0.115198575 0.7223566 0.5371222 1.0647827
0.38139084 0.9320248 1.8485442 1.0221081 0.41401187 0.11355753 0.116896875 0.5794131
0.052994136 0.25515497 0.07880387 0.45089447 0.18569373 0.51878035 0.45062172 0.10426952
0.32617638 0.7529847 0.24034819 0.8237769 0.6804599 0.12249527 0.083821215 0.5654062
0.6585086 0.31439584 0.12788162 0.058279727 1.436726 1.3340644 0.38054582 0.35112816
0.039153274 0.050816566 0.4975846 0.04710918 0.14644979 0.21052024 0.16407165 0.017579341
0.5011348 0.4216954 0.65669703 0.4380164 0.51884836 0.17725292 0.98909533 0.7307296
0.54354995 0.3211106 0.2876702 0.26707098 0.2855232 0.49338406 0.10260968 0.19115238

encoder.encoder.1.0.weight f4 [64, 64, 3, 3]
00000000: f100 debc 3720 cc3c 3525 933c a792 05bc
00000010: 78a5 07bc 77c8 e6bc 1e0e bf3c 6cc2 4ab9
00000020: 15cd 99bc fed1 b33c fedc 503b bac8 713d
00000030: dbdc 0ebb 36bd 1a3d 0aaf 35bc 456b c13c
00000040: f1d0 d7bc 4b49 6c3c 3277 06bb efbb 093e
00000050: 6dcb 0e3e 2d33 833d b254 013e b1f4 993d
00000060: a845 1c3d 3256 65bd b29d 253d 4fbf 3abd
00000070: aa73 4f3d 2363 6cbc 27b1 0dbd acc6 643d
00000080: 0a68 b6ba ca00 ddbc f3e0 c43c b46f 9dbc
00000090: 20a0 833c 4c3d a53b 5d9c 26bd c670 4b3c
000000a0: e079 19bd 56b3 33bd cc62 013b 17fc d3ba
000000b0: 1131 a0ba 5062 083c e7b7 f8bc 42cf 27bc
000000c0: 8c47 dbbb c6c1 69bc d30c 043d 3799 283c
000000d0: b642 c53c 148d 2b3c b83e 6dbc 8a39 fb3c
000000e0: 81b3 9d3c fdb4 fe3c 34ac 6bbc 9c67 cebc
000000f0: f1ff c63c 7029 f9bb f5e0 1fbd 6377 fbbb
00000100: 3340 913c 65cd f2bc 14d0 12bd b39b 45bc
00000110: 0f29 8c3a a5c5 a6bc e75c b43a 968e 58bc
00000120: 47bd b8bc 2907 173d d8df 12bc 937f cd3c
00000130: f3a8 a83c 74ba 6abc e10f 103c c24c fd3c
00000140: cb52 87ba 4b2b cc3c e090 833c e46a 9c3c
00000150: 87ef 303c 8134 c5bc 1f59 b1bd e767 4a3d
00000160: c339 5a3d f103 eb3a 96ce 423c 38ad 5a3c
00000170: ede9 983c b18d 5f3c 80a6 5fbb 3b0e 8fbc
00000180: 8fc0 75bc 3c11 b03c 4a95 833b 5cd4 f53c
00000190: 35e3 4d3d 9f95 8a3d 32cc 323c 8624 02bd
000001a0: e956 2fbc 8df7 af3c 588e 19bd 8075 463c
000001b0: 83e2 77bb d3c7 263c 099f 92bc 6bfe 933c
000001c0: eed9 4aba fd44 f73b 6b9c 1f3c 7545 cd3c
000001d0: 0bbc 5d3c 5fa4 5c3d b9d0 5e3c dda1 ae3d
000001e0: 2945 4e3d 5061 01bd 6f7e 2dbc af7c 22bc
000001f0: 71b5 0abd 5dd8 35bc 77d7 9ebb a513 d13b
00000200: a4d3 f9bb 8325 1dbd 79e0 45bc 36f8 40bd
00000210: 639a fcbc eca1 7c3c 2861 88bd d0aa 73bc
00000220: 486e 08bd 2596 f0bc ffc4 c53b 9a34 f7bc
00000230: e92d aebc 0086 5e3d 325d 3bba 87ed 06bd
00000240: 6c4b 9dbc 864f 8d3b 7369 8c3c eb48 ea3b
00000250: 9dae 203d f1bf 853c 5b9d 82bc 5316 1abd
00000260: 9fd8 a53c 980b 4fbd 44ba 7dbd d9e1 1a3b
00000270: 354a e6bb c744 93bd e6cc 26bd 08f6 bbbc
00000280: bafe d4bc 01e0 223d ed11 f23c bc3f 813c
00000290: 77b8 24bc 6ca3 45bd 36e6 fdbc c416 86bd
000002a0: 6588 913c 9b23 61bd 0180 d7bc 3e3a 15bd
000002b0: 56c8 c9bb e5f2 ce3c 44c1 00bd 849b 61bd
000002c0: 6c02 8bbc 0b97 c63b d2ea 8a3d 0ba3 823c
000002d0: 96c7 a9bb 8faa fdbc 653b 513d 113a a03c
000002e0: 285b 34bd 83e5 f2bc 4791 babc 4f17 0bbd
000002f0: 4c8d 6cbd d24e 263b 0b00 07be dde6 abbd
00000300: e958 f0bc 1cf9 efbd 4300 ffbd 8197 64bd
00000310: bfb8 fcbd 7540 f7bd 5c8e ba3a 007d ce3c
00000320: 7b64 003d 04be 903c 6f6e 623d a018 cb3b
00000330: a470 ab3c ea14 60ba 626a 1c3c 7805 94ba
00000340: 2147 6dbc e69a 1fbc 4878 f1bc 11dc edbc
00000350: 7742 57ba 03a8 f13c 486d 08bc 44c1 2a3c
00000360: c68e 8e3c 3d61 ed3c 36b5 83bc 038c 21bd
00000370: 02c4 e6bc 5b79 43bd 345d f33b fac4 a4bc
00000380: 4458 0ebd bb60 c73c 4fce 1f3c d8b5 ccbc
00000390: 247b f5b9 08bf a5bc 7919 88bc 9595 f93b
000003a0: e3a9 43ba e8c2 d63c c259 fcbc 2c57 3ebd
000003b0: 4a8e b03c 91a8 11bd 50ce f7bc e216 afbb
000003c0: 1edd 033b 0781 f1bb 35b4 023c e151 92bc
000003d0: 1878 f9bc 8ca0 293b 7a62 573c 67d5 813c
000003e0: 4229 aebc 759b a4bc 8e8a 46bc 0a88 ddb9
000003f0: c427 2f3d bc7a 3c3c b59a 893c e8a9 2dba
-0.027100058 0.024917705 0.017962078 -0.00815264 -0.008279197 -0.028171761 0.023322161 -0.00019336649
-0.018774549 0.021950718 0.0031870003 0.05902932 -0.002179912 0.0377781 -0.011089096 0.02361072
-0.026344748 0.014421771 -0.0020517823 0.13450597 0.13944788 0.064062454 0.12629965 0.07517374
0.038152367 -0.055990405 0.040433593 -0.045592602 0.050647415 -0.014427933 -0.034592774 0.05585353
-0.0013916504 -0.026977915 0.024033045 -0.019218303 0.016067564 0.0050427075 -0.040676463 0.012417024
-0.037469745 -0.0438722 0.0019742725 -0.0016173151 -0.0012221654 0.008324221 -0.030361129 -0.010242285
-0.0066918787 -0.014267391 0.032238793 0.0102904355 0.024079662 0.010470647 -0.014480285 0.030667085
0.019250633 0.031092161 -0.014384318 -0.02519589 0.024291964 -0.0076038167 -0.039032895 -0.007674144
0.017730808 -0.029638955 -0.03584297 -0.012061047 0.0010693389 -0.020357916 0.0013760597 -0.013217589
-0.022551192 0.036872063 -0.008964501 0.025085246 0.020588374 -0.01432668 0.008792848 0.03092039
-0.0010324357 0.024922987 0.016060293 0.019093938 0.010799295 -0.024072887 -0.086595766 0.049415495
0.053277742 0.0017930252 0.011890074 0.013346963 0.018666232 0.013644622 -0.0034126341 -0.01746284
-0.014999523 0.021492593 0.0040155994 0.030008487 0.05026551 0.06766819 0.010912942 -0.031773113
-0.010701873 0.021480346 -0.037489265 0.012112975 -0.003782422 0.010179478 -0.0178981 0.018065652
-0.00077381625 0.007546066 0.009741883 0.025057534 0.0135336025 0.053867694 0.013599568 0.08526967
0.050358925 -0.031586945 -0.010589226 -0.009917422 -0.033864442 -0.011098948 -0.0048474628 0.0063805156
-0.0076241065 -0.038365852 -0.012077444 -0.047111712 -0.030835336 0.015419465 -0.06659156 -0.014872268
-0.033308297 -0.02936847 0.0060354467 -0.03017645 -0.021262126 0.05432701 -0.0007147371 -0.032941367
-0.019201003 0.0043124584 0.017140126 0.007149806 0.039229024 0.016326876 -0.015944174 -0.037618946
0.020244895 -0.050548166 -0.061945215 0.002363315 -0.007027889 -0.071908526 -0.04072275 -0.022944465
-0.02600037 0.039764408 0.029549563 0.015777461 -0.0100537455 -0.048251554 -0.030993562 -0.06547311
0.017765233 -0.054965597 -0.026306154 -0.036432497 -0.006157915 0.025262306 -0.031434312 -0.055079952
-0.016968928 0.006060486 0.0678307 0.015946886 -0.005181263 -0.030965118 0.051082034 0.019558938
-0.044032246 -0.029650455 -0.022774352 -0.033957776 -0.05775194 0.002537657 -0.1318361 -0.08393643
-0.02933927 -0.11717436 -0.12451222 -0.055808548 -0.12339925 -0.12072841 0.00142331 0.025206089
0.031345826 0.017668732 0.0552811 0.006198004 0.020927735 -0.00085480383 0.009546848 -0.0011293134
-0.0144822905 -0.0097415205 -0.0294763 -0.0290356 -0.0008211503 0.02949906 -0.008326836 0.010422055
0.017402064 0.02897703 -0.016077619 -0.039440166 -0.028169636 -0.047723155 0.007426882 -0.020113457
-0.034752145 0.024338117 0.009753778 -0.024989054 -0.00046821788 -0.020232692 -0.016613709 0.0076167085
-0.0007463975 0.026215985 -0.030804519 -0.046469852 0.021552224 -0.035561148 -0.030249745 -0.005343304
0.002012081 -0.0073701176 0.007977535 -0.017861309 -0.030452773 0.0025883047 0.013146037 0.015848828
-0.021259908 -0.020093659 -0.012117995 -0.00042253762 0.042762533 0.0115038715 0.016797403 -0.0006624744

encoder.encoder.1.0.bias f4 [64]
00000000: eea0 bb3b 6b21 dd3c e28d cb3c b984 d639
00000010: 9b7b 0fbc b0eb d03c 217f a6bc 9e36 97bc
00000020: a4aa f53c 2e49 a6bc 06d2 97bc 095a 233c
00000030: 29fd ba3b 6f3e fe3c e416 90bc f5a5 95bc
00000040: dc21 05bd 0622 b03c 497e d5bc b223 06bd
00000050: e736 86bc 6b6e 0ebc 7ace db3c a009 9b3c
00000060: 829e 6abc 5718 b9bc 34e8 87bc fca4 e73c
00000070: bf8c 21bc 22b7 9d3c d647 bbbc 744b ae3b
00000080: 5e58 3ebc cdf1 c3bc 5a6a 44bb e453 313c
00000090: 64ce 8bbc ee95 073d 958c ea3c 82a0 84bb
000000a0: 2564 d3bc a983 e9bb 5916 3aba 6e0d b13b
000000b0: 1b8e aa3c 63db 97bc b67e 233c a0d5 2bbc
000000c0: 603e ecbc 466d 8d3c e229 c63c 483b b43c
000000d0: a96b f3bc 831e cdbc 15d6 593b 55d7 003d
000000e0: 6dd4 3bbc 0638 943c c754 9e3c 8bbb 96bc
000000f0: ae0f 81bb 1ea9 b3bc 0746 c83b be46 bbbc
0.0057259714 0.026993474 0.024847928 0.00040916147 -0.008757497 0.02550301 -0.020324292 -0.01845866
0.029988594 -0.020298567 -0.018532764 0.0099701965 0.0057064486 0.03103563 -0.01758904 -0.018267611
-0.032502994 0.021500599 -0.026061194 -0.032748885 -0.016383601 -0.008693318 0.026831854 0.018925488
-0.014320018 -0.022594614 -0.016590215 0.028276913 -0.009860217 0.019252364 -0.022861402 0.0053190533
-0.011617748 -0.02391901 -0.0029970617 0.010823224 -0.017066188 0.03310197 0.028631488 -0.0040474543
-0.025804589 -0.007126291 -0.0007098667 0.0054032123 0.020819714 -0.018537229 0.009978941 -0.010487944
-0.028838336 0.01726402 0.024189893 0.022000924 -0.029714422 -0.025038963 0.0033239175 0.031455357
-0.0114642205 0.01809312 0.019327534 -0.018399974 -0.0039386367 -0.021931227 0.0061118635 -0.022860881

encoder.encoder.1.1.weight f4 [64]
00000000: 7b48 bc3e 9c4f 243f 74d5 243f 7785 0f3f
00000010: 822f a43e c476 0a3f c2a3 143f e4d9 2c3f
00000020: f978 ae3e 501f f33e 99d8 aa3e 6cfa 453e
00000030: c60a 063f e88c 1a3f ce8c 813e 8ff1 0a3f
00000040: 357b 283f ea2a 3e3f fbcc 093e dc25 be3e
00000050: 2073 143f 1ada e23d d941 263f bc25 b63e
00000060: fb48 7b3e 43dc f13e 5830 d93e 20d1 8e3e
00000070: b9f6 fe3e 9d71 bc3e 842a 473e 1c07 523f
00000080: 008e 9d3e e316 883e 19ea 1a3f 7ca4 103f
00000090: c559 f43e e572 c93e 3fb8 383e 71ba 403f
000000a0: 8a6e bc3e 3de9 a73e bb0a da3e 0b01 0f3f
000000b0: 2488 003f 65d6 213e 54b2 c83e b940 893e
000000c0: 55f8 4f3e 273b 8b3e d943 093f 2573 a63e
000000d0: 4321 c53e ad4a c63e 72e3 e13e e622 273f
000000e0: e2f9 0a3f 05e4 f43e cf8e 973e 00a7 b43e
000000f0: 322a 0f3f 52d6 513f 7f3e 323f ae6b 503e
0.36774048 0.64183974 0.64388204 0.56063026 0.32067496 0.5408747 0.58062375 0.67519975
0.3407667 0.47484827 0.33368376 0.1933381 0.5236019 0.60371256 0.25302738 0.5427484
0.65813 0.7428423 0.134571 0.3713826 0.57988167 0.11076756 0.64944226 0.35575664
0.24539559 0.4723836 0.42419696 0.27893925 0.4979761 0.3680543 0.19449812 0.820421
0.307724 0.2657996 0.60513455 0.56500983 0.4772474 0.3934547 0.18039034 0.75284487
0.36803085 0.32795134 0.42586312 0.55860966 0.50207734 0.15804441 0.39198554 0.26807192
0.20309575 0.27193567 0.5361915 0.32509723 0.3850194 0.38728848 0.4411884 0.65287626
0.5428754 0.47830215 0.29601142 0.3528366 0.5592376 0.8196765 0.6962661 0.20353577

encoder.encoder.1.1.bias f4 [64]
00000000: 4511 10be 2570 64be 5b7b 8c3d e768 48be
00000010: c29f f1bd 3f55 36be 5996 57be 4b18 31be
00000020: 5eea 1bbc 00ab 0abe 47f1 8ebe 9ec9 33bd
00000030: 7f6e 6cbe 7ef3 0fbe 8f14 2bbe f17b 4bbe
00000040: 9c58 6dbe 5560 3b3b 058d b7bd 28b8 8dbe
00000050: b03e 77be 608f a1bb 99e0 19bd 172a 41be
00000060: 5650 7dbd 5802 bbbd 5630 55be b3b7 c4bd
00000070: 3190 82bd d740 f2bd 00db a1bd a0cf 0bbe
00000080: 088d 16bd 6999 debd 493b 41be 0af7 13be
00000090: bfc4 cfbd 229b 22be 7b8f 41bd e936 ea3b
000000a0: 4f9e 3bbe 64dd ccbd 33c9 93bd 831d 23be
000000b0: c54f 1cbe ba84 06bd 80c0 0dbe 522a 4b3b
000000c0: 213c 47bd e3f6 053c 1993 e0bc baa7 d1bd
000000d0: ff76 c8bd 2289 cdbd 2287 4cbd 7381 ddbc
000000e0: 91b3 2bbe 0419 1ebe 4b5a a8bd 09c0 65be
000000f0: d8c5 f6bd 4d43 233d 65c6 b6bb 71df cebd
-0.14069088 -0.22308405 0.06859466 -0.19571267 -0.117980495 -0.17805956 -0.21053447 -0.17294423
-0.009516327 -0.13541794 -0.27918455 -0.04389345 -0.23089026 -0.14057729 -0.16707061 -0.19871499
-0.23178333 0.0028591354 -0.08962444 -0.27679563 -0.24145007 -0.0049304217 -0.03756771 -0.18863712
-0.061844192 -0.091313064 -0.2081922 -0.0960535 -0.063751586 -0.118287735 -0.07903099 -0.13653421
-0.03675559 -0.108691044 -0.18870272 -0.14449707 -0.10144948 -0.15879491 -0.047255974 0.007147659
-0.18322109 -0.100031644 -0.0721611 -0.15929227 -0.15264805 -0.03284142 -0.13842964 0.0031000567
-0.048641328 0.008176538 -0.027413892 -0.102370694 -0.09788322 -0.10035922 -0.04993356 -0.027039265
-0.16767718 -0.1543923 -0.08220347 -0.22436537 -0.120494545 0.039859105 -0.0055778497 -0.10101212

encoder.encoder.1.1.running_mean f4 [64]
00000000: 1f4e 8abe 80f9 c5be 3fe2 22bf 0446 f7bd
00000010: 77df 64be d4cf 01be 86be bebe 7c19 debe
00000020: b778 04be f5a3 3ebe d157 393f be49 893d
00000030: 8f0c ef3d 99b8 27be 4c36 4fbe f0af bbbe
00000040: 1ca9 2bbe a42a 6bbf 1985 c5be 9a0b 493f
00000050: 6e02 babe d04e c6bd 669e 1bbe e837 01be
00000060: dbf7 9dbd ea62 77be 3401 24be e558 26be
00000070: 8a9d 53bf 85eb 00be 19b3 993e 6520 1dbf
00000080: 8e23 53be b00c 153e d647 0cbf 86fe edbe
00000090: 058d 8dbe 3b5f 9f3d e966 53bd d59e 4cbf
000000a0: 60c3 13be 17fd 6f3e 36d6 c1be 5d0f 95bf
000000b0: c552 553d 594c d43d 188f 66be da82 92be
000000c0: 0370 88be a91c b3bd 4218 0dbe f0f6 d5bd
000000d0: 008b 99be 7665 abbe ce99 ddbd 6c51 9cbe
000000e0: c0bc 28bf 68d6 e7be 7775 f2bd 820c 49bf
000000f0: e575 acbe 584d a9be 033d efbe c0fd af3d
-0.27012727 -0.38666916 -0.63626474 -0.12073901 -0.2235087 -0.12676936 -0.37254733 -0.43378818
-0.12936674 -0.18617232 0.7239962 0.06703518 0.11672317 -0.16379012 -0.20235556 -0.36657667
-0.16763729 -0.9186194 -0.38578108 0.7853333 -0.3632998 -0.09683001 -0.15197143 -0.12618983
-0.0771329 -0.24158826 -0.16016084 -0.16244848 -0.8266226 -0.12589844 0.30019453 -0.61377555
-0.20619032 0.14555621 -0.5479711 -0.46483248 -0.27646652 0.07781836 -0.051611815 -0.7992986
-0.14429998 0.2343639 -0.37858742 -1.1645314 0.05208089 0.10366125 -0.22515523 -0.28615457
-0.26647958 -0.08745701 -0.13778785 -0.1044749 -0.2998886 -0.33475846 -0.108203515 -0.3053087
-0.6591301 -0.45280766 -0.11838811 -0.7853471 -0.33683696 -0.3306682 -0.46726236 0.08593321

encoder.encoder.1.1.running_var f4 [64]
00000000: 8e3f 2b3f 0196 2b3f 4419 423f 31db fd3e
00000010: afdc fd3d bb98 c73e 6fbb 4c3f 3b45 023f
00000020: a3c8 8e3e bacb 9f3e 6249 043f 2f98 143d
00000030: 32c1 de3e af11 113f f34b 523e b66d 193f
00000040: 212d 593f 8b5d 943f a093 f93d 5d14 9c3f
00000050: 5801 483f 1563 923c e2f4 833f b8a8 ab3e
00000060: e7b9 c73d e8e3 dc3e 6155 cf3e cfcc 063e
00000070: 97be 073f 6705 6e3e 0010 be3d d4c9 953f
00000080: f4ff 193e 63c5 eb3d cdb7 c53f e144 363f
00000090: 0329 8c3e b186 b63e 094c 443d 21ec 9d3f
000000a0: d2f3 bb3e 583f 2b3e 96af 643e a399 873f
000000b0: 4fdb ea3e 0f40 4a3d c825 7d3e 7057 403e
000000c0: 53e8 ce3d 38d9 a13d 9458 bc3e d178 b53e
000000d0: 3d8f 3e3e 534f 083f 7a93 c33e 0821 833f
000000e0: 18c9 203f 4093 003f 1c45 c53d 60e4 d03e
000000f0: 231e d13e 4db7 bd3f e1d4 623f dfe1 893d
0.6689385 0.6702576 0.758198 0.49581292 0.12395608 0.38983712 0.799735 0.5088689
0.2788745 0.3121012 0.51674473 0.036277946 0.4350677 0.5666761 0.20536785 0.5993303
0.84834486 1.1591047 0.1218636 1.2193714 0.7812705 0.017869512 1.0309107 0.3352716
0.09752255 0.4314263 0.40494826 0.13164066 0.5302519 0.23244248 0.092803955 1.1702218
0.15039045 0.11512258 1.5446717 0.7119885 0.2737504 0.35649636 0.047924075 1.2337686
0.36709458 0.16723382 0.22332606 1.0593761 0.45870444 0.049377497 0.24721444 0.18783355
0.10102906 0.07902759 0.3678633 0.35443738 0.18609329 0.5324604 0.38198453 1.0244455
0.62806845 0.50224686 0.09632322 0.40799236 0.40843305 1.4821564 0.8860608 0.067325346

encoder.encoder.2.0.weight f4 [64, 64, 3, 3]
00000000: 58d1 bebd c13f 3bbd 9adf cc3b ef04 e6bc
00000010: 2982 923c fd25 a1bd fb49 8b3d 9f90 97ba
00000020: a3b0 2d3c 63ba 9bbc 6318 76bb 7969 48bd
00000030: aebc b23c 9cb5 50bb 5e52 393d b518 7dbc
00000040: 6300 5bbd 9b5e be3d 19c5 223d 70c9 473d
00000050: 79b8 2ebc c753 3abd 90bb 323d 3cff 41bd
00000060: 24fd 99bd 120a 373d 1a5c b33b 6896 2f3d
00000070: 7607 e33c 620f 90bd cc29 373c e176 2abc
00000080: 9c7a a3bb 267d 9d3c a9aa 0d3c a78c 873d
00000090: 50e9 ebbb 800a 623c ce09 66bd 3ef5 433d
000000a0: 1411 d0bb c2ff 75bc 0196 0b3d 0d1f df3c
000000b0: e951 403d 8c1f d5bd e73c 7c3c 3338 ccbc
000000c0: 776f d7bc bcb2 dd3c 4b8c 1b3d bcb5 b8bd
000000d0: b6da d43c bc48 c7bd 2289 82bd 7c8f 41bd
000000e0: 1e0b 873c faa7 11bd 341b 50bc a2ff 0dbd
000000f0: e718 71bd 17fa cf3c a1c6 563d 0e22 183d
00000100: ceb5 ccbc 9c99 9bbb af14 c6bb 2e11 12bd
00000110: 4466 96bd ff3f 693c 37ec 3bbd cc35 7abd
00000120: 289c 243c 0466 c63c 6248 3a3d 0b6c 8a3c
00000130: a778 bebc 10a3 143c ba32 19bd db36 8bbc
00000140: 1731 2fbc b797 d93c 16df 9ebc 0320 c3bd
00000150: 5db0 6e3d 6942 fdbc 8b2e 16bd 7519 033d
00000160: 3d13 a13c d9e9 723d cf62 4dbd ff98 e2bc
00000170: 0581 b2bc 4bae 7f3b bc7a 1c3b c04f 8139
00000180: c5bf eabc 354f 00bc db40 c5bc f698 8ebc
00000190: 9199 09bc d03e 303c 3fc4 04bd e293 0fbd
000001a0: 6dd5 5f3b 9f4c a03c ecf3 f4bc 6cc3 90bc
000001b0: 72b5 30bd 70f4 423d 5de4 8d3b 8b12 7abd
000001c0: 1b36 bbbc 499e 43bd ee86 67bd c985 58bb
000001d0: aaf8 463d 5248 7bbd 0105 02bc 911b ed3c
000001e0: 61b5 1cbd 6451 833c bb54 03bd a374 6a3c
000001f0: efd7 5abd 8fe1 d03b 87e7 823c 34e0 26bd
00000200: 80c1 3fbd 08d4 db3b 4c21 64bc 9d6a fd3b
00000210: 0527 233d 4aef 103d 9cd1 073d aec9 b3bc
00000220: 46e7 7cbd 814f 46bd f2f4 02bd 36c2 df3b
00000230: 9097 bf3c 186e 8bbd 7424 d33c 2895 7e3c
00000240: 826c 5bbd f6bb 07bd 61ac ccbc 31a2 dfbc
00000250: 6caa 8b3c 2c46 eabd 28cf ffbd ba09 c1bb
00000260: 0b14 0a3c 824c 0abd 2292 4a3c 769a c9bc
00000270: c59c 54bc 5c2a 183c c3e8 bb39 999e cabd
00000280: 3d65 b4bc 8732 3f3d 0146 a9bc c04d 033d
00000290: 7615 dc3c 0aed e3bc 66aa 9cbc 697f 003d
000002a0: 74df 7cbc 0ac3 343a f017 c1bc 34db 19bd
000002b0: 1419 8dbd 4a75 40bd 95b9 39bd a767 40bc
000002c0: 834e 8ebd 3cfb 6fbd 6df9 31bd dba9 f3bc
000002d0: 6a6e eabc 6f63 9abc 4d50 f3bd c9b8 8fbd
000002e0: b5b4 36bd d93e 88bd e04b 703d 7ec9 03bd
000002f0: b997 75bc 4da9 a13c 6644 d23c 4d6e cd39
00000300: d1e7 db3b 0c2c 4f3c e459 96bb eef2 a63b
00000310: bcdd 85bc 9fc6 1dbd 6613 8b3d 2e34 7dbc
00000320: f89d d4bb a70a 153c 62c6 133c 1fd4 2dbd
00000330: 2a70 12bd 2e24 fcbc 7b22 8c3d 03b0 4e3c
00000340: 9f70 25bd 0773 89bc e959 5a3c 0cd7 06bc
00000350: 5a12 2ebc 92ce 2cbd 9e0a 77bd e3c5 98bc
00000360: f6b5 b6bd 0c1e 56bd f733 973c a8d5 12bd
00000370: fccf acbc 6452 f2bc 3470 00bd 7819 1dbc
00000380: 6841 84bc 3a8a 55bd 7241 de3c 6e4c d13c
00000390: ae05 053d 9efe 593d 8d25 03bd 904f 0c3d
000003a0: 6f2f ebbb 2209 0ebd d8b8 443c 3c21 9dbc
000003b0: 696d 9dbc 2ce2 8abc a3b9 67bd 2433 b5bd
000003c0: dee1 02bd 60b0 85bb d21e f63a 7e8d 013d
000003d0: 92ad 64bd ef74 eb3b aa93 0ebd d977 eabb
000003e0: 2829 b6bb 03ec 18bd cab5 813a badb 34bd
000003f0: cdb8 da3b 26c5 003d 9ba3 8c3c 839d f5bc
-0.09317273 -0.045715097 0.0062522413 -0.028078524 0.01788433 -0.07868574 0.0680122 -0.0011563486
0.0106011955 -0.019009775 -0.0037551157 -0.04892871 0.021818485 -0.003184653 0.045244567 -0.015447785
-0.053467166 0.09295388 0.03973875 0.04877609 -0.010664099 -0.045490053 0.043635905 -0.04736255
-0.07518986 0.04468734 0.005473626 0.042868048 0.027713519 -0.07034184 0.011179399 -0.0104043195
-0.0049889814 0.019224714 0.008646646 0.06618624 -0.007199444 0.013796449 -0.056161694 0.047841303
-0.006349692 -0.015014591 0.0340786 0.027236486 0.046953116 -0.10406408 0.01539538 -0.024929142
-0.026298268 0.027062766 0.03797559 -0.09019038 0.025983196 -0.0973067 -0.06373812 -0.047255978
0.016484793 -0.035560586 -0.012701798 -0.03466762 -0.05886164 0.025387807 0.05243552 0.037141852
-0.024989035 -0.0047485363 -0.006044946 -0.035660915 -0.07343724 0.014236449 -0.04587957 -0.06108646
0.010046996 0.024218567 0.045479186 0.016897222 -0.02325089 0.00907208 -0.037401892 -0.01699393
-0.010692856 0.026561601 -0.019393485 -0.0952759 0.058273662 -0.030915456 -0.03666548 0.0320067
0.019662494 0.059305046 -0.05014306 -0.027660845 -0.021790037 0.0039013799 0.0023876866 0.00024664216
-0.028655896 -0.007831384 -0.024078777 -0.017406922 -0.0083984295 0.010757163 -0.032413717 -0.03505314
0.0034154311 0.019567786 -0.029901467 -0.01767131 -0.04314179 0.047596395 0.0043302015 -0.06105284
-0.022852948 -0.047758374 -0.056525163 -0.0033038727 0.04857699 -0.061348267 -0.007935763 0.028943809
-0.038258914 0.016030021 -0.032063227 0.014310035 -0.053428587 0.006374545 0.015979541 -0.04074116
-0.046815395 0.0067086257 -0.013923954 0.0077336566 0.039832134 0.035384454 0.033158883 -0.021946754
-0.061743997 -0.048415665 -0.03197188 0.0068285717 0.0233877 -0.06808108 0.025774218 0.015538491
-0.053570278 -0.033138238 -0.02498454 -0.027299019 0.017049037 -0.114391655 -0.12490684 -0.005891052
0.00842763 -0.03376437 0.012363942 -0.024609786 -0.01297683 0.009287443 0.0003584084 -0.09893531
-0.02202093 0.046679046 -0.020663263 0.03205657 0.026865702 -0.02782299 -0.019124221 0.031371508
-0.015434135 0.0006895518 -0.023570985 -0.037562564 -0.06889549 -0.046986856 -0.045343 -0.011743463
-0.06948569 -0.058589205 -0.04345076 -0.02974408 -0.028617103 -0.018846242 -0.118805505 -0.07017667
-0.04460593 -0.06652612 0.05866611 -0.03217458 -0.014989787 0.01973405 0.02566738 0.00039182827
0.0067109843 0.012644779 -0.0045883525 0.0050948774 -0.016341083 -0.038519498 0.06790809 -0.015454335
-0.006488558 0.009096778 0.009019466 -0.042438623 -0.0357515 -0.03077897 0.06842514 0.012615207
-0.040390607 -0.016778482 0.0133271 -0.008229982 -0.010624493 -0.04218919 -0.06031286 -0.018649047
-0.08921425 -0.05227475 0.018457396 -0.03584829 -0.021095268 -0.029580303 -0.031357005 -0.009588592
-0.01614447 -0.052133776 0.027130816 0.02554914 0.03247612 0.053221337 -0.032018233 0.034255564
-0.0071772854 -0.03467668 0.012006961 -0.019180886 -0.01921721 -0.01695355 -0.05657352 -0.08847645
-0.031953685 -0.0040798634 0.0018777496 0.031629078 -0.055829592 0.0071855704 -0.034808792 -0.0071554002
-0.0055591054 -0.037334453 0.0009896096 -0.04415486 0.006674862 0.031438015 0.017167857 -0.029982334

encoder.encoder.2.0.bias f4 [64]
00000000: 332f c1bc 635e de3c 5f7e 633c 4889 fabc
00000010: ddba 4cbc ec83 2f3c f193 9e3c d285 b7bc
00000020: 99c0 ee3b bc5b 1b3c 06ca a03c 53f3 c73c
00000030: 4942 ea3c d294 d2bc 4ac0 39bc aea5 9ebc
00000040: 8f85 8bbc 6900 5d3b c4cc c0bc 6c4d ac3c
00000050: 7b10 39bc 20fb d1bc abc8 2bbc 592f babc
00000060: 7c14 a33c 7b43 8c3b 1748 68bc de18 e63c
00000070: ffe3 ac3c e529 bebc 25a0 d93b 1e9e 173b
00000080: a3aa 0b3c 14ae 4f39 3cdf febc 29c4 7fbc
00000090: 6841 f9bc c020 8e3c e365 db3c 4a6b d2bc
000000a0: 1915 b1bc aea3 babc 55a9 e83c e859 9fbc
000000b0: 85ed 2ebb b923 eebc c031 c43c d6c2 d9bc
000000c0: a5bf ef3c c7c0 f33c 3957 cfbc ada1 a83b
000000d0: 708b a73b 2a4c ecbc a29f cebc 3a0d e23c
000000e0: a2f2 823b fcee 7a3c 3c8f a93c 9fa1 f0bc
000000f0: 8be1 8bbc 4194 523b 150c f13c 1ec4 f33c
-0.023582077 0.027144616 0.01388511 -0.030583039 -0.012495724 0.010712605 0.019357653 -0.022402678
0.007286143 0.00948232 0.019627582 0.024408018 0.02859606 -0.025705729 -0.011337349 -0.019366112
-0.01703146 0.0033722168 -0.02353514 0.021033011 -0.011295433 -0.025632441 -0.010484855 -0.022727655
0.019907229 0.0042805052 -0.014177344 0.02808803 0.02110481 -0.023213336 0.006641405 0.0023135017
0.00852457 0.00019805908 -0.031112306 -0.015610733 -0.030426696 0.0173496 0.026781982 -0.025685925
-0.021616505 -0.022783127 0.028401056 -0.01945205 -0.0026691866 -0.029069768 0.023949504 -0.026582163
0.029266188 0.02975501 -0.025310146 0.0051462264 0.005113058 -0.028844912 -0.025222603 0.027594198
0.0039962092 0.015315767 0.020698182 -0.029373942 -0.01707532 0.0032131823 0.029424706 0.029756602

encoder.encoder.2.1.weight f4 [64]
00000000: 1e4e 1c3f 9731 9b3e 8bc6 273f a112 063f
00000010: 8b00 923e e2a6 fb3e 7d10 9f3e 5691 023f
00000020: 9a97 883e 7339 ca3e 97f6 b83e 6ddf 0f3f
00000030: 923c 153f 3464 003f 82af 2f3f 918e 113f
00000040: 90d0 833e 9805 da3e 278c 983a 858a 9b3e
00000050: 0d40 b53e 1c52 c83e edf3 0f3f 7e22 f73e
00000060: 5781 b93e d520 e33e 4df4 213f b0cd 1d3f
00000070: b86e 9b3e c456 643e 7cd3 e03e 90e5 003f
00000080: c374 2e3f 188e 083f d713 193f 50a8 853e
00000090: 9bab 623e c48b 1b3f 8040 ab3e c231 fd3e
000000a0: c71e 313f 6a83 223f f818 f03e 4cf6 b63e
000000b0: 9c95 d53e 4f2e ef3e 3298 a73e 758a ac3e
000000c0: 4c54 c63e ddeb cd3e 25de 5f3e 2fb0 a53e
000000d0: ebb8 ee3e 351f 993e b3d3 a43e 79c5 e63e
000000e0: 332d 2f3f 5a99 983e f5b9 aa3e 577b 063f
000000f0: c45c c43e df3d f73e 9bda 2b3f 9b78 c63e
0.610567 0.30311272 0.6553733 0.52372175 0.2851604 0.4915076 0.31067267 0.51003015
0.26678163 0.39496955 0.36125633 0.56200296 0.5829555 0.501529 0.6862718 0.56858164
0.25745058 0.42582393 0.0011638448 0.3037912 0.3540043 0.39125144 0.56231576 0.48268503
0.3623149 0.44360986 0.632634 0.6164198 0.3035791 0.22298723 0.4391135 0.50350285
0.68146914 0.5334182 0.597959 0.26104975 0.22135775 0.6076014 0.33447647 0.49452025
0.6918759 0.6348177 0.4689405 0.35734785 0.41715705 0.46715018 0.32733303 0.33699384
0.38736188 0.40219012 0.21862085 0.3236098 0.46625456 0.29906622 0.32192764 0.45072535
0.68428344 0.29804498 0.33345 0.5253195 0.38352025 0.4828939 0.6713044 0.3876389

encoder.encoder.2.1.bias f4 [64]
00000000: 1183 28be 61ea e4be 44fc ffbd faae 5ebe
00000010: 6bda d1bd 2db4 6cbd d1fe 63be cef6 87be
00000020: a31a bd3b 21f5 e5bd 4e05 7ebe 2976 9fbe
00000030: 91a8 36be 5c8f 1dbe 7196 b7bd 04b3 b7bc
00000040: 635b a4be 990f 8dbe f288 27bc dc09 25be
00000050: 3aaa 56be e914 2f3d f8ed 63be 8f23 18bd
00000060: 6572 40be 87ee 0bbe 5b9a 263c 0e10 aabe
00000070: 8e02 e4bc 1478 c5bd f6a5 89be 8a9f a2be
00000080: e7b2 90be 8c55 cabd 8d7b 37be 4cce 6fbe
00000090: 539b 1dbe d217 b0be dee5 07be 8a29 81bd
000000a0: aeeb 9dbe 2391 68be c91e 39bd 7dc8 68be
000000b0: 00a4 28b9 8fdc 26be dc80 34be a519 0ebe
000000c0: 2120 47be 1db5 56be f730 06bd 2cc0 b6bd
000000d0: f13b 3ebe a8f7 3cbe 646f 9cbe fc23 ccbd
000000e0: 6868 47be 1a30 2abe cd8e 9fbe a517 06be
000000f0: 26ed b6be 16be 06be 8f92 21bd 4bb6 56be
-0.16456248 -0.44710067 -0.12499288 -0.21746436 -0.10246738 -0.057789017 -0.22265173 -0.26555485
0.0057709976 -0.11228395 -0.24806711 -0.31144837 -0.1783774 -0.15386719 -0.08964241 -0.022424228
-0.32100973 -0.27550963 -0.010225521 -0.16117042 -0.20963374 0.04274455 -0.22258747 -0.037143286
-0.18793638 -0.1366521 0.010168637 -0.33215374 -0.02783325 -0.09642044 -0.2688443 -0.31762344
-0.28261492 -0.09879598 -0.17918225 -0.2341854 -0.15391283 -0.34393173 -0.13271281 -0.06306751
-0.30843872 -0.22711615 -0.045195375 -0.2273273 -0.00016082823 -0.16295074 -0.17627281 -0.1387697
-0.1944585 -0.20967527 -0.03276154 -0.089233726 -0.18577553 -0.18453848 -0.30553734 -0.09967801
-0.19473422 -0.16619912 -0.31163636 -0.13094957 -0.35727805 -0.1315845 -0.03944641 -0.20967977

encoder.encoder.2.1.running_mean f4 [64]
00000000: 182f bfbe de03 363d a1fd 30bf 6fdc b5be
00000010: 702b 6bbd f31c a5be e306 11be 3d57 85be
00000020: 50b4 c1bb ad19 c5bd 7eea 29be 2df3 10bf
00000030: 0d54 07bf 565c b8be ba2a 50bf 1ae0 32bf
00000040: 11d2 333e 85bd f0be 761f 44bd a7e2 73be
00000050: 9d9c 8abd 8853 f6be ad58 7fbe 90f3 dabe
00000060: ee96 6dbe 09b1 cbbe 9cdf 20bf da5f 08be
00000070: ea6c e1bd 8d92 d0bd 3af6 9bbd bc5f 75be
00000080: 0793 c0be 5b5b 09bf 6eec d2be 9d03 9abe
00000090: 1a47 59bd 3fc5 12bf 6d2a 27be 8565 c6be
000000a0: 5f78 8fbe 6977 c2be 2824 d3be 2830 10be
000000b0: aa81 86be 4077 1ebf 62b2 0bbd 8377 62be
000000c0: a093 58be 8bf8 9cbe c343 6ebe 0c71 45be
000000d0: d163 d5be bcd4 afbe e753 f5bb a421 a2be
000000e0: fee5 b5be a0b2 bbbd 3bda 03bf 6362 3dbf
000000f0: d027 e8be d755 d2be c422 38bf 74de 45be
-0.37340617 0.04443728 -0.69137007 -0.3551974 -0.057414472 -0.3224865 -0.14162783 -0.2604312
-0.0059113875 -0.09624038 -0.16593358 -0.56621057 -0.52862626 -0.36007947 -0.81315196 -0.698732
0.17560603 -0.47019592 -0.047881566 -0.2381693 -0.06768153 -0.48110604 -0.24936171 -0.42763948
-0.23202106 -0.39783505 -0.628412 -0.13317814 -0.11007102 -0.10184202 -0.07615323 -0.23962301
-0.37612173 -0.5365502 -0.41196007 -0.30080882 -0.053046323 -0.57332224 -0.16324778 -0.38749328
-0.28021523 -0.37981728 -0.41238523 -0.1408087 -0.262708 -0.6190071 -0.034105666 -0.22115903
-0.21150064 -0.30658373 -0.23268037 -0.19281405 -0.41677716 -0.3434199 -0.0074868086 -0.3166629
-0.35527033 -0.091649294 -0.5150487 -0.7397825 -0.45342875 -0.41081116 -0.7192805 -0.1932314

encoder.encoder.2.1.running_var f4 [64]
00000000: 81a1 9e3e 11c1 9f3e 8a0e 113f ebd6 bb3e
00000010: 37fe 973d b8a3 773e 3921 9b3e b9e1 c13e
00000020: e744 623d 03cd 9e3e aa2c d43e 1143 433f
00000030: 7fa7 223f 4879 a23e 5ea5 4d3f 82f6 f73e
00000040: 7120 3c3e d8c7 eb3e aece 683c 1721 8f3e
00000050: 7cf5 1e3e 69fd 763e 190c 803e 9172 5f3e
00000060: 563b 113e fdb5 953e d770 5f3f 178a fc3e
00000070: 74b4 803d 1a99 db3c b42d 9d3e a107 ab3e
00000080: 390a b93e 22e5 a53e 8aad ae3e bb9b b83e
00000090: a445 d13c 3648 003f 4634 db3d a8d6 a93e
000000a0: 85da 123f a1d9 123f 2fdf 823e 7dca 1f3e
000000b0: ad8e df3d b50d e23e dac5 e33d 4a23 013e
000000c0: 90c3 af3d 442c a93e e3c0 813d 15a6 5f3d
000000d0: 7954 8c3e 7fee 333e 165a 583e d561 ca3e
000000e0: 4767 b33e bdcc 913d a54e 703e db19 3b3f
000000f0: d24d c53e 75e1 a33e 0ad2 2e3f 7306 2d3e
0.30982593 0.31201985 0.5666281 0.36687407 0.074215345 0.24183547 0.30298784 0.37867525
0.05524149 0.31015787 0.41440326 0.7627421 0.6353683 0.31733155 0.80330455 0.48430258
0.1837175 0.46050906 0.0142094325 0.27954933 0.15523332 0.24120106 0.2500923 0.21821047
0.14182791 0.2924041 0.87281555 0.49324104 0.06284419 0.026806403 0.3069893 0.33404258
0.36140612 0.32401377 0.34116775 0.36056313 0.025545903 0.50110185 0.1070333 0.33171582
0.57364684 0.57363325 0.255609 0.15604587 0.10915885 0.44151083 0.111217216 0.12611118
0.085822225 0.33041584 0.06335618 0.054601748 0.27408198 0.17571448 0.21128115 0.39527765
0.35039732 0.07119129 0.234675 0.7308633 0.38535935 0.32007948 0.68289244 0.16896991

encoder.encoder.3.0.weight f4 [64, 64, 3, 3]
00000000: 8aaa 543b 476b b23c d643 303c 9414 7e3c
00000010: 2c69 8dbc ff99 b33c eeb8 59bc fd25 d13c
00000020: 2dc0 943c 39fb 2ebc 3b2c bb3c 62b4 adbc
00000030: f5ba 9ebc 2b4c 54bb 1b73 bb3c cf40 163d
00000040: b226 c13c ac52 883c 72f6 8c3b d7a8 bdbc
00000050: b1a5 66bc 4649 cd3c 9f43 973b f267 f03b
00000060: 8247 013c a264 ccbc 25e4 a23c f779 efbc
00000070: 6142 7a3c c509 a93c 209b a83c 5b11 c53c
00000080: b13f b53c 0b5d 0e3c 9b60 88bc 7c39 903b
00000090: 0c38 f43b 9395 b4bc 953d 903b cfd2 95bc
000000a0: 5e92 d2bb fd4f 143d 22cc e0bc 0f54 ee3b
000000b0: 1261 01bd 3b44 5a3b 280d 043d 6cf7 b63b
000000c0: f025 1d3d a3fa 1cbc 6807 e3bb ac92 363c
000000d0: 0c28 c03c 81c3 20bc 0bc2 8a3c 8ce1 713c
000000e0: f007 443a b17d 133c 6fab 6dbc 73e8 c8bc
000000f0: c4ad 21bd b15d 22bc a756 ba3b d3fc 51bc
00000100: 3f00 033d 162e 2d3c c811 4fbc 3da5 bfbc
00000110: e6ec 863b 21d1 21bb 603d cfbc e809 b6bc
00000120: 7346 653c 47e6 603a 4905 8d3b 3bec cbbc
00000130: ce07 82ba fe29 673c a3b6 ebbc b404 8c3c
00000140: 2125 c33c da92 113c 399b 0ebd 39c2 9fbc
00000150: 832c 0b3d 6d8e 4b3b 1bd3 56bc 363a 97bc
00000160: 94a5 a83c 55fa 273c 7151 9bbc 6fec 283d
00000170: bab7 533c abd9 063d e0b7 273d 80b8 8cbc
00000180: 4cef 063d 3c3b 9cbc c50e a13b c728 8ebc
00000190: 8394 12bb 52d4 deba ca59 17bd 9b2a a9bb
000001a0: 008a b6bc 322d 44bc 3bfc a0ba 32b9 e2bb
000001b0: 6f34 06bd b655 4abb 09d5 133c 9f88 ba3b
000001c0: 7715 89ba a42b 803c 487e abbc 78fe 3dbc
000001d0: e15f b73c 0286 183c bd37 8cbc 8821 22bb
000001e0: 4182 8abc ffad 89bb d56d babb 6ab4 27bb
000001f0: 3aa6 ef3c e149 013d 584c a63c c614 003d
00000200: fc50 f33c f7d5 1d3c 30de 9dbc 5b85 f2bb
00000210: 95c1 84bc c58c a53c fde8 7d3c b015 efbc
00000220: 8ddd c23b 3a5f 4c3c 877b a53c bbf7 703c
00000230: c814 593c b63e c93c c8f1 87bc bea7 c23c
00000240: ddc6 ba3c e69f 903b 7216 cd3b 87a5 b9bc
00000250: ef9b 9abc add8 41bc 7190 78bc 46bd 843c
00000260: 5afa 493a 7768 4d3c 6b40 d03c 585f e43c
00000270: 4d21 f73c dbcf 8dba a989 5b3c 19fd 733c
00000280: b01a f53b c645 aabc 7678 0b3c f5f2 07bd
00000290: ae50 ad3c 3bc0 bebc 85fd b93c b805 5cbc
000002a0: a68c 71bc fd41 9abc f478 ca3c d986 00bd
000002b0: 050d e3bb 4f2d e03c 66e5 bfbb e405 e73c
000002c0: fe90 1d3b 89ae 913c 414e 3b3c ca00 f93c
000002d0: a0ad c7bc 554e fbba df07 653b 3288 3e3c
000002e0: 1711 bf3c 5638 fcbc 385c 733b 6377 3cbb
000002f0: 8ebf 70bc b3a1 b63c 9f92 cdbc 108d fd3c
00000300: 5888 b03b e4f4 c7bc c793 dd3c 6860 013d
00000310: 9847 ec3c 7e04 153d d319 403a 6c94 acbc
00000320: 213a 563c 2c84 16bb 37d6 11bc 14e2 7f3b
00000330: 7f1d e4ba 6d93 8e3c 2ea5 97bc efb0 813c
00000340: 2422 6bbc 2eca 44bc bdf3 d33b eeba b4bc
00000350: 572f 1938 8760 c1bb ff18 71bb a7ec a9bc
00000360: f86c c53c 5526 e53c 33ea 07bc fc46 bfbc
00000370: c483 203d 875c 933c d313 fdba e831 c93c
00000380: a8d4 dc3c 572d 2abb 288f 003d 4034 803c
00000390: 40dc 133c 9e15 bb3c 999b f53c 28f8 cdbc
000003a0: 416f ac3c 5ee0 d03c b79b a43b 68ae f03c
000003b0: 384b babb 81a0 0b3d 718c 25bd 0f11 4a3d
000003c0: 4b42 87bc ccc0 5dbc efc1 8f3c a04f 89bc
000003d0: 8197 9d3c 3431 a73c 6222 883c bbb5 2bbc
000003e0: 1610 6b3c 3344 3c3c 0831 27bd 9824 51bc
000003f0: 4075 b4bc dbd9 423c 7202 c1bc b74a fdbb
0.0032450282 0.02177967 0.010758361 0.015507836 -0.017262064 0.021924017 -0.01328872 0.02553081
0.018158043 -0.010680013 0.02284824 -0.021204177 -0.019376257 -0.0032394032 0.022882035 0.0366829
0.023578022 0.016640984 0.0043018395 -0.023151798 -0.01407759 0.025059354 0.0046162154 0.00733661
0.007890584 -0.02495033 0.019884178 -0.029232962 0.015274615 0.020634541 0.020581782 0.024056127
0.022125097 0.008689175 -0.016647628 0.004401384 0.0074529704 -0.022043979 0.0044018724 -0.018288998
-0.0064261397 0.036209095 -0.027441088 0.007273204 -0.031586714 0.0033304829 0.03223911 0.005583694
0.03836626 -0.009581241 -0.006928373 0.011143368 0.023456596 -0.009812237 0.01693823 0.014763247
0.00074779894 0.009002135 -0.014506205 -0.024524903 -0.039472356 -0.009910033 0.0056865993 -0.012816626
0.031982657 0.01057007 -0.012638517 -0.023394221 0.004117596 -0.00246913 -0.02529782 -0.02222152
0.013993847 0.0008579236 0.0043036086 -0.024892917 -0.0009920539 0.014109133 -0.028773611 0.017092086
0.023821415 0.00888511 -0.034816 -0.019501792 0.033977997 0.0031060234 -0.013111855 -0.018460374
0.020586766 0.010252555 -0.018959733 0.041241106 0.012922222 0.032922428 0.04094684 -0.01717782
0.032943055 -0.019071214 0.0049150907 -0.017353429 -0.0022366352 -0.0017000532 -0.036950864 -0.0051625497
-0.0222826 -0.011973666 -0.0012282202 -0.0069190497 -0.03276485 -0.0030873842 0.0090229595 0.005692556
-0.0010458668 0.01564581 -0.020934239 -0.011596315 0.022384586 0.009309294 -0.017116422 -0.0024739224
-0.016907813 -0.00420165 -0.0056893625 -0.0025589713 0.029254068 0.031564597 0.020300075 0.03126981
0.029701702 0.009633533 -0.019270986 -0.007401151 -0.016205588 0.020208726 0.015497443 -0.029185146
0.005946821 0.012473876 0.020200504 0.014707501 0.013249584 0.024566036 -0.016594782 0.023761626
0.022799904 0.0044135926 0.006258779 -0.022661937 -0.018873183 -0.011831445 -0.015171156 0.016203534
0.0007704847 0.012537113 0.025421342 0.027877495 0.030167246 -0.0010819392 0.01339952 0.014891886
0.007479988 -0.020785224 0.008512607 -0.033190686 0.021156635 -0.023285022 0.022703895 -0.013429098
-0.014743006 -0.018830294 0.024715878 -0.0313786 -0.0069290423 0.027365355 -0.005856204 0.028201051
0.002404272 0.01778342 0.011432231 0.030395884 -0.024374783 -0.0019173125 0.0034947318 0.011629151
0.023323579 -0.030788582 0.0037133824 -0.0028757683 -0.014694108 0.022293901 -0.025094328 0.030951053
0.005387347 -0.024408765 0.027048005 0.03158608 0.028842732 0.036381237 0.0007328067 -0.021066867
0.013075382 -0.0022966964 -0.00890117 0.0039044665 -0.001740381 0.017404282 -0.018511381 0.015831439
-0.0143514015 -0.012011094 0.006468265 -0.022061791 3.652213e-05 -0.0059013995 -0.003678858 -0.020742727
0.024099812 0.02797238 -0.008295584 -0.023349278 0.03918816 0.017988456 -0.0019308276 0.02455993
0.026956871 -0.0025966966 0.031386524 0.015649915 0.00902468 0.022837456 0.029981421 -0.025142744
0.021049144 0.025497612 0.0050234455 0.029380038 -0.0056852363 0.034088615 -0.04041714 0.049332675
-0.016511103 -0.013534736 0.01754853 -0.016761601 0.019237282 0.020409204 0.016617958 -0.01048034
0.014347097 0.011490869 -0.040818244 -0.012765072 -0.022028565 0.011892761 -0.023560736 -0.007729854
