saves_category/pacs/cartoon/max_acc.pth (torch_old, 527876 bytes, 28 tensors)

encoder.encoder.0.0.weight f4 [64, 3, 3, 3]
000000 38 54 61 3b b0 12 e0 bd 40 ea b2 bc 2b 86 35 be
       0.0034382474 -0.10941064 -0.021840215 -0.17726962
000010 9f 05 fa bd c4 bc 21 bd dd 7a c6 bc 5f 61 3b 3e
       -0.122081034 -0.03948666 -0.024228508 0.18298863
000020 79 9b 09 3e cb 9c 9c bd d6 81 ba bd 93 de cc bd
       0.13438214 -0.076470934 -0.091067955 -0.1000339
000030 eb f0 45 3d 45 71 98 3d ea 29 16 3d c5 5c bb 3c
       0.04832546 0.074434794 0.036661066 0.022871384
000040 4b 1a 2c 3e 93 ec 1d 3e bd 9b ef 3d 35 0f 1f be
       0.16806905 0.15422277 0.116996266 -0.15533145
000050 99 65 c9 3d 33 19 83 bd a6 ce d6 3c 88 74 f3 bd
       0.09833831 -0.06401291 0.026221585 -0.11887461
000060 1e 66 64 3c a1 e8 5c 3b e2 41 1d bd 45 cb 77 3c
       0.013940362 0.0033707994 -0.03839291 0.015124147
000070 41 d3 87 3a f9 d6 41 be 1a 56 47 3d c1 12 8e bd
       0.0010362641 -0.18929662 0.048666097 -0.06937171
000080 4b e3 4a be cb d3 a0 3d eb 0a 5c be e7 95 5d bb
       -0.19813268 0.07852896 -0.2148854 -0.0033811273
000090 4e 5a 14 3e 27 2d b2 bd c0 e3 a3 3d 38 2b e5 3d
       0.14487574 -0.087000184 0.08002424 0.11189884
0000a0 29 77 09 3d c9 6d da bc 87 72 ee bd d3 77 b0 bd
       0.033560906 -0.026663678 -0.11642938 -0.08616605
0000b0 9e 34 c9 bc 7a c0 15 bd 88 07 93 bd 53 61 d0 bd
       -0.024561223 -0.036560513 -0.07179171 -0.10174813
0000c0 ad dd b1 bd f4 bb cb bd 78 19 04 bd 58 d2 33 bc
       -0.086848594 -0.099479586 -0.03225085 -0.010975443
0000d0 a1 18 e1 3a 22 52 fe 39 74 c3 16 3d 7e 35 18 bd
       0.0017173478 0.0004850785 0.036807492 -0.03716039
0000e0 80 d4 80 be 48 ea 17 3d 69 e2 0c bd 48 8c 94 bb
       -0.25162125 0.037088662 -0.03439561 -0.0045333244
0000f0 d7 7f 63 3e 9e 30 90 3d d8 41 ac bd aa df c0 bc
       0.22216736 0.07040523 -0.08410996 -0.023544151
000100 e2 83 45 be 00 c8 7e be 80 63 1e 3e d5 71 25 3e
       -0.1928859 -0.24880981 0.15467644 0.16156705
000110 e6 8b 51 3d c8 aa 11 3e 13 87 a8 bd de e2 29 3c
       0.05115881 0.14225304 -0.08228888 0.010369031
000120 48 01 9f bd e3 06 fe bd da a7 2d be 50 8d 34 3e
       -0.07763916 -0.12403657 -0.16958562 0.17632031
000130 36 7b a3 3d 1b 5e e3 bd c9 2b ea 3d b1 d9 33 3d
       0.07982485 -0.111019336 0.114341326 0.04390878
000140 f9 95 93 bd d9 44 e3 3d 65 6c 6d 3e 65 fb 83 3d
       -0.072063394 0.11097116 0.2318588 0.06444434
000150 22 9d fb bd 5f 4a fa 3d 92 8a 82 bd 47 89 c2 bd
       -0.1228583 0.122212164 -0.063740864 -0.0949884
000160 4d f8 23 be cf a9 ac be 2f a7 0c 3d 0c 89 1c 3e
       -0.16012688 -0.33723304 0.034339126 0.15286654
000170 8e 87 c2 3e a4 e5 85 bd 93 a4 cf 3d 60 c3 49 3e
       0.37994045 -0.06537941 0.10138812 0.19703436
000180 02 e3 eb bd 86 a6 56 be 84 78 3e be 23 10 31 3e
       -0.11517908 -0.20961961 -0.1860066 0.17291312
000190 a7 b0 51 3e 22 ea 22 3e db 0c 0c be 63 c1 53 3d
       0.20477544 0.15909627 -0.13676779 0.0516981
0001a0 82 b1 77 3c 81 40 95 bc 9b a2 9a be 6d 6c b3 be
       0.015118005 -0.018219234 -0.30202183 -0.3504366
0001b0 6d 0e 8a 3d 8b 5d 6d 3d 2f 3b 94 bc fa bb a9 bd
       0.06741033 0.057950538 -0.018094627 -0.08287807
0001c0 cd 84 33 3e 04 c7 1c 3e a5 8d 89 3d 94 b1 e0 bd
       0.17531128 0.15310293 0.0671647 -0.1097137
0001d0 08 15 36 3d 2b b4 0c be 4b 4d 06 3e 20 f3 7d bd
       0.04445365 -0.13740604 0.13115422 -0.06199944
0001e0 4f 63 5c bd 70 39 11 3d 17 c4 a5 bd 0f 7e c9 bd
       -0.053805646 0.035455167 -0.08094042 -0.09838497
0001f0 97 a8 02 3e 0b 71 ac bd 99 dd f1 3d a9 52 c4 3d
       0.12759624 -0.08419999 0.118098445 0.09586079
000200 c9 eb 07 bd 2f 0b 1c be 34 7e 1f bd 40 22 ac bc
       -0.033183847 -0.15238641 -0.038938716 -0.021012425
000210 db a8 19 be 29 ed 03 3d a4 70 f0 bc bf 3a 88 3c
       -0.1500582 0.032208595 -0.029350586 0.016629575
000220 25 aa 1c bd 6e 58 9c bd 4a 74 0e be c5 35 e8 bb
       -0.0382482 -0.07634054 -0.13911548 -0.007086488
000230 c2 b1 f7 3d ae d4 17 3d b9 22 d0 bd 5a 48 be bd
       0.120944515 0.03706806 -0.10162873 -0.09291144
000240 e4 bf 37 bd 22 62 bd bd 26 5d 67 bd e7 8b cb bc
       -0.044860736 -0.09247233 -0.056485318 -0.024846984
000250 35 ab b5 3b 39 0f a3 bd f6 5f e0 bc 07 b3 94 3d
       0.005544091 -0.07961888 -0.027389508 0.07260709
000260 01 9f 06 3d 6b 82 a7 bc d2 5d ad 3d 9d f8 13 be
       0.03286648 -0.02044793 0.084651604 -0.14450307
000270 0a 38 ac bd b8 56 78 bd e7 4c 85 bd 12 f4 5d bd
       -0.08409126 -0.060629576 -0.065088086 -0.05418784
000280 d9 77 09 be cd be a7 bd f1 62 be 3d 24 dd 23 3c
       -0.13424625 -0.08190689 0.09296215 0.0100014545
000290 8e 4e ab bd dd db 8a 3d a1 34 31 be 5b a2 aa bd
       -0.083645925 0.06780217 -0.17305233 -0.08331748
0002a0 26 f3 40 bd 0c 4d 1d be 70 19 b5 3d 67 69 3a 3e
       -0.047106884 -0.15361422 0.088427424 0.1820427
0002b0 3c bf dc 3b 4a 7f f9 3d ca 4f b5 3d 27 b8 90 3c
       0.006736664 0.121824816 0.08853109 0.017665936
0002c0 51 24 d0 3d c4 d4 4a 3b 0b ce 18 3d da 16 15 3d
       0.10163177 0.0030949572 0.037305873 0.036398746
0002d0 e0 86 47 3d fc a8 f8 bc 61 05 55 3d 43 d0 7c 3d
       0.04871261 -0.030354016 0.052007083 0.06172205
0002e0 84 ee 3e 3d 6e a5 28 be 8d a6 66 3d 88 3c 57 be
       0.046614185 -0.16469356 0.05631118 -0.21019185
0002f0 74 e8 f1 bd 1a d0 ff 3d ba e3 d4 3d 66 54 a1 bd
       -0.11811915 0.12490864 0.10394998 -0.07877426
000300 37 9a da ba 61 07 e8 3c 66 7d b2 bd 8f 70 e9 3d
       -0.001667804 0.028323831 -0.08715324 0.11398422
000310 c6 d4 56 3c 5e 62 9f ba a8 a6 7f bd 91 e6 fb 3d
       0.013112253 -0.0012160053 -0.062414795 0.122998364
000320 f2 23 86 3d d0 22 7e 3c 2e 33 ef 3d ae 4e 87 bc
       0.06549825 0.01551123 0.116796836 -0.01651701
000330 72 2a b6 bc ef d8 6d 3d 15 42 c3 3d ad b9 bb bc
       -0.022237036 0.058068212 0.095340885 -0.022915686
000340 c9 d7 20 be 66 f9 29 bc 77 f4 7e bd e9 89 63 3c
       -0.15707316 -0.010374403 -0.06224486 0.013887861
000350 c6 61 1d be b0 9f 75 bc 91 0a ca 3d 84 0d 8c 3c
       -0.15369329 -0.014991686 0.09865297 0.017096289
000360 06 de 67 bc ad 38 78 3d 01 66 0a be 84 83 a5 3d
       -0.014152056 0.060600925 -0.13515474 0.08081725
000370 b6 9a 10 bd 4d 42 ef bd 67 0c c4 3d 32 2b 08 3c
       -0.035303794 -0.11682568 0.09572678 0.00831108
000380 6b de 0a be 7f b8 a1 3d ed 17 13 be 15 22 00 3e
       -0.13561408 0.07896518 -0.14364596 0.12513001
000390 d6 0b e1 bd 62 4d b6 bd 01 78 f4 3d 26 81 d7 bd
       -0.10988586 -0.08901478 0.119369514 -0.1052268
0003a0 ff 01 b8 3d c8 29 fc 3d 7e 4c f6 3d ad 59 74 3b
       0.08984756 0.12312657 0.120263085 0.0037284896
0003b0 07 aa 9c 3d 68 96 c1 3d 59 b4 ee 3d 8e 82 fe bc
       0.07649618 0.09452516 0.11655492 -0.031068113
0003c0 59 81 5d 3d d5 2a a3 3d 87 40 fa bd 64 2f 51 bd
       0.054078434 0.07967154 -0.12219339 -0.051070586
0003d0 4b 33 b9 3d bf 35 29 3d d1 4a 74 bd 46 a9 bb bd
       0.090429865 0.041311022 -0.059641663 -0.09163146
0003e0 7f 05 c9 bd 67 63 cd 3d 14 9f ed 3d ad 5f 4c 3d
       -0.098155014 0.10028725 0.11602607 0.04989593
0003f0 48 85 63 bd 8f 19 f0 3c dc 03 94 3b d8 06 8a 3d
       -0.05554703 0.029309062 0.0045170616 0.067395866

encoder.encoder.0.0.bias f4 [64]
000000 cd 62 be bd 12 17 2b 3d bf ce 76 bb 02 c3 03 3e
       -0.092961885 0.04177005 -0.0037659851 0.12867358
000010 84 72 b2 3c 9e 5b 01 bc cd be c1 3c 90 1c b1 bc
       0.02178312 -0.007895378 0.023650551 -0.021620065
000020 f7 f5 88 3d 26 f2 87 3d 07 94 e4 3c 98 16 0b 3e
       0.06687539 0.06637983 0.027902616 0.13582838
000030 d4 28 48 bb 37 dc 9c bd af 0d 03 3d df 24 0e 3e
       -0.0030541914 -0.0765919 0.03199547 0.13881253
000040 07 18 88 bd 25 fe 25 3a fa 0f 89 3b 54 6c c5 3d
       -0.06645208 0.0006332121 0.0041828128 0.096398026
000050 27 2d a4 bd 81 66 50 bc 1c 47 af 3b 71 6e d2 bc
       -0.080164246 -0.012719751 0.005349053 -0.025687428
000060 e2 22 ff bc b8 cf 9d 3d 5d 5f 0b be b7 7f d8 3d
       -0.031144563 0.07705635 -0.13610597 0.10571235
000070 a5 6a 1f bd e0 cf bb bd 72 6c 80 bd 8c 9a 82 3d
       -0.038920064 -0.091705084 -0.06270684 0.06377134
000080 80 d8 9a bd cc a2 c4 bd 34 a4 77 3d 38 9f 66 3d
       -0.07560825 -0.096013635 0.06045933 0.056304187
000090 11 74 9b bd 16 3e 88 bd f7 7e cb bd a3 18 5d 3d
       -0.07590497 -0.06652467 -0.09936326 0.053978574
0000a0 ff f8 f7 bd b9 60 d5 3d 9b c0 85 bd 5e 80 86 3c
       -0.12108039 0.10418839 -0.06530877 0.016418632
0000b0 92 64 07 bd f8 a8 f9 bb 5e 32 c0 3c b3 03 cc bd
       -0.033054896 -0.0076190196 0.023461517 -0.09961643
0000c0 03 1f 47 3d 58 99 09 be 0f 9f d8 bc 3c 43 0a be
       0.04861356 -0.13437402 -0.026443033 -0.1350221
0000d0 d8 79 06 3d c2 66 7d 3d ba 0f 00 be c5 b0 08 be
       0.032831043 0.061865576 -0.12505999 -0.13348682
0000e0 49 9e d6 3d 63 e9 e3 3d 3f 01 08 3e 0f ab 43 3d
       0.10479409 0.11128499 0.13281725 0.047770556
0000f0 73 69 dd 3c cf 29 c8 3d 76 7b 0c be 03 ac 09 be
       0.027027821 0.09773599 -0.13718972 -0.13444524

encoder.encoder.0.1.weight f4 [64]
000000 64 89 65 3e c0 33 d6 3e 29 9f f1 3e c8 eb 33 3f
       0.22415692 0.41836357 0.47191742 0.7028165
000010 c3 74 0b 3e 74 c3 ed 3d 25 a9 56 3e 46 ed 6d 3e
       0.1361876 0.11609545 0.20962961 0.23235044
000020 a3 9c 1a 3d 14 3a 0e 3e 1d 28 8e 3e 01 36 aa 3e
       0.037747037 0.13889343 0.2776498 0.33244327
000030 fe 13 33 3e b6 d6 8b 3d bc 8d b2 3e ac b6 2e 3f
       0.17488095 0.06828062 0.3487376 0.68247485
000040 ab 41 55 3e 15 bb 90 3e 41 52 1e 3f c9 6c f7 3e
       0.20825832 0.28267732 0.6184426 0.48325184
000050 97 de 0e 3f dc b7 d9 3e 80 69 dc 3e 5c 4d bc 3e
       0.55808395 0.42523086 0.4304924 0.3677777
000060 72 f1 c5 3d 5d 42 e9 3e 50 70 2f 3e 53 40 2a 3f
       0.09665193 0.45558444 0.17132688 0.665044
000070 aa 7a 85 bc a5 f9 0d 3f ba 8a 1f 3f 32 a4 a8 3e
       -0.016293842 0.5545905 0.62321055 0.3293777
000080 af bf 87 3e 54 25 27 3e 69 36 46 3f 9c aa 0d 3f
       0.2651343 0.16322833 0.77426773 0.55338454
000090 2e b4 e9 3d ff 8a b2 3e a8 00 4e 3e 09 9d 3f 3e
       0.1141132 0.3487167 0.20117438 0.18712248
0000a0 72 c0 42 3f e5 0c ba 3e 2a 45 13 3f 9a ec 1b 3e
       0.760749 0.36337963 0.5752741 0.15226975
0000b0 47 b6 ab 3e 1e 63 34 3f 68 64 ee 3c 79 f5 cf 3e
       0.33537504 0.7046374 0.029100612 0.40616968
0000c0 e1 9a e3 3d 7a 0f 53 3f fd a6 5e 3e 46 15 30 3f
       0.11113525 0.8244549 0.21743388 0.6878246
0000d0 e3 d1 01 3b 24 e6 90 3e f9 0e 12 3f 57 4b 36 3f
       0.001980894 0.28300583 0.57054096 0.7120871
0000e0 00 90 22 3e e3 e2 30 3d 3a 1b ef 3e 97 2c bb 3e
       0.15875244 0.043185126 0.4670046 0.36557457
0000f0 be 91 06 3e 28 59 3f 3f 88 e0 a4 3e fe 78 ed 3e
       0.13141534 0.74745417 0.32202554 0.46381372

encoder.encoder.0.1.bias f4 [64]
000000 d9 6a 37 bd 86 7b 84 be 9e 4c 25 bd ef 21 3a 3d
       -0.044779632 -0.2587549 -0.04035627 0.045442518
000010 a9 49 81 bd b0 8a cb bd b9 b7 45 bd 3e f0 40 bd
       -0.06312878 -0.09938562 -0.048270915 -0.047104113
000020 cc 60 36 3b 53 88 48 3c 37 cf 35 be 20 bc 62 be
       0.0027828692 0.0122395335 -0.17754827 -0.22142076
000030 68 3c 76 bd 50 32 c3 ba f8 91 99 bc 6e 68 1c bc
       -0.0601162 -0.0014892314 -0.018746361 -0.009546382
000040 7f bb 0b be 89 da df bd cb a3 a8 bd 27 ff b2 bd
       -0.13645743 -0.10930354 -0.08234366 -0.08740073
000050 57 c7 c7 bc 94 ab 96 bd 6a cc 52 bd c6 32 a3 bd
       -0.024387045 -0.07356945 -0.051464476 -0.07968669
000060 75 df 34 bd f3 03 02 bd 65 27 80 bd 7e e6 fe bd
       -0.044158418 -0.031742048 -0.06257514 -0.12446307
000070 ea 36 af 3c 9e 96 ea bd f6 89 75 bd 21 80 c2 bd
       0.02138849 -0.11454509 -0.059946023 -0.09497095
000080 04 dc e9 bd 5c 3e 2b 3e 95 dd 0c be 6a 99 6b 3c
       -0.11418918 0.16723007 -0.13756402 0.0143798385
000090 79 92 8d bd 1d ea 80 be bf d8 5b bd fb 97 cf bd
       -0.06912703 -0.25178614 -0.053673502 -0.1013641
0000a0 97 37 3e bd c4 b7 f6 bc 6c e0 8a bd aa 8f 48 bd
       -0.046439733 -0.030116923 -0.06781086 -0.048965134
0000b0 6e a9 39 bd 27 a9 f0 bb 2e 18 94 bc 88 40 73 be
       -0.045327596 -0.0073443833 -0.018077936 -0.23755085
0000c0 45 c5 b2 bb 61 aa 05 3c a0 f6 3a bc ba fb 21 bd
       -0.0054556453 0.008158297 -0.011411339 -0.039546706
0000d0 57 10 9b bc 2c 21 9f bd 48 34 29 bc 34 1f 6f bd
       -0.01892869 -0.07769999 -0.010327406 -0.058379367
0000e0 ea bc 0e 3c 8e 0b be bc cc 75 5b bd cb 38 9c bc
       0.008712033 -0.02319887 -0.053579137 -0.01907005
0000f0 fd 45 83 bd 56 a1 c3 bd d7 a2 29 bd e1 39 3e bc
       -0.064098336 -0.09552257 -0.04141506 -0.011610479

encoder.encoder.0.1.running_mean f4 [64]
000000 4d ae 50 be 17 2e b9 bf c9 99 bd be aa 8a c3 bd
       -0.2037899 -1.446719 -0.3703139 -0.095479324
000010 da e7 e7 bd f2 f6 db bf 1d 00 ad 3d f3 9f c3 3e
       -0.11323519 -1.7184737 0.08447287 0.3820797
000020 6f e5 18 3f 83 27 8f 3f 0e be 3e bf 57 8f 7e be
       0.5972509 1.1183933 -0.7450875 -0.24859367
000030 f9 b5 46 be fa 0c 88 3f eb 24 ac 3e 6e 12 eb bd
       -0.19405355 1.062896 0.33621916 -0.114781246
000040 95 b2 89 bf 37 45 aa 3e 24 0f 0b 3f ac d6 3c 3f
       -1.0757624 0.33255932 0.5431998 0.73765063
000050 39 56 27 be 4b cc 27 be 38 72 d3 bd 62 84 80 be
       -0.16341485 -0.16386525 -0.1032452 -0.25101
000060 84 90 7a be 7b ad 1b 3f ce 69 00 3f 0d e2 9a 3c
       -0.24469191 0.60811585 0.50161445 0.018906618
000070 fe 64 84 bd ab d8 07 3f cb 72 03 bf 93 1d 25 bd
       -0.06464575 0.53064984 -0.51347035 -0.040311407
000080 93 8c cd be ee 2d 2f bd a7 7f 2d 3f d7 6c 65 be
       -0.40146312 -0.04276841 0.67772907 -0.224048
000090 df be 8f bf c2 62 8a bf 60 2e d9 bd 6e 4a 57 3d
       -1.1230124 -1.0811388 -0.106045485 0.052561216
0000a0 7b c9 e2 be b0 b9 bd 3e 5f dc 40 3f c8 f7 a1 3e
       -0.44294342 0.3705573 0.7533626 0.31634355
0000b0 be db 7a 3f 87 00 d6 be e6 bf a9 3e f8 ed b3 bf
       0.9799155 -0.41797277 0.3315422 -1.4056997
0000c0 b3 34 a0 3f af f5 be be b4 81 84 be 0b 80 63 be
       1.2516083 -0.37296817 -0.25880206 -0.22216813
0000d0 dc 73 ba bd 12 82 09 be 6b 1e 75 be d3 bc bb be
       -0.0910413 -0.13428524 -0.23937385 -0.366675
0000e0 75 84 b0 bd f7 e7 18 bf 9b 87 2f 3f 5e ab ed 3e
       -0.08619014 -0.5972895 0.6856629 0.46419805
0000f0 a8 da 6e be 5d de 49 3f c4 66 34 be 8b c6 15 be
       -0.23325598 0.78854924 -0.17617327 -0.1462652

encoder.encoder.0.1.running_var f4 [64]
000000 4f 5a a7 3d 0e 14 b9 3f a7 25 f4 3e eb 04 33 3f
       0.08171522 1.4459245 0.47684976 0.6992938
000010 7d e5 92 3d 6b 8e ea 3f e6 e9 cc 3d 56 8b 20 3e
       0.07172678 1.8324713 0.1000555 0.15678152
000020 8b 57 59 3e 71 6b 36 3f 73 02 c7 3e 94 22 64 3e
       0.21224801 0.7125769 0.38869056 0.22278816
000030 49 d1 a8 3d 6e fc 59 3f 21 87 12 3e d4 40 4a 3f
       0.08243043 0.851508 0.1430936 0.7900517
000040 12 76 2a 3f 3c 87 a0 3d 34 d1 aa 3e e1 cc b3 3e
       0.6658641 0.07838294 0.33362734 0.35117248
000050 37 6b db 3e 94 1c c2 3e 09 67 17 3e 5b 00 59 3e
       0.42855236 0.37912428 0.14785399 0.21191542
000060 66 f4 dd 3d 6a c8 9c 3e 85 1b 90 3e 76 92 75 3e
       0.10837631 0.30621654 0.28145996 0.23981652
000070 9c 5d 8c 3c 65 9d 9a 3e 9d 62 5d 3f 61 2a 80 3e
       0.01713448 0.30198207 0.86478597 0.25032333
000080 7b bd 43 3e 01 9b 3c 3e d3 9f 33 3f 91 db 57 3f
       0.1911525 0.18418504 0.7016575 0.84319407
000090 ac 78 46 3f df 78 30 3f d3 d0 36 3d 46 c7 c7 3c
       0.7752788 0.68934435 0.044632744 0.024387013
0000a0 f8 1f 09 3f 19 ab 96 3d af e9 0d 3f f9 c8 11 3e
       0.53564405 0.07356853 0.554347 0.14236821
0000b0 37 35 2d 3f ce 3f 75 3f c7 44 8c 3d 54 b6 91 3f
       0.67659324 0.95800483 0.06849056 1.1383767
0000c0 38 dd 6d 3f 86 ea 93 3f 76 25 61 3e a4 48 2f 3f
       0.9291568 1.1555946 0.21986946 0.68470216
0000d0 57 ce 81 3d 46 af 71 3e bf 5a 1f 3f 69 5b 0f 3f
       0.06338184 0.23602018 0.6224784 0.55998856
0000e0 81 e0 b4 3d 11 eb b3 3e 6c c7 71 3e b5 03 03 3e
       0.08831883 0.3514028 0.2361123 0.12794383
0000f0 1c f0 97 3d 03 a7 f7 3e 24 d7 89 3d b4 fd c5 3e
       0.07418844 0.48369607 0.06730488 0.38670123

encoder.encoder.1.0.weight f4 [64, 64, 3, 3]
000000 7b 23 36 bc fc df 96 3c 91 53 9b bb 06 b7 2c bd
       -0.011116858 0.018417351 -0.0047401865 -0.042166732
000010 75 85 fa 3c 03 4d 36 3c 47 81 72 bd 87 f3 d3 bc
       0.030581215 0.011126759 -0.05920532 -0.025872959
000020 3f f3 98 bb 64 ed 38 bc 4b b8 40 bc 89 1c 6a bb
       -0.004667669 -0.011287067 -0.011762689 -0.0035722575
000030 4a 6a a3 bc d6 a7 5f 3b ec 77 bd 3c b9 29 f4 ba
       -0.019948144 0.0034127138 0.023128472 -0.0018628157
000040 a7 c5 15 bd bd 14 4c 3c 9e 07 5f bd 3d 17 5c bb
       -0.03656545 0.012456116 -0.054450624 -0.0033583187
000050 3c 06 0d bd 3a 29 df 3c 5e 94 3a 3d 46 f0 45 bc
       -0.034429774 0.027241338 0.04555165 -0.012081211
000060 46 35 3a bd b3 a9 3c bc 3f 12 1b bc 04 fd 80 3d
       -0.04546096 -0.011515069 -0.009464799 0.06298259
000070 dd 1d 3a 3e a1 24 72 3e e4 cb 4b bc b7 de 13 bc
       0.18175454 0.23646785 -0.012438748 -0.009025267
000080 9e 2b 8b 3d 8d d0 9f bc 3a 2d 15 bd 34 88 90 bb
       0.06795429 -0.019508624 -0.036420085 -0.004410768
000090 2b aa 8b 3c c2 a1 38 bd 49 b3 97 3b 1c 54 47 3c
       0.017048916 -0.04507614 0.0046295268 0.012166049
0000a0 18 1f 67 bd b3 7d ab bc 89 29 ef 3c 57 4a 0a 3a
       -0.056426138 -0.020933961 0.02919461 0.000527536
0000b0 78 e3 28 3c a1 d1 8b bc cc 3e bb bc a1 7c ae 3c
       0.010308139 -0.017067732 -0.022857092 0.021299662
0000c0 f5 34 ae bc 70 a7 d8 bc 5d fa 4a 3b cd 7f 1f bc
       -0.021265486 -0.026447028 0.0030971982 -0.00973506
0000d0 b1 85 01 bd e6 86 db 3c 24 29 2d bd 6f 9f 2d 3d
       -0.03162164 0.026797723 -0.042275563 0.042388376
0000e0 6f 18 0e 3c 8b 2a 7a bb d3 21 8b 3c a2 ae c7 3b
       0.008672818 -0.003817233 0.016983902 0.006093816
0000f0 09 4c 9a bc 92 6f d9 bc de c6 b5 bc a2 14 d3 bc
       -0.018835085 -0.026542459 -0.022189554 -0.025766674
000100 af 75 a2 bc d9 fc b6 bc 63 f7 91 bc 6d 5e c9 bc
       -0.019831507 -0.022337364 -0.017818158 -0.024581159
000110 b1 f0 9d 3c 55 8b 45 bb b5 60 24 3c 73 b8 ff bb
       0.01927981 -0.0030142863 0.010032822 -0.0078039705
000120 46 3c f5 3c de 2f ba bb b4 c6 67 3c 0a 08 8f 3b
       0.029935967 -0.0056819757 0.014146496 0.004364972
000130 c7 6d 81 bc 7b 33 21 bb c4 b3 ba 3b b5 aa e7 bc
       -0.015799416 -0.0024597335 0.0056976993 -0.028279642
000140 78 ff be bc f4 a5 9f 3b 1a 22 a6 3c 44 e5 53 3b
       -0.023315176 0.004872078 0.020279933 0.0032332698
000150 0a 56 8e 3b b2 41 09 3c 3d 79 a5 36 2c 57 0c bc
       0.0043437527 0.008377479 4.931497e-06 -0.008565705
000160 f7 25 6d 3c 6d f9 37 bc c9 e0 e2 bb 4b f0 2c bc
       0.014474384 -0.011228901 -0.006923769 -0.010555337
000170 86 74 a2 bc 5f 33 c6 bc 03 4f c0 3c 0d 29 98 3c
       -0.019830953 -0.024194418 0.023475176 0.018574262
000180 ad 8c 0d bc cb 87 47 bc b6 7f e9 bc 3c 04 0c bd
       -0.008639497 -0.012178372 -0.02850328 -0.034183726
000190 b1 64 33 3c 04 50 9a 3c 19 71 4c bc 15 d8 18 bd
       0.0109493 0.018836983 -0.012478136 -0.037315447
0001a0 a7 8f 71 bc a8 42 66 3c 5f 0a 53 bc e8 7b b9 ba
       -0.014743722 0.014053978 -0.012880891 -0.0014151307
0001b0 9b 11 fd bc a3 ed a6 3c db 8a 9a 3b 1b 6f 7d bb
       -0.030892184 0.020376986 0.00471626 -0.003867096
0001c0 85 39 ac bc 9c 13 bf 3c 85 5f 93 bc 91 e6 24 bc
       -0.021023521 0.02332478 -0.017989883 -0.010064737
0001d0 2b 17 29 3c 25 d0 9a 3a 69 c0 33 3c 10 bc 9b 3c
       0.010320465 0.00118113 0.010971167 0.019010574
0001e0 ab ee e5 3c 47 56 38 3c a4 17 a9 bc 4a a0 9a bc
       0.028067907 0.011251039 -0.020641156 -0.01887526
0001f0 59 04 97 3c 47 5d eb bc 5b 56 35 3d b0 fd 44 3d
       0.01843469 -0.028731002 0.044271808 0.048093498
000200 72 dc dc 3c c8 1e ac 3c 97 d4 e5 3c cb 8d ee bb
       0.026960585 0.021010771 0.028055472 -0.0072800866
000210 fe 96 d2 bc 34 46 cc 3c 91 c2 1b 3d 64 de 0d 3d
       -0.025706764 0.02493582 0.03802735 0.034635916
000220 28 26 83 bd f6 68 a1 bc a2 19 8a 3d c2 23 b7 bd
       -0.06403762 -0.01970337 0.0674317 -0.08942367
000230 be c1 44 bd b9 55 b6 3d b3 4f c8 bd b6 a6 11 bd
       -0.04803633 0.08903069 -0.097808264 -0.03555938
000240 c1 99 ed bb f4 46 28 bd 78 91 e4 bc 62 4e 9b bc
       -0.007250995 -0.04108329 -0.027901396 -0.018958274
000250 d3 98 14 3b 2d c4 95 3c 6b 7b a4 3b 08 89 a3 bc
       0.0022674098 0.01828202 0.0050195954 -0.019962803
000260 57 0d 05 3d fd 33 30 3c b7 02 be bc 21 0e aa 3c
       0.032483425 0.0107545825 -0.023194654 0.02075869
000270 4b 41 fe 3b 57 80 e6 bc dc 60 87 bc 3d dd 81 3c
       0.0077592484 -0.02813737 -0.016525678 0.015852565
000280 f7 2f 07 3d 75 80 f7 3c 9a 9d 5f 3b 0c 64 70 bc
       0.033004727 0.03021262 0.0034121037 -0.0146722905
000290 2e aa 89 bd c0 95 39 3d dc c7 63 bb fe d8 b9 bc
       -0.06721912 0.04530883 -0.0034756577 -0.022686478
0002a0 39 89 0d 3d a4 38 5e bd f7 2a 37 bc 9a 0d 07 bd
       0.034554694 -0.054253235 -0.011179677 -0.032971956
0002b0 ba 1d cd 3c 1e 50 08 bc 5f 19 37 ba e0 65 81 bc
       0.025038589 -0.008319883 -0.00069846766 -0.015795648
0002c0 aa f1 99 bc 44 b7 13 bb 8a b7 f3 bc 61 b9 5a bc
       -0.018791992 -0.0022539655 -0.029750604 -0.013349862
0002d0 42 5d a6 3c da 10 85 bd 1d e1 60 bd 03 c6 53 3c
       0.02030814 -0.06497355 -0.054902185 0.012925628
0002e0 73 68 7c bd 76 a8 56 bd 6d 09 b2 3d 49 56 49 bc
       -0.061623048 -0.05240675 0.08693204 -0.012288638
0002f0 72 f0 5f 3c 97 90 5c bd 05 64 1f bc 74 60 b5 bc
       0.0136681665 -0.05384883 -0.009728436 -0.022140719
000300 2f 7e 80 bb f2 be 90 3c 4d 29 3d 3d 90 8a 99 bd
       -0.0039212923 0.017669175 0.046181966 -0.07497132
000310 28 71 2f bd e1 c4 be bb 76 6a 8a 3d 6c b6 53 3d
       -0.042832524 -0.0058218096 0.06758587 0.051687643
000320 d0 44 ea 3b d0 57 04 3d 9e af 27 bc 11 9a 6c bc
       0.0071493164 0.032310307 -0.0102347415 -0.014441029
000330 97 a5 53 3c d4 8d 29 bd 8c b7 30 bd b9 80 80 3d
       0.012917898 -0.041395023 -0.043143794 0.06274552
000340 7d 4a cd bb 3c 7b e8 bc d5 7a b2 3c 10 d2 6a bb
       -0.006264983 -0.028379075 0.021787087 -0.0035830773
000350 9e 43 d3 ba 67 a2 c3 3c 6f 7c 0d 3c 3c 71 26 bd
       -0.0016118174 0.02388115 0.008635624 -0.040635332
000360 82 78 7f 3c 69 28 14 3c 24 47 8e 3c 72 68 80 bc
       0.015592696 0.009042838 0.017367907 -0.015674803
000370 38 49 37 3c f2 00 cf 3c ca 8c 7b 3b 78 34 13 3a
       0.01118689 0.025269005 0.0038383477 0.00056154234
000380 31 52 f4 bc d0 09 63 bc 75 2d 4a 3c cf fb 9d 3c
       -0.029824348 -0.01385732 0.012339939 0.01928511
000390 48 5b 12 bd 0f 9d 25 3d 18 cf 15 3d 0a b2 92 bd
       -0.035731584 0.040432986 0.036574453 -0.071628645
0003a0 26 42 2d 3b 8b 30 ce bc dd f4 d9 bc da 7c a1 3c
       0.0026437133 -0.025169631 -0.026606018 0.019712854
0003b0 37 44 1f 3c 14 47 78 bb 7d d5 11 3b 34 f8 0a 3c
       0.0097208535 -0.0037884163 0.0022252493 0.008482028
0003c0 6c 0d b0 bc 71 f8 f5 3c fc 1b 94 3c c5 de 84 bc
       -0.021490775 0.030025693 0.01807975 -0.016219506
0003d0 22 a3 aa bd 21 9a 34 3c cd 89 0c 3c a9 13 bb bc
       -0.08331896 0.011023075 0.008577776 -0.022836523
0003e0 84 0f 1e 3d 29 25 6e bd 30 9b 92 bd 24 29 86 bd
       0.038589016 -0.058140907 -0.07158506 -0.06550816
0003f0 7d 7d c9 bc 96 ca 03 bc 8f 1a 90 bc 03 53 44 b9
       -0.02459597 -0.008043906 -0.01759079 -0.00018722941

encoder.encoder.1.0.bias f4 [64]
000000 4d de f4 bb 12 21 a4 ba eb 1f 0c bb 3d 99 0e 3c
       -0.0074727894 -0.0012522063 -0.002138133 0.008703527
000010 0b 39 a2 bc 83 ab ae 3a 9c e3 c9 bc 2c e2 3b bc
       -0.01980259 0.0013326261 -0.024644665 -0.011467498
000020 fa 7e 43 bc 75 e0 cd bc 13 60 f1 3c 37 8d df bb
       -0.011932129 -0.025131444 0.029464757 -0.006822254
000030 a6 f2 cf bc 0c 34 f5 bc f4 b0 9f bb 20 8b 25 3c
       -0.025384258 -0.029932044 -0.0048733894 0.010103971
000040 5c f7 6e bb 47 09 b0 bc 01 ce f6 3c 84 99 2b 3c
       -0.0036463356 -0.021488799 0.030127527 0.010473613
000050 7d 37 8d bb 42 59 da 3b de ea 14 3c d1 dc f3 3b
       -0.0043095932 0.0066634724 0.0090892 0.007442095
000060 cf c7 45 bb ee 39 cb 3c f8 72 d9 3c ff 14 1b 3c
       -0.003017891 0.024807896 0.02654408 0.009465455
000070 6a 77 75 3c 80 04 3a bc 5b 70 2a 3c 77 64 e5 3c
       0.014982084 -0.011353612 0.010402764 0.028002007
000080 00 f6 a5 3c 09 43 21 3c 7f 97 ea bc bc 52 d1 3a
       0.020258904 0.009842643 -0.028636692 0.0015970091
000090 18 e4 d3 3c 65 28 64 bb 22 0d 9e 3b 74 48 6b bb
       0.0258656 -0.0034814116 0.004823343 -0.003590134
0000a0 28 2e 0f bc 83 ab 5c 3c 76 c2 be bc 58 d1 51 bc
       -0.008739032 0.013468626 -0.023286086 -0.012806259
0000b0 e0 8a 0b 3c e2 0f 68 3c 83 46 67 3c a8 d8 81 bc
       0.008516997 0.014163943 0.014115932 -0.01585038
0000c0 f9 36 86 bc 6a 10 f0 3c 08 9c a0 3c 37 b0 5d 3c
       -0.016383635 0.029304702 0.019605651 0.013530782
0000d0 92 8e 01 bc d1 dd 80 bc 2f fd e3 bc 7d 52 cf 3c
       -0.007907527 -0.01573077 -0.027830688 0.025307888
0000e0 62 25 c2 3c 26 9b 80 bb 21 df 8c 3c 8f 1b 76 3c
       0.023699466 -0.003924745 0.01719624 0.015021219
0000f0 a1 2c 29 3c 5f d4 90 bb 9e ec a2 3b 02 b3 5b 3c
       0.010325582 -0.004419848 0.0049720546 0.013409378

encoder.encoder.1.1.weight f4 [64]
000000 0f c9 bf 3e bf ad 3c 3e d1 5e d4 3e 95 1e 4a 3e
       0.37458083 0.18425654 0.4147859 0.19738229
000010 7d f2 a2 3e 28 63 0e 3f a0 73 bb 3e 1d 32 ca 3e
       0.3182563 0.5562005 0.36611652 0.39491358
000020 31 28 38 3e 36 79 c5 3e cb d8 9a 3d c5 1d 76 3e
       0.17984082 0.3856904 0.07560881 0.24034794
000030 f7 a4 33 3e 41 fd b3 3d 7c e6 4d 3f d0 6d f0 3e
       0.17543398 0.08788539 0.80429816 0.4695878
000040 2d 54 39 3f ce 93 01 3f ef c8 c8 3e de 09 e3 3d
       0.7239407 0.5061616 0.392158 0.110858664
000050 63 16 10 3f 26 60 12 3f 0e 6f 8d 3e 71 a7 a1 3e
       0.5628416 0.5717796 0.2762379 0.3157306
000060 0d 00 0d 3f 2b 4e 13 3f 5c cd 32 3f d8 56 cd 3e
       0.550782 0.5754115 0.69844604 0.4010532
000070 f6 e0 4d 3f e6 ba c4 3e 72 20 a9 3e 7e 09 bc 3e
       0.8042139 0.38423842 0.33032566 0.36725992
000080 2f c7 4b 3e 87 6d a0 3e 16 fd 91 3e 2d b4 ab 3e
       0.19900201 0.31333563 0.28513402 0.335359
000090 a4 6c 91 3e 77 da ac 3e 05 49 80 3e b5 4c 10 3f
       0.284032 0.33760425 0.2505571 0.56367046
0000a0 e8 d3 1b 3f ba e9 7e 3e d3 2f 10 3f 7f a3 ef 3e
       0.6087022 0.24893847 0.56322974 0.46804425
0000b0 70 9c 73 3e 26 58 85 3e 35 b5 30 3f 66 6c 26 3f
       0.23790145 0.26043814 0.690265 0.6500915
0000c0 3f ec e8 3e ab 4f d5 3d e8 18 1a 3f 5a b8 11 3f
       0.4549274 0.10415586 0.60194254 0.56921923
0000d0 12 da 6f 3e ac 0b b1 3e fb 3d a9 3e 3d 91 d0 3e
       0.23423031 0.34579217 0.330551 0.40735808
0000e0 87 e4 73 3e ec 93 6b 3e 41 e4 b6 3e 5d 77 10 3f
       0.23817645 0.23005646 0.3572102 0.56432134
0000f0 cd f0 dc 3d 7f ae 95 3e 96 3b c3 3e 2f 46 e6 3d
       0.107881166 0.29234692 0.38131398 0.11243855

encoder.encoder.1.1.bias f4 [64]
000000 42 40 9c be a0 27 b0 bd 39 ca 41 be 60 7f fc bd
       -0.30517775 -0.08601308 -0.18924798 -0.12328982
000010 af af 42 be 57 ee 86 be 20 3d 20 be 05 2b 4a be
       -0.1901233 -0.26353714 -0.15648317 -0.19742973
000020 a3 6f 5c bd 39 c2 05 be 25 36 12 bd e3 60 ea 3c
       -0.053817403 -0.13062371 -0.035696167 0.028610652
000030 a2 8c 05 be 5e 04 b9 bd 52 1a a8 3d 3b b6 47 be
       -0.13041928 -0.09034036 0.08208145 -0.19503109
000040 7d 24 16 bd e0 52 8e be 05 d3 4a be f2 f9 b5 bd
       -0.03665589 -0.27797604 -0.1980706 -0.08885564
000050 6a 10 98 bc 0f 8a d6 bc 05 b8 ca bd 7d 94 d9 bd
       -0.018562514 -0.026188878 -0.0989838 -0.10624025
000060 9b 36 3a be 1c f2 4f be 49 a1 3d bd b6 87 c1 be
       -0.18184893 -0.20307201 -0.04629639 -0.37798852
000070 a9 27 6c 3d dd a7 f4 bd 1a 15 30 be 6f a2 c5 bd
       0.05765501 -0.1194608 -0.1719555 -0.096501224
000080 34 12 f6 bd 45 33 f9 bd 75 71 85 bc 77 4d 24 3d
       -0.12015191 -0.12167982 -0.016289452 0.04011294
000090 c0 17 1f be 11 a5 a3 be e7 87 ab bd 07 bd 52 3d
       -0.15536404 -0.31961873 -0.08375531 0.0514498
0000a0 65 30 1c be 0e a0 c5 bd 6e 3a cc bd a6 bc 1a be
       -0.15252836 -0.09649669 -0.09972082 -0.15111026
0000b0 c2 28 b3 bd 03 ca e8 bc 21 a7 57 be d9 4b 57 bd
       -0.08748008 -0.02841664 -0.21059848 -0.05256257
0000c0 3d 06 71 3d 2d 81 85 bd 1b a3 f5 bb 7c 48 fd bd
       0.05884384 -0.06518779 -0.0074962503 -0.12367341
0000d0 7e b6 6a bd 40 97 4f be 1d 66 c8 bd 33 38 ad bd
       -0.057302944 -0.20272541 -0.097851016 -0.08457985
0000e0 56 1a 52 be 93 d1 91 3c ba 47 41 be 59 30 35 bd
       -0.20517859 0.017800128 -0.18875018 -0.04423556
0000f0 f5 52 96 bd 91 f3 ad be 0d 44 12 be dc a8 21 bc
       -0.073400415 -0.3397489 -0.14283772 -0.009866919

encoder.encoder.1.1.running_mean f4 [64]
000000 a8 f2 7c bd 46 0a 34 3d ee 50 eb be c5 86 94 3d
       -0.061754853 0.04395511 -0.45960182 0.07252268
000010 43 ff 99 be 7c e6 80 bd 08 71 81 be 03 3c 9c be
       -0.30077562 -0.062939614 -0.25281549 -0.30514535
000020 eb 9d bf bd da d0 fc be 3d 01 a1 3d 6b ce 83 be
       -0.09356292 -0.4937809 0.07861564 -0.25743422
000030 31 12 8f 3d f4 57 f1 3d f2 64 35 bf 9d 8f 0f bf
       0.069858916 0.11784354 -0.70857155 -0.5607851
000040 e2 b2 e1 be 6d 92 1d bf 00 dc a4 be 02 88 31 3d
       -0.4408179 -0.61551553 -0.32199097 0.043342598
000050 11 5d 8b bf 5a 6a 26 bf f9 c0 10 be a7 cb 14 be
       -1.0887777 -0.6500603 -0.14136113 -0.14530812
000060 26 f8 08 bf 1d a0 d8 be 26 b4 0d bf 67 04 b1 3e
       -0.53503644 -0.42309657 -0.5535301 0.3457367
000070 42 f5 82 bf ba 2b 9d be b0 a7 a3 3d e0 d0 81 bf
       -1.0231097 -0.30697423 0.07990968 -1.0141869
000080 d7 87 30 3d 1f bb 79 be b5 5d 07 bf de 9d 9f be
       0.043098297 -0.24387787 -0.5287736 -0.3117513
000090 e3 1a d6 bd 32 f3 e1 3e ae 8c 6a bd 0c 2d 05 bf
       -0.10454347 0.44130856 -0.05726307 -0.5202186
0000a0 45 c5 b2 be 3e ca 22 bc 64 e0 cb be 92 17 cf be
       -0.3491613 -0.009935914 -0.39819634 -0.4044767
0000b0 b8 4b 05 be 0e 11 d6 bd 4c 80 8b be 5a 5f 27 bf
       -0.13017166 -0.10452472 -0.2724632 -0.6537987
0000c0 14 a5 bb be 8b 66 d8 3d 07 c7 17 bf 2a 19 d8 be
       -0.36649382 0.105664335 -0.59288067 -0.422067
0000d0 79 2e 13 be 0e c4 4f be d5 eb bc be 36 70 ed be
       -0.14373197 -0.20289633 -0.36898676 -0.46374673
0000e0 b8 41 1d 3e 19 0a 83 be 23 79 8b be ea bd fb be
       0.15357101 -0.2559364 -0.27240857 -0.4916833
0000f0 d4 0f 94 3d 36 77 01 3f 74 2f 9f be fb 96 f2 bb
       0.072295815 0.50572526 -0.3109089 -0.007403252

encoder.encoder.1.1.running_var f4 [64]
000000 77 c1 04 3f 37 f2 e0 3d 42 17 ba 3e 94 a1 f5 3d
       0.51857704 0.10983699 0.3634587 0.11993709
000010 ce f2 4a 3e 0f ce 80 3f c9 1a 5c 3e 8c d1 06 3f
       0.19819185 1.0062884 0.21494593 0.52663493
000020 76 56 f3 3d 9d 72 09 3f ff 04 fe 3c a6 27 16 3e
       0.118817255 0.5369051 0.031008242 0.14663562
000030 6c 12 dc 3d 81 e3 60 3d 4e 52 e9 3f 39 cb 60 3f
       0.10745701 0.054904465 1.8228242 0.87810093
000040 69 ba 04 40 7f 4f 66 3f 49 90 62 3f 06 49 ff 3c
       2.0738776 0.8996505 0.8850141 0.03116275
000050 72 de b7 3f 9e d1 9b 3f ad 43 49 3e 4c 26 0c 3e
       1.436476 1.2173345 0.19654723 0.13686484
000060 33 4c 51 3f 26 98 a2 3f e2 d4 ac 3f 51 9c 3e 3f
       0.81756896 1.2702682 1.3502467 0.7445727
000070 01 d0 1c 40 37 35 62 3e 22 98 d7 3e f2 d2 83 3f
       2.4501956 0.22090612 0.42108256 1.029875
000080 09 87 55 3e b4 10 88 3e 9c dd ae 3e 13 55 66 3e
       0.20852293 0.26575243 0.3415345 0.2249339
000090 76 08 a0 3e 6d bc 0d 3f bd 5d 57 3e 6d 3c 43 3f
       0.31256455 0.5536564 0.21031852 0.7626408
0000a0 b9 1e b6 3f db 4d 93 3e 44 cc 3b 3f 09 01 76 3f
       1.4228126 0.28770337 0.7335856 0.9609533
0000b0 45 33 1b 3e 45 f9 a8 3e 1b 31 ae 3f b5 ba e5 3f
       0.15156277 0.33002678 1.3608736 1.7947603
0000c0 8e 58 d0 3e b3 f6 d0 3c 59 2d 86 3f 33 75 27 3f
       0.40692562 0.02550826 1.0482589 0.65413207
0000d0 db 47 8a 3e c5 53 c0 3e 4b 1f 98 3e 3f 2d 30 3f
       0.27007946 0.3756391 0.29711375 0.6881904
0000e0 0c 44 87 3e 00 f4 f1 3d 62 88 93 3e 3d 4b cc 3f
       0.26419103 0.118141174 0.2881499 1.5960461
0000f0 32 1b df 3c ea a6 12 3f 03 9c b3 3e cf e2 5a 3d
       0.027234647 0.5728594 0.35079965 0.053438958

encoder.encoder.2.0.weight f4 [64, 64, 3, 3]
000000 2f f6 19 bd 3a 25 63 bd 8a bb 09 bd b3 f3 09 3c
       -0.037588295 -0.055455424 -0.033626117 0.008419919
000010 7d 95 0e 3c 32 ba a3 bc 7f 0b 52 b9 93 f1 4f bc
       0.008702633 -0.019986246 -0.00020031443 -0.012691873
000020 1c 38 f2 3c e2 a5 22 bd 4a 75 02 bd 28 22 36 bd
       0.02956777 -0.03970898 -0.031850137 -0.044466168
000030 08 14 f7 bc 2c 23 4f bc 33 04 18 3c 07 eb d1 3c
       -0.030160919 -0.012642663 0.009278345 0.025624765
000040 8e c3 1c bb f0 36 a1 3b da c7 2d 3d ad c2 b6 3c
       -0.002392027 0.004919879 0.04242692 0.022309626
000050 1e c5 8b 3d 5d 7c 36 3b 0c 62 90 3d 0e ce 62 3d
       0.068247065 0.0027845122 0.07049951 0.05537229
000060 70 2c d2 3c df 98 c4 bc 30 8a a4 bd 50 20 34 bd
       0.025655955 -0.023998676 -0.0803417 -0.043976128
000070 b0 94 54 bc c0 b6 b3 bc 86 82 99 bc a1 e7 45 bd
       -0.012974903 -0.021937728 -0.018738996 -0.0483166
000080 4f 64 59 bd f9 0f 1e 3c 01 76 b8 bb 05 d3 f1 b9
       -0.053074177 0.009647363 -0.0056293015 -0.00046124324
000090 d0 87 76 bd 10 14 3e 3c fa 12 20 bd 8a 15 a4 bd
       -0.060188115 0.011601463 -0.039080597 -0.08011921
0000a0 3f cf 1b 3c b6 11 ba 3c b9 0e 0c 3d 0b 15 ea bc
       0.009509861 0.022713523 0.034193728 -0.028574487
0000b0 4a da f4 3c 21 c8 4c 3d 35 75 90 bd be 60 e1 3c
       0.029889245 0.049995545 -0.070536055 0.02751195
0000c0 f1 bd 58 3d a3 a3 53 3d 11 5f 6b 3d cc ad d0 3c
       0.052915517 0.051669728 0.05746371 0.025473498
0000d0 67 fe b5 3d 12 e8 a2 bd 78 4a a7 3c 68 6e c7 bc
       0.08886414 -0.0795442 0.020421252 -0.024344638
0000e0 2f 84 5e 3c b8 71 f3 3b 6e f5 96 3d a2 13 b8 3a
       0.01358132 0.007429328 0.07371031 0.0014043937
0000f0 1e 95 74 bc 56 82 8f 3d cc 07 e1 bc fe e8 94 bd
       -0.01492813 0.070072815 -0.027469538 -0.07271002
000100 3d a0 ad 3c 27 91 c4 3c b8 3d bb bd 2c 2b d3 3a
       0.021194572 0.023994995 -0.09142631 0.0016110889
000110 5e 78 a7 3d a3 02 f6 bd 3a 1a 09 bb 50 05 08 3d
       0.08177255 -0.12012222 -0.0020920173 0.03320819
000120 51 ed 79 bd 9d fa fc bc ba 1d 5d bb 03 ed 31 bd
       -0.06101734 -0.03088122 -0.0033739642 -0.043438923
000130 74 ce 9d bc 9e 7c f3 3c b0 ee b7 3b fe 1e 9f 3c
       -0.019263484 0.029722508 0.0056131706 0.019423958
000140 45 29 c1 3a de 0c 6e bd de f7 26 bd c1 c5 53 3b
       0.0014737031 -0.05811774 -0.04076373 0.0032313915
000150 51 0d 51 bc 59 d8 2a bc 7b b3 e3 3c ca c7 b3 3b
       -0.012759523 -0.010427558 0.027795544 0.005486463
000160 82 ce c9 bc e3 70 a5 3d 1a 18 5c 3a 76 26 67 ba
       -0.024634603 0.08078172 0.00083959254 -0.0008817682
000170 47 a5 59 bc 1f 46 45 bb a1 18 cf bb f5 e7 e9 bc
       -0.013284034 -0.003010161 -0.0063200747 -0.028552989
000180 97 b0 ce 39 71 1f 11 3c 86 36 72 3c 69 63 12 bd
       0.00039422952 0.008857594 0.014783507 -0.035739336
000190 01 c4 ea bc 11 fc 2f bd b1 ef 81 bb fa 3f 12 3c
       -0.028657915 -0.042965 -0.003965341 0.008926386
0001a0 4a 52 69 39 76 ad 9f bb 3c 8a 14 3d 4b 1c 8c ba
       0.00022251267 -0.004872973 0.036264643 -0.0010689584
0001b0 22 ac d8 bc 45 10 99 3c f7 87 00 3c c6 e8 36 bd
       -0.026449267 0.018684516 0.007844917 -0.044655584
0001c0 9d 6d 52 3c 70 3c 45 3c fa 22 14 bd 84 91 de bc
       0.012843517 0.012038335 -0.03616617 -0.027168997
0001d0 ef 77 f5 ba 44 ab bb 3c 04 32 c7 3c 16 b4 61 bb
       -0.001872776 0.022908814 0.024315841 -0.0034439615
0001e0 5d 72 ab 3b a4 35 0e bd d9 1b 4e bc 40 e3 e1 3b
       0.005232139 -0.034719124 -0.012579882 0.0068935454
0001f0 bc 53 ac 3b 57 d9 ce bc 5e db 46 3c 09 2d e0 bc
       0.0052590054 -0.02525012 0.012137262 -0.027365224
000200 1a 5c 6f 3c 40 69 ec bb 89 f8 d4 bc 91 91 0f 3a
       0.014609361 -0.007214695 -0.025997417 0.0005476708
000210 c5 1d 4a bd df 6c c8 bd 81 d8 1e bd b2 89 67 3d
       -0.049344797 -0.097863905 -0.038780693 0.0565278
000220 1c c2 0a 3c 24 56 4b 3c 72 06 68 3d cb 23 b0 bd
       0.008469131 0.012410674 0.05664677 -0.08600577
000230 7a 38 d9 bc e6 5c a8 bd 53 17 2b be 7a c3 82 bd
       -0.026516188 -0.08220844 -0.16708116 -0.063849404
000240 45 fa 05 3b 0d 6f a1 bc e1 68 28 3e 6a db 4c bd
       0.0020443362 -0.019706273 0.16446258 -0.050013937
000250 a5 fa e4 3c 66 dc 55 3d 27 e0 1a 3d 7f c4 dd 3c
       0.027951548 0.05221214 0.037811425 0.027071236
000260 85 4e b3 bd 63 10 45 3d a3 b6 a4 3d 99 af 89 3d
       -0.08755211 0.04811133 0.08042648 0.06722946
000270 00 7e f7 bc 57 94 55 3c 4d 7f 65 3d d9 4b b7 bd
       -0.030211449 0.013035855 0.056029607 -0.08950014
000280 83 58 94 bd da 33 1f 3c 48 2b f1 3d b7 58 13 bd
       -0.07243445 0.009716952 0.11775833 -0.035973277
000290 9a f4 8d 3d 41 be 0a bd 1d 95 53 bc 52 92 89 3c
       0.0693142 -0.033872847 -0.012913969 0.016793404
0002a0 4a ea 91 3d 1c 0e 0d bc 2f 5f ae bc a5 f9 82 bb
       0.07124765 -0.008609321 -0.021285621 -0.003997045
0002b0 92 1a 99 3b 1c 1c 86 bb fa 70 7f bc db 6f 18 bd
       0.004672357 -0.0040927064 -0.015590901 -0.03721605
0002c0 26 16 76 bb 74 a3 64 ba 0a 57 38 bc 37 f2 da bc
       -0.0037549823 -0.0008721866 -0.0112512205 -0.026726825
0002d0 b1 af ea bb cf 3a 56 3c b5 cb 00 3b 12 b4 52 3d
       -0.0071620573 0.0130755445 0.001965267 0.05144126
0002e0 65 53 ec 3c 2d 13 43 3c a4 a1 92 3d 16 07 00 bb
       0.02884836 0.011906427 0.07159737 -0.0019535474
0002f0 47 a3 6a 3c f9 c2 a4 bd 81 f2 1f bd 73 85 6c 3d
       0.014321155 -0.080450006 -0.03904963 0.057744455
000300 84 4d 8e bc ad c8 14 bc 72 74 a0 bb 58 8e d5 bc
       -0.017370947 -0.009081048 -0.004896694 -0.026068851
000310 a5 d3 ca 3d 91 67 e4 bd 65 da 20 3d ae 99 7f bd
       0.09903649 -0.11152566 0.039270777 -0.06240242
000320 07 6b 15 3d bb bd 89 3c 10 5e 64 bd d5 c6 0b 3d
       0.036479022 0.016814103 -0.055753767 0.034125168
000330 0f a5 63 3c 0b e8 6d bd 99 07 6a bc 69 0c 52 bd
       0.0138943335 -0.05808262 -0.014284038 -0.051281366
000340 8c 5d f1 bc 10 31 9c bc fe e1 67 3c ad 14 96 bc
       -0.029463552 -0.019066364 0.014153002 -0.018320406
000350 6e 27 56 ba 4f 22 0d 3b c5 17 ef bc 20 c9 96 3d
       -0.00081693276 0.0021535342 -0.029186139 0.0736258
000360 fb ff de bc a8 85 88 3d 9e e7 39 3d f8 0b 72 bd
       -0.02722167 0.06666118 0.045386903 -0.059093446
000370 c9 ff a7 3c cc 2c 14 3c 59 df f1 bc 33 ce 37 bd
       0.02050771 0.0090438835 -0.029525446 -0.04487438
000380 b8 d6 b4 bd ed 91 95 bc 4d bf 15 3d 11 16 a9 bd
       -0.08830017 -0.01825806 0.03655939 -0.08256162
000390 db 30 14 bd a7 ae f6 3c 3f 6d 82 bc da 9d 90 bd
       -0.036179405 0.030112578 -0.015921233 -0.07061358
0003a0 e6 49 be 3c 0c 97 ad bc 53 48 bf bd 76 59 ed bc
       0.023228597 -0.021190189 -0.093399666 -0.028973322
0003b0 7a 82 06 3d 74 ce 92 bc b5 34 9f 3d 62 3e a9 bd
       0.032839276 -0.01792071 0.07773725 -0.08263852
0003c0 95 7c f4 bc 96 5d 05 bd 8e f1 a0 bb 61 78 f1 bb
       -0.029844562 -0.032559954 -0.004911608 -0.0073690866
0003d0 82 60 66 bb 0b 45 a6 bd 8b d3 62 3b 1e f9 de 3a
       -0.0035152738 -0.08118638 0.0034610953 0.0017011499
0003e0 c7 6a a8 bd f4 32 13 bd aa bc 1c bc 58 77 15 3d
       -0.08223491 -0.035937265 -0.009566465 0.03649077
0003f0 46 3d ee 3c 9c 75 42 3d b5 04 fc 3d 65 dc 5b bc
       0.029081952 0.047475442 0.12305585 -0.013419245

encoder.encoder.2.0.bias f4 [64]
000000 a1 af bb 3c 7c 54 8a bc 35 d9 dd bc b1 21 f2 3c
       0.022910895 -0.016885988 -0.027081111 0.029557081
000010 fe f6 05 bc c8 f0 03 3c 12 b3 9f 3c 68 c0 c4 bc
       -0.008176563 0.008053012 0.019494567 -0.024017528
000020 20 15 50 3c 70 f4 a5 bc d3 a2 dd ba 40 21 04 bc
       0.012700349 -0.020258158 -0.0016909487 -0.008064568
000030 4b 17 d1 bb fe e3 52 bc 48 60 12 3c dc 7a 9c bc
       -0.0063809506 -0.01287174 0.008934088 -0.019101553
000040 db 72 d1 bc b8 36 e6 3c 42 23 9f 3b f0 72 41 bb
       -0.025567463 0.028102264 0.004856498 -0.002951797
000050 41 89 ca 3c d6 39 c3 bc 0e 22 e6 bc df a0 c7 bb
       0.02472365 -0.02383129 -0.02809241 -0.0060921754
000060 ad 6b 5c 3c d1 62 42 bc 47 89 ca bc 0c 74 a9 ba
       0.013453406 -0.01186438 -0.024723662 -0.0012928261
000070 8b 5e 66 3b e8 1f aa 3a 20 e8 af 3c 5d 0e e2 bc
       0.0035151567 0.001297948 0.02147299 -0.02759474
000080 37 e9 07 3c 47 91 81 bb 86 df 64 bc 6b 5c d6 bc
       0.008295349 -0.003954086 -0.013969308 -0.026167115
000090 58 00 eb bc 99 8f 45 3c a7 0d 5d 3b 91 d2 ec bc
       -0.028686687 0.012058162 0.0033730061 -0.028909
0000a0 be cd fa bb b2 1e 86 3c d1 bc b2 bc bb 46 30 3c
       -0.007653921 0.016372059 -0.02181855 0.010759051
0000b0 7c a1 d0 bc ac dd cc ba ae 1a 8b 3c 77 de d5 ba
       -0.025467627 -0.0015630028 0.016980495 -0.001631691
0000c0 01 a4 dd bc 11 18 97 bc 3d 0b 34 bc 66 8e 43 bc
       -0.027055742 -0.018444093 -0.010989008 -0.011935806
0000d0 e4 a6 b1 bc 73 dc c7 bc 41 29 81 3c f5 87 e1 3c
       -0.021686025 -0.02439711 0.015766742 0.02753065
0000e0 34 24 8d bb 37 ba 9c bc 37 bd a0 bc 9d d4 ef 3c
       -0.0043072943 -0.019131763 -0.019621475 0.029276187
0000f0 75 25 01 3b d1 4f 26 bc dd d3 a4 bc d0 0b 0c bc
       0.0019706164 -0.010150866 -0.020120556 -0.008547738

encoder.encoder.2.1.weight f4 [64]
000000 6f 40 f9 3e 42 44 0d 3f 0c 05 ad 3e 41 2c 09 3f
       0.4868197 0.5518228 0.33792913 0.5358315
000010 75 19 91 3e c5 32 b5 3e 4e 67 11 3f 40 65 84 3e
       0.28339735 0.35390297 0.56798255 0.25858498
000020 0f e8 b9 3e 24 e7 26 3f 30 23 0d 3f 41 2f f8 3e
       0.3630986 0.6519644 0.55131817 0.48473552
000030 92 9c 81 3e 1a 3e 97 3e 47 fa c8 3e 65 3a f7 3e
       0.25314766 0.29539567 0.39253446 0.4828674
000040 da 5a e9 3e 39 f9 c9 3e ac eb e7 3e 26 b0 aa 3e
       0.45577127 0.39447954 0.4529699 0.33337516
000050 96 f1 a3 3e 2f 8a 30 3f 1a c7 5b 3e f6 bc e0 3e
       0.32020253 0.6896085 0.2146267 0.43894166
000060 83 d9 0f 3f 3f 5a 6b 3e c9 71 e5 3e 3c fe a6 3e
       0.5619127 0.22983645 0.44813374 0.3261584
000070 db c0 00 3f bf e1 94 3e 4d 82 f6 3e ca 90 97 39
       0.50294274 0.2907848 0.48146287 0.0002890884
000080 88 fd d3 3e 2f 7a de 3e 55 28 ca 3e 4a e6 b7 3e
       0.41404366 0.43452594 0.39483896 0.35917884
000090 e9 b9 b7 3e a5 36 9e 3e e9 e2 93 3e 33 dd a2 3e
       0.35884026 0.30901065 0.28884056 0.31809387
0000a0 7a 14 35 3f b5 d5 df 3e 1f 4b a5 3e bf 79 f6 3e
       0.7073437 0.43717733 0.32283875 0.4813976
0000b0 73 20 e2 3e 4f 91 5f 3e a6 ff 8e 3e 77 62 18 3f
       0.44165382 0.21832775 0.2792942 0.59525245
0000c0 17 1f e7 3e 8b d9 0a 3f c3 8d ac 3e 1f 38 ea 3e
       0.45140907 0.54238194 0.33701906 0.45745942
0000d0 1c a2 80 3e 67 df 17 3f 3e b2 1b 3f e9 5e 0c 3f
       0.2512368 0.5932526 0.6081885 0.5483232
0000e0 1e 39 bd 3e 98 c9 df 3e cf 71 98 3e 2b d8 cd 3e
       0.3695764 0.4370849 0.2977433 0.40203986
0000f0 db 32 13 3f 74 26 14 3f cb 06 9f 3e bc 30 1a 3f
       0.57499474 0.57871175 0.3105987 0.6023061

encoder.encoder.2.1.bias f4 [64]
000000 ff 99 e6 bd 37 d6 4e be 8f ea 1b be d9 66 f3 bd
       -0.11259841 -0.20198904 -0.15226196 -0.11884851
000010 52 33 e7 bd eb e1 2e be 4c ef a3 bd d6 19 21 be
       -0.112890854 -0.17078368 -0.08004627 -0.15732512
000020 e3 54 1a be 70 9f 50 be bf 6c a0 be a3 9f bc 3b
       -0.15071444 -0.2037332 -0.31332967 0.005756335
000030 7e dc 70 be 94 04 49 be c2 db 7b be ea 56 51 be
       -0.23521611 -0.19630653 -0.2459555 -0.20443311
000040 67 3d 46 be 9a 61 eb bd f1 eb 02 be e1 a0 85 be
       -0.1935936 -0.114932254 -0.12785317 -0.26099303
000050 cc 97 b3 3c 6e 92 a5 be fc fa c5 be c8 b1 50 be
       0.021922968 -0.3233828 -0.38668048 -0.20380318
000060 02 df 76 3d 2c cf d1 be 73 9f 5e be 9d ad 2d be
       0.06027127 -0.40978372 -0.21740513 -0.1696076
000070 1d 54 96 be 45 90 a1 be d2 f5 82 bd b2 0b c2 bb
       -0.29361048 -0.3155538 -0.06394543 -0.0059218043
000080 1f 36 6b be 2e 09 8d bd 71 15 79 be 0e 08 84 bd
       -0.22969864 -0.068865165 -0.24324585 -0.06446849
000090 17 8b a2 be 4c 68 08 be b3 5c 3d be 40 7b c4 3c
       -0.31746742 -0.13321036 -0.18492393 0.023984551
0000a0 7e 79 67 bd cb df 51 be 57 2b 07 be 77 0f 9b bd
       -0.05651235 -0.20495526 -0.13200127 -0.07571309
0000b0 08 99 68 be e6 7f ae be a2 45 2a be 83 d7 4e be
       -0.22714627 -0.34081954 -0.16628125 -0.20199399
0000c0 af d4 40 be 69 dc 2d bd a8 52 4c bd 18 8a a1 be
       -0.18831132 -0.042446528 -0.049883515 -0.3155067
0000d0 81 78 83 bd 77 23 89 be 5d 5b 9c be e0 7e a1 be
       -0.06419469 -0.2678487 -0.30538455 -0.3154211
0000e0 97 6b 3e be 14 3e 15 be 0d 7d a8 be 39 bc 43 be
       -0.1859573 -0.14574462 -0.32907906 -0.1911477
0000f0 3c b3 c4 be 7c ac 6b be 11 d9 27 be dc 66 6d be
       -0.38417995 -0.23015016 -0.16391398 -0.23183769

encoder.encoder.2.1.running_mean f4 [64]
000000 4e 95 93 be 40 2e 22 bf 68 2e 80 be b2 8b 8e be
       -0.28824848 -0.6335182 -0.25035405 -0.27840954
000010 26 2a 5e bd 68 26 5c be 06 29 b1 be 90 e7 78 bd
       -0.054239415 -0.21499026 -0.3460161 -0.06076771
000020 83 3b 96 bd c6 6e b5 be 3e 56 ce be 10 11 b8 be
       -0.0733557 -0.35436076 -0.40300173 -0.35950518
000030 50 c2 10 be 20 f4 d7 bd 7e 88 2b bf 10 84 13 bf
       -0.14136624 -0.1054461 -0.67005146 -0.57623386
000040 d2 48 d8 be 1f 77 0d be d3 36 d9 be d2 87 24 bf
       -0.42243057 -0.13814972 -0.4242464 -0.64269745
000050 14 f1 3f be 57 16 05 bf 94 a9 b2 3d 98 7b bc be
       -0.18744308 -0.5198721 0.08723751 -0.36813045
000060 96 73 36 bf 3b eb ad 3d 40 b6 09 bf 51 86 82 be
       -0.7127012 0.08492132 -0.53793716 -0.254931
000070 a6 f5 f1 be 05 de d8 be d8 82 b7 be 19 59 9a 3a
       -0.47257727 -0.42356887 -0.35842013 0.0011775821
000080 84 78 fc be c9 69 fe be c3 f9 f0 be 75 5a d3 be
       -0.49310696 -0.49690083 -0.47065553 -0.4127995
000090 0a 8e c7 be 3c 5a 42 be 78 75 67 be 6f 4f 87 be
       -0.38975555 -0.18979734 -0.22603405 -0.2642779
0000a0 6d bf 48 bf 15 67 c3 be 01 1c 9d be d5 44 ad be
       -0.7841709 -0.38164583 -0.30685428 -0.33841577
0000b0 1c df 70 be 2d 23 0e 3e 54 79 6b be 3a fc 02 bf
       -0.2352261 0.13880606 -0.22995502 -0.5116612
0000c0 88 31 01 be 2e ed bf be f9 d4 32 bd 42 b3 e6 be
       -0.12616551 -0.3748564 -0.043660138 -0.45058638
0000d0 22 2e 91 bb 91 e2 01 bf d2 bb da be cf 14 04 bf
       -0.0044305483 -0.5073634 -0.4272142 -0.5159425
0000e0 e8 7a 27 be 00 b6 e6 be 2a bd 97 be 56 6f ad bd
       -0.16355479 -0.4506073 -0.29636508 -0.08468501
0000f0 22 b1 22 be 56 e2 df be 2f 02 41 be 38 29 0f bf
       -0.15887883 -0.43727368 -0.18848489 -0.5592227

encoder.encoder.2.1.running_var f4 [64]
000000 82 92 a0 3e 68 a3 2a 3f e0 77 21 3e 8a 16 9b 3e
       0.31361777 0.6665559 0.15768385 0.30290633
000010 c2 d9 e0 3d 48 71 a2 3d bd f9 f6 3e 5a a9 30 3e
       0.10979034 0.07931763 0.4823741 0.17252102
000020 72 95 de 3d 3f 0f 00 3f 3e b8 b5 3e d3 e3 06 3f
       0.10868348 0.50023264 0.35492128 0.5269138
000030 9e 28 eb 3d 69 ca 9b 3d 90 01 a3 3e 62 75 a9 3e
       0.114823565 0.07606966 0.3183713 0.33097368
000040 da b9 66 3e 48 8e 37 3e 1b 61 6d 3e 0a ec 30 3e
       0.22531834 0.1792537 0.23181574 0.17277542
000050 46 c0 84 3d 75 f7 1a 3f 68 e8 0c 3e 41 50 e4 3e
       0.06481986 0.6053384 0.13760531 0.4459248
000060 98 8c 48 3f e5 07 93 3d b5 c2 ba 3e 21 51 bc 3d
       0.7833953 0.0717924 0.36476675 0.091951616
000070 c3 1c 91 3e 13 74 10 3e ba 8e 0e 3f 69 21 47 3c
       0.28342256 0.14106779 0.55686533 0.012153962
000080 0e 00 9c 3e aa 31 a1 3e 76 5c 72 3e e7 a3 be 3d
       0.30468792 0.31483203 0.23668084 0.09308606
000090 13 8e 80 3e 19 67 78 3e 90 be f6 3d 1b 56 a4 3d
       0.25108394 0.24258079 0.12048066 0.08024236
0000a0 33 55 39 3f b5 71 8d 3e 41 d4 02 3e 7e 90 52 3e
       0.7239563 0.27625814 0.12776281 0.20562932
0000b0 d0 59 1a 3e c7 2c c0 3d 10 65 ef 3d 66 6d 11 3f
       0.15073323 0.093835406 0.11689198 0.56807554
0000c0 20 10 81 3e 2e 45 9a 3e 1b ae ff 3d 3a 46 7d 3e
       0.25207615 0.30130905 0.1248438 0.2473382
0000d0 89 60 d2 3c 17 b7 ed 3e e5 31 f2 3e e7 c0 f7 3e
       0.025680797 0.4642875 0.47303692 0.4838936
0000e0 b7 74 03 3e 5e 06 b6 3e 65 1f 15 3e 3c 68 12 3e
       0.12837492 0.35551733 0.14562757 0.14297575
0000f0 84 58 c4 3e fb 58 05 3f ad 12 3a 3e 9a 24 08 3f
       0.38348782 0.520889 0.18171187 0.5318085
