saves_category/finger/domain_6/max_acc.pth (torch_old, 606191 bytes, 28 tensors)

encoder.encoder.0.0.weight f4 [64, 2, 3, 3]
-0.028035035 0.07224595 -0.066886045 -0.06980312 -0.1021626 0.07621155 -0.11278389 -0.094245285
0.07471611 -0.027782857 -0.13108647 -0.009136936 0.045560695 0.099274084 0.12779702 -0.02382165
0.08515196 0.061099954 -0.015531763 0.058678806 -0.07392118 0.0924904 0.084728055 -0.03875708
0.07517491 0.04871843 0.070260815 -0.09965793 0.022637414 -0.07582788 -0.016289433 0.052574318
0.04871805 -0.10136721 -0.102026485 -0.010981156 0.08683052 -0.0483892 0.07567037 0.062064756
-0.0020779916 -0.029764708 -0.08076833 0.026291024 0.09795921 -0.053056948 -0.07628443 0.011647183
-0.02482461 -0.04976494 0.06560486 -0.022477945 -0.0049774875 0.0869196 -0.007771895 0.0035563207
0.10271185 0.03511698 0.011330424 0.06508119 0.003578393 -0.05668571 0.039655413 0.07204831
0.035218477 0.058574524 0.097644225 -0.075483605 0.03743489 0.09847683 -0.053142637 -0.020741373
0.048543837 0.043810625 0.055579923 -0.03884307 0.037040237 -0.08037928 0.07841147 -0.09201473
0.02791882 -0.022511566 -0.03722013 0.07062755 0.087504625 0.034243 -0.023985581 0.051238447
0.09599048 0.020705244 0.071324036 -0.06905212 -0.07159112 0.007576993 0.090393275 -0.0653225
0.058922917 0.029458879 0.046874933 -0.18520243 0.0050392295 0.051331826 -0.03228953 0.105055794
0.12983479 -0.20845924 -0.07240451 0.13211842 -0.072797224 0.057994172 -0.10261765 0.035398588
-0.105034105 -0.108900346 0.24498421 -0.014260903 0.06371629 0.15272062 0.101064324 0.0021886802
0.06574978 0.028389392 -0.10203077 -0.019555993 -0.1543445 -0.058686968 0.19137408 0.12844197
-0.17586681 0.14596353 -0.10461691 -0.26104477 0.16215771 0.0006900523 -0.09591341 0.013663568
0.0100014815 0.16233268 -0.091975994 0.09815326 0.022309313 -0.16290925 0.023883179 -0.018851442
0.07291908 0.010940279 0.12027736 -0.046412818 -0.025764996 0.059643365 -0.06606727 -0.05049639
-0.0042807697 0.11014856 -0.01647971 0.10880434 0.082779616 0.0371693 0.10211968 0.08773757
0.009744157 0.056726955 0.009213098 0.16499466 0.14522174 -0.09284446 0.021955496 0.019809166
-0.23722789 0.011930775 -0.06934277 0.0700526 -0.09597621 -0.20157216 0.101348594 0.062302265
-0.1044268 0.027246974 0.1818117 0.059439152 -0.021347182 0.054015014 0.01202268 -0.024701444
0.030811546 0.07716462 -0.102208614 0.04779796 -0.14655998 -0.17952968 -0.1064976 -0.11789277
-0.0027305535 0.07414733 0.06946083 0.04767326 0.14190091 0.049944248 0.00022014564 -0.0870089
-0.14072475 0.15777658 -0.028255435 -0.06845398 0.17867236 0.024483152 -0.067727834 -0.005308565
-0.08371182 -0.01754674 0.0017084968 -0.08969929 -0.06982068 0.15981703 0.032970477 -0.024044506
-0.050445102 0.12668018 0.087688155 0.01093311 0.021645308 0.15885666 0.09555517 0.12884246
0.09704257 -0.01847444 0.07542729 -0.081515685 -0.12413875 0.07303623 -0.082151204 -0.12721027
-0.04694392 -0.12554264 -0.22893377 -0.08744205 0.047210652 -0.12825622 -0.06963828 0.082983896
0.08344227 -0.03285048 0.22858335 0.14078759 0.096127346 0.2103758 -0.12613362 -0.14063208
0.09181165 -0.16200879 -0.049868852 -0.0733859 -0.059142448 0.040255714 -0.064092964 0.11614033
00000000: bba9 e5bc aff5 933d 8dfb 88bd f0f4 8ebd
00000010: a03a d1bd cd14 9c3d 3dfb e6bd ac03 c1bd
00000020: c304 993d e098 e3bc 883b 06be 16b3 15bc
00000030: da9d 3a3d 3650 cb3d 39dd 023e 9f25 c3bc
00000040: 2764 ae3d f243 7a3d f078 7ebc 3059 703d
00000050: fd63 97bd 9b6b bd3d e785 ad3d bebf 1ebd
00000060: 4ef5 993d fa8c 473d e7e4 8f3d 7519 ccbd
00000070: 1972 b93c a64b 9bbd 6b71 85bc 2b58 573d
00000080: 948c 473d 9d99 cfbd 43f3 d0bd 4eea 33bc
00000090: 33d4 b13d c133 46bd 11f9 9a3d 9d37 7e3d
000000a0: ea2e 08bb 1ed5 f3bc de69 a5bd 4660 d73c
000000b0: d79e c83d 3e52 59bd 033b 9cbd d4d3 3e3c
000000c0: fb5c cbbc 52d6 4bbd d75b 863d ab23 b8bc
000000d0: 311a a3bb e702 b23d 61ab febb 2911 693b
000000e0: 975a d23d d3d6 0f3d 3ea3 393c 4949 853d
000000f0: 7983 6a3b 462f 68bd b76d 223d 108e 933d
00000100: 4041 103d d7eb 6f3d b2f9 c73d 2697 9abd
00000110: 5455 193d 38ae c93d 18ac 59bd d0e9 a9bc
00000120: e7d5 463d c572 333d c6a7 633d e919 1fbd
00000130: 81b7 173d e49d a4bd 3196 a03d 3872 bcbd
00000140: 02b6 e43c 2d6a b8bc 2374 18bd 2da5 903d
00000150: a035 b33d 6342 0c3d 697d c4bc 68df 513d
00000160: a896 c43d 0b9e a93c 5612 923d 336b 8dbd
00000170: 5d9e 92bd 6d48 f83b 1c20 b93d cec7 85bd
00000180: 2859 713d bf53 f13c eeff 3f3d b5a5 3dbe
00000190: 1f20 a53b 5241 523d 0742 04bd 7e27 d73d
000001a0: 69f3 043e 5776 55be d148 94bd 0d4a 073e
000001b0: b616 95bd 4c8b 6d3d 3429 d2bd 1cfe 103d
000001c0: 1f1c d7bd 2507 dfbd 24dd 7a3e 90a6 69bc
000001d0: b07d 823d cb62 1c3e d0fa ce3d f66f 0f3b
000001e0: d2a7 863d df90 e83c 82f5 d0bd e433 a0bc
000001f0: 7c0c 1ebe bf61 70bd 91f7 433e 4b86 033e
00000200: 6e16 34be 7777 153e 6441 d6bd a9a7 85be
00000210: ac0c 263e a0e4 343a 406e c4bd 28dd 5f3c
00000220: 41dd 233c 8a3a 263e e95d bcbd 9404 c93d
00000230: 05c2 b63c afd1 26be a8a6 c33c 576e 9abc
00000240: 9956 953d db3e 333c fa53 f63d 5e1b 3ebd
00000250: 1d11 d3bc 9a4c 743d 474e 87bd 4dd5 4ebd
00000260: b345 8cbb 9195 e13d 7500 87bc cfd4 de3d
00000270: 5c88 a93d d63e 183d 1f24 d13d c1af b33d
00000280: f5a5 1f3c 865a 683d 89f2 163c 5cf4 283e
00000290: 02b5 143e 3c25 bebd 03dc b33c d546 a23c
000002a0: deeb 72be 4c79 433c 9503 8ebd bd77 8f3d
000002b0: 2d8f c4bd ef68 4ebe da8f cf3d a930 7f3d
000002c0: b8dd d5bd 0c35 df3c d92c 3a3e 7876 733d
000002d0: 49e0 aebc d93e 5d3d c6fa 443c af5a cabc
000002e0: 7f68 fc3c 7c08 9e3d c052 d1bd cbc7 433d
000002f0: d213 16be a1d6 37be 6a1b dabd c471 f1bd
00000300: 16f3 32bb 8eda 973d 7b41 8e3d 0945 433d
00000310: 794e 113e 5792 4c3d e5d6 6639 b931 b2bd
00000320: 261a 10be 2f90 213e f177 e7bc 9a31 8cbd
00000330: e3f5 363e e490 c83c e4b4 8abd 79f3 adbb
00000340: 1a71 abbd 2ebe 8fbc a4ef df3a 43b4 b7bd
00000350: 25fe 8ebd 13a7 233e 0d0c 073d fcf8 c4bc
00000360: 869f 4ebd 73b8 013e d995 b33d c920 333c
00000370: 8051 b13c 52ab 223e 6eb2 c33d 47ef 033e
00000380: 41be c63d b557 97bc 9f79 9a3d b2f1 a6bd
00000390: 753c febd 0594 953d e43e a8bd 6943 02be
000003a0: 4548 40bd 408e 00be 9d6d 6abe d114 b3bd
000003b0: f55f 413d 9955 03be 849e 8ebd 76f3 a93d
000003c0: c8e3 aa3d 3a8e 06bd c111 6a3e 9f2a 103e
000003d0: 6ade c43d c16c 573e 2c29 01be db01 10be
000003e0: bf07 bc3d a2e5 25be 4843 4cbd 594b 96bd
000003f0: 5a3f 72bd 2de3 243d 2c43 83bd fbda ed3d

encoder.encoder.0.0.bias f4 [64]
0.02584347 0.072220005 0.06213155 -0.046576045 0.0044885264 0.0052584046 -0.0154407695 0.08871343
-0.06486955 0.007596851 -0.028439756 -0.01724976 -0.07327119 0.021895135 0.09888427 -0.085716136
-0.084476724 0.02978373 0.044279978 0.07312443 0.014584812 -0.06808019 -0.06706664 -0.08078456
0.06404872 -0.07833351 0.08891818 0.068984605 0.024048362 -0.061341476 0.07874279 -0.05311806
0.053630866 0.08200081 0.0049932194 -0.05412602 -0.0512219 0.024578178 0.045684505 -0.056397073
-0.04076947 0.0435712 -0.092320226 -0.08330825 -0.050892886 -0.09068012 0.031700615 -0.0101977065
-0.021945134 -0.014826655 0.0015790636 0.083375074 -0.045620847 -0.09288307 -0.046794675 0.04951646
0.011560957 -0.011790705 -0.0022146828 -0.0007172627 -0.043607052 0.016787346 0.0543885 -0.09762775
00000000: afb5 d33c 15e8 933d a77d 7e3d 86c6 3ebd
00000010: 7d14 933b b24e ac3b 48fb 7cbc 63af b53d
00000020: 54da 84bd 01ef f83b 7efa e8bc 5e4f 8dbc
00000030: 350f 96bd 6d5d b33c d683 ca3d f18b afbd
00000040: 2202 adbd 02fd f33c ec5e 353d 43c2 953d
00000050: 23f5 6e3c a06d 8bbd 3c5a 89bd 6072 a5bd
00000060: fa2b 833d 526d a0bd bc1a b63d cd47 8d3d
00000070: 1201 c53c 3341 7bbd e643 a13d 5392 59bd
00000080: 0aac 5b3d 0af0 a73d 299e a33b 3fb3 5dbd
00000090: 0ece 51bd 2d58 c93c ad1f 3b3d 9e00 67bd
000000a0: e3fd 26bd b777 323d 6312 bdbd 849d aabd
000000b0: 0f75 50bd 80b6 b9bd 81d8 013d 4814 27bc
000000c0: 48c6 b3bc 80eb 72bc 95f8 ce3a 8dc0 aa3d
000000d0: eddc 3abd 7b39 bebd c6ab 3fbd c6d1 4a3d
000000e0: 2b6a 3d3c cd2d 41bc 3624 11bb af06 3cba
000000f0: 4f9d 32bd 9e85 893c 7ac6 5e3d 0ff1 c7bd

encoder.encoder.0.1.weight f4 [64]
0.21107635 0.1485373 0.03943692 0.084345154 0.0026553941 0.25330904 0.25401437 0.33231822
0.2585591 0.32320634 0.2762191 0.26653662 0.2816538 0.36193258 0.39750734 0.011502226
0.1997181 0.29858646 0.19526637 0.03423023 0.012140865 0.19124882 0.12048711 0.012413302
0.28451693 0.12830053 0.25144976 0.35494536 0.23097746 0.24671344 0.09388235 0.22065262
0.40692842 0.023771653 0.25873488 0.15172423 0.44077894 0.31582025 0.29681784 0.1733345
0.29847914 0.07614417 0.12911955 0.3360845 0.055280145 0.19317065 0.16992566 0.28953215
0.17376898 0.06354096 0.2671197 0.23755513 0.049209617 0.1295816 0.3008118 0.3823311
0.023651108 0.12871708 0.101837255 0.20017081 0.11380675 0.035579182 0.050916184 0.5446371
00000000: 6624 583e 291a 183e 9c88 213d 27bd ac3d
00000010: 1f06 2e3b b9b1 813e 2c0e 823e 9d25 aa3e
00000020: dc61 843e 4d7b a53e 976c 8d3e 7d77 883e
00000030: ed34 903e 3a4f b93e 1586 cb3e d573 3c3c
00000040: e782 4c3e 53e0 983e e8f3 473e ff34 0c3d
00000050: 7bea 463c bbd6 433e f2c1 f63d 2a61 4b3c
00000060: 34ac 913e 3761 033e 06be 803e 66bb b53e
00000070: 5b85 6c3e 73a2 7c3e 6445 c03d c3f2 613e
00000080: ec58 d03e c5bc c23c e678 843e 995d 1b3e
00000090: c7ad e13e 31b3 a13e 82f8 973e 997e 313e
000000a0: 42d2 983e 79f1 9b3d ea37 043e 4513 ac3e
000000b0: 6f6d 623d 87ce 453e fe00 2e3e 8f3d 943e
000000c0: 7ff0 313e c321 823d eac3 883e a741 733e
000000d0: 0690 493d 0ab1 043e 0104 9a3e e7c0 c33e
000000e0: f8bf c13c 69ce 033e 0d90 d03d 94f9 4c3e
000000f0: 8313 e93d 7abb 113d 7d8d 503d 566d 0b3f

encoder.encoder.0.1.bias f4 [64]
-0.0076203994 -0.02082327 0.0137389 -0.05464365 -0.001553357 -0.04671094 0.017254787 0.07318787
-0.14045899 -0.07095511 -0.027576035 -0.03830509 -0.06436003 0.11084566 0.042359248 0.0050520375
-0.09557435 0.02197969 0.059981305 0.00028711712 0.0014095245 -0.035437368 -0.04074596 -0.011304325
-0.16115595 -0.032581132 -0.02871933 0.092999786 -0.043091703 -0.02334356 -0.005818012 -0.088700674
-0.045258373 -0.0063866302 0.011502189 0.004289482 -0.03803742 -0.0142823635 0.058253054 -0.0049457154
-0.09410977 -0.0123154055 -0.045397397 0.035458773 -0.031817026 -0.055841006 -0.05356128 0.06823578
0.05524553 -0.0063920096 -0.14367813 -0.042960193 -0.009708959 -0.025336478 0.010342784 0.004312965
0.0034673372 0.018365847 -0.030505586 -0.025368916 -0.007616713 -0.007054035 0.014477836 -0.025162866
00000000: 8bb4 f9bb 9095 aabc 2019 613c 05d2 5fbd
00000010: 039a cbba f853 3fbd e959 8d3c 86e3 953d
00000020: 7bd4 0fbe ea50 91bd 23e7 e1bc cce5 1cbd
00000030: 31cf 83bd 0d03 e33d e480 2d3d 908b a53b
00000040: 7cbc c3bd c00e b43c f5ae 753d 3588 9639
00000050: cbbf b83a c626 11bd 3ce5 26bd c735 39bc
00000060: 1106 25be cb73 05bd cd44 ebbc ac76 be3d
00000070: ed80 30bd fe3a bfbc 06a5 bebb b3a8 b5bd
00000080: d860 39bd f046 d1bb ad73 3c3c c88e 8c3b
00000090: 20cd 1bbd 9300 6abc c19a 6e3d ab0f a2bb
000000a0: a0bc c0bd 8ec6 49bc 9ff2 39bd 383d 113d
000000b0: 9252 02bd 8ab9 64bd 1363 5bbd 33bf 8b3d
000000c0: 2349 623d 1074 d1bb 5c20 13be 07f7 2fbd
000000d0: 5312 1fbc 728e cfbc c874 293c c653 8d3b
000000e0: 443c 633b f973 963c dae6 f9bc 79d2 cfbc
000000f0: 9f95 f9bb 8925 e7bb 7234 6d3c 5b22 cebc

encoder.encoder.0.1.running_mean f4 [64]
0.028287167 0.06744539 0.114806265 0.17558487 0.18618263 0.01579916 -0.006285742 0.11735045
0.2709524 0.05029212 -0.07242619 -0.08281427 0.0059956824 -0.033201706 0.062325947 -0.11750397
0.08791561 -0.033666093 0.008341575 0.063713126 -0.06555017 -0.03765042 0.12381574 -0.06582875
-0.2538715 0.007611764 0.1497591 0.03272322 -0.082625724 -0.15854132 0.09672233 -0.30240607
0.04822655 0.0023612068 -0.10046265 -0.09626754 -0.070081435 0.03761359 0.057723273 -0.073360965
0.011795638 0.14765288 -0.35258874 -0.10327266 0.14952078 -0.21242729 -0.009250527 -0.018017583
-0.03671043 0.050846532 0.23577183 0.20474988 -0.06950863 -0.19087073 -0.06869409 0.054209236
-0.060627937 -0.053837754 -0.013756442 0.018597791 -0.10939305 0.13101923 0.056236383 -0.1580501
00000000: 7dba e73c cf20 8a3d 8c1f eb3d 85cc 333e
00000010: a9a6 3e3e 3d6d 813c a0f8 cdbb 6f55 f03d
00000020: 46ba 8a3e 1cff 4d3d 2f54 94bd 879a a9bd
00000030: 6e77 c43b 83fe 07bd 7e49 7f3d eca5 f0bd
00000040: 190d b43d 75e5 09bd 1aab 083c 077c 823d
00000050: 2b3f 86bd 5437 1abd 1b93 fd3d 39d1 86bd
00000060: 72fb 81be 1b6c f93b 735a 193e c808 063d
00000070: ad37 a9bd a858 22be 5b16 c63d f8d4 9abe
00000080: 3489 453d 7abe 1a3b 5dbf cdbd ea27 c5bd
00000090: db86 8fbd b510 1a3d 3d6f 6c3d 463e 96bd
000000a0: 7e42 413c 5132 173e 8386 b4be 9e80 d3bd
000000b0: fa1b 193e 8a86 59be 868f 17bc 9c99 93bc
000000c0: ad5d 16bd 7444 503d 2c6e 713e f4a9 513e
000000d0: 8a5a 8ebd 9e73 43be 7daf 8cbd 810a 5e3d
000000e0: 0055 78bd fa84 5cbd b362 61bc 655a 983c
000000f0: 7709 e0bd e829 063e 1f58 663d e3d7 21be

encoder.encoder.0.1.running_var f4 [64]
0.002270596 0.002798525 0.0009270784 0.002561437 0.0018754905 0.001390296 0.0011755727 0.002234188
0.007178014 0.0015922111 0.00092900975 0.0019005208 0.010439573 0.0026158218 0.0024856315 0.0005216267
0.003236982 0.0013906906 0.00074561854 0.0001754332 0.00045365127 0.0008267082 0.0019272908 0.0011563115
0.006575221 0.0010198758 0.0010514713 0.0021602071 0.0042627472 0.0012813337 0.00031528875 0.0050165183
0.0036877058 0.00054133096 0.0033338964 0.00056361087 0.0042491676 0.0019721007 0.0016637621 0.00076983334
0.001693335 0.00087218016 0.003454433 0.0019848058 0.002374111 0.0029973856 0.0046129785 0.001677259
0.00051461015 0.0040542353 0.0036982833 0.004368777 0.000326995 0.008024711 0.0015096397 0.0035232515
0.0017796583 0.0008068854 0.00017060855 0.0017145679 0.0006382962 0.0009225476 0.00020376843 0.006299764
00000000: 48ce 143b 7567 373b 2e07 733a c8dd 273b
00000010: 05d3 f53a 983a b63a ad15 9a3a 746b 123b
00000020: 8c35 eb3b bdb1 d03a ca88 733a e51a f93a
00000030: be0a 2b3c 356e 2b3b fae5 223b c6bd 083a
00000040: 8c23 543b d547 b63a 9d75 433a 7ef4 3739
00000050: 0bd8 ed39 73b7 583a 269d fc3a 608f 973a
00000060: f474 d73b 5aad 853a 86d1 893a 4392 0d3b
00000070: 84ae 8b3b 6df2 a73a 574d a539 9b61 a43b
00000080: 70ad 713b 1be8 0d3a 807d 5a3b 49bf 133a
00000090: 9a3c 8b3b 5c3e 013b 9812 da3a a4ce 493a
000000a0: e5f2 dd3a 05a3 643a c563 623b 8413 023b
000000b0: f996 1b3b c96f 443b 7828 973b 79d7 db3a
000000c0: e7e6 063a 64d9 843b e65e 723b f527 8f3b
000000d0: 8770 ab39 147a 033c 1adf c53a 5ae6 663b
000000e0: 6c43 e93a 2a85 533a 62e5 3239 5abb e03a
000000f0: 5553 273a 1fd7 713a acaa 5539 406e ce3b

encoder.encoder.1.0.weight f4 [64, 64, 3, 3]
0.015100766 0.01229119 -0.017367894 0.020945428 -0.012576728 -0.0061629848 0.008821694 -0.0052750367
-0.038398966 0.0023266429 -0.009400241 0.0077545764 -0.0031786112 -0.026328072 -0.010253077 -0.01040132
-0.033116512 -0.0059856987 -0.017505612 0.0068170275 -0.010281442 -0.007744345 -0.003346466 0.016726816
0.0037203599 -0.01632921 0.0067141703 -0.009393929 -0.012864741 0.010149066 -0.0013651518 -0.01376048
-0.0005916429 0.013677687 -0.007012194 0.013162702 0.010013138 0.010894525 -0.013067992 0.015909914
-0.003962275 -4.037281e-05 -0.005522608 -0.009250059 0.00938646 -0.03495563 -0.0020921046 0.022642402
-0.014208432 -0.03334167 -0.0110441595 -0.005475276 -0.02792039 -0.0003839384 -0.02647653 -0.0069472357
0.017837528 -0.023526074 -0.02252248 0.0053166007 0.032967776 0.0166105 0.0077429456 -0.0150329545
-0.016733173 -0.005118351 0.008245867 -0.040452912 -0.011485713 0.037730653 -0.030085618 -0.036714334
-0.021206038 0.010109531 -0.0021701797 0.017900085 0.025058936 0.037025314 0.041324373 0.014134873
0.035319433 -0.00030482805 -0.017305223 -0.008085645 0.015231949 -0.0008513576 -0.017928604 0.03769353
0.010955599 -0.020520747 0.003854746 0.020060414 0.0061793933 0.028392885 0.01471699 0.007094088
-0.011055707 -0.014110384 -0.006983719 0.01662079 -0.0148930885 0.0009571561 0.01046722 -0.011939166
-0.013333652 0.017986087 0.01831306 0.004844145 -0.015910229 -0.0139025785 0.00407833 -0.03183968
-0.0025975236 -0.0046038823 -0.04094135 -0.027699705 0.027734902 0.018637056 0.027744945 -0.034879856
-0.020091206 -0.0053129373 -0.031699575 -0.018316675 0.01244757 0.03984403 -0.02693589 -0.017867986
0.004350052 -0.0040743323 -0.01118535 -0.03127231 0.04742172 0.050338298 -0.012845014 0.0041573276
0.015925739 -6.6656476e-06 0.01161377 -0.0077005317 0.0028626532 0.0019658555 -0.006589169 0.012080494
-0.011868142 -0.044672873 -0.025686843 -0.004256919 -0.011755471 -0.014116446 -0.013306921 0.0051293224
-0.011117782 0.0077214306 0.036899403 0.022063486 -0.019474583 0.013740169 0.024362337 -0.030341504
-0.025505915 0.0035537954 -0.0076418906 -0.011965973 -0.001988533 0.01607025 0.009083733 -0.0068104896
-0.0049557765 -0.0067177243 -0.041894577 -0.0067844903 -0.019344727 0.007173136 0.013391454 -0.010809749
0.0059536337 0.0066799647 0.0028363692 0.010345925 -0.015428406 -0.0053007808 -0.0028129388 0.006644239
-0.017799877 -0.0057211253 0.006752389 -0.011310978 -0.0067156022 0.011400333 -0.04110271 -0.0044990447
0.010000441 -0.019317236 -0.026803482 0.012097562 -0.008012908 -0.018933468 -0.029532518 -0.020761149
0.006222838 0.0053906008 0.012130432 -3.6658297e-05 -0.0043512587 -0.013025199 0.027007062 0.017086623
-0.005591916 -0.011146626 0.0035820717 -0.017062526 0.008376866 0.010911943 0.0010416876 -0.0041982485
0.011729008 -0.0060972613 -0.012981092 -0.0017632709 -0.017963361 0.0069972468 -0.023992475 0.021220194
0.019672912 0.0068384786 0.0091989795 0.017652147 0.026320785 -0.007584582 -0.008666311 0.008098443
0.0029016214 -0.008727741 -0.0204406 -0.01360622 0.020496741 0.016990077 -0.0073289047 0.0087856585
0.029042818 -0.030274177 -0.011107916 -0.009823791 0.01742884 0.016464189 -0.03297107 0.0151021825
-0.0072298725 -0.02979845 0.006868929 0.042198677 0.027156066 -0.0038499911 -0.032572247 0.00946749
00000000: 3469 773c fd60 493c 1d47 8ebc bf95 ab3c
00000010: 9f0e 4ebc ddf2 c9bb de88 103c 37da acbb
00000020: 3c48 1dbd 977a 183b 7803 1abc 1a1a fe3b
00000030: 3f50 50bb f8ad d7bc 86fc 27bc 4c6a 2abc
00000040: 2ea5 07bd ae23 c4bb ee67 8fbc 5f61 df3b
00000050: 7e73 28bc 46c4 fdbb 6250 5bbb ad06 893c
00000060: 48d1 733b d6c4 85bc 8b02 dc3b fee8 19bc
00000070: a2c6 52bc 4548 263c e5ee b2ba a373 61bc
00000080: 7c18 1bba 6118 603c 8cc6 e5bb 60a8 573c
00000090: 250e 243c f37e 323c 221b 56bc 8255 823c
000000a0: f9d5 81bb fa55 29b8 fef6 b4bb 8f8d 17bc
000000b0: abc9 193c a22d 0fbd b11b 09bb 8f7c b93c
000000c0: 7cca 68bc 4691 08bd 90f2 34bc f269 b3bb
000000d0: 4db9 e4bc 574b c9b9 4fe5 d8bc a3a5 e3bb
000000e0: 0220 923c c1b9 c0bc 1081 b8bc e136 ae3b
000000f0: 3809 073d be12 883c 89b8 fd3b c84c 76bc
00000100: 0214 89bc d7b7 a7bb ac19 073c f4b1 25bd
00000110: 922e 3cbc 758b 1a3d 1d76 f6bc c561 16bd
00000120: 49b8 adbc 72a2 253c 9339 0ebb 33a3 923c
00000130: 6648 cd3c dba7 173d bf43 293d f495 673c
00000140: 1cab 103d 54d1 9fb9 afc3 8dbc a779 04bc
00000150: 6d8f 793c a42d 5fba 02df 92bc 8864 1a3d
00000160: 1d7f 333c 201b a8bc e89f 7c3b bd55 a43c
00000170: 827c ca3b 3298 e83c 881f 713c 8675 e83b
00000180: ff22 35bc 3d2f 67bc aed7 e4bb 5328 883c
00000190: 2402 74bc a9e9 7a3a b47e 2b3c 7e9c 43bc
000001a0: 6475 5abc 8f57 933c 4505 963c a2bb 9e3b
000001b0: 2b56 82bc a4c7 63bc 83a3 853b 536a 02bd
000001c0: 373b 2abb 2adc 96bb 1eb2 27bd 7eea e2bc
000001d0: 4e34 e33c bdac 983c 5e49 e33c 2ede 0ebd
000001e0: 5096 a4bc 2618 aebb 6ad7 01bd da0c 96bc
000001f0: e5f0 4b3c 7e33 233d a8a8 dcbc e25f 92bc
00000200: e28a 8e3b fa81 85bb c242 37bc 6517 00bd
00000210: 473d 423d 882f 4e3d e573 52bc 313a 883b
00000220: b276 823c 7aa9 dfb6 af47 3e3c be54 fcbb
00000230: 5a9b 3b3b 95d5 003b f5e9 d7bb 44ed 453c
00000240: 9872 42bc e7fa 36bd 376d d2bc a07d 8bbb
00000250: 059a 40bc aa48 67bc 4605 5abc e013 a83b
00000260: 5c27 36bc 0e04 fd3b d423 173d 7cbe b43c
00000270: 2989 9fbc 721e 613c 8693 c73c bf8e f8bc
00000280: c8f1 d0bc cbe6 683b d368 fabb ee0c 44bc
00000290: 0c52 02bb c2a5 833c f0d3 143c 872a dfbb
000002a0: 1164 a2bb 5b20 dcbb a699 2bbd 6e50 debb
000002b0: d578 9ebc a00c eb3b d467 5b3c 601b 31bc
000002c0: b316 c33b 9be3 da3b 61e2 393b f481 293c
000002d0: 6dc7 7cbc 2cb2 adbb 4859 38bb ebb7 d93b
000002e0: 0cd1 91bc 4778 bbbb 2543 dd3b ae51 39bc
000002f0: 8e0e dcbb 76c8 3a3c 515b 28bd b96c 93bb
00000300: e4d8 233c 2e3f 9ebc fa92 dbbc da34 463c
00000310: 9248 03bc 5c1a 9bbc 2eee f1bc 4913 aabc
00000320: f3e8 cb3b a3a3 b03b b8be 463c 8cc1 19b8
00000330: 0195 8ebb a567 55bc ea3d dd3c 3ff9 8b3c
00000340: 643c b7bb 57a0 36bc 31c1 6a3b b6c6 8bbc
00000350: 1f3f 093c 02c8 323c 3c89 883a 7691 89bb
00000360: 062b 403c 89cb c7bb a5ae 54bc 8e1d e7ba
00000370: e627 93bc 2949 e53b de8b c4bc f9d5 ad3c
00000380: 1629 a13c 5115 e03b 51b7 163c 3c9b 903c
00000390: b09e d73c 1688 f8bb 25fd 0dbc 55af 043c
000003a0: 2129 3e3b cdfe 0ebc 0c73 a7bc 9fec 5ebc
000003b0: c8e8 a73c c62e 8b3c 4f27 f0bb b9f1 0f3c
000003c0: 34eb ed3c 8d01 f8bc fafd 35bc f7f3 20bc
000003d0: edc6 8e3c e8df 863c ac0c 07bd 256f 773c
000003e0: 91e8 ecbb e11b f4bc c114 e13b 85d8 2c3d
000003f0: 6676 de3c 2250 7cbb 7a6a 05bd 881d 1b3c

encoder.encoder.1.0.bias f4 [64]
-0.014997823 -0.0012424912 0.0017288736 -0.013271013 0.015757881 -0.00667862 -0.0061906027 -0.0058656717
-0.0044193426 -4.6742032e-05 0.016250832 -0.001406198 -0.006384702 -0.006540221 -0.005862676 -0.012784943
0.0028260252 -0.011872273 -0.003881151 0.001557844 -0.0028778317 0.017288212 0.0024190948 -0.008062137
-0.015505537 -0.010384863 0.016446523 -0.017072948 -0.005355246 0.006330952 -0.011520658 -0.012439667
-0.015986973 -0.0077200937 -0.0005336096 0.011444001 0.00997996 -0.0054277657 0.004608698 0.013504291
0.0077140327 0.0074660843 -0.00826983 0.003161585 -0.0113994265 0.01632266 -0.014165438 0.014719492
-0.0005203444 0.015443178 0.0076613436 0.00094459386 0.0062413625 0.010584909 -0.004586391 -0.009574208
0.007247099 0.00021457487 -0.008765702 0.014661881 0.014318032 -0.011488303 -0.014952401 0.0034688262
00000000: 6eb9 75bc 16db a2ba 5f9b e23a aa6e 59bc
00000010: ac16 813c 53d8 dabb 8ada cabb d234 c0bb
00000020: 22d0 90bb e00c 44b8 7720 853c 2d50 b8ba
00000030: c336 d1bb 5a4f d6bb b11b c0bb f077 51bc
00000040: d634 393b ec83 42bc e95a 7ebb 9230 cc3a
00000050: 019a 3cbb 02a0 8d3c ad89 1e3b 0e17 04bc
00000060: f00a 7ebc 4625 2abc dcba 863c 91dc 8bbc
00000070: 0f7b afbb e073 cf3b 24c1 3cbc bfcf 4bbc
00000080: 1df7 82bc d7f8 fcbb efe1 0bba 9f7f 3b3c
00000090: fc82 233c 66db b1bb 9004 973b 1a41 5d3c
000000a0: ffc5 fc3b 0ea6 f43b 2e7e 07bc 9832 4f3b
000000b0: a9c4 3abc 19b7 853c 2716 68bc 062a 713c
000000c0: b967 08ba 6205 7d3c 020c fb3b 9f9e 773a
000000d0: 5884 cc3b 536c 2d3c 7049 96bb 24dd 1cbc
000000e0: 1379 ed3b 81ff 6039 059e 0fbc 6338 703c
000000f0: 2e96 6a3c 6f39 3cbc eafa 74bc 3f55 633b

encoder.encoder.1.1.weight f4 [64]
0.24441493 0.22814791 0.1722271 0.2321665 0.3322181 0.26061174 0.33975208 0.22248036
0.31653565 0.3379056 0.10376231 0.099949636 0.226857 0.15372622 0.2965407 0.25822598
0.33989465 0.1279534 0.31361467 0.39378616 0.19303222 0.24497886 0.28628844 0.23749185
0.059615966 0.12711723 0.30623555 0.08561352 0.2876554 0.4008558 0.16366638 0.042819444
0.08630842 0.29904333 0.17613533 0.3204949 0.00076888927 0.3454161 0.18087229 0.3824554
0.38153553 0.17441884 0.3032242 0.2871618 0.08761957 0.13206695 0.30957627 0.20872515
0.23447263 0.31376007 0.28868008 0.31238773 0.08937209 0.31093857 0.38154283 0.25112465
0.010039678 0.17969948 0.14571753 0.12391964 0.33067146 0.18738836 0.29729167 0.30829388
00000000: e847 7a3e 9b9f 693e 4d5c 303e 0ebd 6d3e
00000010: 7e18 aa3e e76e 853e fcf3 ad3e e4d1 633e
00000020: f610 a23e f601 ad3e 5681 d43d 65b2 cc3d
00000030: 344d 683e 686a 1d3e 2fd4 973e 3236 843e
00000040: ac06 ae3e 3706 033e 1a92 a03e 579e c93e
00000050: 3daa 453e bddb 7a3e 6694 923e 1031 733e
00000060: df2f 743d 052b 023e e8ca 9c3e 2456 af3d
00000070: 9247 933e f93c cd3e 2998 273e 7163 2f3d
00000080: 78c2 b03d 351c 993e d25c 343e e817 a43e
00000090: 498f 493a 61da b03e 9636 393e 32d1 c33e
000000a0: a058 c33e da9a 323e 3440 9b3e df06 933e
000000b0: e471 b33d 8f3c 073e c880 9e3e 0cbc 553e
000000c0: 9819 703e 29a5 a03e e0cd 933e 49f1 9f3e
000000d0: b708 b73d 5733 9f3e 9559 c33e 6993 803e
000000e0: 767d 243c 2403 383e fa36 153e 95c9 fd3d
000000f0: c54d a93e bce2 3f3e 9d36 983e b2d8 9d3e

encoder.encoder.1.1.bias f4 [64]
-0.06530261 0.0005012607 -0.020022944 -0.12029064 -0.11962917 -0.066843405 -0.11206236 -0.09054328
-0.083429106 -0.11753927 -0.037233155 -0.038781073 -0.0926804 -0.06818688 -0.068289496 -0.06928633
-0.06951559 -0.048419435 -0.049187545 -0.07597557 -0.11066262 -0.15234464 -0.17289782 -0.022837622
-0.042518806 -0.032767124 -0.009616663 -0.024702169 -0.080237634 -0.07583321 -0.0940271 -0.02964018
-0.03249116 -0.14268455 -0.12485832 -0.04199732 -0.0051155933 -0.1428004 -0.063063584 -0.20878242
-0.12474778 -0.013135358 -0.19554779 -0.093400955 -0.06305665 0.028523587 -0.094352655 -0.09465485
-0.110549405 -0.0673356 -0.05150495 -0.13215521 -0.043970574 -0.13378464 -0.106982976 -0.21554808
-0.0037482802 -0.07847379 -0.068640664 -0.06468559 -0.10267207 -0.11258855 -0.14275002 -0.08018209
00000000: 60bd 85bd 0967 033a 2807 a4bc f05a f6bd
00000010: 2300 f5bd 32e5 88bd f380 e5bd c16e b9bd
00000020: e1dc aabd 6eb8 f0bd cb81 18bd e7d8 1ebd
00000030: 39cf bdbd 90a5 8bbd 5ddb 8bbd fee5 8dbd
00000040: 315e 8ebd 7553 46bd e178 49bd 1499 9bbd
00000050: 15a3 e2bd 3c00 1cbe 200c 31be f715 bbbc
00000060: 3328 2ebd d236 06bd 358f 1dbc 345c cabc
00000070: a153 a4bd 714e 9bbd 4891 c0bd f6cf f2bc
00000080: 7315 05bd e61b 12be b8b5 ffbd 6205 2cbd
00000090: b5a0 a7bb 453a 12be 7b27 81bd 0fcb 55be
000000a0: c47b ffbd af35 57bc ae3d 48be 0049 bfbd
000000b0: d823 81bd 4caa e93c f73b c1bd 67da c1bd
000000c0: ba67 e2bd 3fe7 89bd dbf6 52bd b253 07be
000000d0: 7d1a 34bd d7fe 08be e419 dbbd a3b8 5cbe
000000e0: b5a5 75bb deb6 a0bd 7a93 8cbd e179 84bd
000000f0: bc45 d2bd d394 e6bd 102d 12be 8236 a4bd

encoder.encoder.1.1.running_mean f4 [64]
-0.19942985 -0.19391657 -0.16318311 -0.005479396 -0.45426285 -0.25254616 -0.3667608 -0.16830227
-0.37248313 -0.17378688 -0.013524951 -0.11326083 -0.12882951 -0.037110105 -0.22656637 -0.22796167
-0.26218057 -0.1643049 -0.24313724 -0.47395045 -0.08292426 0.078939445 -0.28470707 -0.20660137
0.018683432 -0.16605715 -0.167582 -0.018647604 -0.3338391 -0.33480674 -0.14113022 -0.050366182
0.01959913 -0.36263046 0.049826145 -0.24283999 0.0041151317 -0.3975923 -0.06820544 -0.3578132
-0.37145376 -0.13413094 -0.33462697 -0.19135305 -0.024739562 -0.046786014 -0.2078448 -0.08951287
-0.066565566 -0.30865574 -0.25628415 -0.18902485 0.03291173 -0.2946464 -0.41843858 -0.09935621
0.010595595 -0.11634074 0.01868395 0.1201095 -0.34463388 -0.09496036 -0.19365495 -0.19795273
00000000: 5737 4cbe 1192 46be 7919 27be 818c b3bb
00000010: 2495 e8be bb4d 81be 12c8 bbbe 6e57 2cbe
00000020: 1cb6 bebe 30f5 31be c297 5dbc 4bf5 e7bd
00000030: e2eb 03be c400 18bd 0401 68be c96e 69be
00000040: 883c 86be 8b3f 28be f8f8 78be a2a9 f2be
00000050: 32d4 a9bd 01ab a13d 20c5 91be 4f8f 53be
00000060: ff0d 993c e30a 2abe 9e9a 2bbe dcc2 98bc
00000070: f5ec aabe ca6b abbe 7184 10be c54c 4ebd
00000080: 5b8e a03c b3aa b9be 8016 4c3d 0cab 78be
00000090: 3ad8 863b 3891 cbbe 4baf 8bbd 4b33 b7be
000000a0: 302f bebe 9f59 09be 3a54 abbe 0ef2 43be
000000b0: 9faa cabc b1a2 3fbd 44d5 54be 8652 b7bd
000000c0: 8753 88bd 2008 9ebe ad37 83be bb8f 41be
000000d0: 73ce 063d e5db 96be 953d d6be 457b cbbd
000000e0: 2699 2d3c 0e44 eebd 150f 993c f8fb f53d
000000f0: da73 b0be 947a c2bd 7c4d 46be 1fb4 4abe

encoder.encoder.1.1.running_var f4 [64]
0.047756072 0.07585888 0.050566133 0.071266584 0.09321835 0.066015616 0.078298785 0.06611793
0.081419915 0.064888276 0.008252238 0.014237648 0.049102485 0.015390461 0.07682879 0.063986465
0.10868162 0.020086015 0.06159582 0.19770938 0.04827381 0.07714456 0.18395494 0.04866008
0.0054710614 0.012832742 0.042269778 0.007705642 0.07463598 0.21826036 0.03354007 0.0026718786
0.009660211 0.086695686 0.04023675 0.055746224 0.0018583068 0.14090717 0.031812783 0.19475974
0.20270178 0.013846041 0.11360883 0.05652852 0.013910077 0.007918238 0.10395138 0.035421643
0.078546636 0.12112029 0.053118117 0.20347662 0.008263272 0.09880611 0.1405674 0.05439362
0.0027086665 0.046668876 0.017353296 0.019373477 0.14913316 0.033902425 0.10813554 0.06881093
00000000: df9b 433d e75b 9b3d 6f1e 4f3d 37f4 913d
00000010: 43e9 be3d 3233 873d 1d5b a03d d668 873d
00000020: 7cbf a63d 25e4 843d 6534 073c 0645 693c
00000030: b01f 493d 4628 7c3c 6a58 9d3d 560b 833d
00000040: 7894 de3d 6d8b a43c e64b 7c3d 5474 4a3e
00000050: c2ba 453d f8fd 9d3d af5e 3c3e cb4f 473d
00000060: 9746 b33b 6c40 523c 1323 2d3d 9c7f fc3b
00000070: c0da 983d a57f 5f3e 5061 093d af1a 2f3b
00000080: dd45 1e3c 828d b13d 4acf 243d 2756 643d
00000090: 6e92 f33a f849 103e 1f4e 023d 196f 473e
000000a0: 0e91 4f3e 81da 623c bfab e83d 738a 673d
000000b0: 17e7 633c 7fbb 013c 76e4 d43d 4916 113d
000000c0: 0fdd a03d ea0d f83d 6292 593d 2d5c 503e
000000d0: ad62 073c dc5a ca3d e7f0 0f3e d8cb 5e3d
000000e0: e283 313b dd27 3f3d 8028 8e3c 20b5 9e3c
000000f0: 5db6 183e 45dd 0a3d 2a76 dd3d bfec 8c3d

encoder.encoder.2.0.weight f4 [64, 64, 3, 3]
0.021477375 -0.026526157 0.009167928 -0.0023943926 -0.014277487 0.016895974 -0.0032971813 -0.017533815
-0.021890642 -0.027709706 -0.012718891 -0.017456176 -0.001973513 -0.024507511 0.00621685 -0.0064492715
0.028346596 0.033330306 0.00766454 -0.014554766 -0.03516275 -0.019055055 -0.023378914 0.00994416
-0.0045153825 -0.0073103327 -0.017686127 -0.017130597 0.0035813416 0.0075457795 -0.03166097 0.004326692
-0.007681644 0.0009696192 -0.021475928 -0.021940624 0.025844846 -0.008158628 -0.013488101 0.025685478
0.026167568 0.005805475 0.004999472 0.013825772 0.0262224 -0.006145834 -0.0026001225 -0.0161221
-0.03164978 0.0051904274 0.002035299 -0.0056349793 -0.028466627 -0.0036521808 -0.0013984321 -0.0060221627
-0.0022640685 -0.0048745302 0.017598744 -0.010092577 0.02108884 0.0061789798 -0.018754793 -0.0073731034
-0.008140884 -0.021110004 -0.002326028 0.020495567 -0.0077500753 -0.019269109 -0.0055708666 0.021312304
-0.0025029692 0.023286857 -0.011768437 0.012324147 0.023217503 0.0029862293 0.014956994 0.007994551
0.0012777378 -0.026885116 -0.030249598 -0.03162009 -0.02711748 -0.003939581 0.037399165 -0.0032639166
0.03247061 0.020833008 0.012292528 -0.00854416 0.013544338 0.0054070875 0.014196802 0.019244615
-0.0020751185 -0.009713962 0.014858423 -0.0036999611 0.010449304 -0.002263334 -0.013841956 0.0058317934
0.0063298964 0.012781002 0.0075595104 -0.014545937 0.028716896 0.0055329218 0.027390428 0.011553246
-0.0041591553 -0.0031452626 -0.005743508 0.026410494 0.008907169 0.008831185 -0.0011682914 -0.008091079
0.0055906926 0.012476466 -0.02174068 -0.0005599983 -0.0116766635 -0.029590273 -0.031462148 -0.027040724
-0.017194433 -0.018597431 0.040948905 0.009015761 0.015221183 -0.01964655 -0.0053148908 0.007382585
-0.023673376 -0.017558109 0.0137431435 -0.00025983038 -0.018149907 0.015120568 0.014618493 -0.025253432
-0.029090917 0.04139239 0.04028548 0.0065544983 0.0011841551 -0.013747263 -0.016549466 0.0018445061
0.0015761838 0.0012863778 0.0018395245 -0.013380342 0.010277022 -0.0051975246 -0.014564127 -0.0051042414
0.0023387924 0.00020935049 0.026674822 -0.019523077 -0.012100549 0.029586468 -0.01788886 -0.00010660225
0.01995397 0.0065539484 -0.0430188 -0.02316106 -0.00477907 -0.03547711 -0.002771163 -0.02707037
-0.016071996 0.006492579 0.004626296 -0.030509224 0.0088263145 -0.01844937 -0.049389172 0.0036463467
-0.003183536 -0.035598908 0.016867366 -0.00067420624 -0.0044838893 -0.04966669 -0.026881484 0.006332641
-0.006222973 -0.021496924 -0.0060053184 -0.008632094 0.016605796 -0.041868016 0.005717773 -0.031330187
0.010933027 0.00975262 -0.009661875 0.0063783224 -0.0008678044 0.0051311 0.000799329 0.0019637598
0.013066836 -0.017402105 -0.009426009 0.02216753 -0.012342084 0.018540947 -0.0055190763 0.035861894
0.0038933074 -0.010832783 0.0022900132 0.009505419 0.011502475 0.01712785 0.0016175739 0.009721562
0.00075029244 -0.013148281 0.016128939 0.001139236 -0.008003803 -0.0019053431 0.015027732 0.02050675
-0.0015555723 0.019063096 0.037770957 0.000120773344 -0.04129604 0.021407275 0.01899291 0.0069197537
0.010733338 0.0045505282 -0.047152944 -0.017503656 -0.017521335 -0.016823925 -0.021384893 -0.012526777
-0.0113610625 -0.012548527 -0.006796229 0.016986208 0.010857311 0.019779807 -0.0151555175 0.015184927
00000000: 52f1 af3c 624d d9bc 1435 163c 3eeb 1cbb
00000010: 1fec 69bc 6d69 8a3c 8615 58bb 13a3 8fbc
00000020: 0154 b3bc 77ff e2bc e562 50bc 4100 8fbc
00000030: 0e56 01bb fac3 c8bc b8b6 cb3b 6954 d3bb
00000040: 1f37 e83c 5c85 083d d226 fb3b 1d77 6ebc
00000050: d106 10bd 5919 9cbc 2385 bfbc d4ec 223c
00000060: c6f5 93bb 848b efbb 7fe2 90bc 7755 8cbc
00000070: f1b4 6a3b 9642 f73b efae 01bd ecc6 8d3b
00000080: 4db6 fbbb 0b2e 7e3a 49ee afbc d3bc b3bc
00000090: 92b8 d33c c4ab 05bc 32fd 5cbc 5a6a d23c
000000a0: 5e5d d63c db3b be3b 9cd2 a33b 7e85 623c
000000b0: 5cd0 d63c fe62 c9bb d166 2abb 7f12 84bc
000000c0: 33a3 01bd 7614 aa3b a762 053b a2a5 b8bb
000000d0: d832 e9bc 6d59 6fbb 984b b7ba 9055 c5bb
000000e0: c460 14bb 86ba 9fbb 3e2b 903c 565b 25bc
000000f0: 81c2 ac3c 0a79 ca3b a7a3 99bc 139a f1bb
00000100: 5861 05bc e3ee acbc 4670 18bb 52e6 a73c
00000110: 58f4 fdbb 40da 9dbc d18b b6bb 2497 ae3c
00000120: db08 24bb 14c4 be3c 67d0 40bc 38eb 493c
00000130: a232 be3c 9db4 433b 2e0e 753c 94fb 023c
00000140: c479 a73a 2d3e dcbc 01ce f7bc 1184 01bd
00000150: 7a25 debc 9a17 81bb de2f 193d 6fe7 55bb
00000160: e7ff 043d fca9 aa3c 9966 493c cefc 0bbc
00000170: 12e9 5d3c f02d b13b b499 683c e2a6 9d3c
00000180: b6fe 07bb 4f27 1fbc be70 733c 0c7b 72bb
00000190: 8f33 2b3c 7254 14bb 5fc9 62bc a118 bf3b
000001a0: 056b cf3b 6867 513c c5b5 f73b 1552 6ebc
000001b0: b23f eb3c 834d b53b e461 e03c d349 3d3c
000001c0: 8649 88bb c020 4ebb 0a34 bcbb d25a d83c
000001d0: 60ef 113c adb0 103c 5b21 99ba 7290 04bc
000001e0: 2132 b73b 176a 4c3c 8319 b2bc dacc 12ba
000001f0: 7a4f 3fbc 4d67 f2bc 74de 00bd 8284 ddbc
00000200: 57db 8cbc a459 98bc 0aba 273d d8b6 133c
00000210: 4562 793c cdf1 a0bc 8928 aebb 9de9 f13b
00000220: abee c1bc 06d6 8fbc ec2a 613c d839 88b9
00000230: 1daf 94bc 42bc 773c 6782 6f3c 49e0 cebc
00000240: 1350 eebc 118b 293d 6302 253d 1ec7 d63b
00000250: a735 9b3a 333c 61bc bf92 87bc 5bc3 f13a
00000260: f497 ce3a ad9b a83a 331c f13a 3939 5bbc
00000270: f460 283c ff4f aabb 609e 6ebc 7b41 a7bb
00000280: 6d46 193b 1885 5b39 2885 da3c dcee 9fbc
00000290: 6241 46bc 525f f23c a98b 92bc a68f dfb8
000002a0: 8276 a33c 81c2 d63b 7b34 30bd 43bc bdbc
000002b0: bf99 9cbb 7250 11bd 669c 35bb aec2 ddbc
000002c0: 6ba9 83bc b3bf d43b 2f98 973b 7bee f9bc
000002d0: 3f9c 103c 2223 97bc 4d4c 4abd 8cf7 6e3b
000002e0: dfa2 50bb 29d0 11bd 6e2d 8a3c 37bd 30ba
000002f0: 97ed 92bb 4d6f 4bbd 8f36 dcbc 0b82 cf3b
00000300: 15ea cbbb 511a b0bc 43c8 c4bb a06d 0dbc
00000310: e108 883c cc7d 2bbd 285c bb3b 1554 00bd
00000320: 7020 333c 74c9 1f3c d74c 1ebc 3f01 d13b
00000330: 5e7d 63ba c922 a83b 108a 513a 6cb2 003b
00000340: 4816 563c dc8e 8ebc 8c6f 1abc ae98 b53c
00000350: 7436 4abc 2fe3 973c 5ed9 b4bb ece3 123d
00000360: dc26 7f3b fc7b 31bc 0c14 163b 9ebc 1b3c
00000370: e074 3c3c b44f 8c3c c604 d43a 3047 1f3c
00000380: 46af 443a e36b 57bc d620 843c 6b52 953a
00000390: 6222 03bc b5bc f9ba e036 763c c6fd a73c
000003a0: 58e4 cbba 362a 9c3c b8b5 1a3d b247 fd38
000003b0: 0926 29bd 4f5e af3c 0597 9b3c 1abf e23b
000003c0: e2da 2f3c 991c 953b 7223 41bd d463 8fbc
000003d0: e788 8fbc 54d2 89bc 5f2f afbc 1c3d 4dbc
000003e0: c023 3abc 5698 4dbc e7b2 debb a926 8b3c
000003f0: dde2 313c 4309 a23c d94e 78bc 33ca 783c

encoder.encoder.2.0.bias f4 [64]
0.0022976857 -0.00070518826 0.0023146383 -0.01541957 -0.00035154354 -0.005179536 -0.0074410816 0.001180982
0.007071633 -0.012360873 -0.01482548 -0.002180467 -0.0135724945 0.010575238 -0.010208616 -0.008663321
-0.013787915 -0.0045065023 -0.004797442 0.0069975443 -0.017479882 0.0116136465 0.009138752 -0.016671808
0.011342413 -0.010774997 0.0050047566 -0.0112823965 -0.017382685 -0.01068292 0.009173994 0.009893144
0.0006335314 -0.01333716 -0.014881285 -0.0016555802 -0.01592121 -0.012454587 0.012863967 0.0071823993
-0.009345944 0.0008279757 -0.007146111 0.0006330575 0.017083956 -0.014062203 0.010413829 0.0013561302
-0.0064702835 -0.011910707 -0.0041609253 -0.0091565745 -0.016791191 0.011817122 -0.014271401 -0.0040572225
-0.012534946 0.004212036 -0.00069706334 -0.006294665 0.004883927 0.0054284423 0.0013039198 0.012843061
00000000: c594 163b 62dc 38ba 30b1 173b 5da2 7cbc
00000010: 604f b8b9 19b9 a9bb 51d4 f3bb 2ecb 9a3a
00000020: 28b9 e73b 4285 4abc 92e6 72bc 2ae6 0ebb
00000030: 2b5f 5ebc c343 2d3c 0a42 27bc 9af0 0dbc
00000040: b5e6 61bc 48ab 93bb dc33 9dbb a84b e53b
00000050: f831 8fbc 2a47 3e3c b4ba 153c 5193 88bc
00000060: 87d5 393c 9d89 30bc f1fe a33b cdd9 38bc
00000070: 2266 8ebc 6a07 2fbc 854e 163c da16 223c
00000080: 9313 263a 1b84 5abc a2d0 73bc 0e00 d9ba
00000090: 336d 82bc 530e 4cbc 63c3 523c 555a eb3b
000000a0: bb1f 19bc 820c 593a ed29 eabb c5f3 253a
000000b0: a7f3 8b3c 2765 66bc c49e 2a3c 2ec0 b13a
000000c0: ac04 d4bb 2025 43bc 5f58 88bb 7505 16bc
000000d0: ae8d 89bc 9a9c 413c 98d2 69bc 73f2 84bb
000000e0: 605f 4dbc 1e05 8a3b 21bb 36ba 7a43 cebb
000000f0: 5909 a03b 13e1 b13b 4ae8 aa3a b46b 523c

encoder.encoder.2.1.weight f4 [64]
0.24631557 0.052490428 0.0744235 0.31495357 0.28895277 0.29987273 0.35029614 0.13593835
0.28472686 0.24391732 0.2120345 0.33969563 0.28691733 0.34878242 0.31963396 0.30522805
0.20416929 0.15761463 0.37451488 0.1659283 0.06913382 0.21917365 0.36081478 0.13758664
0.094526105 0.24638434 0.053964604 0.3161626 0.3181583 0.20820907 0.34714183 0.13190219
0.28684947 0.20052029 0.34960312 0.20178783 0.26217672 0.11531366 0.121128246 0.00020559313
0.23902294 0.26534387 0.20224346 0.0927995 0.34209523 0.26084244 0.21550244 0.050103866
0.38617626 0.099588215 0.24434534 0.27712432 0.33072397 0.33822405 0.3494394 0.39255875
0.10399016 0.32767436 0.26213187 0.04703183 0.04811841 0.27719808 0.2602651 0.2509815
00000000: 263a 7c3e 3400 573d 596b 983d 9841 a13e
00000010: 9ef1 933e eb88 993e 045a b33e 6c33 0b3e
00000020: b8c7 913e 76c5 793e 921f 593e 96ec ad3e
00000030: d4e6 923e 9c93 b23e 10a7 a33e da46 9c3e
00000040: c111 513e bb65 213e 6ac0 bf3e 1ce9 293e
00000050: 0896 8d3d 0f6f 603e b7bc b83e 83e3 0c3e
00000060: e796 c13d 2d4c 7c3e fd09 5d3d 10e0 a13e
00000070: a5e5 a23e c234 553e 93bc b13e 5e11 073e
00000080: efdd 923e 3155 4d3e 2eff b23e 78a1 4e3e
00000090: 073c 863e 9129 ec3d 1612 f83d 7c94 5739
000000a0: 6ec2 743e 27db 873e e918 4f3e aa0d be3d
000000b0: 1b27 af3e 248d 853e acac 5c3e b639 4d3d
000000c0: e5b8 c53e e8f4 cb3d aa35 7a3e 3de3 8d3e
000000d0: a754 a93e b42b ad3e b9e9 b23e 76fd c83e
000000e0: cbf8 d43d efc4 a73e 2636 863e 73a4 403d
000000f0: cf17 453d e8ec 8d3e 7841 853e a680 803e

encoder.encoder.2.1.bias f4 [64]
-0.018776221 0.0127678 -0.025198942 -0.051748347 -0.013620615 -0.12826632 -0.1196086 -0.1074841
-0.32132408 -0.21386689 -0.059146672 -0.09013101 -0.123980224 -0.046354033 -0.100120455 -0.06914556
-0.052470278 -0.029024223 -0.07295222 -0.15601455 -0.03951743 -0.12967768 -0.058096826 -0.045948572
-0.003582978 -0.0033599685 -0.04337262 0.010320524 -0.117795125 0.034997925 -0.15621331 0.007154159
-0.21127939 -0.014446532 -0.10521757 -0.036805287 -0.035718713 -0.015178615 0.0014572585 -0.0010863101
-0.13236666 -0.024749199 -0.07606344 0.005436584 -0.16593102 -0.033275038 0.0004938582 -0.013796866
-0.12815861 -0.0447888 -0.081967175 -0.04707811 -0.026548138 -0.041024957 -0.12163895 -0.3267689
0.005482984 -0.102780886 -0.23184855 -0.019052867 -0.01243293 -0.05053375 -0.15121818 -0.19397897
00000000: 97d0 99bc 0930 513c 036e cebc 13f6 53bd
00000010: 0029 5fbc 3f58 03be 5bf5 f4bd a020 dcbd
00000020: 9784 a4be ecff 5abe c843 72bd 9b96 b8bd
00000030: 58e9 fdbd badd 3dbd f40b cdbd 309c 8dbd
00000040: 13eb 56bd 35c4 edbc f967 95bd 47c2 1fbe
00000050: 07dd 21bd 3aca 04be f0f6 6dbd 9234 3cbd
00000060: 65d0 6abb eb32 5cbb 7da7 31bd 6a17 293c
00000070: 923e f1bd fc59 0f3d 62f6 1fbe 6f6d ea3b
00000080: a059 58be 26b1 6cbc 4f7c d7bd 24c1 16bd
00000090: c94d 12bd baaf 78bc 7b01 bf3a 8562 8eba
000000a0: 208b 07be d5be cabc 26c7 9bbd 5f25 b23b
000000b0: d2e9 29be 684b 08bd 4376 013a 400c 62bc
000000c0: 033c 03be 7674 37bd 68de a7bd fad4 40bd
000000d0: 7b7b d9bc c909 28bd d81d f9bd 414e a7be
000000e0: 9aaa b33b c97e d2bd b569 6dbe c214 9cbc
000000f0: 7db3 4bbc 7afc 4ebd f0d8 1abe 6ca2 46be

encoder.encoder.2.1.running_mean f4 [64]
-0.110621534 -0.08330773 -0.025827253 -0.12040184 -0.11056837 -0.32618234 -0.20212848 -0.08785055
-0.08972731 -0.028091265 0.037790664 -0.11933035 -0.2477482 -0.11495522 -0.23159645 -0.18240042
-0.20327172 -0.10375894 -0.19356531 0.0005959857 -0.0665386 -0.11415906 -0.16998589 -0.1294378
-0.0072371815 -0.05236682 0.055998817 -0.1359954 -0.13104627 -0.15364946 -0.07499889 -0.038459893
-0.21888618 -0.045762762 -0.116931394 -0.046007413 -0.12870581 -0.0785993 -0.08485239 -0.007542081
-0.23518188 -0.06582296 -0.17018275 -0.027101435 -0.33955914 -0.081311665 -0.03761886 -0.011611022
-0.30915207 0.042243365 -0.050723653 -0.13256834 -0.22101441 -0.16535062 -0.24239416 -0.40165198
-0.059093926 -0.2572037 -0.14584103 0.027849767 -0.06747941 -0.014203583 -0.07298278 -0.12493691
00000000: 8b8d e2bd 3e9d aabd ad93 d3bc 3d95 f6bd
00000010: ab71 e2bd 5f01 a7be c5fa 4ebe fdea b3bd
00000020: f4c2 b7bd a71f e6bc 62ca 1a3d 7863 f4bd
00000030: b4b1 7dbe a46d ebbd 9f27 6dbe 2dc7 3abe
00000040: 7626 50be 917f d4bd fc35 46be ec3b 1c3a
00000050: 6445 88bd 3acc e9bd c810 2ebe 588b 04be
00000060: e125 edbb 977e 56bd 045f 653d 6142 0bbe
00000070: fe30 06be 4956 1dbe 0599 99bd 1f88 1dbd
00000080: b323 60be bc71 3bbd ba79 efbd 4572 3cbd
00000090: 75cb 03be abf8 a0bd 17c7 adbd 9023 f7bb
000000a0: 85d3 70be 30ce 86bd 6344 2ebe d403 debc
000000b0: b2da adbe bb86 a6bd 3c16 1abd 283c 3ebc
000000c0: 2e49 9ebe 6107 2d3d 9bc3 4fbd ffbf 07be
000000d0: 9a51 62be ac51 29be 2d36 78be 54a5 cdbe
000000e0: 790c 72bd 34b0 83be 5a57 15be 3225 e43c
000000f0: a532 8abd 25b6 68bc ff77 95bd ecde ffbd

encoder.encoder.2.1.running_var f4 [64]
0.011199569 0.0030370478 0.0017063323 0.016907468 0.014569046 0.02474497 0.021931391 0.011520434
0.024340453 0.028275143 0.03943387 0.029373579 0.023591097 0.023807423 0.032073863 0.017406981
0.013959288 0.0049969093 0.026640408 0.0062527917 0.0016478531 0.013157244 0.025500726 0.006847844
0.0018328053 0.009728386 0.0016988569 0.021859095 0.013942807 0.011573647 0.045643844 0.0028870944
0.024232363 0.008013537 0.03751238 0.012293512 0.01976312 0.0052210074 0.007800318 0.0010398402
0.025709905 0.009415829 0.026952446 0.0018739868 0.045177247 0.013246247 0.0051683127 0.0011253931
0.03363969 0.0022445193 0.013112175 0.0142557975 0.036636986 0.032111105 0.026602224 0.06107009
0.0029098329 0.03769656 0.028230455 0.0012605978 0.0017157377 0.014345109 0.03106709 0.02323526
00000000: 667e 373c 3509 473b 03a7 df3a 8881 8a3c
00000010: 02b3 6e3c f7b5 ca3c 76a9 b33c 34c0 3c3c
00000020: a165 c73c 46a1 e73c 6985 213d dca0 f03c
00000030: 1e42 c13c c907 c33c e25f 033d 1699 8e3c
00000040: 7fb5 643c 1dbd a33b fc3c da3c 38e4 cc3b
00000050: c6fc d73a 7b91 573c e6e6 d03c e163 e03b
00000060: be3a f03a cf63 1f3c 2eac de3a d811 b33c
00000070: 5f70 643c 659f 3d3c 0af5 3a3d 6835 3d3b
00000080: f382 c63c 364b 033c 95a6 193d ba6a 493c
00000090: 44e6 a13c fc14 ab3b cf99 ff3b 3f4b 883a
000000a0: 949d d23c d944 1a3c 60cb dc3c 90a0 f53a
000000b0: c70b 393d c906 593c f35a a93b ed81 933a
000000c0: c6c9 093d c918 133b 73d4 563c 2691 693c
000000d0: aa10 163d ef86 033d e8ec d93c a124 7a3d
000000e0: e5b2 3e3b b567 1a3d 8e43 e73c a53a a53a
000000f0: 9be2 e03a c007 6b3c 6980 fe3c df57 be3c

encoder.encoder.3.0.weight f4 [64, 64, 3, 3]
-0.024517298 -0.024686264 -0.016124414 -0.012488112 -0.0010866785 0.015468384 -0.016069084 0.018478533
-0.008982471 -0.009614583 -0.004420309 0.0160067 -0.009651829 0.015237281 0.010903708 0.00080977054
-0.0069160685 -0.0032529335 -0.0050070966 -0.018800655 0.014326854 -0.005060153 0.0031574066 0.01117178
-0.009708651 0.0143335285 -0.007949611 0.040644076 0.032086942 0.008758291 0.057683572 -0.009199385
-0.011125528 0.010516187 -0.02720226 0.013975392 0.029717224 -0.0026706387 -0.020974644 0.018046653
-0.0019219855 0.012602012 -0.009381911 0.010033793 -0.013574405 -0.015163313 0.01577166 -0.00535345
-0.016710749 -0.0010624306 -0.006020692 -0.021045335 0.00656161 -0.0010951341 0.00849023 0.022404822
-0.00012708118 -0.031022528 0.0017181973 0.01795553 0.0111152865 0.029193236 0.016976159 0.0038617365
0.0068966723 0.015474977 0.011974659 0.006626839 -0.019060086 -0.004970576 0.0057269614 -0.0021597596
-0.0053262883 0.0041192323 -0.008298646 -0.016986158 -0.020563835 -0.013019981 -0.024135372 -0.013888139
-0.025423408 0.011000308 0.0018490201 -0.0051384526 0.012470403 0.00956689 -0.02156586 -0.014276244
0.00409863 0.014921752 -0.010931494 0.003948912 -0.035884947 -0.0062446813 -0.012247692 -0.025222339
-0.01559547 -0.020621687 -0.019440738 -0.0009975416 -0.010155618 0.0056195958 0.017396597 0.0129264705
-0.017110288 0.015249596 0.019648997 -0.005717106 0.0041272957 0.0047927843 0.0017349963 -0.0128832515
-0.0007032946 -0.012695332 0.0026482733 0.0046414523 -0.0031198945 0.032857165 0.0073757884 0.024761716
0.0395792 0.030845243 0.010544965 -0.03953975 -0.011144099 -0.012380035 0.0005916606 0.013414758
-0.011164003 -0.022946572 -0.004974702 -0.009503924 -0.025183924 -0.020216012 -0.025163343 -0.02559931
0.006228517 -0.007492507 0.014707793 0.026208542 0.0054355646 -0.0038242557 -0.006791004 -0.007690172
-0.0045576487 0.01349425 -0.0033872442 -0.019368643 0.0008193344 -0.016041696 -0.012421742 -0.00082767656
6.796069e-05 -0.005418663 -0.019782236 -0.015840203 -0.018615372 0.0049253586 0.005900216 -0.02169166
0.005049901 -0.017626673 0.00393284 0.00057380047 -0.024152778 0.013191422 0.018812444 -0.0017348921
-0.008011424 0.005225863 -0.021309761 -0.0138902115 0.0017235297 -0.010115088 -0.007633553 0.008355001
-0.008177084 -0.025546866 -0.012403053 -0.00071976025 0.013949827 -0.008927577 -0.0026685693 0.011263582
9.226575e-05 -0.011535319 -0.004249376 -0.0046586264 0.009651734 -0.0039337836 -0.012947462 -0.0032861736
0.018829416 0.012903089 -0.010018103 0.032353584 0.011984928 0.01146701 -0.0012986676 -0.029000854
0.0070862724 0.014694701 -0.010090265 0.019255804 0.0168751 0.010696219 0.008827606 -0.022056356
-0.002357878 -0.02017656 -0.013938091 0.0017663481 -0.01123023 -0.0025725588 0.010343622 -0.0055537163
0.020868134 0.0112953065 0.004530797 0.0025769877 0.013087747 -0.0043206946 0.003559261 -0.0071497937
0.005080068 -0.015761862 -0.022165969 -0.022535333 -0.008021145 0.009885597 -0.01336669 -0.009175009
-0.011064978 -0.005342867 0.011394026 -0.012654617 -0.0074301213 0.0024957447 -0.012103326 -0.012702718
-0.010648112 0.0015775037 0.0038418935 -0.018968329 0.00949182 -0.020341933 -0.007967613 0.009840214
0.0025145295 -0.008010432 0.026742289 0.0067814277 -0.015732441 -0.029926788 -0.0071334015 0.015489227
00000000: 80d8 c8bc d93a cabc 5917 84bc f09a 4cbc
00000010: e16e 8eba 1b6f 7d3c 50a3 83bc 4b60 973c
00000020: 372b 13bc 7c86 1dbc 3dd8 90bb 7c20 833c
00000030: b422 1ebc caa5 793c 77a5 323c c846 543a
00000040: 30a0 e2bb 2b2f 55bb 9212 a4bb d503 9abc
00000050: 2ebb 6a3c a4cf a5bb 7eec 4e3b d709 373c
00000060: 0911 1fbc 2dd7 6a3c 163f 02bc 677a 263d
00000070: 996d 033d ef7e 0f3c 9c45 6c3d 04b9 16bc
00000080: d947 36bc 164c 2c3c 46d7 debc 0bf9 643c
00000090: 8971 f33c e205 2fbb 04d3 abbc 93d6 933c
000000a0: 22eb fbba ab78 4e3c 96b6 19bc c764 243c
000000b0: 2e67 5ebc 8b6f 78bc 9133 813c fe6b afbb
000000c0: fbe4 88bc 4141 8bba 3a49 c5bb 4467 acbc
000000d0: c602 d73b 9a8a 8fba 9b1a 0b3c 518a b73c
000000e0: 1841 05b9 f522 febc 2235 e13a 7a17 933c
000000f0: e41c 363c a726 ef3c 9611 8b3c 3015 7d3b
00000100: 7bfd e13b c28a 7d3c 5c31 443c f425 d93b
00000110: e623 9cbc 37e0 a2bb 3ca9 bb3b c18a 0dbb
00000120: 2588 aebb a0fa 863b 0bf7 07bc 8e26 8bbc
00000130: 7d75 a8bc c251 55bc 8bb7 c5bc 148b 63bc
00000140: c044 d0bc a33a 343c d25a f23a 7760 a8bb
00000150: a950 4c3c 72be 1c3c e3aa b0bc e8e6 69bc
00000160: cd4d 863b 5d7a 743c 021a 33bc e065 813b
00000170: 18fc 12bd 2fa0 ccbb 8baa 48bc 149f cebc
00000180: 2484 7fbc d0ee a8bc 2f42 9fbc f1bf 82ba
00000190: c063 26bc 9624 b83b 4f83 8e3c 8cc9 533c
000001a0: e02a 8cbc 71d9 793c eff6 a03c 9056 bbbb
000001b0: 443e 873b ca0c 9d3b d168 e33a 4614 53bc
000001c0: 4d5d 38ba 1500 50bc a78e 2d3b 5317 983b
000001d0: 2577 4cbb 3c95 063d 99b0 f13b 15d9 ca3c
000001e0: cd1d 223d 2aaf fc3c cac4 2c3c 6ff4 21bd
000001f0: bd95 36bc a1d5 4abc ac19 1b3a 93c9 5b3c
00000200: 39e9 36bc 73fa bbbc d302 a3bb 59b6 1bbc
00000210: 844e cebc 0d9c a5bc 5b23 cebc a5b5 d1bc
00000220: 9618 cc3b b483 f5bb f4f8 703c 4cb3 d63c
00000230: d21c b23b 5da0 7abb 1287 debb d7fd fbbb
00000240: 5458 95bb fd16 5d3c 87fc 5dbb fdaa 9ebc
00000250: 9ac8 563a e069 83bc 9084 4bbc 6ff8 58ba
00000260: 1e86 8e38 0a8f b1bb 5b0e a2bc 50c3 81bc
00000270: 447f 98bc e764 a13b 9956 c13b b5b2 b1bc
00000280: a479 a53b d065 90bc 0edf 803b 196b 163a
00000290: 0cdc c5bc d620 583c 8e1c 9a3c 5265 e3ba
000002a0: 5942 03bc b73d ab3b cf91 aebc c593 63bc
000002b0: 0fe8 e13a c1b9 25bc e222 fabb 6ae3 083c
000002c0: 2df9 05bc a947 d1bc 2d36 4bbc 4bae 3cba
000002d0: d18d 643c f944 12bc 2ae3 2ebb e38a 383c
000002e0: cc7e c138 a2fe 3cbc 593e 8bbb 64a7 98bb
000002f0: 4e22 1e3c f8e6 80bb 9721 54bc d85c 57bb
00000300: 2640 9a3c 7a67 533c f822 24bc 3185 043d
00000310: 6e5c 443c 20e0 3b3c 0e38 aaba 3393 edbc
00000320: f633 e83b 0bc2 703c a451 25bc 59be 9d3c
00000330: a63d 8a3c 323f 2f3c aaa1 103c 88af b4bc
00000340: a186 1abb 5049 a5bc 975c 64bc cf84 e73a
00000350: 00ff 37bc 6098 28bb 4c78 293c f3fb b5bb
00000360: a6f3 aa3c f30f 393c 1477 943b aee2 283b
00000370: fd6d 563c 9d94 8dbb 7e42 693b d148 eabb
00000380: b376 a63b 051f 81bc 6895 b5bc 059c b8bc
00000390: 1f6b 03bc 33f7 213c f6ff 5abc c752 16bc
000003a0: e249 35bc 3813 afbb 02ae 3a3c 5055 4fbc
000003b0: 6078 f3bb a68f 233b 074d 46bc 101f 50bc
000003c0: 6b75 2ebc 3ec4 ce3a 47c8 7b3b 7863 9bbc
000003d0: 9483 1b3c 20a4 a6bc 978a 02bc d938 213c
000003e0: ceca 243b 303e 03bc a512 db3c bd36 de3b
000003f0: 52e1 80bc 0629 f5bc 4fbf e9bb 87c6 7d3c
